result/29_model_1.pth (torch, 307183 bytes, 8 tensors)

net.0.weight f4 [20, 1, 4, 4]
000000 ae 21 92 39 b0 de 1f be a0 0c 6f bd de b7 17 be
       0.00027872383 -0.15612292 -0.05836165 -0.14816234
000010 e3 ff ee bd 1d 21 15 bd 73 88 81 3c 29 98 8a bd
       -0.116699 -0.036408532 0.015812134 -0.067673035
000020 cf 47 bd bc 6f 32 96 bd b0 4a be bd 52 9c ac 3d
       -0.02310553 -0.07333838 -0.09291589 0.08428253
000030 aa 12 a2 3d c7 2d e4 bd 3b ff 12 bc c0 32 a0 bd
       0.07913716 -0.11141544 -0.0089719845 -0.0782218
000040 60 e2 c5 3d 2e 1e 23 bd f0 47 32 3c c5 8d 94 bd
       0.09662318 -0.039823703 0.010881409 -0.07253603
000050 e3 68 1e be c4 cb 6c 3d 6c 6c a6 3d 75 4f 07 be
       -0.15469699 0.057811514 0.081261486 -0.13213904
000060 68 d4 05 be 6a bf 89 bd d4 94 1f be 35 6b 3b bd
       -0.13069308 -0.067259625 -0.15584117 -0.045756537
000070 9b dc 9d 3d 4e 6d 81 bd 8c 59 0b be e4 6e b5 bd
       0.07708093 -0.06319676 -0.13608378 -0.08859041
000080 7c ff da bc 22 97 04 be 54 3a 22 be 11 4f ce 3b
       -0.026733153 -0.12948278 -0.15842563 0.0062960465
000090 db b8 09 be ec 1a 1b be de 28 30 be 2e 5b 82 3b
       -0.13449423 -0.15146989 -0.1720309 0.0039781546
0000a0 e5 6b 85 3d f0 f4 72 3c 45 59 4a 3e a9 01 ef 3b
       0.0651472 0.014828905 0.19760616 0.007293899
0000b0 e8 1d 65 3e 53 88 4d 3e f0 cf 9d 3b d2 9f 03 3e
       0.2237469 0.20071535 0.004816048 0.12853935
0000c0 e9 34 cc bc 9a 25 ca 3d d5 41 34 bd aa da b6 3d
       -0.024927573 0.09870453 -0.044008095 0.089284256
0000d0 96 fa a8 3d 9d 37 51 3d b4 7b a6 bd 68 a2 f9 bd
       0.082509205 0.051078428 -0.08129063 -0.1218918
0000e0 4d 9a 4b bb ce a4 77 bd f1 6d c2 bd a9 97 e4 3c
       -0.0031067312 -0.060459904 -0.09493626 0.027904348
0000f0 fe 63 9f bd e3 ec fd bd 6e df 18 be a8 00 cd bd
       -0.07782744 -0.12398698 -0.14928982 -0.10009891
000100 d4 74 0c be 2a 4d c4 bd 6b b7 92 bc c4 d4 2e 3d
       -0.13716441 -0.095850304 -0.017909726 0.042683378
000110 8b dd 26 bd 96 3b c5 bd 9f 7b 25 3d e7 6c 4e 3e
       -0.040738624 -0.09630506 0.040401097 0.2015873
000120 a1 21 09 be d8 88 1a be cd 15 3d 3e 73 be 61 3d
       -0.13391735 -0.15091264 0.18465348 0.055113267
000130 5c 57 bc bd 96 57 a8 3c 22 ce 0c 3e d8 dd d4 3d
       -0.0919635 0.020549577 0.13750508 0.10393876
000140 bf fc 76 3e 3a 24 81 3c 9c 21 92 bd f1 5a 9e bd
       0.24119852 0.015764344 -0.07135317 -0.077321894
000150 60 92 87 3e 2d 4c 4d bd 54 20 5e be 4e 18 17 be
       0.26478863 -0.050121475 -0.2169202 -0.14755365
000160 1b 6e 49 3e 7b a3 d6 bc 7d 24 18 3d 48 82 81 3d
       0.19670908 -0.026201 0.037144173 0.06323677
000170 13 54 71 bc 3a c7 a9 3d d2 73 21 3b 70 4e 2c be
       -0.0147295175 0.082899526 0.0024635685 -0.16826797
000180 2a 3d 83 3d 03 53 ba 3d f6 3c 3f be 14 52 ac bd
       0.064081505 0.090978645 -0.18675599 -0.08414093
000190 36 71 fa 3c fe e6 28 3e 18 35 12 be d0 2d 18 be
       0.030571561 0.16494367 -0.14278066 -0.14861226
0001a0 1f 23 aa 3d 90 a2 2d 3b 90 13 e1 bc 24 d6 0d 3d
       0.0830748 0.00264946 -0.027475148 0.03462805
0001b0 d2 e4 72 3e 09 81 64 3e d5 a0 c1 bd 24 c6 2f be
       0.237201 0.22314848 -0.094545044 -0.17165428
0001c0 5c 56 cc 3d aa 2b 49 3e e8 15 80 3e 2f 93 fb 3d
       0.09977409 0.19645563 0.25016713 0.122839324
0001d0 f2 46 18 be 31 df 3a bd e6 1c 38 3e 3b 6c 00 3e
       -0.14870813 -0.04562301 0.17979774 0.12541287
0001e0 89 5b 7b be 12 8c 05 be 37 46 4d 3d e7 cb 3c 3e
       -0.24546637 -0.13041714 0.05011579 0.18437158
0001f0 ed 9e 73 be 99 0f 6c be c5 e4 e9 bc 69 26 a5 3d
       -0.23791094 -0.23052825 -0.028551469 0.08063967
000200 d0 eb 04 3e 29 19 2f 3b a7 64 b1 3d ce 1c b3 bd
       0.1298058 0.0026717877 0.08661776 -0.087457284
000210 55 4a b1 bd db 31 e6 bd 6e 7e 0e be 6a ef 2e be
       -0.08656756 -0.11239978 -0.13915417 -0.17083517
000220 f5 73 1b be ba f1 bb 3b 0e 3f 5e bd f6 5a c8 3d
       -0.15180953 0.005735603 -0.054259352 0.097829744
000230 57 30 9a 3d e4 5e b2 3d 4a 5d 1e 3d a8 13 97 bd
       0.07528751 0.08709505 0.038663186 -0.07376796
000240 e9 a5 3e be 31 26 7b be 52 bc 1e 3d a8 64 65 3e
       -0.18617977 -0.24526288 0.038753815 0.22401679
000250 fc 0e a7 bd fa 74 41 be 6b 10 9e 3d 30 ef 3d 3e
       -0.08157155 -0.1889228 0.07717975 0.18548274
000260 b3 cd 57 bd 2d b4 18 be 0c c4 a6 3d da 1a 6d 3e
       -0.052686404 -0.14912482 0.08142862 0.23154774
000270 5b 3d b1 3c ca 6a f8 bc 9f 63 3f 3e 2b ed b1 bc
       0.021635702 -0.030324358 0.18690346 -0.021719536
000280 ee b8 31 3e 7c 70 0a 3e fc 64 cb bd 5e 18 51 be
       0.17355701 0.13519472 -0.099313706 -0.20419452
000290 95 bc fc 3d 15 fd 13 3e 88 ae 0b 3e ca 58 cb bd
       0.12340657 0.14452012 0.13640797 -0.099290445
0002a0 08 e3 8b bc 02 6b 55 3e 9a 83 6f 3e ea 1c 3f 3e
       -0.01707603 0.20841601 0.23390046 0.18663374
0002b0 5b 42 ca bd f6 20 07 be c5 fc e1 3d 77 20 88 3e
       -0.098759376 -0.13196167 0.1103454 0.2658727
0002c0 41 52 b3 bd af cb ce bd 94 cb 25 be 4d e7 c3 bd
       -0.08755923 -0.10097443 -0.1619094 -0.095656015
0002d0 6c a6 03 be 6e f5 79 bc be b2 ae 3c 47 7e 1c 3e
       -0.12856454 -0.015256269 0.021325465 0.15282546
0002e0 9b 89 20 be e7 16 3b 3c f6 e8 2a 3e cb 7d 1c 3d
       -0.15677492 0.011419035 0.1669043 0.038205903
0002f0 20 0b b5 3d a7 3d 74 3e ff 14 27 3e d3 c4 92 bd
       0.088400126 0.23851644 0.16316603 -0.071664475
000300 b5 31 66 3e 53 ed 5d 3e c2 76 9e bd 52 83 d7 bd
       0.22479899 0.21672563 -0.07737495 -0.10523094
000310 0e ee 81 3e 1d 24 3e 3d e9 1e a0 bd 9e e2 80 be
       0.25376934 0.04642116 -0.07818396 -0.25172895
000320 3e 56 80 3e af 51 53 bc eb 99 04 be 80 c2 17 be
       0.25065798 -0.012897893 -0.1294934 -0.1482029
000330 1d 67 31 3d c1 f0 05 3e 8d 36 08 be 1d 77 18 be
       0.043311227 0.13080122 -0.1330206 -0.14889188
000340 a6 b7 8a bd 44 06 3c be f5 cb 50 be 18 8d 0d be
       -0.067733094 -0.18361765 -0.20390303 -0.13823354
000350 59 6d 25 bc ec f5 9e 3d 8e 78 33 be 31 31 23 3d
       -0.010096871 0.077617496 -0.17526457 0.039841834
000360 8f 03 31 3e 87 83 65 3e 57 7a 1f bd cf 4d 38 3e
       0.17286514 0.22413455 -0.03893503 0.17998432
000370 bd 36 f6 bc 3f df ec 3d 30 64 59 3e 46 e3 b8 bd
       -0.030055398 0.11566018 0.21229625 -0.09027724
000380 e4 b0 65 bd 27 54 c8 bd 4b f4 db bd 88 f4 ab bd
       -0.0560769 -0.09781676 -0.107399546 -0.0839625
000390 b6 95 cb 3d e2 b9 1e 3d 9a f5 fc 3d 29 bc 2b 3e
       0.099406645 0.03875149 0.12351532 0.16770996
0003a0 ec 83 4c 3e 3c f8 24 3e b4 86 b9 3d 50 a7 1f 3b
       0.19972199 0.16110319 0.09058896 0.00243612
0003b0 b3 3f 14 be f5 3e 37 be af eb 73 bd 9b 5f d2 bd
       -0.14477424 -0.1789511 -0.059550937 -0.102721415
0003c0 4f 17 4f be 20 93 fd bc 1e cf 13 bd 6f c3 62 3e
       -0.20223735 -0.030953944 -0.036086194 0.22144864
0003d0 85 4b e2 bd 6a 1f 12 3d 7c 5c c0 3d bb 66 ed 3d
       -0.110495605 0.03567449 0.0939264 0.1159186
0003e0 f0 e7 02 bd 2e 18 06 3e b6 08 96 3e d5 9f 15 3e
       -0.031959474 0.13095161 0.2930352 0.14611752
0003f0 ae 49 65 3e 8f 7e 34 3e 76 39 85 3c b9 af a8 be
       0.22391388 0.17626403 0.016262751 -0.32946566

net.0.bias f4 [20]
000000 8f e6 50 bd 3b f9 ce bd 87 eb 7f 3d 06 bd 84 bd
       -0.051001128 -0.10106131 0.062480476 -0.06481366
000010 f6 43 45 bd ee 5a a4 3d 8d d7 9f 3d 43 93 0c 3e
       -0.048160516 0.08025156 0.07804785 0.13728051
000020 6f 1b 54 bd 6b e8 a0 3d 79 7e 21 3e 29 ef 32 3d
       -0.051783975 0.0785683 0.15770902 0.043685112
000030 30 d6 8f 3d fe c0 b2 3d ea bf 0f 3d 12 97 fd 3d
       0.07023275 0.087282166 0.035095133 0.1238233
000040 2e 4e 2d 3d f2 28 7f 3d a2 b9 97 bd ca c5 cf bd
       0.042310886 0.062294908 -0.074084535 -0.10145147

net.3.weight f4 [40, 20, 5, 5]
000000 3c 4a 8a 3d 65 5e 83 bd e3 e1 58 bb a9 eb 66 3c
       0.0675244 -0.06414489 -0.0033093623 0.014094272
000010 72 a0 78 3d 3a 85 87 bb e8 e9 ab 3c f6 ad 2a 3d
       0.060699888 -0.004135755 0.020985559 0.04166981
000020 13 20 48 3d 96 80 2a 3d 98 17 a0 bc 03 5b 11 bd
       0.048858713 0.041626535 -0.0195425 -0.035487186
000030 29 ab 35 3c a4 67 85 bc b4 42 79 3d 6c a1 ba bd
       0.011088171 -0.016284771 0.06085463 -0.0911282
000040 59 4a 33 bc a5 38 55 bd ef d4 78 3d f7 5c a3 3a
       -0.010943019 -0.052055974 0.060749944 0.0012463619
000050 e5 43 a5 bd 90 29 12 bd 22 bd a5 bd e9 c8 6d 3c
       -0.080695905 -0.03568417 -0.08092715 0.014513233
000060 4f db 50 bc 42 85 84 3b 15 e5 34 bd bd 7a 6b bd
       -0.0127476 0.004044206 -0.044163782 -0.0574901
000070 d7 a6 04 bd de 36 d3 bc c4 84 2a bd de 18 3c bc
       -0.032385673 -0.025782999 -0.04163052 -0.011480538
000080 9b a2 40 3d 37 33 17 3d 81 6f e7 3c 91 84 c7 bd
       0.047030073 0.036914077 0.028251411 -0.09742082
000090 4e d3 86 3c d5 94 d7 3b db a9 14 3d cf 34 8e bc
       0.01645818 0.0065790215 0.0362948 -0.017359165
0000a0 99 f2 f3 bd a3 da 5c 3c d3 96 86 bd a8 cc 0a bd
       -0.11911506 0.013479861 -0.06571736 -0.03388658
0000b0 80 87 19 3c 5e ff 03 be 7c 47 37 bd 6c b5 d1 bd
       0.009370685 -0.12890384 -0.044745907 -0.102396816
0000c0 0b b9 84 3c 2e 82 35 bb 62 11 8a bd 7d 52 9b bc
       0.016201517 -0.0027696001 -0.06741597 -0.018960232
0000d0 00 78 96 bd 85 9e 96 bd f6 82 bb bd 86 ed bc bc
       -0.07347107 -0.07354454 -0.09155838 -0.023062479
0000e0 01 0d e5 bb f8 d7 a0 bd b5 4d 01 bd 08 c3 c8 3c
       -0.0069900756 -0.07853693 -0.031568248 0.02450706
0000f0 e8 88 d4 3c 40 07 d3 bd 55 0c 95 ba 60 93 84 3b
       0.025944188 -0.10304117 -0.0011371473 0.004045889
000100 75 de 81 3b 6c 13 e6 3d e8 64 7c 3d dd ca 06 3d
       0.0039632865 0.11234173 0.06161967 0.03290831
000110 31 e5 c0 3d c4 53 c1 3d 6c c2 5e 3d d8 5d f4 3c
       0.09418715 0.09439805 0.054384634 0.029829904
000120 d2 cb 25 3e ad a7 01 3e cb 8d 76 3d e7 31 74 3c
       0.16191033 0.1266162 0.060193818 0.014904476
000130 9f a9 74 3c 7d 22 cb 3a f6 e8 8b 3d c1 37 24 3d
       0.014933019 0.0015497949 0.06831543 0.040092234
000140 97 ec 4c bd bf c2 99 bd 51 40 9a 3d 6e 8c 47 3d
       -0.050030317 -0.07507848 0.07531799 0.04871791
000150 51 a8 62 3b 6e c6 42 3b 88 31 29 3d 52 c3 99 3d
       0.0034585188 0.0029720324 0.041307002 0.075079575
000160 5b c9 11 bc ad a4 58 3d 3c ca cc bd cc 8b 97 bd
       -0.008898105 0.052891422 -0.09999511 -0.07399711
000170 9b 88 a2 bc 5e 27 4a bd 68 4a 3e bd 0e 56 bd bd
       -0.01984053 -0.04935395 -0.046457678 -0.09244929
000180 ee 54 81 bd 8f 29 37 bd 17 d0 8d bd 83 68 5f bc
       -0.06315027 -0.044717368 -0.069244556 -0.013635757
000190 08 f0 bd 3d f4 67 91 3d 71 64 87 bc 22 ea 89 bc
       0.09274298 0.070999056 -0.016527386 -0.016835276
0001a0 11 85 d1 bb 1a 5e 84 3d 75 23 97 3c cf ef c8 bc
       -0.0063940366 0.06463261 0.018449524 -0.024528412
0001b0 0a 07 74 bc 3c 7e fa bc 30 9d 8f 3d a2 b7 f3 3c
       -0.014894256 -0.030577771 0.07012403 0.029750649
0001c0 32 c2 7e bd eb 90 39 bd b9 48 92 3d cc 6c 9e 3d
       -0.062196918 -0.04530422 0.07142777 0.07735595
0001d0 6a 5d c6 bd 09 7e 07 bd 78 e0 30 3b 5a 96 1a 3d
       -0.09685786 -0.03307918 0.0026989263 0.037741043
0001e0 e6 4d e1 bc 53 23 ea bd 38 ca 0b bc 15 93 4a bd
       -0.027502965 -0.11432519 -0.008532099 -0.049456675
0001f0 52 b0 39 bc cc ed 95 3d 4e ff c9 3c bb 59 93 3d
       -0.011333542 0.07320747 0.024657872 0.07194849
000200 63 17 8d 3d 31 13 3b bd b3 db b1 3d 44 90 32 3b
       0.06889226 -0.0456726 0.086844824 0.0027246634
000210 8e 5e cf bc cc 9a 50 3c 5b 76 c2 bc 92 22 34 3d
       -0.025313642 0.012732219 -0.023738077 0.04397828
000220 d5 14 ae 3d e6 63 0c 3d ad 04 bc 3c a9 28 29 3d
       0.08500067 0.034274958 0.022951448 0.041298542
000230 46 50 fc 3d c6 4d cf bc 19 1f 69 bc 10 d4 34 bd
       0.123199984 -0.02530564 -0.014228606 -0.04414755
000240 8d be 27 3c f6 93 14 3e 78 90 1d 3d e8 57 9b bc
       0.010238302 0.14509568 0.038467854 -0.018962815
000250 82 55 19 3d ec f6 f6 3c 04 83 60 3d b0 ce b0 3d
       0.037435062 0.030147038 0.054812446 0.086331725
000260 85 ba 6a 3c b9 c7 5e 3c 62 81 8c 3d 39 3c 97 bc
       0.014326696 0.013597422 0.06860615 -0.018461334
000270 f6 af 28 3c 2a ff 02 bc 8f 72 26 bd b1 ba 24 bc
       0.010295859 -0.007995406 -0.040636595 -0.010054276
000280 f0 79 02 3c 23 95 40 3d 96 37 21 3d 39 b4 e7 3c
       0.0079636425 0.047017228 0.03935965 0.028284179
000290 ef 0b 5d 3d 06 cc ff 3c ad 9b 93 3b 1f ab e3 3c
       0.05396646 0.031225216 0.004504642 0.027791558
0002a0 2a 56 93 bc 3a cc 2b bc df 3f 1a 3e 89 c7 79 3d
       -0.017985422 -0.010485703 0.15063427 0.060981307
0002b0 c9 13 ee 3d af 97 c0 bc a9 eb aa 3d 6c 9d 88 3d
       0.116248675 -0.023509828 0.0834573 0.06670651
0002c0 bc 55 11 bd 70 9e fa bd 26 51 ff bd de 62 48 bd
       -0.035482153 -0.12237251 -0.1246665 -0.048922412
0002d0 6b ec 87 bc ae 25 58 3c 78 ce 78 bc 2f f9 cd bd
       -0.016592225 0.013192577 -0.015185945 -0.100572936
0002e0 fe 06 ba bd 15 1f cd 3b 26 cf 30 bd 76 54 dc bd
       -0.09083365 0.006259809 -0.043166302 -0.10758297
0002f0 16 bd c4 bd 37 9f 85 bd a7 f2 1a bd a4 5a f4 bd
       -0.09606378 -0.065245084 -0.037829068 -0.11931351
000300 a7 15 0a be 77 73 81 bd a5 93 f3 3c e3 9c 0a 3d
       -0.13484822 -0.06320851 0.029733488 0.033841025
000310 71 e1 32 bd 51 a0 01 bd e5 c4 25 bd 54 dd 17 bc
       -0.04367203 -0.03164703 -0.040470976 -0.009269077
000320 e0 21 86 bc 55 c0 ec bc 50 73 a6 bc 52 a7 c5 3c
       -0.016373575 -0.028900305 -0.020318657 0.024127636
000330 88 67 af 3d 71 d4 36 bd 34 ae 16 bd 5a 5a 1a bd
       0.08564669 -0.044636194 -0.036787227 -0.037683822
000340 eb b9 a7 bc 6e 31 83 3d fd a3 b5 bc c1 19 82 ba
       -0.020474395 0.06405912 -0.022172922 -0.0009925888
000350 d2 5d 84 3d be 68 81 3d 81 91 53 bd b5 2c 00 bd
       0.06463207 0.06318806 -0.051652435 -0.031292636
000360 c2 46 00 3d 29 be b3 3c c1 23 67 3d d5 4c e5 3c
       0.03131748 0.021941261 0.056430582 0.027990738
000370 71 7f a5 bd 0c 90 53 bc 9a bb 6c bd 59 6b ab bd
       -0.08080948 -0.012912761 -0.0577961 -0.08370084
000380 4e 20 86 3c 9d 74 e5 bc bc ba 80 3b 9b c2 99 3d
       0.016372826 -0.028009707 0.0039285105 0.07507821
000390 fb f6 89 3c fc 9a 6a bd 03 4e c4 3d 5a 78 77 3d
       0.016841402 -0.05727671 0.09585192 0.06041751
0003a0 ec 31 dc bb 04 06 93 3c 88 24 24 3c c8 7a 04 3e
       -0.0067198183 0.017947204 0.010018475 0.12937462
0003b0 53 54 96 3d d6 f1 e2 3b aa d4 02 3d 99 01 75 3d
       0.07340302 0.0069258017 0.031941094 0.059815977
0003c0 f7 c5 4f 3d b5 95 94 bd c9 12 15 bb ef 36 9c 3d
       0.050725903 -0.07255117 -0.0022746793 0.07627665
0003d0 91 78 83 3d 45 97 f6 3c 8b 2e ad bd 7a 32 a1 bc
       0.064194806 0.030101428 -0.08456143 -0.01967739
0003e0 92 e9 96 3d a6 c5 d8 3d 35 44 51 3c c3 69 a8 bc
       0.07368769 0.105845734 0.0127726095 -0.020558244
0003f0 43 37 b3 bd 50 61 39 bd 77 00 f9 bd 0b 31 15 bd
       -0.08750775 -0.04525882 -0.12158292 -0.036423724

net.3.bias f4 [40]
000000 e9 c8 70 3c 77 ea 50 3c 90 93 0a 3d 61 c2 a2 3c
       0.014696338 0.012751213 0.033832133 0.019868078
000010 6e ac 3e 3c b9 2e e3 3c a5 ad 15 ba 97 b3 1c 3c
       0.01163779 0.02773224 -0.0005709774 0.009564302
000020 52 11 27 3d f6 32 51 3c 1d 5a c2 3c 23 c8 07 3d
       0.040788002 0.012768498 0.02372461 0.03314985
000030 91 3f d7 3c be 2e d0 3b 97 88 eb 3a 7c 63 ec 3c
       0.026275428 0.0063532284 0.0017969784 0.028856032
000040 28 95 bf 3b a0 cc 2c 3d b6 3e 1c 3c 4c f1 f6 3c
       0.005846638 0.042187333 0.009536436 0.030144356
000050 71 54 02 3d 97 1e 21 3c 60 d3 ca 3c 3d d9 eb 3c
       0.03181881 0.009833953 0.024758995 0.02879011
000060 10 8b bd 3c 9f 2e 1d 3d 2d 46 0f bc ee 07 93 3b
       0.0231376 0.03837454 -0.008744759 0.0044870293
000070 f8 94 2d 3b ff 57 66 3b 90 18 8e bb f6 ad b4 3b
       0.0026486497 0.0035147665 -0.004336424 0.005513902
000080 8a 5a de 3c 85 f2 b5 3c 8a 58 15 3c a0 f9 8e 3c
       0.027142782 0.022210369 0.009115348 0.017453015
000090 92 db b1 3b 56 96 de 3b 65 3f 16 3d e7 a5 88 3c
       0.005427786 0.006792824 0.03668155 0.01668067

net.7.weight f4 [150, 360]
000000 13 a3 28 bc c9 d9 01 be e2 e2 77 3d 06 86 b6 bd
       -0.010292786 -0.12680735 0.060519107 -0.08912282
000010 b4 11 8b 3d 84 42 75 bd 94 2a 20 3d 0b 78 ae bd
       0.06790486 -0.059877887 0.039103106 -0.0851899
000020 18 95 22 bd 4a f2 ad 3d b4 93 7b 3c 3e eb ac bc
       -0.039692968 0.084934786 0.015355039 -0.021108266
000030 10 e7 0c 3d 92 48 5c bd 43 c9 c9 3d 9b 07 20 bb
       0.034400046 -0.053780146 0.09852841 -0.0024418596
000040 7f 6d 8b bd 37 c5 a5 3c 40 a9 14 bc ee 51 14 3e
       -0.06807994 0.02023564 -0.0090735555 0.14484379
000050 93 62 66 3c a2 0a 53 3d dd 9d 14 bc 83 ff a1 bd
       0.014061588 0.051523812 -0.009070841 -0.07910063
000060 68 b3 58 3d ed 97 63 3d 9c b6 9f 3c e3 bc 43 3d
       0.05290547 0.05556481 0.019496255 0.04778756
000070 fa 96 28 3d 8a 23 00 3d ad 62 a3 ba a6 7d 98 3d
       0.041159607 0.031283893 -0.0012465321 0.074458405
000080 75 ed d7 bd 83 34 db bd 50 f3 06 bd 03 6e e7 3d
       -0.10543338 -0.10703375 -0.032946885 0.1130028
000090 87 90 dd bc de a3 56 3d e1 15 2e bd 83 fe 80 3d
       -0.027046455 0.05240237 -0.042501334 0.06298544
0000a0 c1 5d ff 3c 18 86 b6 bc 1a 34 21 3d 61 cb 7b bd
       0.031172635 -0.022280738 0.03935633 -0.061473254
0000b0 e7 e6 f6 bb a6 8b c9 3d 6d e9 e2 bd 7a 43 8b 3d
       -0.00753485 0.09841089 -0.11079679 0.067999795
0000c0 1e 6e a4 3d df d3 42 3c 69 de 9c 3d dd c1 c4 3c
       0.08028816 0.011891334 0.07659609 0.024018222
0000d0 5f 4e 44 bd 14 77 05 be 01 66 1b bd 20 2b 08 bd
       -0.047926303 -0.13033706 -0.037939075 -0.033244252
0000e0 44 f0 14 be de e3 87 bd 64 6c 8a 3d d5 ac 89 3d
       -0.14544779 -0.06635259 0.06758955 0.06722418
0000f0 ee 59 30 3e 1b 3d 0f 3e a6 82 6a 3d 27 57 21 bd
       0.17221805 0.13988154 0.057253502 -0.039389756
000100 29 30 6f bd 4e 18 5d bd ec 66 02 bd 88 b3 b2 bd
       -0.05839554 -0.053978257 -0.031836435 -0.08725649
000110 08 b8 a5 bd d0 ec 82 3d 06 ab 93 3d 9d 20 b3 bd
       -0.08091742 0.06392825 0.072103545 -0.08746455
000120 23 db 26 3e 06 f7 bd 3c 72 0f 6e bd b8 6a 0f 3e
       0.16294532 0.023189079 -0.0581202 0.14005554
000130 b5 47 f8 3b 89 19 14 bd ee 10 b6 3d 26 fc f2 3d
       0.0075769075 -0.036157165 0.08889948 0.118645
000140 d0 3d 3d 3e e1 d7 8e 3d 87 ea c0 bc 30 5c 7f 3d
       0.18480611 0.069747694 -0.023549331 0.062343776
000150 39 cb 23 bd ef 64 e9 3d 29 30 47 bd b3 08 8f bd
       -0.03998873 0.11396205 -0.048629913 -0.06984081
000160 40 ae c2 3d 14 92 06 3c 22 b8 fe bd df 08 9c bd
       0.09505892 0.008213539 -0.12437464 -0.076188795
000170 9b 72 6f bd 88 08 aa 3d 7f 93 c0 bd 34 0a cf bd
       -0.058458906 0.083024085 -0.09403133 -0.10109368
000180 ac 4e e8 3d 7e 5b ed 3c 48 ea 82 3d ff 0d 7c 3c
       0.113431305 0.028974291 0.06392342 0.015384196
000190 74 59 94 3d e8 2f ab bc 19 f9 f7 bc 40 bb 06 3d
       0.07243624 -0.020896867 -0.030270146 0.03289342
0001a0 d8 78 62 3d ba 9b 61 bd 6f 7a 78 ba 62 6a 0d bc
       0.055291027 -0.055080153 -0.0009478693 -0.008631321
0001b0 e7 3c dd 3d c8 96 ae 3d 7a 99 cb 3c 1f 23 8e bd
       0.10802632 0.08524853 0.024853457 -0.069402926
0001c0 22 9a 48 3d ae 4a 96 3c 1c cb 26 bd 1f 03 d4 bd
       0.048975118 0.018346157 -0.040721044 -0.10352158
0001d0 c0 49 82 bd 32 6e 49 bd f0 85 e6 bb 81 a7 17 3d
       -0.06361723 -0.049177356 -0.0070350096 0.03702498
0001e0 6a 38 23 bd ed 3e 12 3d 37 2d 9e bc e2 bd d1 3d
       -0.039848723 0.035704542 -0.01930867 0.102412954
0001f0 d2 48 dc 3d de 5e 05 3e cf d5 3d 3c b4 91 ca bd
       0.10756077 0.1302447 0.0115866205 -0.09891072
000200 c8 0d 45 3d 4d 64 28 bc 7c 9c d7 bd 86 9a 95 bd
       0.048108846 -0.01027782 -0.10527894 -0.07304864
000210 c2 9f 93 3d be 40 3a 3d 7c 26 98 3d 65 89 f0 3d
       0.07208206 0.0454719 0.07429215 0.11744956
000220 5e 66 ff 3d 88 9e 46 3c bb 85 f2 3c c4 85 e3 3d
       0.12470697 0.012122758 0.029604783 0.11109498
000230 00 3c 0a bd 8a cc 07 3d 96 1b 75 bd 38 71 46 3d
       -0.033748627 0.033154048 -0.05984076 0.048447818
000240 b2 55 2e 3d d1 ae cc bd b9 8a a6 3d 5d 39 69 3d
       0.042562194 -0.09994281 0.08131928 0.05693947
000250 a2 6e 0c be bc f9 9b bd 48 d6 2d 3d f8 3f 07 be
       -0.13714078 -0.076159924 0.042440683 -0.13207996
000260 88 72 c6 bd 26 57 01 3e eb 54 1c bd f2 51 b0 3d
       -0.09689814 0.126309 -0.03816692 0.0860938
000270 ce ca 71 3c 58 04 58 bb 9d e7 56 3d 32 34 fa bd
       0.014757825 -0.0032961573 0.052466977 -0.12216987
000280 5f 26 89 3c ec 6d eb bc 33 99 a2 bd 64 3c 7c bd
       0.01674193 -0.028738938 -0.07939377 -0.06158103
000290 f9 a0 37 3d 77 01 e4 3c 17 d1 cf bd 3a 58 4b bd
       0.04483125 0.02783273 -0.101473026 -0.049644686
0002a0 6d 3e 2b 3e c6 37 c8 3d 07 eb 90 3d 4b 10 ee 3d
       0.16723032 0.09776263 0.07076078 0.116242014
0002b0 75 3a d2 bc 8a b0 06 bd ff 8e 15 3e e3 1f 62 3d
       -0.02566264 -0.032883205 0.1460533 0.05520619
0002c0 3d 91 32 3c 2c 79 58 bd 9f 57 06 3d 89 78 69 bd
       0.010898885 -0.052849934 0.032798406 -0.056999717
0002d0 d7 e0 75 bd f8 85 b6 bd e1 26 54 bb 70 17 0a bd
       -0.060028877 -0.08912271 -0.0032371806 -0.033713758
0002e0 6c af 41 bb 10 df bb 3d 8d b9 a6 bd 4d 97 3d 3e
       -0.0029554022 0.09173405 -0.0814086 0.18514748
0002f0 68 fe 3e bc d4 7c a8 bb 7e f0 96 bc ac 2c 1a 3e
       -0.011657335 -0.005141834 -0.018425222 0.15056103
000300 02 16 73 bc 9b 44 a8 bd da 3d 0a bd 63 d5 1e bd
       -0.01483679 -0.082162105 -0.033750392 -0.03877772
000310 a4 fd 8c bd 47 31 24 3d 04 77 99 3d 8e f1 68 bd
       -0.068843156 0.040086057 0.074934036 -0.05687099
000320 43 a0 9a bc 13 ca 2c 3d ab 84 c8 bd 4f a2 8d bd
       -0.018875247 0.0421849 -0.097909294 -0.069157235
000330 08 a0 dc 3c 97 c1 ac bc b4 db 6a 3d 03 7a f4 3b
       0.026931778 -0.021088405 0.05733843 0.007460834
000340 9e db c1 bc d5 fe 80 bd 23 ec 21 3c 26 4d 96 bd
       -0.023664292 -0.06298605 0.00988296 -0.07338934
000350 4f 0a 9f bd 69 06 d5 bb 3f 65 c9 3d 20 31 24 bd
       -0.07765638 -0.0065010083 0.09833764 -0.04008591
000360 d6 18 91 bb 74 5d c5 bc f2 e2 01 bd c5 53 ab bd
       -0.0044280095 -0.024092413 -0.031710573 -0.08365587
000370 cc 7c 74 3d 86 e6 9d 3d 2e 54 91 bd 30 e1 a1 bd
       0.059689328 0.077099845 -0.07096134 -0.07904279
000380 77 c8 61 bd 4c c6 ef 3d d7 89 a8 3d 53 ee d3 3d
       -0.05512282 0.11707744 0.08229416 0.10348191
000390 84 0d cf 3d a1 8d bd bc 11 a6 30 3d bb aa 6f 3d
       0.1011 -0.023138823 0.043127123 0.05851243
0003a0 4b bc af bd 2b dc 97 bd c6 8e 42 bd c9 f6 2e bd
       -0.08580836 -0.074150406 -0.04749944 -0.04271582
0003b0 1a f0 d1 3d 9a b7 6e 3c f8 4b 74 3b 79 d2 7a 3c
       0.10250874 0.014570141 0.0037276726 0.01530897
0003c0 0c 3d 0c bd 63 ed 4b 3d 63 b8 de 3c e2 de d4 3d
       -0.034237906 0.049786936 0.027187532 0.10394074
0003d0 0e 4c 8d bd d0 1d 79 3d d2 b4 26 3e 3d 96 dc 3c
       -0.06899272 0.060819447 0.16279915 0.026927108
0003e0 4a f8 8d 3d 22 53 8c 3c 32 2a af bd 72 66 3c bd
       0.06932123 0.017129485 -0.0855297 -0.045996137
0003f0 64 3b 7d 3d 8a d5 00 3d 98 7f 02 3e 0e 0a 66 3c
       0.061824217 0.031453647 0.12743986 0.014040483

net.7.bias f4 [150]
000000 5a 3e 2e 3d d2 d7 4f 3b 7c cf 3b 3d fb 8a a3 3c
       0.04253993 0.0031714332 0.04585217 0.019963732
000010 3b d6 1a 3b db e9 38 3c 46 e2 a6 3c c3 2f 5a bb
       0.0023626226 0.011286224 0.020371567 -0.0033292628
000020 be 27 73 3c 64 01 f5 3c 9a 91 e8 3c 73 5e d1 3c
       0.014841018 0.02990789 0.02838974 0.025557732
000030 19 d8 f8 3b 82 24 31 3a 7c 1d 2b 3b 1a 87 c6 3c
       0.00759412 0.0006757454 0.0026110103 0.024234343
000040 53 65 10 3d ba 51 d0 3a b9 ec 6b bb 89 5c 42 bb
       0.03525288 0.0015893497 -0.0035999252 -0.0029657206
000050 2a 7a 38 3c 83 38 46 3c 5c 7f 39 3b fe 07 a7 3a
       0.011259595 0.012098434 0.0028304672 0.0012743471
000060 6b 20 f8 3a 0b a2 c8 ba 9c 1e 42 bc a5 f2 2d 3c
       0.001893056 -0.0015307082 -0.011848118 0.010616933
000070 0d 79 98 3b 20 33 8e 3b b6 04 1e 3d 33 9c 3e 3d
       0.0046531023 0.0043395907 0.03857871 0.046535682
000080 f5 b2 f8 3b ae da 8f 3b 49 c4 0a 3d 23 d5 84 3a
       0.0075896927 0.0043900823 0.0338786 0.001013432
000090 1c 4c c0 3b b9 2c 3b bb 69 14 82 3c 86 5e 77 3b
       0.005868448 -0.0028560592 0.015878873 0.003774555
0000a0 27 d8 cd bb 5f 80 57 3d b7 8d 38 3d 8a 9b ed 3a
       -0.006281871 0.05261266 0.045057025 0.0018128019
0000b0 6a 92 e0 3c d5 84 8b 3b 52 41 01 3c 4a b8 b7 bc
       0.027413566 0.004257778 0.007889109 -0.022426743
0000c0 91 59 5e 3c cf 65 35 3d e9 69 09 3d 0c 53 20 3d
       0.013571159 0.044286545 0.03354827 0.0391417
0000d0 3b 5f 83 bc c5 dd 04 3d 0f 53 df 3a 9d 1f 9d bb
       -0.01603662 0.03243806 0.0017038303 -0.0047950284
0000e0 27 83 89 3c 3a f1 2c b9 9d 14 f9 3b 33 64 3c 3d
       0.016786171 -0.00016493062 0.0076013342 0.045993995
0000f0 39 78 b9 3a 7a 00 00 3d 9d c0 b7 3c 17 ec 89 3c
       0.0014150209 0.031250454 0.022430712 0.01683621
000100 33 29 6a 3b 4c 7d 1d 3d f0 da dc 3b d5 33 a0 3c
       0.0035730123 0.03844957 0.0067399666 0.019555965
000110 fe 3e c1 3b 98 6f c8 37 25 64 94 3b fb 91 d8 3b
       0.005897402 2.3893823e-05 0.0045285397 0.006609199
000120 ab 46 b8 bb 02 84 43 3c 7e e9 d7 3c e0 ad 38 3d
       -0.0056236587 0.011933329 0.026356455 0.045087695
000130 14 99 df 3c 30 3b 0f 3d d0 c9 05 3d 33 42 06 ba
       0.027294673 0.034968555 0.032663167 -0.0005121559
000140 8a 77 41 3d de 81 c0 3c 77 4f 25 3d 76 70 ea 3c
       0.047233142 0.023499426 0.040358987 0.028618079
000150 af 77 2d 3d b6 7b f7 3c fe 7b 04 3b a3 e3 8c 3d
       0.042350467 0.030210357 0.0020215507 0.06879356
000160 c8 8a 1d bc b3 3a 0e bc 02 41 bb bb 07 34 58 3b
       -0.009615608 -0.008680987 -0.0057145366 0.0032989995
000170 4a 10 79 3c 32 57 a9 3c 71 d1 47 3d ce c0 a2 bb
       0.0152016375 0.02067146 0.048783723 -0.0049668318
000180 8a 2f c1 3c 59 c5 e4 3c 6e 5a 9b 3c 63 29 a1 bb
       0.023582239 0.027926134 0.018964019 -0.0049182638
000190 01 b4 04 3b 9e ec ab 3c 3b 24 7a bb 02 e9 4e 3d
       0.0020248892 0.020986851 -0.0038168568 0.050515182
0001a0 d1 f6 2f 3c a0 a8 9f 3c fe 42 1a 3c e2 22 7f 3b
       0.010739998 0.019489586 0.009415386 0.0038930704
0001b0 9c 91 cd 3b e9 21 85 3c f8 ae d2 3c c8 fb 18 3d
       0.0062734615 0.016251521 0.025718197 0.037349492
0001c0 82 a0 e3 3c a0 f7 1f 3d d6 01 c9 bb a9 bd d9 3b
       0.027786497 0.039054513 -0.006134252 0.0066449237
0001d0 1b 82 fb 3b 1e d6 56 3c b7 3f 1a bb 68 d3 91 ba
       0.007675422 0.013112573 -0.0023536512 -0.0011125626
0001e0 f7 f8 f5 3b e0 ba df 3c 5d a3 50 3d b4 fd 9e 3b
       0.0075064856 0.027310789 0.050937045 0.004852021
0001f0 39 60 d2 3c cd 04 a3 3c 9d 78 82 3c 00 c4 0a 3d
       0.025680648 0.01989975 0.015926654 0.033878326
000200 19 b5 fa bb e0 55 b5 3b 19 ff 51 3d 71 85 5b 3b
       -0.007650983 0.0055339187 0.05126867 0.0033496285
000210 72 ff d0 3c a5 72 64 3b 33 fb c0 bc 57 59 0c 3c
       0.02551243 0.0034858373 -0.023557281 0.008566222
000220 b6 b5 1a 3d e9 2d 32 3b 7e 4f 52 bc 96 36 84 ba
       0.03777095 0.002718801 -0.012836335 -0.0010087069
000230 05 72 07 3d 5b 94 02 3d 21 b7 9e 3c 01 52 6f 3c
       0.033067722 0.031879764 0.019374432 0.014606954
000240 4c cb 63 3d 30 cb 12 bc 04 1d ba 3c d2 c0 83 3a
       0.0556138 -0.0089595765 0.022718914 0.0010051972
000250 87 25 ec bb 5c 43 17 39
       -0.007206622 0.00014425576

net.9.weight f4 [10, 150]
000000 23 62 ad bd 43 aa a9 bd 61 7f ed 3c 09 90 0a be
       -0.08465984 -0.08284428 0.028991403 -0.13531508
000010 40 e1 22 be a1 18 2e be e4 b0 ef bd 57 73 5e be
       -0.15906239 -0.17001583 -0.11703661 -0.21723686
000020 cc db 06 be 31 7b ae 3d a5 61 42 3e ec 3d 0c be
       -0.13169783 0.08519591 0.18982561 -0.13695496
000030 ff 9d 4b 3d 40 12 50 be 11 1c 96 bc 76 5d 55 3e
       0.049711224 -0.20319462 -0.01832393 0.20836434
000040 51 0a 5f be 93 3b 9f 3d b2 fb 20 3e 76 97 6d 3d
       -0.21781279 0.07775035 0.15721014 0.058005773
000050 f2 a0 e0 bd 3d df 52 bd 20 74 0e be fd 95 7d 3d
       -0.10968198 -0.051482428 -0.13911486 0.061910618
000060 cd dc 4d 3d 92 40 33 be 24 e9 24 3e 6b 4f 86 3c
       0.0502594 -0.175051 0.16104561 0.016395291
000070 ae 22 3b be 51 d5 c8 3d 63 d4 27 be d8 03 b2 3d
       -0.18274948 0.09806312 -0.16389613 0.086921394
000080 2a 8c 24 3e 17 4e f2 bd f4 1f 89 bc 7c f9 cf ba
       0.16069093 -0.11831301 -0.01673887 -0.0015867199
000090 5c 01 d8 bd 08 0a 6f 3d 96 ac 32 3e a7 58 c7 3d
       -0.10547134 0.058359176 0.17448649 0.09733706
0000a0 80 3f a1 bd 73 17 e9 bd 41 02 6d 3d 69 d2 3f be
       -0.0787344 -0.11381426 0.057863478 -0.18732609
0000b0 74 68 40 be 52 52 e9 3d 7a 29 26 be d8 1a d4 bd
       -0.18789846 0.113926545 -0.1622676 -0.103566825
0000c0 95 da 54 3e 52 7a 36 3e cb 69 c3 3d f7 a0 1a bd
       0.20786507 0.17820099 0.09541663 -0.037751164
0000d0 4f 6f a7 bd f5 59 1c be 8b ec 30 be 68 51 3e bc
       -0.08175527 -0.15268691 -0.17277734 -0.011616088
0000e0 50 41 12 3e b3 23 0b bd 08 8d e8 bd c2 20 13 3e
       0.14282727 -0.033969592 -0.113550246 0.14367965
0000f0 a9 97 5d bc 9b 81 e9 bd 0b 05 25 be b0 8c 16 be
       -0.013524928 -0.114016734 -0.16115205 -0.14702106
000100 88 76 11 bd ac 92 7d 3d 19 2f b0 bd 0a 7b 03 3e
       -0.03551343 0.061907455 -0.08602733 0.12839904
000110 d4 69 db bd dc db a8 bc 88 0f 39 3e 3d 51 81 bd
       -0.107135445 -0.02061265 0.18072331 -0.06314323
000120 99 7b 13 3a a8 cf 00 3e 7d 51 d0 bd 71 e8 43 3e
       0.00056260225 0.12579215 -0.10171793 0.19131638
000130 24 12 8f bd 71 60 35 3e 5d 56 82 3e 37 95 b4 3c
       -0.06985882 0.1771257 0.25456515 0.022043807
000140 6c d2 64 3e 6a 22 fb 3d 91 17 bc b9 8f 64 66 3e
       0.22345895 0.12262423 -0.00035875713 0.22499298
000150 21 aa 04 3e c0 9e d3 bd da 94 a1 bd 0a 25 43 be
       0.12955524 -0.103330135 -0.07889719 -0.19057098
000160 88 1f 1b 3c 26 9d 09 bd 91 be e3 bd f4 9b a4 3c
       0.009467967 -0.033597134 -0.11120332 0.020093895
000170 80 9e 0a be 74 46 34 be 8b bf 8e 3e e3 34 d1 bd
       -0.13537025 -0.17605 0.2788051 -0.102151655
000180 5c 00 30 3d 89 cf 30 be 5a 51 01 3d 28 2f d9 3d
       0.042969093 -0.17266668 0.031571724 0.106046975
000190 f5 a0 3e be 50 37 40 be eb 60 58 be 93 4d 46 3d
       -0.18616088 -0.187711 -0.21130721 0.048413824
0001a0 0c d2 08 3e 20 e9 c8 bd 27 ce d7 3c 24 f0 82 bd
       0.13361377 -0.0981009 0.026343418 -0.063934594
0001b0 52 ff 4b be 58 31 38 3e 0b be 07 be 14 ad be 3d
       -0.19921616 0.17987573 -0.1325609 0.09310356
0001c0 5b 54 3d be b4 ed 4b be b7 15 33 3e c5 44 32 3e
       -0.1848921 -0.19914895 0.17488752 0.17409046
0001d0 dd 5f 9e 3c 12 0c 2c 3e 59 49 d6 bc d4 5c 14 3e
       0.01933282 0.1680148 -0.026158022 0.14488536
0001e0 1d 84 4d be 69 0d 2c 3e 2b 77 42 3e 0c 8a ca bc
       -0.20069928 0.1680199 0.18990771 -0.024724029
0001f0 8b a7 86 3d fd 49 7c bd 26 73 fb 3d 63 ee 12 3e
       0.06574925 -0.061594 0.12277822 0.1434875
000200 46 3e f4 3d be 3b 36 3e 5a ad ab 3d d1 52 33 3d
       0.1192594 0.17796227 0.083826736 0.04378015
000210 19 f2 61 be cd c7 63 be 81 c2 3c be b5 84 49 be
       -0.22065009 -0.22244187 -0.18433572 -0.1967953
000220 77 67 09 3e 3e 20 d2 3c 19 a2 a0 3d 9c 7a d3 bd
       0.13418375 0.02565014 0.07843418 -0.1032612
000230 02 bf 42 3e 2e a7 a7 3c 03 d6 0a be 16 ab 6e bd
       0.19018176 0.02046546 -0.13558201 -0.05826863
000240 6c 9d b1 3d 2c 18 40 be a1 80 d8 3d 8b 87 0f 3e
       0.08672604 -0.18759221 0.10571409 0.1401655
000250 74 2b fd bd ae 57 35 bd 85 ba 09 3e 24 e5 14 be
       -0.12361804 -0.04427307 0.13450058 -0.14540535
000260 96 80 36 3e d2 69 59 3e 30 65 ea 3d a8 11 a6 bd
       0.17822489 0.21231773 0.11445081 -0.081088364
000270 b6 92 19 be 27 e0 5b 3e 01 96 cb bd 82 0a 62 be
       -0.14997372 0.21472226 -0.0994072 -0.22074321
000280 0f d7 46 be fa 9e 09 3e 3c 37 05 be 8a a9 67 3e
       -0.19417976 0.13439551 -0.13009351 0.22623268
000290 89 3b d4 3d 80 43 b1 3c d3 40 bb bd 48 31 bf bd
       0.10362918 0.021638632 -0.091432236 -0.093355715
0002a0 77 a3 c1 bd 55 23 35 3d 67 af 91 3d 64 2d 19 3e
       -0.094550066 0.04422315 0.071135335 0.14958721
0002b0 4a 75 d1 3d 19 27 41 bd 6f d7 9b bc 7c 35 d6 3c
       0.10227449 -0.047156427 -0.019023625 0.02614855
0002c0 5c 08 9d bd e5 33 3d be 6d ab 0f 3e 83 06 63 3e
       -0.0766761 -0.18476827 0.14030237 0.22170453
0002d0 5c d7 37 3e 0e 1c 23 be 3e 87 b9 3d fa 97 dc 3c
       0.17953247 -0.15928671 0.090589985 0.026927937
0002e0 32 89 21 3d 78 56 c8 3d 95 82 99 3c 69 b2 66 3d
       0.03943748 0.097821176 0.018739024 0.05632249
0002f0 f7 b3 3c bd fe 97 3b be 5f d5 8a bc ec 85 7e be
       -0.046070065 -0.18319699 -0.016947446 -0.24855775
000300 44 be 1d bd 28 54 0b be 90 f8 b7 3d f9 1a 2b 3e
       -0.03851153 -0.13606322 0.089829564 0.16709508
000310 ab 34 8d 3d 83 43 42 be d9 87 4c 3e 51 e9 2c be
       0.06894811 -0.18971066 0.19973697 -0.16885878
000320 76 92 78 bd b7 11 05 be 19 e6 34 3d 95 4b 80 be
       -0.06068655 -0.12995039 0.04416475 -0.25057665
000330 95 b2 3b be 06 62 2d be 9c aa d5 bd 6e e4 28 3e
       -0.18329842 -0.16931924 -0.10432932 0.16493389
000340 51 02 80 3c c0 8b 4e be d2 4f 9b bc f2 09 31 be
       0.015626105 -0.20170498 -0.01895896 -0.1728895
000350 9b f2 1f 3e 45 bb 31 3d d1 03 82 3e 9b 29 bd 3d
       0.1561989 0.043391485 0.25393537 0.09236451
000360 d4 d3 62 3e 5d 91 60 3d 59 d3 dc bd 97 28 53 3e
       0.22151119 0.05482613 -0.10782499 0.20620953
000370 c6 ae 95 3d b5 7b 3c 3e 0f 41 72 3d c8 fa 4f 3e
       0.07308726 0.18406565 0.059144076 0.20310509
000380 2a 7d 87 3e 56 9c 21 3e 96 f0 aa bd 50 af a6 bd
       0.2646268 0.15782294 -0.083466694 -0.08138907
000390 85 37 37 3d 57 97 ac bd 3e b9 21 3e 22 82 40 3e
       0.044730682 -0.08427303 0.1579332 0.18799642
0003a0 aa 59 14 3d e1 58 a0 3b 7a ba 37 3e ee 20 c8 3d
       0.036218323 0.0048934077 0.17942229 0.09771906
0003b0 17 99 59 3d 87 8f 97 3e 9b 02 d1 3d ed 04 b6 3d
       0.053124513 0.2960169 0.10205575 0.08887658
0003c0 9c d4 80 bd bd 9a 0e be 97 0d 32 3e 83 a1 54 bd
       -0.06290552 -0.13926215 0.17387997 -0.051911842
0003d0 10 56 19 be 32 c7 c2 3b 61 43 23 be 2d 78 5f 3e
       -0.14974236 0.005944156 -0.15943672 0.21823187
0003e0 75 8e 6b 3c f2 7b cd bd 76 cf 9a 3d ed 9a bd bd
       0.014377226 -0.10033406 0.07559101 -0.092580654
0003f0 76 1c 1a 3e 35 9e d2 bc 1a ee 04 bd 2d cf 54 3e
       0.1504992 -0.025710205 -0.032453634 0.20782156

net.9.bias f4 [10]
000000 c2 5c ae 3c 05 77 97 3b e7 9b 82 bc e0 31 a9 3b
       0.021284465 0.0046223425 -0.01594348 0.0051634163
000010 41 c1 e8 3c cf 3c 65 bc 81 14 5c 3c ec 45 01 bc
       0.028412463 -0.013991549 0.013432623 -0.007890206
000020 8b ff 33 3d 8e 15 a9 3c
       0.043944877 0.02064016
