result/mnist_model.pth (torch, 90159 bytes, 8 tensors)

conv1.weight f4 [10, 1, 5, 5]
000000 c3 e9 0f 3e 2b c2 82 be d9 b7 9a be 84 ea f0 bd
       0.14054017 -0.25538763 -0.3021839 -0.1176348
000010 a1 f3 61 be da e1 8c 3e e9 27 19 3e 20 10 c3 3d
       -0.22065593 0.2751606 0.14956631 0.0952456
000020 80 a8 48 3d a6 a9 21 bd 67 87 87 bd f6 57 98 3e
       0.04898882 -0.03946843 -0.06617623 0.2975461
000030 a7 b0 1e 3e c0 39 4d 3b 4d a1 0f be 65 09 e4 3d
       0.15497075 0.003131494 -0.14026375 0.11134604
000040 85 89 f7 39 58 e7 8e 3e 1c b0 4f 3d 80 10 d4 bd
       0.0004721397 0.27910876 0.05070506 -0.103547096
000050 cd 34 a1 be e1 ff f1 bd 72 67 25 3e f0 50 19 bd
       -0.31485596 -0.11816383 0.16152743 -0.037430704
000060 17 55 1d be 07 7f e5 bd f6 ae cb bc 0c b8 aa 3d
       -0.1536449 -0.11205869 -0.024863701 0.083358854
000070 34 1f af bd 23 8d 0e be 43 4b 32 be eb e3 db 3c
       -0.085508734 -0.13921027 -0.17411523 0.026842078
000080 5b 83 95 3d 25 fb 6e 3e 9c e8 3f 3e 2a c9 69 be
       0.07300445 0.23337992 0.18741077 -0.22830644
000090 84 28 93 be f9 f4 a5 3d 0c 47 e0 3e 11 1a 28 3e
       -0.28741848 0.081033655 0.43804204 0.16416194
0000a0 a7 c9 a9 be ec 9a 28 be 4b 06 15 be b2 36 e5 3e
       -0.3316166 -0.16465348 -0.14553182 0.44768292
0000b0 ec cc 5b 3e 11 66 32 be 7d 14 e1 3d 21 95 55 3e
       0.2146489 -0.17421748 0.10990236 0.2085767
0000c0 67 84 a8 3e 7f 65 47 be 5c 0b 54 bd b0 57 8f 3c
       0.32913515 -0.19472311 -0.051768646 0.017497867
0000d0 b5 f3 1a be 50 db b1 bd 65 d4 50 be fa 50 22 bd
       -0.1513203 -0.08684409 -0.20393522 -0.039628007
0000e0 0a 26 00 3e f8 4d 3f bd 58 6f 8e be 1c 49 07 be
       0.12514511 -0.046705216 -0.27819324 -0.13211483
0000f0 60 da 97 3d 8b f1 44 3d a3 c8 32 be 56 1a 00 3d
       0.074146986 0.048081916 -0.1745935 0.031275116
000100 cb 1a 8a 3d ca 0f e9 bd 35 6d 7b 3e 22 2e e3 bc
       0.067433916 -0.11379965 0.24553378 -0.027731959
000110 9f 85 24 bb 15 5b 2e be 25 de 43 3e 83 13 d2 3d
       -0.0025104058 -0.17026933 0.1912771 0.10257628
000120 91 a0 a5 3e c1 b9 bb 3e bb 1f bd 3d ca 06 c6 3d
       0.32349065 0.36665156 0.09234568 0.09669264
000130 62 6d 7b 3e de 54 92 3e ae 5c fa 3b 6b 59 a2 3d
       0.24553445 0.28580374 0.007640443 0.079272114
000140 c6 e7 6d be 5f 2c c1 3d 98 cb c3 3e 5b 68 07 3e
       -0.23232946 0.09432291 0.38241267 0.13223402
000150 55 9d 13 3e da 22 b3 be e7 6f d5 38 00 80 ad 3e
       0.14415486 -0.34987527 0.00010177475 0.3388672
000160 5e 7b 10 3e 1a 98 67 be 4f ca e6 bd 48 58 c8 bd
       0.14109561 -0.22616616 -0.11269056 -0.09782463
000170 2e 7f ac 3d 22 de 19 3e 21 22 b8 be 9b 01 22 3d
       0.08422695 0.15026143 -0.35963538 0.039552312
000180 d0 3e 0a 3e bb e4 b1 bd 68 15 80 be c2 63 ca be
       0.13500524 -0.08686205 -0.25016332 -0.39529234
000190 24 95 29 3e 9f 15 be 3d c1 f0 8a be 33 a2 0c be
       0.16560799 0.09281468 -0.27136806 -0.13733749
0001a0 b5 44 2b bd 99 40 6c 3e f9 a4 1b 3c 16 77 78 bd
       -0.04181357 0.23071517 0.009499782 -0.060660444
0001b0 e6 68 7a be 99 b9 00 be 6f 9e 78 3e 6a 03 aa 3e
       -0.24454078 -0.125708 0.24279188 0.3320573
0001c0 f2 df 0c 3e 20 2e 52 3e 7f 91 a3 bd 88 d2 e5 3a
       0.13757303 0.20525408 -0.079867356 0.0017534057
0001d0 00 11 60 3c ca d0 a0 3d 0d f3 81 3e f8 6a 9b 3e
       0.013675928 0.07852323 0.25380746 0.30355048
0001e0 1a 43 27 be df be dd 3d c5 57 0e 3d 1a ce b1 3c
       -0.16334191 0.108274214 0.034751672 0.021704722
0001f0 b3 0e aa 3d 04 16 f9 3d 4f ac 12 3e 72 b2 7f 3e
       0.08303585 0.12162402 0.14323543 0.24970415
000200 96 63 d3 3c 77 8b 3a be 12 b7 df bd 0e 96 77 3e
       0.025804322 -0.18217264 -0.1092359 0.24178335
000210 51 cb ac 3d 5e 8a ab ba 5e 04 2c 3d 81 5c 20 bd
       0.08437217 -0.0013087501 0.041996352 -0.03915072
000220 83 59 35 3e 38 38 81 bc 10 fe d4 bd a8 e4 33 be
       0.17709927 -0.015773878 -0.10400021 -0.17567694
000230 6b 75 54 be ad 0b 4e 3e 96 ec 3c 3e 47 1d 93 3d
       -0.20747916 0.20121641 0.18449625 0.071833186
000240 63 9e 94 3d c3 9b d1 bd 9b cc a0 3e 68 07 48 3e
       0.07256772 -0.10234787 0.31406102 0.19534075
000250 64 4e 2f 3d b8 ec 38 be 67 c4 4e 3e 6d 71 8b 3e
       0.04279937 -0.18059051 0.20192109 0.27234975
000260 83 82 90 3e 5b c2 3c 3e 12 89 53 3e f7 bc 15 be
       0.28224573 0.18433516 0.20657757 -0.14622866
000270 df 1c 46 be 66 d2 50 3c f1 10 32 be ad 84 86 be
       -0.19346951 0.012745475 -0.17389275 -0.262731
000280 46 a1 c1 be 40 fc 9a be 85 5e ba be 75 b6 4c be
       -0.37818354 -0.30270576 -0.36400238 -0.19991477
000290 92 d4 87 be 4f 67 e7 bd 46 87 b1 be 83 bd a8 be
       -0.26529366 -0.112990014 -0.34673518 -0.32957086
0002a0 3c ea fd bd a2 c3 b9 bd 33 b2 6b 3e 91 b4 5d 3e
       -0.12398192 -0.09070517 0.23017196 0.21650912
0002b0 13 30 4e 3e ac 5f ab 3c fc c5 7c 3d 44 42 18 be
       0.20135526 0.020919643 0.06171225 -0.14869028
0002c0 7b 53 8e be 28 e6 c2 be bf 3e b0 be c3 67 de be
       -0.27798066 -0.3806622 -0.3442287 -0.4343854
0002d0 1a f8 d8 bd b3 70 ae be 6e 56 4c be 9d 5d 81 be
       -0.105941966 -0.34070358 -0.19954845 -0.25266734
0002e0 83 1d c0 be be 3a 9c be c4 c4 b3 be ba 7a 90 be
       -0.37522516 -0.30513567 -0.35111058 -0.28218633
0002f0 a3 32 c8 be 4e fb 71 be 9e e4 ff bd a2 da a6 be
       -0.39101133 -0.23631021 -0.12494777 -0.3258868
000300 26 67 9e be e8 68 b3 bd 85 ff 04 be ba 1a 50 be
       -0.3093807 -0.08760244 -0.12988098 -0.20322695
000310 fe fc 2e bd d2 0b d9 bd 16 23 80 bd e2 5b 73 3e
       -0.04272174 -0.10597958 -0.06256692 0.2376552
000320 d2 93 3b be 5e 44 ea bd 2a 17 b9 3c b6 56 96 be
       -0.18318108 -0.11438821 0.022594053 -0.2936303
000330 15 db 77 be f6 31 39 be e7 fe b4 bd 21 5a 53 be
       -0.24204667 -0.18085465 -0.08837681 -0.2063985
000340 44 1e 41 be 8e 0a 14 be 67 31 a7 3d 13 1a 1f bd
       -0.18859202 -0.14457151 0.081637196 -0.038843226
000350 4c 24 48 be c1 ab 80 be cd a5 61 3e 56 d7 b9 bd
       -0.19545096 -0.25131038 0.22035904 -0.09074275
000360 79 9a 33 3e c5 a8 29 3e ba 1a a5 3e e2 c1 c6 3e
       0.17539395 0.16568287 0.32246953 0.38819796
000370 ef 45 ac 3e 04 b1 77 3d b9 e8 e5 3d 7a 66 78 3e
       0.33647105 0.06047155 0.11226029 0.24257842
000380 2e ba 6a 3e 09 99 c8 bc 6f d1 68 3b 81 9d 34 3e
       0.22922584 -0.024487035 0.0035525223 0.17638208
000390 5c ec dc bb fe 3e 9f 3c 2c cb c3 3d 38 d7 8a 3e
       -0.0067420434 0.019439217 0.09560236 0.27117324
0003a0 10 07 8b 3c 77 a3 01 3e 1b eb 80 be 0a f3 c1 3d
       0.016971141 0.12660013 -0.2517937 0.09470184
0003b0 f9 7d 3d 3e 1a 94 96 bd 7a 66 0a bd aa e7 84 be
       0.18505086 -0.07352467 -0.033789136 -0.25957996
0003c0 6c f5 75 3e 74 b7 94 3e e6 09 58 3d a8 f1 57 be
       0.24019402 0.29046214 0.052743815 -0.21088278
0003d0 63 34 6d be 35 c6 b9 3e 29 ee 33 3e 4f 28 8c 3c
       -0.23164515 0.36284032 0.1757132 0.017109064
0003e0 32 76 97 be 37 8e f9 bd
       -0.29582363 -0.121853285

conv1.bias f4 [10]
000000 0b f1 e1 bc 18 80 04 3f c6 aa 7d 3e 3b a1 76 3e
       -0.027580759 0.51757956 0.24772176 0.24084942
000010 fc 64 6c 3d a6 38 d3 bd 20 24 09 3e f3 43 38 3d
       0.057713494 -0.10313539 0.13392687 0.044986676
000020 fe 9b 6c 3e e0 6c 4f 3e
       0.23106381 0.20256376

conv2.weight f4 [20, 10, 5, 5]
000000 27 a4 b8 bc 86 ed f1 39 c5 06 a3 3c 8f 13 44 bc
       -0.022539211 0.0004614407 0.019900689 -0.011967554
000010 53 b3 d4 3c 11 9c 8e 3b dd 54 b2 bc 7c e5 4f 3d
       0.025964415 0.0043521007 -0.021768982 0.050755963
000020 9b 3e ad 3c 6f ec 7a bd 6a db f3 bc 85 bc 85 bd
       0.021148017 -0.061260637 -0.02976771 -0.06530098
000030 fb b7 8b 3c 6c fc fa 3c 1c ea 15 ba ae 68 1f 3c
       0.017055502 0.030637942 -0.0005718784 0.009729547
000040 ee ca 1c bd 4a 51 d5 bc 6d c1 15 3d 6c 16 82 bd
       -0.038279466 -0.026039738 0.03656142 -0.06351933
000050 52 8a 42 3d 55 21 3f bd cb e5 17 3c 14 0d 76 bd
       0.047495194 -0.046662647 0.0092710955 -0.060071066
000060 9c 86 cc bc 14 58 2a 3b 96 78 98 bb dd 3a e7 bc
       -0.02496653 0.002599244 -0.004653047 -0.02822631
000070 ff b3 51 bd 3f fc eb 3a 0a ff 76 bc 6a 66 7d 3d
       -0.05119705 0.0018004252 -0.0150754545 0.061865248
000080 10 ab d6 3d 59 74 37 3b 30 85 7a 3c 7e 7c cc bd
       0.10481846 0.0027992933 0.015290543 -0.099846825
000090 01 ae a0 3c 29 a0 50 3d d3 83 e4 bc f5 d1 32 bd
       0.019614222 0.05093399 -0.02789489 -0.043657262
0000a0 2b 96 29 3b d8 d8 96 3d 14 63 fe 3d 04 24 50 bd
       0.002587686 0.073655784 0.124212414 -0.050815597
0000b0 7f e2 e4 3c 71 27 8b 3b 96 86 6d 3d b8 8a d6 39
       0.027940033 0.004246645 0.05798968 0.00040920614
0000c0 22 48 3c bd 4c 53 4d bd ff 61 99 3c 8d 04 f0 bc
       -0.04596723 -0.050128266 0.018723486 -0.029299045
0000d0 a2 fa c3 3c 11 9d 1d bd af ec a8 3c 07 5f c6 3b
       0.023923222 -0.03847987 0.020620672 0.0060538086
0000e0 ab 29 83 bd 69 c1 49 bc f9 64 fd bc 28 b3 86 bd
       -0.06404432 -0.012314179 -0.030931937 -0.0657714
0000f0 96 5c b4 bd b0 37 84 3c 07 e7 6e bd e6 80 54 bd
       -0.08806722 0.016139835 -0.058325794 -0.05188074
000100 f9 f5 84 bd 2d 0a 2c 3d f1 02 a2 bd 19 8d 43 3c
       -0.06492228 0.042001892 -0.07910717 0.011935496
000110 b5 84 01 bd f7 25 2e bd 55 41 a0 bc ac ba 2b bd
       -0.0316207 -0.042516675 -0.019562403 -0.04192607
000120 c8 75 2c bb 59 3c 8b bc 54 5d 6f 3d 2e 91 c9 bb
       -0.002631532 -0.01699655 0.058438614 -0.00615134
000130 3f f4 8c bd 5b 82 0a bd 84 67 97 bc f4 80 69 bc
       -0.06882524 -0.033815723 -0.018481977 -0.014251936
000140 b3 65 fb bc 3c 12 65 bc 73 72 27 bd 6f 45 88 bd
       -0.030688142 -0.013981398 -0.04088063 -0.066538684
000150 5b 61 b8 3b 27 41 8d bd ca 56 53 bd b8 af d2 3d
       0.00562684 -0.068971924 -0.05159644 0.10287422
000160 14 8d 8a 3d 83 95 89 bd c3 c2 20 bd 08 a2 9a 3c
       0.0676519 -0.0671797 -0.03924824 0.01887609
000170 55 b3 0b 3e 9e 60 48 bd 2f 84 b7 bd ef 93 90 bd
       0.13642628 -0.048920266 -0.08960759 -0.07059466
000180 8a 42 1a 3d 58 ce 9b 3d 13 ed 82 3c e6 ea 6e bd
       0.037661113 0.07607716 0.015982186 -0.058329485
000190 07 8c 28 3c e6 76 6c 3d d4 70 8b bd 39 9d 34 3c
       0.010287291 0.057730578 -0.0680863 0.011023813
0001a0 07 d4 2b bd 2d 4a aa bd 14 7e 56 3d 3f 71 46 bd
       -0.041950252 -0.08314929 0.05236633 -0.048447844
0001b0 1c 9d 58 bd 4c 59 9f bc 0b ff a2 bd 22 e7 89 bd
       -0.052884206 -0.01945176 -0.07958802 -0.06733538
0001c0 e7 b9 8f bd 6f ad 2f 3d 55 7e 2b bd f9 bb a1 bd
       -0.0701788 0.04289001 -0.041868526 -0.07897181
0001d0 c7 15 62 3c ab 3d fb bc d3 8a 2e bd 1a 66 a9 3b
       0.013799137 -0.030669054 -0.04261286 0.005169642
0001e0 d3 eb 81 3b 80 7e 65 3c 57 03 66 bb 87 61 66 bd
       0.00396488 0.014007211 -0.0035097206 -0.056245353
0001f0 b9 01 84 3d d3 e4 b2 3c 1a 84 5a 3d 9f e0 8a 3d
       0.06445641 0.021837628 0.053348638 0.06781124
000200 74 25 04 bd 68 2e 24 3d f4 2b a4 bd a0 b5 7d bc
       -0.03226228 0.04008332 -0.08016196 -0.015485197
000210 c2 19 e2 3d fb f0 cd 3c a9 77 61 bb 94 20 25 3c
       0.11040069 0.025139323 -0.0034403598 0.010078568
000220 1d cc 8b 3d 92 ea 8e 3d 10 11 87 3d 4e e3 e4 3b
       0.06826041 0.069783345 0.06595051 0.0069851046
000230 67 8e 50 bb 66 75 48 3d fd 06 b0 3d e9 f3 2f 3d
       -0.003182316 0.048940085 0.08595083 0.04295722
000240 b4 46 fe 3b de a5 68 3c f5 eb 03 3c d1 79 da 3c
       0.0077598933 0.014199702 0.008051862 0.026669415
000250 7a 8c 1e 3d c6 3c c7 bc 3d 7b 73 3c fb bb a0 bc
       0.038708188 -0.024320971 0.014860925 -0.019620886
000260 eb 42 62 3d 7e a9 99 bb c3 36 a2 3c 84 bf 90 bc
       0.0552396 -0.0046893945 0.019801503 -0.017669447
000270 ed 5c ab bd 3d ea 3b bd 28 23 93 3c a3 d4 94 bd
       -0.083673336 -0.045877684 0.0179611 -0.0726712
000280 37 e8 4d 3d 20 04 83 bd 1c b5 01 be d8 3f 9f bb
       0.050270285 -0.06397271 -0.12666744 -0.0048599057
000290 3d f7 30 3c 92 91 84 3d d1 45 83 bd 59 a4 32 bd
       0.010801134 0.06473078 -0.06409801 -0.043613765
0002a0 27 9c b0 bc fe cf 2d bd fa 7a d3 3b 44 56 ca bd
       -0.021558834 -0.042434685 0.006453869 -0.09879735
0002b0 9b 7b 1e bd 0e 6c 2f bd ae bf ae bc 85 99 bd bc
       -0.038692098 -0.04282766 -0.021331634 -0.023144493
0002c0 f0 77 6e bc 03 58 a5 bc 6e ef 9d bc 05 b0 93 3d
       -0.0145549625 -0.020183569 -0.019279208 0.072113074
0002d0 50 c2 5f bd ed 8b 90 bc 91 57 90 bd 5f be 05 3d
       -0.05462867 -0.017644847 -0.07047952 0.032652255
0002e0 f8 4a 81 3d b3 d0 00 3e 62 5a 4c 3d 17 e8 9f bd
       0.06313127 0.12579612 0.049890883 -0.078079395
0002f0 d0 a3 d6 3c e6 2d e3 3d 14 08 8e 3d b0 34 73 bd
       0.026201159 0.11092739 0.069351345 -0.05937642
000300 63 ba 76 bd ac 71 10 bd c5 18 18 3d f7 c0 67 3d
       -0.060236346 -0.035264656 0.037132997 0.05658051
000310 97 7a eb bc 66 47 11 bc b0 54 b5 bc 40 30 45 ba
       -0.028744979 -0.00886712 -0.022135109 -0.00075221434
000320 65 c6 14 3d 5c 33 01 bd 3a 24 83 bd c8 89 8a bc
       0.036322016 -0.03154312 -0.06403394 -0.016911402
000330 ad 23 e3 bc 04 45 99 bd 9f 27 2a bd 59 69 49 bd
       -0.027726972 -0.07483867 -0.041541692 -0.049172733
000340 2d b9 96 bd ed 97 c0 3c 71 88 81 bc ba 34 02 bd
       -0.07359538 0.023509944 -0.01581213 -0.031788565
000350 52 22 6a 3b 55 e5 95 bc c5 d0 5b bd 41 cc 63 3d
       0.0035726023 -0.01829783 -0.053665895 0.055614714
000360 0e 07 90 3c 68 1d d6 bd aa 5a 9f bd 12 ab fe bc
       0.017581489 -0.104548275 -0.07780965 -0.031087432
000370 1c 6f ac 3d c5 d2 0f bd e6 8b 3a bd 41 7b 83 bd
       0.0841963 -0.035113115 -0.045543574 -0.06419993
000380 cf ba 24 bd 1d 03 55 3c 78 33 93 3c 79 af b3 3d
       -0.040217217 0.013001231 0.017968878 0.08773703
000390 51 d9 13 bb f1 c1 2d 3d ca c0 ae bc 0c c5 04 bd
       -0.002255995 0.042421285 -0.021332163 -0.03241448
0003a0 2b c2 0f bd 5d 44 f6 3d 43 d1 27 3d 2a 1e cc bc
       -0.035097282 0.12024758 0.040971052 -0.024916727
0003b0 0b be d3 3c ba 89 97 3d d6 f2 d1 3d a3 e4 11 bd
       0.025847455 0.07399316 0.102513954 -0.035618436
0003c0 98 f3 ad bd d5 0c 29 bd 64 d6 1f 3d 3f cb ba 3c
       -0.084937274 -0.041272003 0.03902282 0.022801993
0003d0 bc 0d 84 bc c1 84 14 bd 64 ff b8 3d a3 50 c4 3d
       -0.01611983 -0.036259416 0.09033087 0.09585693
0003e0 b6 6e 0e bd e2 56 97 bd d7 a1 13 3d e3 57 f4 3c
       -0.03477355 -0.073896185 0.036043014 0.029827064
0003f0 61 32 db 3c f1 4b cf 3c 16 9f e7 3d ec 79 01 bd
       0.026757421 0.025304766 0.1130964 -0.031610414

conv2.bias f4 [20]
000000 1a c3 c2 3a a2 88 0a bd ba 69 55 3d 88 1c 59 bd
       0.001485917 -0.03382171 0.05210278 -0.053005725
000010 2a d4 54 bd bc 59 34 bd 09 8a 4b 3c 71 35 51 bd
       -0.051960148 -0.04403089 0.012423047 -0.051076356
000020 d5 54 23 bd 8d af 04 3d b6 3c d1 39 26 9e 76 3d
       -0.039875824 0.03239398 0.0003990882 0.060209416
000030 80 a8 0b 3c f9 6c a1 bc d7 0b 25 bd 38 5d 22 bd
       0.00852406 -0.019705283 -0.040294494 -0.03963968
000040 fb b4 63 bb 0c bf 89 3c c9 50 13 ba 15 c6 71 3d
       -0.0034745324 0.016814731 -0.0005619643 0.059026796

fc1.weight f4 [50, 320]
000000 a8 68 00 3d 92 31 6d bd db 1f 8a bc 42 12 d3 bc
       0.031349808 -0.057908602 -0.016860893 -0.025765542
000010 53 f2 62 3c 4b 5f d3 bc 1c fb 76 3c 30 48 48 bd
       0.01385172 -0.025802275 0.015074518 -0.04889697
000020 ce 34 dd bc 69 0c 00 3d ed 04 1b 3d b3 85 64 3c
       -0.027002718 0.031261835 0.037846494 0.013947892
000030 22 4d 09 3d 89 2d 1f bd 9a 27 08 bd 2b ce 8d 3d
       0.033520825 -0.038861785 -0.033240892 0.06924089
000040 92 e8 74 bd 50 87 9d 3c 9a 6f 26 3d 4a 82 e7 bc
       -0.05979211 0.019229561 0.040633775 -0.028260369
000050 78 97 4e bb 1a a3 dd bc d6 ed c4 3c cb a8 e2 bc
       -0.0031523388 -0.027055312 0.02403919 -0.027668377
000060 ba 12 88 3d c8 6b ad 3b e2 3a 3e 3d 26 9b 32 3d
       0.06644197 0.0052923895 0.046442874 0.043604992
000070 90 2f ce bc 33 ab 41 3d 1d 51 3c 3c 92 23 11 bd
       -0.025169164 0.04728241 0.011493948 -0.035434313
000080 58 31 57 3d 9e 76 c6 3c 7a ed 48 bc 1d 81 49 bc
       0.052537292 0.024226483 -0.01226365 -0.012298849
000090 84 aa 81 bd 62 f4 e9 bb 50 bf 59 3d dd 78 ac bc
       -0.063313514 -0.0071397284 0.053160965 -0.021053726
0000a0 b5 c4 8e bc 8c cc 00 3d 52 b6 73 bd f6 fb b3 3c
       -0.017427782 0.03144507 -0.059500046 0.02197073
0000b0 e2 b6 d0 3d 5b 44 0e bd 81 a0 ec 3c b1 d1 23 bc
       0.10191132 -0.034733158 0.028885128 -0.009998725
0000c0 a3 aa e5 bb 67 ea e5 bb 59 48 43 bd f7 ad b2 3c
       -0.007008867 -0.0070164683 -0.047676418 0.021811469
0000d0 87 73 8e 3c 07 a7 43 bd 56 ec 11 bc ee d0 61 3d
       0.017389072 -0.04776671 -0.008906445 0.05513089
0000e0 6b 93 15 bd 60 01 5c 3b 1f 22 8a 3d 77 01 08 3d
       -0.03651754 0.0033570156 0.06744789 0.033204522
0000f0 60 15 a8 3d 91 08 2f 3d cd 1b a8 bc b6 9a 6d 3b
       0.08207202 0.04273278 -0.020521069 0.0036255545
000100 92 2c ae 3c 60 97 73 bc 57 e5 13 3d 96 f2 5b 3d
       0.021261487 -0.014867634 0.036107387 0.053698145
000110 31 b0 0d 3c 13 28 e2 bc bf d1 0e 3c 8e 50 a2 3d
       0.008647964 -0.027607 0.008717 0.07925521
000120 07 c3 10 3d da 70 33 bd 74 ba 9f bc 3e 2f 84 ba
       0.035342243 -0.043808796 -0.019498087 -0.001008488
000130 22 75 94 bc 01 22 e7 bc e4 b6 28 3c d0 52 84 bd
       -0.01812226 -0.028214457 0.010297511 -0.06461108
000140 1e 81 49 bc e9 78 09 bd 8e c9 b9 3b 0e cb bc bc
       -0.01229885 -0.033562575 0.005669779 -0.023046043
000150 ce 43 ba 3c fe 2f bb 3c e9 4b 09 bc 5e 8e 33 3b
       0.02273741 0.022850033 -0.008379915 0.002739809
000160 e2 13 85 bd e3 ee 4a bd 1e ed 70 3c c0 38 38 bd
       -0.06497933 -0.049544226 0.014704971 -0.044975996
000170 b2 48 2c 3d 66 b4 ef 3c 65 7e be 3b 4e 06 51 3d
       0.042061515 0.029260825 0.0058134072 0.051031403
000180 4c 49 1d bd 2c d9 4c 3d e1 33 6a bc d8 be 99 bd
       -0.03839998 0.0500118 -0.014294595 -0.07507104
000190 b8 30 e5 bc 93 f8 32 3d bc 5f f6 bb 58 55 b0 bc
       -0.027977332 0.04369409 -0.0075187366 -0.02152507
0001a0 02 75 9d bc 0b e3 b3 3d 01 5d 3b bd 69 ef 6b 3b
       -0.019220833 0.087835394 -0.045742992 0.0036000854
0001b0 79 a3 5e 3d 75 3f 5b bc 93 0c 93 bc 9d 6c 4a bd
       0.05435512 -0.013381829 -0.017950332 -0.049419988
0001c0 0b 77 82 bb 90 af 10 3d 5b a4 89 bd d2 36 4e bc
       -0.003981476 0.03532368 -0.067208014 -0.012586312
0001d0 dd 39 0f bd a6 46 6b 3c 43 f7 5a 3c 04 35 d1 bc
       -0.034967292 0.014360106 0.013364616 -0.025537975
0001e0 08 2a c8 3a 0d 4a 1c 3d 57 d8 9b bd f0 90 99 3c
       0.0015271315 0.038156558 -0.07609623 0.01874587
0001f0 fa 5a c8 3c 93 3a bd 3c e8 44 c7 3d 3a ef 64 3d
       0.024457444 0.02309922 0.0972994 0.055892207
000200 4b 82 f8 bb 96 91 9e 3c 81 f2 51 3d 76 36 ca 3d
       -0.0075838915 0.01935653 0.05125666 0.09873669
000210 71 be 17 bb ab e0 04 3c fc b6 24 3d c5 56 a2 3d
       -0.0023154283 0.008110206 0.04021357 0.07926706
000220 5f bc 33 bb 33 57 77 bc 3d 42 4a bd bf 4b 76 bc
       -0.002742551 -0.0150964735 -0.049379576 -0.015032708
000230 22 20 12 bd fc b9 19 bd ea 0b 34 bd 9f 08 90 bb
       -0.035675175 -0.037530884 -0.043956675 -0.004395559
000240 49 30 a9 3b 4a 37 b3 bc 10 2c 54 3c 65 d1 47 3d
       0.0051632267 -0.02187695 0.012949958 0.04878368
000250 25 1c 8c 3c 25 54 05 3c 8f a9 8c bc 8c 76 6f 3d
       0.017103264 0.008137737 -0.017170696 0.058462664
000260 fd 21 e7 bc b7 d0 ac bb 30 e9 c7 3c a8 27 57 bc
       -0.028214449 -0.005273904 0.024403185 -0.013132013
000270 de dc 83 3d 02 90 5b 3c 0b 58 41 bd 75 c8 60 bc
       0.064386114 0.013401033 -0.047203105 -0.013719668
000280 d4 51 41 bd 47 2d 14 bd 47 93 a8 bc c1 88 ff bc
       -0.047197178 -0.036175992 -0.02057804 -0.031193139
000290 69 23 69 bd 66 71 c8 3c eb 44 76 bc 63 1c 5f bd
       -0.056918535 0.024468135 -0.01503108 -0.05447043
0002a0 84 6b 05 3d b3 1e 16 3a 31 60 da 3c 81 db b0 3d
       0.032573238 0.00057266204 0.026657196 0.08635617
0002b0 d3 0b b0 3c f2 bc 39 3c 1e bc 17 bd 98 f9 47 3d
       0.021490013 0.011336552 -0.037044637 0.048822016
0002c0 54 45 a7 bc 76 de 01 bd 74 db 4d 3d 09 ab 3a 3d
       -0.0204188 -0.031706296 0.050258115 0.045573268
0002d0 f6 2b 94 3a f2 00 42 3c 30 73 d6 3c 31 c9 d6 3c
       0.0011304605 0.011841046 0.026177973 0.026218982
0002e0 68 71 74 bd ab aa 0d 3c 6b 4d 21 bc 7a 24 cc 3b
       -0.059678465 0.008646647 -0.009845118 0.0062299343
0002f0 93 b3 d4 3c 59 01 49 3d 1e 13 21 3d 4d ff 18 bc
       0.025964534 0.04907355 0.039324872 -0.009338212
000300 41 55 2e 3d b8 74 ea 3c e7 54 9d bd 14 76 ec 3c
       0.042561773 0.028620109 -0.076822095 0.028864898
000310 94 46 41 3d 71 95 3c bd 44 90 b5 bb f8 eb c0 bd
       0.04718645 -0.046040956 -0.0055408794 -0.094200075
000320 66 d3 92 bc a5 70 ab bd c4 7a ae 3c 05 8e 22 3c
       -0.017923068 -0.083710946 0.021298774 0.009921555
000330 86 33 53 bc 3e 31 b4 bd d0 ec 5e 3c 64 cb b3 3d
       -0.012890702 -0.08798455 0.013606265 0.08779028
000340 8e d4 e3 bc 3c fa 69 bd eb 32 85 bc fb 8f 49 bc
       -0.027811315 -0.057123408 -0.016259631 -0.012302394
000350 5c f7 19 bd 79 39 a9 3c fc ae 44 bd f9 8e 15 bd
       -0.037589416 0.020657288 -0.04801844 -0.036513302
000360 c6 d4 c6 3b 19 ae cb bc a5 37 b4 3d 5e d9 0d 3d
       0.006067845 -0.02486329 0.08799676 0.034631126
000370 19 e2 5b 3c 11 90 a8 3d c5 9b 29 3c 07 c6 72 3c
       0.013420605 0.082306035 0.01035208 0.014817721
000380 15 ca 6c 3c 54 4a c8 bc 9f 02 dc bc ab ca b8 bc
       0.014452477 -0.024449505 -0.026856719 -0.022557577
000390 0a 18 59 3d f9 15 cc 3c c5 3b aa bd a1 99 91 bd
       0.05300144 0.024912821 -0.083121814 -0.071093805
0003a0 6b 16 88 ba 1a 6a 23 bc f2 af db bc 5f 40 f3 3c
       -0.0010382658 -0.009974027 -0.026817296 0.02969378
0003b0 5a 48 e8 3c 6c 17 e9 bc 63 c2 9f bc 29 c3 32 bc
       0.028354812 -0.028453551 -0.01950187 -0.010910788
0003c0 66 1a 97 3d 95 fd aa 3a 2d d8 ba 3a 47 7e 55 bd
       0.07378082 0.0013045544 0.0014255099 -0.05212238
0003d0 20 fe da 3c 20 24 0d 3c 42 dc 22 bd ad 2d b7 bd
       0.026732504 0.00861457 -0.039760835 -0.08944259
0003e0 1e 27 67 3d fa 8a da bb 13 53 15 bd 85 69 c1 3c
       0.05643379 -0.0066693993 -0.03645618 0.023609886
0003f0 f6 6a 18 3d c0 62 71 bd b0 a6 5c bd 8c 8c 2d 3d
       0.03721138 -0.058932066 -0.053869903 0.042370364

fc1.bias f4 [50]
000000 15 70 6f bd bb 59 a1 3c 37 a0 3c 3d d9 c5 12 3d
       -0.0584565 0.019696107 0.04605123 0.035833213
000010 65 4e 9d bb fe 3e 2c 3d 33 6d da ba ad cf 04 3d
       -0.004800605 0.04205226 -0.0016664624 0.032424618
000020 37 76 69 3d cb 49 69 3d 2d c1 0c bb a2 4e 41 3d
       0.056997504 0.05695514 -0.0021477446 0.04719413
000030 c4 79 76 3d 0c 09 17 b8 2f ee 47 3d e0 fc a7 bc
       0.06017472 -3.600963e-05 0.048811134 -0.020506322
000040 6a 79 bf 3c ca d9 5c 3d fc 36 6a bc 20 76 4b 3c
       0.023373324 0.053918637 -0.014295336 0.0124183
000050 cc 38 ff ba ed a1 0d bd f8 b9 cc ba 93 14 4a 3d
       -0.0019471883 -0.034578253 -0.0015619388 0.049336027
000060 2f f9 ca bc 80 26 5b bd 7b 5b 1b 3b 03 27 49 bd
       -0.024777023 -0.053503513 0.002370565 -0.04910947
000070 17 b7 1d 3d 2c 43 32 3d b0 dd d9 3c 8d ec fa 3c
       0.038504686 0.04352109 0.026594967 0.030630374
000080 ae 7e 6c bc 89 9f 16 bc da 77 34 3d 82 57 0b bd
       -0.0144345 -0.00919331 0.04405961 -0.034019
000090 e6 b9 d0 39 37 08 b9 3c 4e 12 3a 3c f8 c4 0f 3d
       0.00039811357 0.022586925 0.011356903 0.035099953
0000a0 d1 8b cb 3c 59 cc 69 3d 48 9b 8a 3c 59 eb 0c 3d
       0.024846943 0.057079647 0.016919747 0.034404133
0000b0 01 2c 58 3d da b0 76 bd fe 86 7b 3c f7 c0 af 3d
       0.05277634 -0.060227253 0.015352009 0.08581727
0000c0 0c 20 5b 3d fc 7c 70 3d
       0.05349736 0.058712944

fc2.weight f4 [10, 50]
000000 0c f2 eb 3d af 1c 11 be 92 d3 39 bc 82 ee 95 be
       0.11520776 -0.14171098 -0.011341946 -0.2928353
000010 5a f3 00 3e 28 1f 56 be a1 be 4e 3e 0f 45 8e bd
       0.12592831 -0.20910323 0.20189907 -0.06946766
000020 2a 79 67 3e 82 72 a7 bd 81 ce 27 be 3a 8a 42 3e
       0.22604814 -0.081761375 -0.16387369 0.18998042
000030 d1 59 27 be 07 ce 22 bc d1 88 1f be dd 25 81 3d
       -0.16342856 -0.009936816 -0.15579535 0.0630605
000040 e3 31 34 3e 19 7c 1e bd 94 5a 3a be 82 05 1d be
       0.17597155 -0.038692567 -0.18198615 -0.15334132
000050 bf 6e fd bc 68 b6 56 bd 4e b0 41 be 53 9e 36 3e
       -0.030936597 -0.05242005 -0.18914911 0.17833833
000060 e4 b4 54 3e 88 4a 19 be 94 f0 4f 3e fd 61 b4 bd
       0.2077213 -0.14969838 0.20306617 -0.08807752
000070 88 87 22 be 22 66 0a be 44 e8 b3 bd be ce dc bd
       -0.15872014 -0.13515523 -0.087845355 -0.107816204
000080 a6 6b 78 3d 8e 40 90 3d 6d 03 4f 3c 09 f1 3b be
       0.060649537 0.07043563 0.012635094 -0.18353666
000090 79 88 2d be c7 eb 20 be 19 68 27 be 5e 7d d7 3d
       -0.16946591 -0.15714942 -0.16348304 0.10521959
0000a0 fd f7 78 be 90 6b 5d 3e da a1 01 3e 2a 12 22 be
       -0.2431335 0.21623063 0.12659398 -0.15827242
0000b0 89 f8 2a be 14 7a 0a 3e 61 49 7e bd bd f6 47 be
       -0.16696371 0.13523132 -0.0620817 -0.19527717
0000c0 96 42 53 3e 35 71 59 3e 5f d7 81 bd 63 20 48 bd
       0.2063087 0.21234591 -0.06339907 -0.04885901
0000d0 8f fa 52 3e 31 4b 36 3e 3e 1e a8 bd 84 9f 86 3e
       0.20603393 0.17802121 -0.08208893 0.26293576
0000e0 22 b3 f5 bd 7a 4c 5a bc 98 1f 92 3d 31 fc 8d 3c
       -0.119970575 -0.0133238975 0.07134932 0.017332168
0000f0 a8 33 dd 3d 72 c0 14 3e 74 e0 79 3e ec b9 1f 3e
       0.10800868 0.14526537 0.24402028 0.15598267
000100 26 e7 90 3e be 12 91 3e 60 5d 00 3e 71 b8 2b be
       0.28301352 0.28334612 0.1253562 -0.16769578
000110 ee 7a 4b 3e 54 27 2a be f0 37 67 3e 2c cc 96 3d
       0.19871113 -0.16616565 0.22579932 0.073631614
000120 98 60 0d 3e 01 7b 81 be 94 f3 24 3e d1 cc 93 bd
       0.13806379 -0.25289157 0.16108543 -0.072168
000130 fc 1a 34 be 1d d2 91 3d 61 3a 27 be 34 f5 ea bd
       -0.17588419 0.07120154 -0.16330864 -0.1147255
000140 9f b0 f6 3d f2 a9 bb 3c 83 18 51 be 06 ed 3c be
       0.120454066 0.022908185 -0.20419507 -0.18449792
000150 9e 0f a8 3d 61 cb 13 3e 78 7c 2e 3e 36 f5 6b 3d
       0.08206104 0.14433052 0.17039669 0.0576069
000160 bb 00 64 3c bc 37 ef bd ff 94 04 3e bc ad 20 be
       0.01391619 -0.11680552 0.12947462 -0.15691274
000170 f5 d4 ad be d6 00 f9 3d 83 28 92 be 55 a8 83 be
       -0.33951536 0.121583626 -0.28546533 -0.25714365
000180 61 48 93 be 78 02 3d 3e 25 83 70 3d f4 9f 89 be
       -0.28766158 0.18457973 0.05871882 -0.26879847
000190 cd e9 97 3d cb 56 04 3b a1 a1 75 3e 8d db 3b be
       0.07417641 0.0020193334 0.23987438 -0.1834547
0001a0 75 5b f8 3d e3 84 49 3d cb 7c f3 bd 3e b0 8c bd
       0.12126819 0.049198996 -0.11889037 -0.06869553
0001b0 5f a0 39 3e c4 16 5c be 47 cd 6b bd 1e 37 fe bd
       0.18127583 -0.2149306 -0.057568815 -0.124128565
0001c0 c1 5f 6a 3e ac 6a 5d be ca 8d c5 bd 82 21 dd bd
       0.2288809 -0.21622723 -0.09646185 -0.10797407
0001d0 04 e2 b0 3d 80 be 1b 3d ca 3d 61 3e 85 e3 29 3d
       0.08636859 0.03802347 0.21996227 0.041476745
0001e0 73 53 8e 3e 81 b7 cc 3c 20 ad 3b 3e b6 bd 28 3e
       0.27798042 0.024989845 0.1832776 0.16478619
0001f0 45 f9 e4 3d 81 8d 8f be 83 60 c6 3d 10 88 bd bd
       0.11180357 -0.28037646 0.09686377 -0.092544675
000200 b3 50 05 3e 97 86 86 3d cd f1 27 3d e5 22 32 be
       0.13019066 0.0656864 0.041002084 -0.17396124
000210 6f b6 9c 3d c4 d1 98 3c 98 f2 23 bd d2 97 8d 3c
       0.07651984 0.018654712 -0.040026277 0.017284308
000220 15 1e 16 bd d6 3c 35 3e 34 7f 15 be 26 fc fb bd
       -0.036649782 0.17698988 -0.14599305 -0.12303953
000230 64 0d 54 3e b0 bf 03 bd 6a 81 ac 3c d5 f2 be bc
       0.20708233 -0.03216523 0.021057803 -0.02330915
000240 6d d8 58 bd ae 6d 1c 3e 18 b9 8b 3d 05 0b f5 bd
       -0.052940775 0.15276214 0.06822413 -0.119649924
000250 e7 c8 c2 bd 38 20 cc bd 46 40 16 3e 31 42 1a bc
       -0.09510975 -0.09967083 0.14672956 -0.009415195
000260 35 18 f3 bd 84 09 c1 bc 6c ec f0 3d 1b 28 8b 3e
       -0.118698515 -0.023564108 0.11763844 0.27179036
000270 ef a4 18 3e fe e1 ac bd 42 d6 8f bd d2 05 3b 3e
       0.14906667 -0.08441542 -0.07023288 0.18263939
000280 62 d4 5a 3e 3f a5 b7 3d 74 db df bd 91 fe 34 be
       0.2137008 0.08967065 -0.10930529 -0.17675234
000290 27 a5 36 be 5d 65 3f bd 8c 83 e6 bd 63 cb 19 3d
       -0.17836438 -0.046727527 -0.11255559 0.03754748
0002a0 59 c9 d8 ba 67 bb 8a b9 7c 1b 83 3e a6 c1 68 3e
       -0.0016539498 -0.00026461037 0.25606906 0.22730121
0002b0 7e b0 14 3e d6 71 bd 3d a2 d5 68 bc ba 67 bb 3c
       0.14520451 0.09250228 -0.01421109 0.02287661
0002c0 97 9a 54 be c0 5f 88 3e 18 5a a7 3d 90 61 88 bd
       -0.20762096 0.2663555 0.08171481 -0.066592336
0002d0 37 f9 14 be 47 28 39 3e b9 23 26 3d e8 a6 e7 3c
       -0.14548193 0.18081771 0.04056141 0.02827783
0002e0 2f 85 50 3d e8 ab c6 3d c9 4b 0c be 8d 29 37 3d
       0.050908264 0.09700757 -0.13700785 0.04471736
0002f0 df 72 54 be 7a e0 ea 3d 5b db 38 3e 20 ae 38 be
       -0.20746945 0.11468597 0.18052427 -0.18035173
000300 8e 6d 6d 3d ad da a7 3d 43 c3 07 be b8 57 89 3c
       0.057965808 0.08196006 -0.1325808 0.01676546
000310 ae 16 27 3d 06 d9 79 be 0d 66 ee 3c 37 fa 3f be
       0.040793113 -0.24399194 0.029101396 -0.18747793
000320 e7 d6 04 be 54 13 8b 3e 15 4c 8f 3d ed aa 38 3e
       -0.12972604 0.27163184 0.06996933 0.18033953
000330 82 80 94 be fc e8 9a bd b3 10 17 be bf e8 22 3e
       -0.29004294 -0.075639695 -0.14752464 0.15909098
000340 11 ef 0b 3d 2e 81 18 be 71 c1 22 be a3 56 ad bd
       0.03416354 -0.14893028 -0.15894105 -0.0846379
000350 07 47 19 3e 6a fe 4f 3c 9e 93 a0 bd c8 0f ad 3e
       0.14968501 0.012694934 -0.07840656 0.33801103
000360 58 90 20 be 7f 1f f9 3d 11 00 b4 3b 2a a1 e3 bd
       -0.15680063 0.121642105 0.005493172 -0.11114724
000370 9c 64 2d bc ff 52 f0 3d 18 8a 48 be df a9 37 3e
       -0.010583069 0.1173458 -0.19583929 0.17935894
000380 52 3c 35 be 8a 07 78 3b 86 ab 0f 3e 1e 39 ee 3c
       -0.17698792 0.003784629 0.14030275 0.02907997
000390 3b f2 79 be 80 f3 9e 3d 57 71 e7 bd ad cd 28 3e
       -0.2440881 0.07761288 -0.11300915 0.16484709
0003a0 5f 23 bc bd 3c 79 90 be a3 d7 dc 3c b1 04 1d 3e
       -0.09186434 -0.28217494 0.026958292 0.15333821
0003b0 b9 a0 f6 bd 5a d8 85 3e b3 ca 25 3e bc 41 51 be
       -0.12042374 0.26141626 0.16190605 -0.20435232
0003c0 60 33 55 bd 8a de 2d be c6 d0 63 3d 38 63 08 3c
       -0.05205095 -0.16979423 0.055619024 0.008324437
0003d0 7f 14 52 3e 26 94 ed bc 9b 1a 08 3e 2e c5 33 3e
       0.20515631 -0.029001307 0.13291399 0.17555687
0003e0 10 24 6f be dd b1 43 3e a4 16 26 3e de a4 97 3d
       -0.233536 0.19110818 0.16219574 0.07404493
0003f0 4a 6a 47 bd 16 d9 bc 3d 78 9e e0 3d 64 ff 68 3d
       -0.04868535 0.09221093 0.109677255 0.056884184

fc2.bias f4 [10]
000000 59 1a 7b bd d2 ed 46 3d 25 da 03 3d a8 ab e4 3d
       -0.061304424 0.048566647 0.03219046 0.11165553
000010 4b 88 79 bd 87 61 67 bc 37 ff cd bd 38 8e 57 bd
       -0.060920995 -0.014122373 -0.10058444 -0.052625865
000020 83 22 81 3d a7 84 84 bd
       0.06305411 -0.06470614
