result/model_19_3.pth (torch, 307183 bytes, 8 tensors)

net.0.weight f4 [20, 1, 4, 4]
0.45250204 0.55398524 0.19408405 0.4553022 0.054755583 -0.17631343 -0.44714382 0.23224925
0.058382597 -0.33908486 0.36764902 0.24873334 0.2748392 0.32682258 0.34913117 -0.13207784
0.42447755 0.28521633 0.102220364 0.26577568 -0.1105093 0.019976769 -0.04425476 0.19865239
-0.2784615 -0.22305144 -0.23479536 -0.21016298 -0.020787671 -0.2918722 0.06937046 -0.20562217
0.22378045 -0.01639502 -0.44081053 -0.29445526 0.17003988 0.76554996 0.36254156 -0.4243896
-0.22733946 0.21702892 0.6512094 0.1935004 -0.21323703 -0.2862083 0.22045484 0.2585638
0.110763565 -0.23143347 -0.3978647 -0.13267334 -0.15638243 0.29734796 0.19991036 0.29663244
0.13910335 0.14462623 0.29615656 -0.09275148 0.0058240504 -0.23338966 -0.044857778 -0.07979237
0.058999524 0.019197283 0.27866176 -0.10632953 -0.19545153 -0.17397924 0.18816191 0.07526302
0.23563865 -0.2436536 -0.3564314 -0.28517666 -0.13710816 0.15016481 0.14389186 0.25871614
-0.17767964 -0.07624557 0.20217885 -0.18482251 0.107248545 0.10901208 0.21281545 -0.3111
-0.053226814 0.31242996 -0.016944082 -0.22581416 0.2935937 0.33165446 -0.30456772 -0.2826738
0.31598243 0.0089494195 -0.04099141 -0.23319209 -0.11625884 -0.05365669 -0.16001885 -0.17414102
-0.072858326 -0.308769 -0.3019828 0.0033481333 -0.18265 -0.13340788 0.31640425 0.27441803
0.10284935 -0.20084782 -0.13872804 -0.06393827 0.039276026 -0.20576619 -0.120143816 -0.16989695
-0.011585423 -0.129019 -0.07770694 -0.20382869 -0.13568002 -0.13199566 -0.0982316 -0.18401031
0.33349332 0.08665925 0.32854554 0.20305069 -0.1965592 0.19505042 -0.065723866 -0.05722489
-0.28694445 -0.3377576 -0.05996092 -0.09926595 0.06192714 -0.23259215 0.09753545 -0.1913664
-0.08430231 0.06856175 0.21209465 0.34078187 0.25452068 -0.25908664 0.15512751 -0.18030338
-0.117143184 -0.20978798 0.33009553 -0.31740335 -0.017957265 0.05432251 0.07231203 -0.2229636
0.4426278 0.09713769 0.016754039 -0.19309838 0.39512628 -0.021624444 -0.178654 0.21417418
0.29966083 -0.15670145 -0.24861014 -0.11452113 0.24999617 -0.0733258 -0.24308069 -0.19040462
-0.25465116 0.2887374 0.23865393 -0.36773598 0.026326329 0.3798911 0.017442709 -0.2768638
0.21334758 0.31566653 0.0056583537 -0.22880419 -0.07269583 0.15464216 -0.07311176 -0.19694066
0.21216118 0.28297612 0.009224538 -0.04851142 0.0031625195 0.054752965 0.16657141 0.1801724
-0.30377534 -0.14070815 0.1845703 0.13494068 -0.07755995 -0.22685252 -0.24841213 -0.2873438
-0.200797 -0.0005063197 0.26021388 0.29062548 -0.37616563 -0.30370557 -0.005951875 0.48179337
-0.1152181 -0.22591792 0.1382623 0.10216133 -0.27602533 0.06804289 -0.06429537 0.08569075
-0.21845014 0.23517478 0.26904976 0.15541393 -0.16305001 -0.20006643 -0.10005562 0.33587444
0.14568308 0.26913273 0.11691495 0.04495175 -0.008662367 -0.23152308 -0.3036833 -0.29126644
0.16180754 -0.07966931 -0.008055095 -0.09824901 -0.009993942 -0.14309885 -0.1789357 0.031283844
-0.051788755 0.074312195 -0.16191612 -0.20306504 0.022274863 -0.08694024 -0.06686724 -0.20542334
00000000: 59ae e73e fad1 0d3f f8bd 463e 5f1d e93e
00000010: 6447 603d 828b 34be 09f0 e4be bfd2 6d3e
00000020: 9722 6f3d 889c adbe 7e3c bc3e f4b3 7e3e
00000030: b9b7 8c3e 4a55 a73e 52c1 b23e 6a3f 07be
00000040: 1f55 d93e e007 923e e958 d13d c013 883e
00000050: b352 e2bd 52a6 a33c 7b44 35bd 886b 4b3e
00000060: 8192 8ebe 9967 64be 326e 70be f734 57be
00000070: e84a aabc 4670 95be 1a12 8e3d 9e8e 52be
00000080: b426 653e d94e 86bc ebb1 e1be d7c2 96be
00000090: ef1e 2e3e 15fb 433f 0c9f b93e 9849 d9be
000000a0: adcb 68be d43c 5e3e a9b5 263f f824 463e
000000b0: cf5a 5abe e589 92be eabe 613e 7962 843e
000000c0: 02d8 e23d e5fc 6cbe ecb4 cbbe 85db 07be
000000d0: b722 20be fe3d 983e 4db5 4c3e 35e0 973e
000000e0: 1c71 0e3e e618 143e d5a1 973e 7df4 bdbd
000000f0: add7 be3b b3fd 6ebe cabc 37bd 2f6a a3bd
00000100: 7ca9 713d 9f43 9d3c c1ac 8e3e 4cc3 d9bd
00000110: 7224 48be 9d27 32be 84ad 403e 8023 9a3d
00000120: 424b 713e 5480 79be 2d7e b6be ad02 92be
00000130: 1566 0cbe cec4 193e 6358 133e 7176 843e
00000140: a7f1 35be a326 9cbd f907 4f3e 1d42 3dbe
00000150: 20a5 db3d ba41 df3d 4bec 593e 8048 9fbe
00000160: 5c04 5abd d2f6 9f3e 51ce 8abc d43b 67be
00000170: ea51 963e 9dce a93e 4df0 9bbe 9fba 90be
00000180: 73c8 a13e 96a0 123c 9ce6 27bd e8c9 6ebe
00000190: 1d19 eebd 1ec7 5bbd fbdb 23be 0652 32be
000001a0: bf36 95bd f816 9ebe 7d9d 9abe 5b6c 5b3b
000001b0: 9a08 3bbe 139c 08be bdff a13e 8580 8c3e
000001c0: aea2 d23d 0dab 4dbe b90e 0ebe 11f2 82bd
000001d0: e6df 203d 5fb4 52be f60d f6bd 77f9 2dbe
000001e0: c9d0 3dbc 8f1d 04be d124 9fbd 78b8 50be
000001f0: b4ef 0abe df29 07be a62d c9bd 336d 3cbe
00000200: a3bf aa3e 687a b13d 1f37 a83e 85ec 4f3e
00000210: d146 49be 4cbb 473e 3c9a 86bd a564 6abd
00000220: 62ea 92be 90ee acbe 9599 75bd f24b cbbd
00000230: 50a7 7d3d a32c 6ebe aac0 c73d 8ef5 43be
00000240: b1a6 acbd 1a6a 8c3d 572f 593e f67a ae3e
00000250: 8950 823e 01a7 84be bfd9 1e3e 73a1 38be
00000260: c4e8 efbd a9d2 56be 4802 a93e b182 a2be
00000270: 1d1b 93bc 4881 5e3d 5418 943d 9250 64be
00000280: 1ca0 e23e 20f0 c63d c43f 893c 95bb 45be
00000290: fe4d ca3e bf25 b1bc 13f1 36be 7a50 5b3e
000002a0: 256d 993e 5876 20be a893 7ebe 0e8a eabd
000002b0: fffe 7f3e d62b 96bd 25ea 78be 6ef9 42be
000002c0: a361 82be 63d5 933e b261 743e e447 bcbe
000002d0: 50aa d73c 1681 c23e 03e4 8e3c 18c1 8dbe
000002e0: ca77 5a3e 0b9f a13e b669 b93b a54b 6abe
000002f0: 8de1 94bd 845a 1e3e 9ebb 95bd d0aa 49be
00000300: c840 593e 3fe2 903e 8422 173c e9b3 46bd
00000310: 4642 4f3b a544 603d b291 2a3e 1d7f 383e
00000320: 7188 9bbe cc15 10be ffff 3c3e e42d 0a3e
00000330: c0d7 9ebd 074c 68be c05f 7ebe ba1e 93be
00000340: bb9d 4dbe 8aba 04ba c13a 853e ddcc 943e
00000350: c898 c0be 4c7f 9bbe f207 c3bb 9fad f63e
00000360: 78f7 ebbd 0757 67be a294 0d3e f639 d13d
00000370: 3153 8dbe 125a 8b3d 4aad 83bd a27e af3d
00000380: 65b1 5fbe a8d1 703e e4c0 893e d424 1f3e
00000390: 95f6 26be 37de 4cbe f6e9 ccbd bcf7 ab3e
000003a0: f22d 153e c4cb 893e 1b71 ef3d 541f 383d
000003b0: 9aec 0dbc 6314 6dbe 617c 9bbe e020 95be
000003c0: e0b0 253e aa29 a3bd 84f9 03bc c736 c9bd
000003d0: a2bd 23bc 8188 12be ec3a 37be 7d23 003d
000003e0: 7220 54bd fe30 983d 57cd 25be 48f0 4fbe
000003f0: c679 b63c b90d b2bd b1f1 88bd 7f5a 52be

net.0.bias f4 [20]
0.20919201 -0.10919322 0.441354 0.14031225 -0.09741118 -0.10488728 -0.41358027 -0.3501809
-0.14884228 0.07514133 0.24748783 0.14942105 -0.12163988 -0.11675424 0.12828429 -0.37543055
0.034670696 0.121860735 -0.40731233 0.13472925
00000000: 6e36 563e b2a0 dfbd 27f9 e13e 04ae 0f3e
00000010: 837f c7bd 24cf d6bd cbc0 d3be e94a b3be
00000020: 1c6a 18be b3e3 993d 736d 7d3e d501 193e
00000030: 541e f9bd d91c efbd f55c 033e 6f38 c0be
00000040: dc02 0e3d 1f92 f93d 3e8b d0be 77f6 093e

net.3.weight f4 [40, 20, 5, 5]
-0.026376838 -0.049623575 -0.18311909 -0.2159696 -0.16800234 0.0441814 -0.0292861 -0.12446637
-0.06339407 -0.019529896 0.053530682 0.003650207 0.15152806 -0.004032544 -0.14176446 -0.06859163
0.0077310377 0.03248649 -0.042359438 -0.026273746 -0.0052877595 -0.032237843 -0.0006334141 -0.019715048
-0.10418676 0.017191987 0.00178797 -0.08816642 -0.10057435 -0.027629104 0.003439703 -0.053674713
-0.12466256 -0.052370485 -0.042868007 -0.10081283 -0.1099339 -0.009151587 0.013037605 -0.058726266
0.022118747 -0.08237018 -0.015899409 0.043880165 0.02397293 0.05776933 -0.016866377 0.025731202
0.07226074 0.0068008592 0.033057876 0.008189559 -0.00069198816 0.022262817 0.076885015 -0.13849688
-0.23856519 -0.06110743 0.051025387 0.03307762 -0.062781535 0.0047283797 0.0640957 0.021070678
-0.05864334 0.13464586 0.16692506 0.08577687 -0.060860872 -0.088968165 0.102670416 0.13576356
0.0889534 -0.009684665 0.0017906505 0.020665566 0.038452603 0.10205326 0.13127603 0.0952817
0.056003843 0.07830902 0.12233299 0.15540108 0.09926259 -0.0404199 -0.032598246 0.012935546
0.086311996 0.081315614 -0.11047655 0.077168815 0.16698326 0.14537571 0.010995554 -0.04236207
0.052412026 0.10781921 0.06407421 -0.03459236 0.06494927 0.18684131 0.20717101 0.1315187
0.030538168 0.0059919907 -0.013867846 0.016492141 0.11357495 0.10528675 -0.21082409 -0.059104893
0.08334979 0.20232072 0.099552594 -0.056177773 0.16176052 0.2908171 0.13468337 -0.03230452
0.050605264 0.13398086 0.09069813 -0.017316869 -0.09567222 0.066948384 -0.003817655 0.0034289816
0.06767319 0.08483732 0.23497306 0.20832 0.042151295 0.025474057 0.04553087 0.12519214
0.07063854 -0.13930269 0.013231938 0.03692436 -0.20846847 -0.2669865 -0.157482 0.0020204904
0.015408986 -0.18808597 -0.16501361 -0.105717234 0.02775054 0.08958775 0.0326188 0.03226535
0.041768413 0.012340823 6.8869645e-05 0.024981074 0.0471038 0.02592903 -0.053839836 -0.018982992
-0.035034783 -0.12951915 -0.103711836 -0.0059595127 0.047437143 -0.048362393 -0.18308108 -0.12071098
-0.011411902 0.014953806 -0.01082708 -0.07417632 0.0007670128 -0.02160108 -0.0056430497 -0.015738027
0.052678913 -0.03531042 0.033691026 0.015610664 0.001977887 0.0023433962 -0.047535706 0.0027523104
0.047499795 -0.047259644 -0.056484453 -0.07961587 -0.0045282478 0.027598899 0.0074280878 -0.06667461
-0.059786834 0.035145704 0.047444973 0.0107458485 -0.045936264 -0.016228396 -0.028089395 0.062106263
-0.10098271 -0.14567111 -0.19020298 -0.10309517 0.010442022 -0.103390306 -0.12732068 -0.05760332
0.016286891 0.032465734 -0.2229229 -0.18361093 -0.048037328 0.039413583 -0.0019096151 -0.12419964
-0.064511284 0.07590605 0.09121022 0.101535335 0.032998994 0.1068444 0.11856937 0.060418814
0.009242012 -0.07144798 -0.13991 -0.030311158 -0.07328969 -0.06742293 0.09525237 0.088546686
0.033555415 0.103884034 0.095339954 0.001870348 0.10676994 0.102895364 0.05764989 0.013708409
-0.09020283 -0.12530926 0.050213765 0.11470923 0.0634389 -0.015413244 0.037191194 0.073798984
0.041032914 0.02812642 -0.0025496664 -0.087812476 -0.081542104 -0.020630563 -0.04783999 0.041507356
00000000: 3d14 d8bc 1742 4bbd 9283 3bbe 2327 5dbe
00000010: ce08 2cbe 8ef7 343d 67e9 efbc 39e8 febd
00000020: c0d4 81bd 29fd 9fbc fd42 5b3d 5038 6f3b
00000030: 2c2a 1b3e 6e23 84bb b42a 11be c579 8cbd
00000040: a554 fd3b 8e10 053d 1781 2dbd 0a3c d7bc
00000050: f144 adbb d40b 04bd b30b 26ba 7481 a1bc
00000060: de5f d5bd 36d6 8c3c 515a ea3a 9990 b4bd
00000070: edf9 cdbd 6e56 e2bc a46c 613b 04da 5bbd
00000080: 164f ffbd 6f82 56bd 5d96 2fbd f576 cebd
00000090: 0625 e1bd 8af0 15bc ae9b 553c f48a 70bd
000000a0: 6032 b53c b2b1 a8bd 7a3f 82bc b0bb 333d
000000b0: e162 c43c 889f 6c3d 5b2b 8abc 3eca d23c
000000c0: 70fd 933d bed9 de3b b267 073d 802d 063c
000000d0: 8a66 35ba 8360 b63c e475 9d3d 20d2 0dbe
000000e0: 6f4a 74be c94b 7abd ffff 503d 667c 073d
000000f0: 9b93 80bd 86f0 9a3b 9b44 833d 6a9c ac3c
00000100: 0034 70bd 9be0 093e 67ee 2a3e c9ab af3d
00000110: 4049 79bd f134 b6bd de44 d23d 9a05 0b3e
00000120: 332d b63d 6eac 1ebc 43b4 ea3a d54a a93c
00000130: 7a80 1d3d 4d01 d13d 396d 063e 0d23 c33d
00000140: 4964 653d 7b60 a03d b889 fa3d 7621 1f3e
00000150: 2f4a cb3d 568f 25bd bd85 05bd 9def 533c
00000160: 58c4 b03d cd88 a63d 8841 e2bd af0a 9e3d
00000170: a9fd 2a3e 5fdd 143e b226 343c da83 2dbd
00000180: fead 563d 51d0 dc3d 5739 833d b8b0 0dbd
00000190: 1f04 853d 5453 3f3e a324 543e d7ac 063e
000001a0: 2e2b fa3c 7658 c43b f635 63bc 871a 873c
000001b0: fc99 e83d 94a0 d73d 45e2 57be f917 72bd
000001c0: 4bb3 aa3d 2a2d 4f3e 3be2 cb3d aa1a 66bd
000001d0: 8da4 253e fbe5 943e 70ea 093e bf51 04bd
000001e0: 7747 4f3d 4732 093e f1bf b93d 1bdc 8dbc
000001f0: ccef c3bd 3c1c 893d 9f31 7abb c4b8 603b
00000200: 3e98 8a3d 30bf ad3d c79c 703e d751 553e
00000210: d6a6 2c3d f8ae d03c 947e 3a3d 5e32 003e
00000220: f0aa 903d 5da5 0ebe c5ca 583c ff3d 173d
00000230: c278 55be 74b2 88be f642 21be 346a 043b
00000240: f975 7c3c 9c99 40be 54f9 28be 4782 d8bd
00000250: 1a55 e33c c879 b73d 4a9b 053d ac28 043d
00000260: 5b15 2b3d 2a31 4a3c 1c6e 9038 1ca5 cc3c
00000270: eaef 403d 1e69 d43c 2987 5cbd 3882 9bbc
00000280: a280 0fbd aba0 04be df66 d4bd 0448 c3bb
00000290: 734d 423d a517 46bd 9b79 3bbe 5137 f7bd
000002a0: fcf8 3abc cf00 753c 1164 31bc c1e9 97bd
000002b0: 5c11 493a c0f4 b0bc 55e9 b8bb 09ed 80bc
000002c0: d8c5 573d a9a1 10bd 9aff 093d dfc3 7f3c
000002d0: 709f 013b aa93 193b cdb4 42bd 1b60 343b
000002e0: 258f 423d 5493 41bd 3e5c 67bd a50d a3bd
000002f0: b261 94bb 1617 e23c 5167 f33b b38c 88bd
00000300: 0ae3 74bd f1f4 0f3d a955 423d 5b0f 303c
00000310: aa27 3cbd 6af1 84bc bb1b e6bc 2363 7e3d
00000320: 06d0 cebd cf2a 15be 92c4 42be 8f23 d3bd
00000330: 0415 2b3c 4cbe d3bd 5a60 02be 75f1 6bbd
00000340: 166c 853c cafa 043d e745 64be 8104 3cbe
00000350: cac2 44bd 2370 213d 0d4c faba 615c febd
00000360: 7e1e 84bd a274 9b3d 6ccc ba3d c2f1 cf3d
00000370: f429 073d 3dd1 da3d 7fd4 f23d b879 773d
00000380: cf6b 173c 5253 92bd 9144 0fbe 1b4f f8bc
00000390: e818 96bd 0815 8abd ad13 c33d f757 b53d
000003a0: 6771 093d 27c1 d43d 9841 c33d 7726 f53a
000003b0: 33aa da3d ceba d23d 4b22 6c3d 3c99 603c
000003c0: 43bc b8bd 1251 00be f3ac 4d3d acec ea3d
000003d0: 41ec 813d d587 7cbc cb55 183d ec23 973d
000003e0: 2112 283d 6169 e63c 4e18 27bb 07d7 b3bd
000003f0: 8cff a6bd 6d01 a9bc def3 43bd 9e03 2a3d

net.3.bias f4 [40]
0.050176688 0.015561285 0.013231503 -0.029468836 -0.03222869 0.028678684 -0.04543015 0.020160856
-0.008614257 -0.012082161 0.019207511 0.050291754 -0.03709093 0.0056953565 -0.0019538933 -0.02815821
-0.026401518 -0.0010070454 -0.048114814 -0.0034611782 0.026775368 -0.027966209 0.0047733653 0.067755796
-0.0009193506 -0.025368081 -0.01792274 -0.02773784 0.050135728 -0.0008355658 0.017241104 0.0368203
-0.016477128 0.027984701 0.07831477 0.008800522 0.011083442 -0.046611905 0.027558278 -0.022281107
00000000: 1286 4d3d c3f4 7e3c f2c8 583c a168 f1bc
00000010: 3b02 04bd 8fef ea3c f714 3abd 6128 a53c
00000020: d022 0dbc 42f4 45bc 1259 9d3c bafe 4d3d
00000030: a9ec 17bd 1da0 ba3b e40c 00bb 0cac e6bc
00000040: ff47 d8bc d6fe 83ba 0a14 45bd efd4 62bb
00000050: 0458 db3c 6419 e5bc e469 9c3b 8dc3 8a3d
00000060: 9300 71ba b9d0 cfbc b6d2 92bc 773a e3bc
00000070: 1f5b 4d3d df09 5bba 373d 8d3c e2d0 163d
00000080: 0bfb 86bc 2c40 e53c 7e63 a03d 1130 103c
00000090: 5397 353c 20ec 3ebd e6c1 e13c de86 b6bc

net.7.weight f4 [150, 360]
-0.051252525 0.06777207 0.07162797 -0.063048035 0.018418025 -0.055495754 0.006628874 0.020305403
-0.07664113 0.030784575 0.07707595 0.030198311 0.03132555 -0.02539597 0.0044846814 0.07958154
0.036667626 0.07620119 0.031912487 -0.060716562 0.0028223654 -0.08100206 -0.040041495 0.023095215
0.009441878 0.09853694 -0.005363812 -0.008903503 0.038501922 -0.024636215 0.008601243 -0.052099742
0.032923896 -0.04752326 0.03779203 -0.004392702 0.0044265343 0.020551957 0.0028233235 0.07337642
0.02567 0.042244043 0.06506806 0.010709791 0.013469465 0.0016703623 -0.04781474 0.011567426
-0.0046132626 0.0062987898 0.04720518 -0.10511665 -0.14061812 -0.0970816 0.016281832 0.007989533
0.029128088 0.008161288 -0.008895412 0.021148976 0.032679964 -0.0009638067 0.007182448 -0.067387976
-0.06480918 0.014468266 0.04648829 0.018994827 0.056956362 0.010858869 0.018795224 -0.079004794
-0.023268605 -0.106548674 -0.0023518854 0.011399149 -0.03634625 0.01725964 -0.07278535 -0.11318539
-0.11645556 0.08752751 0.03887516 0.028237967 0.013021888 0.08440142 -0.0028793076 0.039447505
0.08350123 0.10577801 -0.022797482 -0.055865485 0.04163285 0.010341374 -0.09386165 -0.0753343
-0.022218628 -0.07358019 -0.07498597 -0.044035383 0.047296185 0.04851212 -0.004378239 -0.024747211
0.078018986 -0.09686511 -0.08231224 -0.0101758735 -0.0072978907 -0.011523683 0.04130699 0.029965505
0.07535606 -0.01908476 0.0634201 0.036163513 0.054634094 0.06136351 -0.014244059 0.04902241
0.108741984 -0.018101167 -0.0085795345 -0.08583806 -0.106459066 -0.16475894 -0.02661461 -0.0028938362
0.09404953 0.034324516 -0.024284398 0.062238395 0.033630546 0.0996867 0.008477549 -0.0048932857
0.057224628 0.10090336 -0.013517702 -0.030278714 0.04775956 0.06157996 -0.050964978 -0.00510022
-0.031926002 -0.02148478 -0.023122802 -0.0075499318 -0.024378566 0.08317873 0.004485875 -0.07543873
0.024469906 0.07163155 0.03841082 0.10021474 -0.007896357 -0.035159826 -0.0339851 -0.023841677
-0.0019114639 0.05712176 0.008638853 -0.0076377033 0.017781764 -0.03176018 -0.008794875 -0.023897307
-0.015134902 0.015957473 0.032181323 -0.052307848 -0.098478206 -0.08060913 0.009276692 -0.016573789
0.010660866 0.023833921 -0.07153382 -0.027481094 0.07467219 -0.008059884 0.038567334 0.013140004
0.035459682 0.059982397 0.013454793 0.14871027 0.09099619 0.0049508084 -0.041478116 -0.017736964
0.02859708 0.018304842 -0.0488106 -0.031673312 -0.05719876 0.021179058 0.016063238 -0.0038500654
0.058174346 -0.028024442 0.033546437 -0.055757847 -0.1322717 0.04867193 0.0075796903 0.03120335
0.049482364 0.0024871062 0.026164303 0.022799328 0.07425073 0.0235745 0.03731857 -0.055484124
-0.04401228 -0.073985964 0.03835102 0.028833665 -0.0061842254 -0.039835833 -0.041321997 -0.02448218
-0.09062806 -0.050881624 -0.032622892 0.08082094 0.0006679092 0.03871243 0.046370227 0.10853894
0.032114092 -0.014756158 -0.04648541 -0.06287916 0.043185987 -0.032018736 -0.031305213 0.10694073
-0.0288513 -0.12176663 0.08256702 -0.017729383 -0.051001202 -0.039192658 0.05805128 0.022012295
0.0026952229 0.020614535 -0.066133425 -0.05394962 0.0296002 -0.049937136 0.026326284 -0.018834444
00000000: 2bee 51bd 15cc 8a3d afb1 923d 541f 81bd
00000010: 66e1 963c 844f 63bd 0737 d93b 8457 a63c
00000020: 06f6 9cbd ef2f fc3c ffd9 9d3d 7362 f73c
00000030: 384f 003d 360b d0bc 3cf4 923b a5fb a23d
00000040: cb30 163d 5f0f 9c3d abb6 023d eeb1 78bd
00000050: 6ff7 383b 68e4 a5bd 8d02 24bd 2d32 bd3c
00000060: 1bb2 1a3c bccd c93d ebc2 afbb 00e0 11bc
00000070: 31b4 1d3d e3d1 c9bc 3aec 0c3c 8a66 55bd
00000080: 35db 063d c0a7 42bd d1cb 1a3d a8f0 8fbb
00000090: 760c 913b 945c a83c 8207 393b 6046 963d
000000a0: e449 d23c 1708 2d3d 6742 853d 1f78 2f3c
000000b0: 08af 5c3c 0ff0 da3a 64d9 43bd 4d85 3d3c
000000c0: da2a 97bb 1466 ce3b 385a 413d 6647 d7bd
000000d0: 32fe 0fbe b8d2 c6bd 7a61 853c 88e6 023c
000000e0: 079e ee3c ecb6 053c 10be 11bc 9e40 ad3c
000000f0: 6ddb 053d f9a7 7cba be5a eb3b b502 8abd
00000100: adba 84bd 4e0c 6d3c 816a 3e3d 0a9b 9b3c
00000110: 134b 693d 66e9 313c 71f8 993c 44cd a1bd
00000120: cd9d bebc 3136 dabd 1722 1abb 7fc3 3a3c
00000130: cedf 14bd 1764 8d3c 7c10 95bd becd e7bd
00000140: 4180 eebd a041 b33d 8f3b 1f3d 4f53 e73c
00000150: c259 553c a7da ac3d c4b2 3cbb b593 213d
00000160: b102 ab3d 24a2 d83d c9c1 babc 35d3 64bd
00000170: 3587 2a3d de6e 293c 893a c0bd df48 9abd
00000180: d703 b6bc 36b1 96bd 3f92 99bd 725e 34bd
00000190: a5b9 413d a5b4 463d 5577 8fbb aaba cabc
000001a0: 6bc8 9f3d 3761 c6bd 5293 a8bd b5b8 26bc
000001b0: 2523 efbb d4cd 3cbc 8531 293d 387a f53c
000001c0: 4754 9a3d a557 9cbc 66e2 813d 3120 143d
000001d0: 00c8 5f3d 4e58 7b3d ea5f 69bc b9cb 483d
000001e0: 1eb4 de3d e648 94bc 2d91 0cbc ddcb afbd
000001f0: 3607 dabd 91b6 28be e206 dabc 84a6 3dbb
00000200: 0a9d c03d dd97 0c3d 13f0 c6bc b0ed 7e3d
00000210: 2fc0 093d 8a28 cc3d 6be5 0a3c db57 a0bb
00000220: 5f64 6a3d 6ca6 ce3d 5a79 5dbc 110b f8bc
00000230: 879f 433d 453b 7c3d a7c0 50bd bf1f a7bb
00000240: d7c4 02bd d900 b0bc 086c bdbc 6b65 f7bb
00000250: 8fb5 c7bc 9c59 aa3d 3ffe 923b 9f7f 9abd
00000260: 1d75 c83c 90b3 923d aa54 1d3d 633d cd3d
00000270: b95f 01bc c003 10bd f633 0bbd 9f4f c3bc
00000280: 168a faba 82f8 693d fa89 0d3c b345 fabb
00000290: 10ab 913c f616 02bd 6118 10bc 49c4 c3bc
000002a0: 61f8 77bc 3fb9 823c 90d0 033d c140 56bd
000002b0: f1ae c9bd 6616 a5bd 44fd 173c c1c5 87bc
000002c0: eaaa 2e3c 5b3f c33c 5380 92bd 0820 e1bc
000002d0: bced 983d 9b0d 04bc c8f8 1d3d 2c49 573c
000002e0: 2c3e 113d 1ab0 753d 7e71 5c3c 8147 183e
000002f0: 365c ba3d 643a a23b f5e4 29bd 1c4d 91bc
00000300: 6c44 ea3c 09f4 953c a0ed 47bd e0bb 01bd
00000310: 3f49 6abd b47f ad3c 0d97 833c 6151 7cbb
00000320: 3948 6e3d 8493 e5bc fd67 093d 5762 64bd
00000330: 3c72 07be 385c 473d 0d5f f83b 2b9e ff3c
00000340: 05ae 4a3d b8fe 223b 8556 d63c a8c5 ba3c
00000350: c410 983d 4f1f c13c 5bdb 183d 5243 63bd
00000360: 3846 34bd f485 97bd f615 1d3d 9434 ec3c
00000370: 0ba5 cabb e62a 23bd 4141 29bd da8e c8bc
00000380: 349b b9bd 4069 50bd 959f 05bd 7385 a53d
00000390: a116 2f3a ed90 1e3d b5ee 3d3d aa49 de3d
000003a0: 118a 033d d0c3 71bc 7c67 3ebd cac6 80bd
000003b0: cae3 303d 1426 03bd e539 00bd be03 db3d
000003c0: 9059 ecbc c860 f9bd e618 a93d 363d 91bc
000003d0: a3e6 50bd 7b88 20bd 2ec7 6d3d 2153 b43c
000003e0: 56a2 303b d0df a83c f670 87bd 47fa 5cbd
000003f0: 1e7c f23c e28a 4cbd 38aa d73c b14a 9abc

net.7.bias f4 [150]
0.089204356 0.0010280346 0.010275022 0.017534459 0.031058671 -0.011725944 -0.07685496 0.011296404
0.096402206 -0.019526716 0.020747744 -0.016788641 0.012707863 0.056924175 0.00044033007 -0.05861555
0.0774291 0.053194325 -0.016680209 -0.0086001735 0.03572167 -0.01190363 0.056033503 -0.053928465
0.01779489 -0.025722748 0.035158396 0.047466718 0.04157572 0.025451357 0.014301222 0.0596326
0.011910797 0.0033482965 0.0014274821 -0.05840788 0.03008125 0.020638108 -0.02328841 -0.01068975
0.015897416 -0.06453214 0.04230773 0.02435892 -0.05561718 0.0007319216 0.041142575 -0.032666665
0.03414949 -0.05633859 -0.054376483 0.04082908 0.0086911805 -0.0049924827 0.064214 0.041480612
-0.01725586 -0.069895454 -0.011556649 -0.03798479 0.048697554 -0.007420752 0.053813186 0.020391762
-0.06759884 0.04148073 -0.002728103 -0.022201383 0.020186516 -0.07141537 0.06402874 0.03954964
0.025425753 0.03983233 -0.0700754 -0.025411922 -0.00428005 0.071947716 0.030741474 -0.017373735
0.01620713 -0.058040842 -0.032320995 -0.041453585 -0.058985148 0.01980304 -0.058840238 0.038945224
-0.048170783 0.06830186 0.0412865 0.0681745 0.053146195 0.007075068 -0.00639842 0.02286753
-0.026878295 -0.049718067 0.016565455 -0.0023965617 -0.018384349 0.016691417 0.0011056911 -0.051678777
0.06886607 -0.024614708 0.024348682 -0.07024466 0.054913096 0.03806605 0.07842901 0.0544582
0.045629945 -0.05104153 0.06534481 0.028655155 -0.030736795 -0.051708344 -0.02801517 0.033475965
0.0035729122 0.06337987 -0.012591984 0.02803471 0.017787475 -0.027106859 -0.01438814 0.00024375439
0.0018419136 0.04702096 0.0046242736 0.04811088 -0.008991559 0.07186671 -0.013390479 0.015986234
0.08555644 -0.05501196 0.0037567967 -0.056859393 0.01886395 -0.054371454 -0.020222755 -0.012605524
0.014433687 -0.025364323 -0.009825802 0.0032750953 -0.02214049 -0.04691345
00000000: c6b0 b63d 1ebf 863a 9158 283c 6da4 8f3c
00000010: c16e fe3c 2c1e 40bc 2266 9dbd 8d14 393c
00000020: 856e c53d 7ef6 9fbc 2cf7 a93c 5588 89bc
00000030: a434 503c 5329 693d 1adc e639 dc16 70bd
00000040: 2693 9e3d 4be2 593d efa4 88bc bee7 0cbc
00000050: e350 123d 7107 43bc 6383 653d 18e4 5cbd
00000060: 97c6 913c 83b8 d2bc 4002 103d 766c 423d
00000070: 4d4b 2a3d 5d7f d03c ac4f 6a3c 5041 743d
00000080: 8125 433c 186f 5b3b 5a1a bb3a 1a3d 6fbd
00000090: f46c f63c 4011 a93c 56c7 bebc 1024 2fbc
000000a0: 4c3b 823c 6d29 84bd df4a 2d3d 5c8c c73c
000000b0: d7ce 63bd 6dde 3f3a 1e85 283d 7bcd 05bd
000000c0: 56e0 0b3d 4bc3 66bd e0b9 5ebd 653c 273d
000000d0: 7465 0e3c fb97 a3bb a182 833d 93e7 293d
000000e0: 295c 8dbc 5925 8fbd 1958 3dbc f095 1bbd
000000f0: 1677 473d c829 f3bb 376b 5c3d a00c a73c
00000100: 4371 8abd b3e7 293d f9c9 32bb addf b5bc
00000110: 315e a53c 3942 92bd 8021 833d cefe 213d
00000120: ab49 d03c 3a27 233d b183 8fbd aa2c d0bc
00000130: a93f 8cbb 5359 933d 8bd5 fb3c 5d53 8ebc
00000140: d1c4 843c 3cbc 6dbd 0563 04bd 3ccb 29bd
00000150: 699a 71bd fc39 a23c 7602 71bd 0785 1f3d
00000160: ba4e 45bd d8e1 8b3d 081c 293d 129f 8b3d
00000170: d3af 593d f9d5 e73b d6a9 d1bb b054 bb3c
00000180: df2f dcbc 2ca5 4bbd 47b4 873c a20f 1dbb
00000190: c69a 96bc 70bc 883c d6ec 903a 20ad 53bd
000001a0: a709 8d3d c9a4 c9bc e376 c73c 6fdc 8fbd
000001b0: 8eec 603d 25eb 1b3d 649f a03d 900f 5f3d
000001c0: 77e6 3a3d ec10 51bd 80d3 853d 37be ea3c
000001d0: bbcb fbbc 21cc 53bd 1280 e5bc 181e 093d
000001e0: 8527 6a3b 4ecd 813d 9c4e 4ebc 0ca9 e53c
000001f0: 0ab7 913c 340f debc 3cbc 6bbc 5298 7f39
00000200: 5d6c f13a 0d99 403d 3887 973b ea0f 453d
00000210: 5551 13bc db2e 933d bd63 5bbc 90f5 823c
00000220: 3738 af3d 3954 61bd 9734 763b 65e5 68bd
00000230: 9288 9a3c 9ab4 5ebd 31aa a5bc 6687 4ebc
00000240: 457b 6c3c d7c8 cfbc 67fc 20bc fba2 563b
00000250: f95f b5bc 5128 40bd

net.9.weight f4 [10, 150]
-0.058937833 -0.09704441 -0.06513516 0.004207323 0.13472131 -0.14843889 -0.055178646 0.015836194
-0.043511976 -0.06874311 -0.04224112 0.010756426 0.06383367 0.12159596 -0.21980087 -0.013507308
-0.040338617 -0.04321211 -0.1684515 -0.12641287 -0.1645928 -0.03584199 0.10157582 -0.027843462
0.07085244 0.07961448 0.08921124 0.08101066 0.10037941 -0.03481127 0.09351199 0.09171564
0.030832874 -0.02013577 -0.05874737 0.075554885 -0.14456944 0.21249771 0.020350626 0.014468987
-0.0023493806 0.0062427116 -0.17906836 0.05948153 0.047025822 0.09805002 -0.02457264 -0.0003582256
0.08047276 -0.049024537 0.011202578 0.18007204 -0.060274687 0.052070983 -0.034463603 -0.18815467
-0.026208758 -0.0023858347 0.08786708 -0.048100285 0.12434245 0.08351264 -0.15383849 -0.06780174
0.0024222306 0.013986237 -0.042284478 -0.18877596 -0.121437185 -0.029501747 0.022929914 -0.01481659
0.005256526 -0.1012211 0.05406772 -0.15259139 0.06374966 -0.30087638 -0.14928737 -0.019555144
-0.04099114 0.004062705 -0.079870075 0.12035875 0.11952828 -0.16369627 0.009546092 -0.037617724
0.12260084 -0.049722895 0.060460098 0.11849424 0.07175994 0.12327011 -0.002156413 -0.029271878
0.019689513 -0.06822593 -0.06915617 -0.022093726 0.011566271 -0.13898101 -0.03381825 0.13883501
0.11170203 0.0022835329 0.011000841 -0.06087754 -0.025900902 -0.15896799 -0.13572054 0.09918935
-0.023157788 -0.017367056 -0.18164551 0.032094404 0.04644444 -0.044009678 -0.13618036 -0.11461077
-0.0077104187 0.058141425 -0.017846048 -0.23169461 -0.014160127 0.040353496 -0.07495047 -0.10660069
0.14630929 -0.10984125 0.04442108 -0.15502223 0.1709902 0.08615932 -0.015083856 0.13458006
0.07874083 -0.037470218 -0.03923288 0.037290853 -0.070355065 0.06229332 0.07183583 0.035858557
0.002225704 0.12292987 0.046497125 0.046551332 0.0038327486 -0.038652148 0.09368632 0.020589441
-0.050195653 -0.061409716 0.19101918 0.101423874 0.07503925 0.07028881 -0.08477256 0.024414564
-0.0036183777 0.13441181 0.037472475 -0.12081403 0.081765294 -0.054202177 -0.1853663 -0.18273775
0.12527122 0.03699806 -0.09298166 -0.060499936 -0.16052617 -0.065517455 0.078508556 -0.06091065
-0.035129078 0.15330029 -0.07357629 -0.00061435974 0.17217699 -0.058837544 -0.15052186 -0.05891044
0.026942877 -0.002408702 0.08347964 0.13879512 0.030146988 0.16141215 0.07610103 0.00074625853
-0.041864622 -0.10436706 0.008796973 -0.1307031 -0.041557718 -0.09602848 -0.021439843 0.036676098
-0.043287396 0.02750925 0.06298992 0.017707122 -0.0138147455 -0.07328572 -0.06717515 0.019162707
0.043084204 -0.054812055 -0.086506285 -0.17962587 -0.055923764 -0.08724957 0.086731054 -0.052368455
0.029407265 -0.14354695 0.08325427 0.032432295 -0.18879664 -0.099195905 0.013640381 0.04299428
-0.044576157 -0.21673927 -0.1089964 0.022505185 -0.069537416 -0.06420373 -0.08365693 0.03429989
0.078637905 0.14110565 0.37603357 0.15006614 0.051513433 0.05657508 -0.41041034 0.03251222
-0.05683368 0.0013450391 -0.13290335 -0.154212 0.011248475 -0.032077927 -0.041425064 0.057892114
0.027517486 0.018806374 0.06778202 0.036617283 0.05794226 -0.16549438 -0.120494075 0.08880026
00000000: cc68 71bd 38bf c6bd 9565 85bd 95dd 893b
00000010: 62f4 093e 5d00 18be 0103 62bd e8ba 813c
00000020: 9d39 32bd 30c9 8cbd 0605 2dbd b83b 303c
00000030: 3abb 823d 4d07 f93d 7b13 61be c24d 5dbc
00000040: 1b3a 25bd 2eff 30bd 8d7e 2cbe 6072 01be
00000050: 048b 28be 0dcf 12bd fc06 d03d f917 e4bc
00000060: 161b 913d eb0c a33d 62b4 b63d ebe8 a53d
00000070: b893 cd3d 4396 0ebd 3783 bf3d 69d5 bb3d
00000080: 3995 fc3c c5f3 a4bc 15a1 70bd 85bc 9a3d
00000090: 030a 14be 0099 593e 5bb6 a63c 540f 6d3c
000000a0: 11f8 19bb a98f cc3b b25d 37be e8a2 733d
000000b0: 269e 403d 73ce c83d 904c c9bc 3ad0 bbb9
000000c0: e7ce a43d f4cd 48bd 058b 373c ce64 383e
000000d0: 97e2 76bd 6248 553d b529 0dbd 9eab 40be
000000e0: c0b3 d6bc aa5b 1cbb a8f3 b33d ce04 45bd
000000f0: 41a7 fe3d ad08 ab3d d687 1dbe a3db 8abd
00000100: 49be 1e3b 8826 653c 7d32 2dbd 7c4e 41be
00000110: 0fb4 f8bd a6ad f1bc 84d7 bb3c 48c1 72bc
00000120: f03e ac3b 024d cfbd 1d76 5d3d eb40 1cbe
00000130: 2f8f 823d 780c 9abe cade 18be 1c32 a0bc
00000140: 53e6 27bd 7120 853b ec92 a3bd a67e f63d
00000150: 3ecb f43d ff9f 27be 3667 1c3c 0b15 1abd
00000160: 2616 fb3d 3caa 4bbd 02a5 773d 1cad f23d
00000170: e0f6 923d 0a75 fc3d 9b52 0dbb 94cb efbc
00000180: e74b a13c 09ba 8bbd c0a1 8dbd e7fd b4bc
00000190: 7580 3d3c 0a51 0ebe 0185 0abd c42a 0e3e
000001a0: 09c4 e43d 53a7 153b df3c 343c ba5a 79bd
000001b0: 212e d4bc 81c8 22be 53fa 0abe c923 cb3d
000001c0: 67b5 bdbc 5b45 8ebc 4801 3abe 6c75 033d
000001d0: 863c 3e3d 7e43 34bd dd72 0bbe 0db9 eabd
000001e0: aea7 fcbb b425 6e3d e031 92bc 5a41 6dbe
000001f0: e1ff 67bc b549 253d a27f 99bd 7651 dabd
00000200: 1ad2 153e 73f4 e0bd e1f2 353d 26be 1ebe
00000210: 0e18 2f3e 4c74 b03d 4722 77bc 5bcf 093e
00000220: df42 a13d 5f7a 19bd a8b2 20bd 4bbe 183d
00000230: 5116 90bd 4827 7f3d aa1e 933d 6ce0 123d
00000240: 1edd 113b a8c2 fb3d c573 3e3d 9cac 3e3d
00000250: da2e 7b3b b751 1ebd 9dde bf3d 30ab a83c
00000260: f599 4dbd c188 7bbd 889a 433e 52b7 cf3d
00000270: 2eae 993d 94f3 8f3d 3c9d adbd 0d01 c83c
00000280: 4e22 6dbb 40a3 093e bd7c 193d 596d f7bd
00000290: 9074 a73d 1a03 5ebd aad0 3dbe 9b1f 3bbe
000002a0: 1947 003e 478b 173d 2b6d bebd c8ce 77bd
000002b0: f960 24be 042e 86bd 18c9 a03d 727d 79bd
000002c0: 82e3 0fbd c0fa 1c3e 2aaf 96bd fc0c 21ba
000002d0: 2a4f 303e a3ff 70bd 6722 1abe 134c 71bd
000002e0: 4fb7 dc3c 50db 1dbb 60f7 aa3d 4f20 0e3e
000002f0: d1f6 f63c 3a49 253e dbda 9b3d 90a0 433a
00000300: 3d7a 2bbd 66be d5bd 2e21 103c 09d7 05be
00000310: 6d38 2abd 94aa c4bd 9ca2 afbc ad39 163d
00000320: 204e 31bd 145b e13c dc00 813d 870e 913c
00000330: 3e57 62bc d316 96bd 2093 89bd 1cfb 9c3c
00000340: 1079 303d 9b82 60bd 352a b1bd d8ef 37be
00000350: 5110 65bd e7af b2bd 0da0 b13d 4e80 56bd
00000360: 81e7 f03c f9fd 12be 3781 aa3d bad7 043d
00000370: e853 41be 3927 cbbd e87b 5f3c c51a 303d
00000380: 7d95 36bd e6f0 5dbe 8139 dfbd cb5c b83c
00000390: a269 8ebd 3f7d 83bd 5354 abbd 0b7e 0c3d
000003a0: e90c a13d 007e 103e 7987 c03e f0aa 193e
000003b0: c0ff 523d 45bb 673d 4e21 d2be 892b 053d
000003c0: 6fca 68bd 064c b03a d117 08be c0e9 1dbe
000003d0: 864b 383c 2564 03bd 54ad 29bd 4820 6d3d
000003e0: 5a6c e13c d30f 9a3c 4dd1 8a3d 01fc 153d
000003f0: dd54 6d3d 5c77 29be 99c5 f6bd e9dc b53d

net.9.bias f4 [10]
-0.037990298 -0.051218126 0.04496567 -0.07499526 0.044349656 -0.06730939 -0.026306754 -0.10347347
-0.019917093 -0.0015273852
00000000: b79b 1bbd 19ca 51bd ec2d 383d 1d97 99bd
00000010: fca7 353d 81d9 89bd 4381 d7bc e6e9 d3bd
00000020: 2c29 a3bc 8b32 c8ba
