result/model_15_2.pth (torch, 307183 bytes, 8 tensors)

net.0.weight f4 [20, 1, 4, 4]
0.3690814 0.5898304 0.24950239 0.3989333 -0.21746618 -0.3302041 -0.5587016 0.20302562
-0.10717677 -0.4299179 0.359744 0.2814232 0.21962954 0.39364678 0.38799128 -0.12539843
0.40520132 0.22010608 0.065770455 0.2631122 -0.06738394 0.00747397 -0.009783137 0.30264968
-0.27657205 -0.24100906 -0.25080338 -0.18869619 -0.013815745 -0.28441316 0.06761085 -0.18683782
0.21169002 -0.054651566 -0.37717354 -0.19621465 0.1498622 0.7210378 0.27056146 -0.42207024
-0.22357877 0.17619184 0.62189436 0.15556224 -0.12308676 -0.23629603 0.20533526 0.102326676
0.091391005 -0.22551423 -0.33606154 -0.11609351 -0.17493083 0.28251487 0.19868168 0.26837704
0.17811996 0.14987269 0.2612426 -0.090869404 0.013959436 -0.21744312 -0.040338222 -0.079307
0.061828397 -0.0055841464 0.20607759 -0.12302822 -0.1998242 -0.17437881 0.16392128 0.08568935
0.25443402 -0.21976553 -0.35399097 -0.2867529 -0.12759385 0.20178719 0.18130274 0.2344371
-0.21992128 -0.14873041 0.17733018 -0.16654992 0.030049015 0.04772512 0.25031886 -0.27369595
-0.13115358 0.3402293 0.055383854 -0.19593222 0.26189214 0.35757992 -0.2686045 -0.22984657
0.27993178 -0.0035322583 -0.03847639 -0.2176411 -0.1198517 -0.037695706 -0.14309375 -0.20374532
-0.026724836 -0.2673955 -0.22100368 -0.02590408 -0.16987988 -0.11725589 0.35597014 0.20420286
0.11457988 -0.20065352 -0.133836 -0.048600163 0.04264622 -0.214304 -0.11103731 -0.13949294
-0.014933998 -0.1294093 -0.038854554 -0.16485855 -0.1446419 -0.12687704 -0.06586912 -0.17299566
0.32799366 0.0645385 0.33184713 0.20827456 -0.20779419 0.17748442 -0.070910886 -0.059264865
-0.28564036 -0.32761732 -0.053333685 -0.09148334 0.07865262 -0.2046671 0.12454366 -0.18245438
-0.07163139 0.034037575 0.13545416 0.21323423 0.24216914 -0.26799682 0.08874504 -0.14631842
-0.1053105 -0.2228014 0.32204828 -0.23366974 0.04537123 0.07691963 0.08536998 -0.18789424
0.4228723 0.111734405 -0.00039924867 -0.24293649 0.4017728 -0.016765475 -0.19868247 0.17256732
0.2821367 -0.14835817 -0.22913371 -0.11769517 0.19526035 -0.056444217 -0.17675595 -0.13005963
-0.31198207 0.2203488 0.27113786 -0.36762244 -0.04382241 0.35894433 0.08751832 -0.26372394
0.20018677 0.28929335 0.063472256 -0.17915922 -0.08827942 0.10670872 -0.04745812 -0.15627849
0.21975328 0.276672 -0.0131098535 -0.07641514 0.0016625221 0.035536814 0.13495411 0.15703872
-0.28806588 -0.12951812 0.18652688 0.12647836 -0.052155938 -0.20377482 -0.24495164 -0.28017223
-0.20560429 -0.043514095 0.24648857 0.27945447 -0.35968864 -0.29646862 0.027719703 0.45205525
-0.11235569 -0.1902415 0.22191484 0.030857403 -0.29136023 0.09880125 -0.008882584 -0.0041313847
-0.21237883 0.24293421 0.26859635 0.1388729 -0.15622222 -0.22111475 -0.12116829 0.31186002
0.16689098 0.3001486 0.17533083 0.040758014 -0.031400915 -0.21733193 -0.27743816 -0.29489824
0.17768005 -0.081053294 -0.0075045554 -0.079410605 -0.013381036 -0.14342156 -0.16141535 0.08213942
-0.055289622 0.098139204 -0.12774391 -0.17739044 0.013167082 -0.0787184 -0.066435225 -0.23216668
00000000: 3df8 bc3e 20ff 163f 8e7d 7f3e fc40 cc3e
00000010: 74af 5ebe 8310 a9be 1107 0fbf f3e5 4f3e
00000020: 7f7f dbbd 331e dcbe 5e30 b83e b416 903e
00000030: 91e6 603e 128c c93e cba6 c63e 7268 00be
00000040: 8c76 cf3e 7d63 613e a9b2 863d a4b6 863e
00000050: 9700 8abd 34e8 f43b 7349 20bc e6f4 9a3e
00000060: da9a 8dbe 14cb 76be 4d69 80be 9339 41be
00000070: 6f5b 62bc 9a9e 91be 8f77 8a3d 6a52 3fbe
00000080: 45c5 583e 52da 5fbd e41c c1be 7eec 48be
00000090: 7a75 193e ef95 383f 0887 8a3e 9719 d8be
000000a0: d5f1 64be a26b 343e 7834 1f3f b54b 1f3e
000000b0: e914 fcbd 96f7 71be 6843 523e a690 d13d
000000c0: 352b bb3d 34ed 66be 4210 acbe 6fc2 edbd
000000d0: 1121 33be caa5 903e 3673 4b3e b768 893e
000000e0: 1465 363e 3a78 193e 97c1 853e bd19 babd
000000f0: 1eb6 643c 69a9 5ebe b139 25bd b56b a2bd
00000100: c63f 7d3d 37fb b6bb 0106 533e 38f6 fbbd
00000110: b79e 4cbe 5c90 32be fbda 273e e67d af3d
00000120: 2d45 823e 370a 61be 4e3e b5be 47d1 92be
00000130: f6a7 02be 4da1 4e3e 6da7 393e 4710 703e
00000140: 0b33 61be c94c 18be 0b96 353e 108c 2abe
00000150: 5a29 f63c 6a7b 433d cb29 803e e021 8cbe
00000160: 204d 06be 8932 ae3e 2eda 623d 75a2 48be
00000170: ba16 863e b714 b73e 8786 89be e65c 6bbe
00000180: 3853 8f3e 767d 67bb 6b99 1dbd 4fdd 5ebe
00000190: cf74 f5bd d066 1abd 2b87 12be 9da2 50be
000001a0: 0bee dabc 10e8 88be ca4e 62be cb34 d4bc
000001b0: fef4 2dbe db23 f0bd b841 b63e 8e1a 513e
000001c0: dba8 ea3d 1e78 4dbe 4e0c 09be f710 47bd
000001d0: cead 2e3d 8272 5bbe 8767 e3bd 3dd7 0ebe
000001e0: baad 74bc df83 04be f425 1fbd aed0 28be
000001f0: 021d 14be 0eec 01be 64e6 86bd c625 31be
00000200: c9ee a73e c32c 843d dee7 a93e ed45 553e
00000210: 00c8 54be 7abe 353e ba39 91bd b7bf 72bd
00000220: 743f 92be 75bd a7be 6c74 5abd 9e5b bbbd
00000230: a014 a13d 4194 51be bf10 ff3d 52d5 3abe
00000240: 7ab3 92bd fc6a 0b3d 7fb4 0a3e 135a 5a3e
00000250: 30fb 773e e136 89be f6bf b53d 7fd4 15be
00000260: 08ad d7bd 0d26 64be 83e3 a43e 1f47 6fbe
00000270: 2fd7 393d 0a88 9d3d 75d6 ae3d 5967 40be
00000280: b882 d83e 02d5 e43d 4052 d1b9 58c4 78be
00000290: 2ab5 cd3e c057 89bc 6b73 4bbe 7db5 303e
000002a0: 3974 903e 34eb 17be 07a2 6abe 2a0a f1bd
000002b0: 54f2 473e 0d32 67bd 83ff 34be 5a2e 05be
000002c0: 1dbc 9fbe 1ea3 613e 95d2 8a3e 0239 bcbe
000002d0: 217f 33bd 8dc7 b73e ce3c b33d d306 87be
000002e0: c3fd 4c3e 421e 943e befd 813d 8475 37be
000002f0: d7cb b4bd 1a8a da3d 7263 42bd 7807 20be
00000300: 0107 613e f4a7 8d3e b6ca 56bc 8a7f 9cbd
00000310: fce8 d93a 0d8f 113d 6931 0a3e c2ce 203e
00000320: 5f7d 93be 66a0 04be e700 3f3e 8b83 013e
00000330: 77a1 55bd 59aa 50be 9ad4 7abe bc72 8fbe
00000340: ee89 52be d63b 32bd 8067 7c3e a814 8f3e
00000350: 1c29 b8be bcca 97be 6e14 e33c c973 e73e
00000360: bd1a e6bd abce 42be a53d 633e aac8 fc3c
00000370: 2b2d 95be 4f58 ca3d 4288 11bc 9160 87bb
00000380: d679 59be bfc3 783e 7685 893e b334 0e3e
00000390: b8f8 1fbe e86b 62be 1527 f8bd 1eac 9f3e
000003a0: 78e5 2a3e 14ad 993e ed89 333e e0f1 263d
000003b0: 3f9e 00bd 438c 5ebe 600c 8ebe e7fc 96be
000003c0: c2f1 353e 45ff a5bd c6e8 f5bb 07a2 a2bd
000003d0: 223c 5bbc 1add 12be 114a 25be b638 a83d
000003e0: 5f77 62bd 35fd c83d 4dcf 02be d7a5 35be
000003f0: bfba 573c 1d37 a1bd 310f 88bd 1abd 6dbe

net.0.bias f4 [20]
0.20969923 -0.076199256 0.43276346 0.12770273 -0.10918711 -0.13967806 -0.42279774 -0.3444326
-0.15518713 0.005070252 0.21534158 0.13809402 -0.12915593 -0.10180311 0.12363107 -0.3348678
0.0027527995 0.11976859 -0.42947334 0.09723158
00000000: 65bb 563e 5b0e 9cbd 2c93 dd3e 81c4 023e
00000010: 7e9d dfbd c407 0fbe f278 d8be 7859 b0be
00000020: 60e9 1ebe 5b24 a63b 8182 5c3e 8568 0d3e
00000030: 7441 04be 267e d0bd 4932 fd3d cb73 abbe
00000040: 5068 343b 3c49 f53d eee3 dbbe 5a21 c73d

net.3.weight f4 [40, 20, 5, 5]
-0.046470534 -0.03632193 0.037307806 0.095901616 -0.19083384 0.042189844 -0.04622793 -0.20770025
-0.12620577 -0.00043924656 0.046035968 -0.0005630574 -0.015152041 0.061468598 0.04341013 -0.04249962
-0.084338665 0.14532644 0.059146028 0.09365098 -0.10795034 -0.03624482 -0.0658711 -0.025932958
0.053728078 -0.028494237 -0.03284224 -0.08143509 -0.08450751 0.00093764527 0.06788122 0.0668603
0.021732898 0.04628422 0.0017594445 -0.11187924 -0.058220863 0.0056042722 0.059478365 -0.045395464
-0.04456956 -0.13631074 -0.10268163 -0.023209034 -0.025679087 -0.04510505 -0.047941633 -0.019717112
0.033691853 -0.027544072 0.10530118 0.019252006 -0.011200476 -0.049242534 -0.037325338 0.017645966
0.037629478 -0.021984927 -0.08419475 -0.0057558496 -0.05876263 -0.059739124 0.090838544 0.02992417
0.07889799 -0.13089705 -0.02428948 0.074280895 0.08673089 0.12427669 0.042319685 0.058637448
0.018383225 0.012545751 0.09167851 -0.01477795 -0.038949534 0.034227 0.028850187 -0.050553363
-0.013528786 0.0052027884 0.12914602 0.1652038 0.06851572 0.002568183 0.026926601 0.14818649
0.09009533 -0.0009470135 0.0775844 0.1382105 0.08289145 0.0014754013 -0.12632178 0.019556168
0.070116974 0.09567354 0.08741831 0.06708338 -0.014026922 0.07044656 0.10947072 0.12842752
0.023139562 0.0073633194 0.11014032 0.19433741 0.13052168 -0.026703168 0.08019484 0.11490373
0.07258279 0.029126588 -0.033681426 0.03725997 0.07030723 0.09427717 0.039746974 -0.04073548
-0.010125483 0.18586217 0.15614505 0.034592196 -0.020658648 0.040669553 -0.052613802 0.0034637423
0.16821505 0.1813857 0.027358627 0.007078711 -0.054637045 -0.020610824 0.0285025 -0.064730026
-0.045962226 -0.10036384 0.039730024 -0.01534769 0.0061504696 -0.04683318 0.0066113453 0.1087545
-0.009263368 0.065524444 0.027129425 0.06188376 0.09390299 0.08907811 0.016339656 0.02001376
0.033602938 0.07083836 0.07624492 -0.0044694315 0.031371206 0.09684179 0.07375952 0.04986066
0.010624032 0.0042188433 0.020992627 0.029675003 0.040973548 0.002215457 -0.11996355 -0.11144753
-0.03409245 -0.008100746 -0.06499059 -0.113333136 -0.02153405 -0.029876279 -0.030943746 -0.030432599
0.04632096 -0.030423928 0.0769743 0.06408732 0.002863092 0.029396653 0.013581218 0.07057981
0.07488788 -0.03882385 -0.00030545026 -0.0026808765 0.017790407 0.022736035 -0.02137321 -0.09499736
-0.069713585 0.036471006 0.03656867 -0.05254369 -0.12541156 -0.052682467 -0.039476667 0.036574434
-0.08906064 -0.08154765 -0.08492872 -0.07211995 -0.03788992 -0.033699226 0.0052238563 0.115823075
0.16372493 0.024479901 -0.22772025 -0.098769784 0.032128066 0.1174828 -0.027280966 -0.13189127
-0.13052729 -0.1591477 -0.14714514 -0.05952312 -0.0844249 0.029040916 0.048649147 -0.0014466494
-0.045062926 -0.0055558216 0.038498286 -0.06478694 0.03204793 -0.11178661 0.037842184 -0.0058101933
-0.011273198 0.011802851 -0.0075311693 -0.08001045 0.018135617 0.06895585 0.008047033 -0.065073594
-0.005941889 -0.071047194 0.08070933 0.048444264 -0.08497836 0.04448235 0.03300839 0.0760151
0.003507899 0.01759024 -0.005792448 0.033473443 0.015056944 -0.008769497 0.045615233 -0.010643868
00000000: e357 3ebd 4ec6 14bd 12d0 183d 1168 c43d
00000010: f269 43be 42cf 2c3d 7f59 3dbd 60af 54be
00000020: 163c 01be ad4a e6b9 3690 3c3d 249a 13ba
00000030: 4440 78bc 7fc6 7b3d d2ce 313d 1514 2ebd
00000040: c0b9 acbd 74d0 143e 1b43 723d 16cc bf3d
00000050: 1115 ddbd 7375 14bd 6de7 86bd 5b71 d4bc
00000060: f911 5c3d bf6c e9bc 9685 06bd 71c7 a6bd
00000070: 4612 adbd 4fcc 753a 4f05 8b3d 0eee 883d
00000080: 3109 b23c 8694 3d3d 299d e63a f120 e5bd
00000090: 0079 6ebd 0ba4 b73b 969f 733d 98f0 39bd
000000a0: 928e 36bd 0b95 0bbe bf4a d2bd df20 bebc
000000b0: f35c d2bc 13c0 38bd 725e 44bd c885 a1bc
000000c0: 7800 0a3d 1ba4 e1bc 25a8 d73d 62b6 9d3c
000000d0: 3482 37bc 8ab2 49bd 74e2 18bd 468e 903c
000000e0: 5e21 1a3d bc19 b4bc 4c6e acbd 919b bcbb
000000f0: 15b1 70bd 03b1 74bd 8f09 ba3d 8823 f53c
00000100: 4595 a13d e009 06be bbfa c6bc 9520 983d
00000110: f79f b13d c784 fe3d 6857 2d3d d22d 703d
00000120: 6b98 963c b28c 4d3c f1c1 bb3d 371f 72bc
00000130: 8c89 1fbd 9c31 0c3d 3a57 ec3c 0b11 4fbd
00000140: d7a7 5dbc 277c aa3b db3e 043e 2f2b 293e
00000150: f851 8c3d f64e 283b 2d95 dc3c 33be 173e
00000160: e683 b83d 0041 78ba 92e4 9e3d 0e87 0d3e
00000170: fec2 a93d 4162 c13a 7f5a 01be 4234 a03c
00000180: 7d99 8f3d 7df0 c33d 5f08 b33d 0363 893d
00000190: 2dd1 65bc 4946 903d 2f32 e03d 8182 033e
000001a0: 2e8f bd3c 0048 f13b 4091 e13d 6300 473e
000001b0: 7aa7 053e 9ac0 dabc 313d a43d a652 eb3d
000001c0: 49a6 943d e29a ee3c 89f5 09bd e99d 183d
000001d0: 3dfd 8f3d 6414 c13d b9cd 223d 3fda 26bd
000001e0: 5be5 25bc a752 3e3e 7de4 1f3e 8cb0 0d3d
000001f0: 533c a9bc 1e95 263d 9281 57bd f4ff 623b
00000200: 9140 2c3e 2cbd 393e 331f e03c 88f4 e73b
00000210: 18cb 5fbd 08d8 a8bc 137e e93c 2d91 84bd
00000220: e342 3cbd 8f8b cdbd f3bb 223d e174 7bbc
00000230: e189 c93b 26d4 3fbd fca3 d83b aeba de3d
00000240: 62c5 17bc ae31 863d 873e de3c d379 7d3d
00000250: 3650 c03d 966e b63d beda 853c e6f3 a33c
00000260: 3ca3 093d b413 913d 4c26 9c3d 4f74 92bb
00000270: 187f 003d fd54 c63d 3b0f 973d b13a 4c3d
00000280: 6b10 2e3c 393e 8a3b bbf8 ab3c fe18 f33c
00000290: e1d3 273d 3331 113b 73af f5bd 9a3e e4bd
000002a0: 86a4 0bbd feb8 04bc c919 85bd 341b e8bd
000002b0: 2d68 b0bc 19bf f4bc bd7d fdbc c94d f9bc
000002c0: 0cbb 3d3d 9a3b f9bc b4a4 9d3d 3640 833d
000002d0: b7a2 3b3b 40d1 f03c c283 5e3c 268c 903d
000002e0: d15e 993d c205 1fbd d724 a0b9 a5b1 2fbb
000002f0: 30bd 913c ec40 ba3c df16 afbc fa8d c2bd
00000300: ffc5 8ebd 9f62 153d 08c9 153d 0d38 57bd
00000310: e36b 00be 92c9 57bd 49b2 21bd 13cf 153d
00000320: 6d65 b6bd 7402 a7bd 1cef adbd a0b3 93bd
00000330: 7632 1bbd 3308 0abd e22c ab3b a634 ed3d
00000340: 82a7 273e 138a c83c 7f2f 69be d047 cabd
00000350: b898 033d d29a f03d 557c dfbc 810e 07be
00000360: f2a8 05be 9df7 22be 37ad 16be 84ce 73bd
00000370: f6e6 acbd 37e7 ed3c 5444 473d 809d bdba
00000380: e793 38bd 9c0d b6bb 61b0 1d3d 04af 84bd
00000390: b144 033d 61f0 e4bd 6800 1b3d 6f63 bebb
000003a0: 38b3 38bc bf60 413c 07c8 f6bb 85dc a3bd
000003b0: 2591 943c ba38 8d3d b4d7 033c 4e45 85bd
000003c0: 2db4 c2bb 3181 91bd ef4a a53d 7e6d 463d
000003d0: 2209 aebd 2033 363d ce33 073d cead 9b3d
000003e0: c7e4 653b 6819 903c 93ce bdbb 731b 093d
000003f0: 67b1 763c f0ad 0fbc 0ad7 3a3d 9e63 2ebc

net.3.bias f4 [40]
0.04718407 -0.00277684 0.022851959 -0.026467618 -0.03683653 0.028539369 -0.047497295 0.016332675
-0.01404944 -0.009083419 0.018205963 0.051994797 -0.028048499 0.009485714 -0.00051912 -0.011709556
-0.026487797 0.011916268 -0.026701774 -0.014565655 0.028063463 -0.023921376 0.004535632 0.05396757
-0.0051381146 -0.018679397 -0.038259175 -0.0437069 0.0482896 -0.011465559 0.007349114 0.01606434
-0.020842075 0.030003723 0.04480984 0.0041058315 -0.028080903 -0.046801824 0.022940177 -0.029058766
00000000: 1544 413d a5fb 35bb 0834 bb3c 9ed2 d8bc
00000010: e7e1 16bd 65cb e93c 868c 42bd 1acc 853c
00000020: 9f2f 66bc 9fd2 14bc ac24 953c 7ff8 543d
00000030: f7c5 e5bc f869 1b3c 8e15 08ba 70d9 3fbc
00000040: f0fc d8bc 733c 433c aebd dabc c9a4 6ebc
00000050: 59e5 e53c c3f6 c3bc a49f 943b 190d 5d3d
00000060: a15d a8bb 8905 99bc a7b5 1cbd 0206 33bd
00000070: 51cb 453d 0ada 3bbc d6d0 f03b 5d99 833c
00000080: 00bd aabc 5eca f53c 868a 373d 368a 863b
00000090: ec09 e6bc 45b3 3fbd 0aed bb3c a60c eebc

net.7.weight f4 [150, 360]
-0.0053078756 -0.000690675 -0.04365628 -0.11770942 -0.016127052 -0.064825185 -0.047149982 -0.04805491
-0.0029097972 0.045858312 0.052080657 0.011502072 0.02011574 0.008604524 0.075153016 0.14016983
0.040471453 0.06603241 0.04886857 0.025001738 0.052969597 -0.05774733 -0.045303747 -0.00894578
-0.016285317 0.055299267 0.008788096 -0.014234196 0.041331686 -0.029747348 -0.0053402036 -0.053932536
0.03736914 -0.04806826 0.032433424 -0.004392702 -0.02337377 -0.012264005 0.0065834434 0.014287501
0.038432628 0.06995799 0.06243062 -0.0044015045 0.008412032 0.031734865 -0.050738685 -0.102237195
-0.006861361 0.0655335 0.137855 -0.065462634 -0.11123146 -0.020482514 0.02222269 0.007989533
0.023329493 0.013443699 -0.008900638 0.015167866 0.032679964 -0.006896235 0.013131935 -0.1275976
-0.12788737 -0.09294986 -0.013524821 -0.06108534 0.0705251 0.03671614 0.02676197 -0.008912989
0.06475974 -0.064936824 -0.054114547 0.044405095 -0.009854981 -0.026814302 -0.048461366 -0.078969106
-0.058003455 0.079730965 -0.0009825994 0.02350327 0.025558332 0.07209023 -0.041553713 0.03784745
0.042813532 0.07087157 -0.067079276 -0.017326536 0.05769971 0.030523228 -0.0720546 -0.01024086
-0.0052708215 -0.06526082 -0.08640453 -0.055047765 0.14356217 0.06388662 -0.0096997125 0.024713248
0.062473964 -0.06630939 -0.023164747 0.04334071 -0.031079395 -0.008650342 0.020695647 0.0167642
0.08904423 -0.00784267 0.04199865 0.024202488 0.060677536 -0.040942486 0.011578662 0.057855483
0.06912605 -0.030721087 0.071510375 -0.022251755 -0.052257106 -0.16605315 -0.035090912 -0.091473326
0.027490659 0.049656346 0.010155416 0.07492447 0.05739644 0.13421045 0.034864794 -0.10293188
-0.03365131 0.056130867 0.032963067 -0.0035784075 0.00010732507 0.08147431 -0.017672129 0.05783345
0.021641375 0.008814961 -0.041648246 0.060959414 0.054748055 0.04152154 -0.051698882 -0.066978164
-0.040567927 0.011182253 0.03042797 0.063622035 0.03600798 -0.005229723 0.03839309 0.021346191
0.039997645 0.06979222 0.036529418 -0.0021997176 0.027773187 -0.0344656 0.024963213 -0.033357
0.012805641 0.046532203 0.05243467 -0.072300084 -0.0053100116 0.034355212 0.030561501 -0.023434108
-0.030263474 0.044945274 -0.094551735 -0.031020861 0.10367666 -0.007951676 0.050254513 0.08669469
0.07217725 0.10658557 -0.0060478253 0.07444988 0.059560403 0.028765054 -0.038616985 -0.057573453
0.031856824 0.035133276 -0.10812848 0.02479854 0.027921328 0.11025719 0.027053554 0.043448456
0.066463806 -0.03975191 0.030909766 -0.04257276 -0.086484216 0.053233564 0.018774034 0.044804595
-0.0025528271 -0.084950395 0.041646056 0.004858508 0.011341053 0.004178106 0.021678315 -0.0382764
-0.09681409 -0.07827398 -0.03560077 -0.06362309 -0.037334118 -0.00300458 -0.05474961 -0.011026005
0.0054326714 0.05001948 0.025165174 0.13610941 0.08913373 0.010457638 0.008343681 0.10859258
-0.01988522 -0.043599103 -0.09932678 -0.064706616 0.01939607 0.036252324 0.0160135 0.13488993
0.04588538 -0.016931904 0.020151533 0.008776791 -0.052734695 -0.020532558 0.01423948 0.010561225
-0.00052566896 0.014780811 -0.03790348 -0.024968153 0.05895921 0.00062702893 0.036546458 0.021397928
00000000: b0ed adbb 6a0e 35ba edd0 32bd a311 f1bd
00000010: e11c 84bc 11c3 84bd 5720 41bd 3ad5 44bd
00000020: 4cb2 3ebb edd5 3b3d 8752 553d 3073 3c3c
00000030: c4c9 a43c fdf9 0c3c d3e9 993d ae88 0f3e
00000040: 65c5 253d 003c 873d 692a 483d 72d0 cc3c
00000050: a6f6 583d 7788 6cbd 6c90 39bd 5291 12bc
00000060: c968 85bc 7c81 623d f2fb 0f3c 8c36 69bc
00000070: 6a4b 293d b6b0 f3bc e0fc aebb 5de8 5cbd
00000080: 6210 193d 39e3 44bd e9d8 043d a8f0 8fbb
00000090: 597a bfbc f7ee 48bc edb9 d73b 1f16 6a3c
000000a0: 886b 1d3d 2246 8f3d 40b7 7f3d 7f3a 90bb
000000b0: 9fd2 093c 6bfc 013d 5ed3 4fbd bc61 d1bd
000000c0: 45d5 e0bb 6d36 863d dc29 0d3e 4611 86bd
000000d0: 52cd e3bd f2ca a7bc 5c0c b63c 88e6 023c
000000e0: 7e1d bf3c f642 5c3c fbd3 11bc a482 783c
000000f0: 6ddb 053d d0f9 e1bb 5427 573c f2a8 02be
00000100: e8f4 02be 7f5c bebd 3697 5dbc 9f34 7abd
00000110: 776f 903d aa63 163d eb3b db3c c907 12bc
00000120: c1a0 843d 99fd 84bd 37a7 5dbd 1ee2 353d
00000130: c976 21bc aba9 dbbc 6d7f 46bd 8eba a1bd
00000140: 0895 6dbd fd49 a33d 91ca 80ba ee89 c03c
00000150: b55f d13c 0ba4 933d 3a34 2abd ed05 1b3d
00000160: 3e5d 2f3d 1d25 913d dc60 89bd 61f0 8dbc
00000170: 8856 6c3d d90b fa3c 5d91 93bd 48c9 27bc
00000180: dbb6 acbb 77a7 85bd dcf4 b0bd c479 61bd
00000190: f601 133e fdd6 823d 8beb 1ebc 7073 ca3c
000001a0: b3e4 7f3d 38cd 87bd ffc3 bdbc 0786 313d
000001b0: 379a febc 2aba 0dbc eb89 a93c 1355 893c
000001c0: d25c b63d 8b7e 00bc c706 2c3d 4c44 c63c
000001d0: 0289 783d 4fb3 27bd 6eb4 3d3c dff9 6c3d
000001e0: f591 8d3d caaa fbbc 0874 923d 5049 b6bc
000001f0: 8c0b 56bd d609 2abe 7dbb 0fbd 5e56 bbbd
00000200: 1734 e13c 7464 4b3d e762 263c 0072 993d
00000210: 8818 6b3d 776e 093e 63ce 0e3d f3cd d2bd
00000220: f5d5 09bd 7be9 653d 4804 073d b783 6abb
00000230: b513 e138 01dc a63d 24c5 90bc c5e2 6c3d
00000240: 4149 b13c a06c 103c 5a97 2abd 94b0 793d
00000250: 7f3f 603d 7e12 2a3d 35c2 53bd d92b 89bd
00000260: 8e2a 26bd c535 373c 1444 f93c 454c 823d
00000270: 1b7d 133d 195e abbb 1342 1d3d 35de ae3c
00000280: 92d4 233d 39ef 8e3d df9f 153d 2329 10bb
00000290: 9884 e33c cd2b 0dbd a77f cc3c 5aa1 08bd
000002a0: c0ce 513c 8d98 3e3d bdc5 563d 1112 94bd
000002b0: 9bff adbb 0db8 0c3d 1d5c fa3c e3f8 bfbc
000002c0: 1beb f7bc 8918 383d 57a4 c1bd 761f febc
000002d0: 6e54 d43d bf47 02bc add7 4d3d fc8c b13d
000002e0: abd1 933d 8949 da3d d62c c6bb 2e79 983d
000002f0: 9cf5 733d b1a4 eb3c d82c 1ebd 24d2 6bbd
00000300: 4d7c 023d e9e7 0f3d 7772 ddbd 4f26 cb3c
00000310: 45bb e43c 86ce e13d 6a9f dd3c 02f7 313d
00000320: 2d1e 883d e6d2 22bd 7a36 fd3c c660 2ebd
00000330: a31e b1bd 700b 5a3d 01cc 993c 0685 373d
00000340: 554d 27bb 79fa adbd 0e95 2a3d 1e34 9f3b
00000350: d3cf 393c 7ee8 883b b996 b13c b7c7 1cbd
00000360: 7746 c6bd 1c4e a0bd 1dd2 11bd d34c 82bd
00000370: a9eb 18bd 7de8 44bb 2141 60bd 6ba6 34bc
00000380: 8d04 b23b 3ae1 4c3d 3227 ce3c 4460 0b3e
00000390: bf8b b63d 8356 2b3c efb3 083c c965 de3d
000003a0: 54e6 a2bc f994 32bd d76b cbbd e784 84bd
000003b0: 82e4 9e3c 517d 143d be2e 833c 9620 0a3e
000003c0: 4ff2 3b3d c7b4 8abc d414 a53c 88cc 0f3c
000003d0: 5600 58bd e533 a8bc b54c 693c fd08 2d3c
000003e0: 0ccd 09ba 372b 723c ae40 1bbd 038a ccbc
000003f0: 367f 713d 335f 243a bdb1 153d b54a af3c

net.7.bias f4 [150]
0.064104326 0.0018146359 0.015498723 0.025571877 -0.0018272442 -0.023728818 -0.05801857 0.010749445
0.03249967 -0.010190147 0.022756964 -0.013113715 0.008091236 0.0596833 0.0017343975 -0.040662114
0.035664994 0.061514538 -0.023630513 0.0014887993 0.06120205 -0.012916133 0.02873999 -0.023353076
0.02337395 -0.037793536 0.029413631 0.055190746 0.03634467 0.02289298 0.021951582 0.04468183
0.0047567384 0.06909198 0.0018092938 -0.08031915 0.0037865725 0.0054122205 -0.023658117 0.0072077066
0.007786507 -0.052284002 0.061214954 0.029235454 -0.025746223 -0.039486453 0.033368494 -0.029902354
0.041197065 -0.056424133 -0.054774474 0.023489062 0.004300728 -0.004445137 0.077999935 0.041644823
0.012681732 -0.017173983 -0.022516077 -0.03559409 0.027776888 -0.018682772 0.06433121 0.021488046
-0.07273009 0.041604087 -0.0027280992 -0.02334644 0.020599999 -0.047768757 0.06395076 0.063928075
0.028278733 -0.013003136 -0.07740214 -0.046666756 -0.035902128 0.03587868 0.026562471 -0.016792534
0.032852083 -0.025828565 -0.024700394 -0.02749372 -0.043363128 0.03182087 -0.05501617 0.04260002
-0.058592863 0.031170988 0.025967099 0.020091642 0.051494803 -0.014761333 0.00040585897 0.0045147506
-0.013862181 -0.050122295 -0.011628927 -0.0023965877 -0.021069346 -0.020059628 -0.010466776 -0.055598833
0.052409057 -0.0025856043 0.026989853 -0.03137321 0.038057353 0.04640278 0.064760245 0.07151458
0.0158593 -0.05638873 0.06267862 0.020914886 -0.03166249 -0.049819965 -0.04088641 0.03956466
-0.030235788 0.056857612 -0.008486385 0.016749388 0.017314827 -0.012336834 0.054791834 0.005596515
-0.029820517 0.021992242 0.0025400158 0.013630136 -0.02590411 0.10689064 -0.01285786 0.061353765
0.06456413 -0.042436186 0.0022565036 -0.030346842 0.01297778 -0.051582903 -0.018122723 -0.012663676
0.018731903 -0.057104092 -0.00909577 -0.0031135804 -0.023821674 -0.05000405
00000000: 2149 833d 14d9 ed3a 5bee 7d3c 1d7c d13c
00000010: 2480 efba f062 c2bc e1a4 6dbd 711e 303c
00000020: 601e 053d 93f4 26bc d06c ba3c e8da 56bc
00000030: 1b91 043c 7a76 743d b954 e33a 518d 26bd
00000040: 7515 123d abf6 7b3d c794 c1bc d123 c33a
00000050: 00af 7a3d 309e 53bc 2170 eb3c f34e bfbc
00000060: ba7a bf3c 65cd 1abd dbf4 f03c b10f 623d
00000070: 26de 143d 0f8a bb3c ced3 b33c 4b04 373d
00000080: 6ade 9b3b 1980 8d3d d325 ed3a 5e7e a4bd
00000090: 2528 783b ff58 b13b abce c1bc a02e ec3b
000000a0: f425 ff3b c027 56bd 88bc 7a3d 317f ef3c
000000b0: bee9 d2bc 8cbc 21bd 67ad 083d c8f5 f4bc
000000c0: 41be 283d fe1c 67bd 335b 60bd 226c c03c
000000d0: 1fed 8c3b 83a8 91bb 6ebe 9f3d c393 2a3d
000000e0: 0ac7 4f3c 74b0 8cbc a373 b8bc 1ccb 11bd
000000f0: 5b8c e33c 9d0c 99bc 15c0 833d b307 b03c
00000100: 83f3 94bd 0c69 2a3d e9c9 32bb 0941 bfbc
00000110: 54c1 a83c 2ca9 43bd 9ef8 823d b9ec 823d
00000120: cda8 e73c 1b0b 55bc 0385 9ebd a425 3fbd
00000130: 1c0e 13bd 86f5 123d 8a99 d93c 7f90 89bc
00000140: e88f 063d 6d96 d3bc 7b58 cabc 833a e1bc
00000150: 899d 31bd 9a56 023d a358 61bd 5c7d 2e3d
00000160: 12ff 6fbd 4d5a ff3c f4b8 d43c 3a97 a43c
00000170: 37ec 523d 85d9 71bc 78c9 d439 79f0 933b
00000180: 341e 63bc 094d 4dbd 4187 3ebc 1210 1dbb
00000190: 9f99 acbc 1754 a4bc d77c 2bbc 9abb 63bd
000001a0: e1aa 563d 3e73 29bb d319 dd3c 3281 00bd
000001b0: 07e2 1b3d d710 3e3d 05a1 843d 3c76 923d
000001c0: 5deb 813c def7 66bd a65d 803d b255 ab3c
000001d0: 87b0 01bd 0510 4cbd 8278 27bd 8e0e 223d
000001e0: 0bb1 f7bc 87e3 683d 7b0a 0bbc 0336 893c
000001f0: d3d7 8d3c 6f20 4abc 676d 603d f862 b73b
00000200: 284a f4bc 1329 b43c 6576 263b ef50 5f3c
00000210: db34 d4bc 7be9 da3d c6a9 52bc 164e 7b3d
00000220: 333a 843d 91d1 2dbd d9e1 133b f199 f8bc
00000230: c1a0 543c 9848 53bd 1b76 94bc 4f7b 4fbc
00000240: a673 993c fbe5 69bd 6d06 15bc 360d 4cbb
00000250: ac25 c3bc 0cd1 4cbd

net.9.weight f4 [10, 150]
-0.015028392 -0.060481146 -0.079937704 0.031202538 0.14606103 -0.23113391 -0.05956256 0.008128051
-0.059740636 -0.05295832 -0.04156329 -0.0042153173 0.02239354 0.15268852 -0.13490884 -0.055277765
0.021601517 0.016405864 -0.18532923 -0.12835576 -0.22301264 -0.012234594 0.034535 -0.001360822
0.11942337 0.10158072 0.014591685 0.11386104 0.099679425 -0.03268878 0.103735395 0.07313338
0.033268984 -0.1712903 -0.05753634 0.0353639 -0.06171309 0.21371326 0.06931573 0.014810433
0.01186378 -0.03751863 -0.16048756 0.07946239 0.019035777 0.07855568 -0.039645858 -0.040176935
0.08740939 -0.047681812 -0.04205657 0.21326576 -0.02384153 0.050941583 -0.024997551 -0.25190958
-0.031994447 -0.020951249 0.10828759 -0.049646042 0.1318123 0.0957446 -0.21866529 -0.07082002
0.002880851 0.013986175 -0.042284478 -0.20547698 -0.16997394 -0.04869967 0.047904454 0.059660323
0.0030136963 -0.080146685 0.035722416 -0.052222546 0.101998255 -0.07327206 -0.21779613 -0.02176027
-0.06230524 -0.088998765 -0.12136676 0.11521594 0.14667676 -0.16661711 0.007935554 -0.032994814
0.045080982 0.04151734 0.063208126 0.027916508 0.065833345 0.1409814 -0.002079891 -0.05030534
0.006905695 -0.06604937 -0.037402734 -0.022093978 0.00048803902 -0.047445837 -0.055949714 0.07932812
0.0989511 0.0027653277 0.0121780485 -0.18522519 -0.012239907 -0.17000048 -0.17806327 0.1789364
-0.0036706615 -0.01793074 -0.21634704 -0.025314745 0.039029445 -0.04173503 -0.18828332 -0.08065006
-0.008537511 0.1337179 -0.01584116 -0.07774033 -0.029822234 0.09966643 -0.10151589 -0.16131534
0.07483641 -0.13424793 0.088652514 -0.057466287 0.07581545 -0.15544048 -0.0151885785 0.0035500852
0.09534883 -0.014132117 -0.04911487 0.040338516 -0.07874555 0.06512178 0.070900306 0.030585302
-0.042535003 0.051540066 0.04729904 0.030001318 -0.0063145766 -0.04950565 0.050160196 -6.6029126e-05
-0.04484873 -0.0981513 0.15249668 0.091986276 0.036204208 0.08017894 -0.040255196 0.025390998
-0.0022020258 0.1727203 0.07678699 -0.14949743 0.12287644 -0.032206368 -0.03199897 -0.17550187
0.11282209 0.023884585 -0.10349579 -0.07529456 -0.004132037 -0.06464592 -0.019969465 -0.07994127
-0.011757235 0.16148777 -0.09049139 0.0105294995 0.21516109 -0.11089982 -0.1807059 -0.0987881
0.025485044 -0.051765114 0.052927066 0.12101531 0.026741844 0.16296877 0.07415192 0.024784176
-0.07469943 -0.07392478 0.033591572 -0.06513103 -0.11184344 -0.06231973 -0.00022558388 0.026922371
0.014534394 -0.017435601 0.050348017 0.033887982 -0.0102898525 -0.08606021 -0.13308698 0.13694303
0.0102499295 -0.04011109 -0.10059304 -0.19515312 -0.100981094 -0.08514244 0.076270536 -0.052362554
0.029407252 -0.12226078 0.07833105 0.033340603 -0.1752309 -0.2442407 0.024486905 0.01597885
-0.059440643 -0.07080328 -0.15158632 0.010026545 -0.078006685 -0.048608597 -0.104377806 0.07377862
0.05810633 0.12190023 0.11145528 0.1513608 0.061912585 0.0674616 -0.061153665 0.039780296
-0.049275722 0.019870425 -0.15073118 -0.18811093 0.011809995 -0.0140527375 -0.03143499 0.058797587
0.009217223 0.0068039633 0.055859476 0.035681922 0.08400849 -0.030844616 -0.16304097 0.0896388
00000000: a539 76bc 14bb 77bd 61b6 a3bd 779c ff3c
00000010: 0691 153e 5eae 6cbe dff7 73bd 842b 053c
00000020: 99b2 74bd d3ea 58bd 453e 2abd a520 8abb
00000030: a872 b73c 615a 1c3e 8b25 0abe f06a 62bd
00000040: aaf5 b03c 9765 863c f2c6 3dbe b16f 03be
00000050: 6d5d 64be 9b73 48bc 9274 0d3d 9c5d b2ba
00000060: 3d94 f43d 8d09 d03d f611 6f3c fa2f e93d
00000070: ba24 cc3d ace4 05bd 3973 d43d f4c6 953d
00000080: 0f45 083d b966 2fbe 3aab 6bbd bdd9 103d
00000090: ddc6 7cbd a6d7 5a3e 68f5 8d3d 75a7 723c
000000a0: 4d60 423c 23ad 19bd da56 24be 2dbd a23d
000000b0: ebf0 9b3c cde1 a03d b263 22bd 9290 24bd
000000c0: b203 b33d 014e 43bd 8343 2cbd 5762 5a3e
000000d0: 504f c3bc 1fa8 503d aac7 ccbc 4bfa 80be
000000e0: 9c0c 03bd f4a1 abbc e2c5 dd3d a659 4bbd
000000f0: cef9 063e bf15 c43d cbe9 5fbe 160a 91bd
00000100: a9cc 3c3b 4526 653c 7d32 2dbd 8f68 52be
00000110: a60d 2ebe 4e79 47bd 7637 443d 625e 743d
00000120: 6f81 453b f223 a4bd ab51 123d 4fe7 55bd
00000130: 76e4 d03d a90f 96bd f305 5fbe 9842 b2bc
00000140: c833 7fbd fc44 b6bd 238f f8bd 56f6 eb3d
00000150: 6f32 163e ad9d 2abe 2004 023c 9225 07bd
00000160: d6a6 383d 160e 2a3d 4373 813d 29b1 e43c
00000170: a2d3 863d 6e5d 103e c84e 08bb f90c 4ebd
00000180: 2b49 e23b e444 87bd 9c33 19bd 6efe b4bc
00000190: 7ddf ff39 9156 42bd 872b 65bd c876 a23d
000001a0: e0a6 ca3d 803a 353b 7086 473c acab 3dbe
000001b0: e489 48bc 9b14 2ebe 3856 36be 1b3b 373e
000001c0: 7b8f 70bb 7de3 92bc 148a 5dbe de60 cfbc
000001d0: 57dd 1f3d 5af2 2abd 58cd 40be dc2b a5bd
000001e0: ebe0 0bbc 58ed 083e 52c5 81bc 5236 9fbd
000001f0: c24d f4bc ea1d cc3d 90e7 cfbd d92f 25be
00000200: d543 993d 4a78 09be 738f b53d c561 6bbd
00000210: 2145 9b3d ca2b 1fbe 84d9 78bc 8ca8 683b
00000220: 3f46 c33d 658a 67bc ad2c 49bd 003a 253d
00000230: 5945 a1bd 915e 853d 2e34 913d 078e fa3c
00000240: 2f39 2ebd ad1b 533d a3bc 413d 53c5 f53c
00000250: 82ea cebb 70c6 4abd c774 4d3d 1e79 8ab8
00000260: 4db3 37bd 8c03 c9bd 1728 1c3e 4d63 bc3d
00000270: dd4a 143d db34 a43d a2e2 24bd c800 d03c
00000280: dd4f 10bb 97dd 303e 7f42 9d3d db15 19be
00000290: a5a6 fb3d d3ea 03bd 5a11 03bd c3b6 33be
000002a0: 450f e73d 9ba9 c33c 9af5 d3bd 0934 9abd
000002b0: 0a66 87bb 1565 84bd 0197 a3bc 40b8 a3bd
000002c0: 6ba1 40bc 0d5d 253e 8d53 b9bd ec83 2c3c
000002d0: 3053 5c3e 721f e3bd f80a 39be 6a51 cabd
000002e0: 03c6 d03c a807 54bd 0dca 583d e0d6 f73d
000002f0: b611 db3c 49e1 263e f6dc 973d 2f08 cb3c
00000300: 04fc 98bd e065 97bd 5197 093d 6b63 85bd
00000310: 2c0e e5bd f942 7fbd b68a 6cb9 4e8c dc3c
00000320: ab21 6e3c 1bd5 8ebc b939 4e3d 20ce 0a3d
00000330: c596 28bc 5640 b0bd f447 08be cb3a 0c3e
00000340: 52ef 273c 874b 24bd b903 cebd 38d6 47be
00000350: 2dcf cebd 295f aebd ba33 9c3d 1e7a 56bd
00000360: 7ae7 f03c dc63 fabd 086c a03d 2890 083d
00000370: bb6f 33be 3c1a 7abe c398 c83c 14e6 823c
00000380: 0878 73bd 4f01 91bd 7239 1bbe 6146 243c
00000390: f8c1 9fbd cf19 47bd 08c4 d5bd 3f19 973d
000003a0: e700 6e3d d4a6 f93d aa42 e43d 53fe 1a3e
000003b0: 0d98 7d3d 4f29 8a3d 447c 7abd aaf0 223d
000003c0: 57d5 49bd 4dc7 a23c 4659 1abe 27a0 40be
000003d0: b67e 413c 743d 66bc fac1 00bd bdd5 703d
000003e0: d603 173c c8f3 de3b e8cc 643d 3527 123d
000003f0: a50c ac3d d9ad fcbc 36f4 26be 8c94 b73d

net.9.bias f4 [10]
-0.0356124 -0.045394823 0.033918202 -0.07630452 0.045677934 -0.051440056 -0.045371037 -0.09078454
-0.027381103 0.0022559403
00000000: 4fde 11bd ecef 39bd d0ed 0a3d 8b45 9cbd
00000010: c918 3b3d cfb2 52bd fbd6 39bd 3fed b9bd
00000020: 564e e0bc 66d8 133b
