result/model_19_1.pth (torch, 307183 bytes, 8 tensors)

net.0.weight f4 [20, 1, 4, 4]
0.4552686 0.5601525 0.18645813 0.46299174 0.05331286 -0.16843677 -0.43818045 0.24605776
0.05782522 -0.34247094 0.36776224 0.24747996 0.27615854 0.3167807 0.3413485 -0.14831394
0.42919075 0.2853767 0.10066996 0.25845847 -0.10660269 0.020678168 -0.04230212 0.19667377
-0.2788712 -0.2240632 -0.23631456 -0.21205014 -0.02185773 -0.29185104 0.06989516 -0.20210245
0.21774071 -0.016518226 -0.4395041 -0.29160553 0.16441697 0.76674366 0.35232925 -0.42323184
-0.22190037 0.22134173 0.65074146 0.18973789 -0.21144274 -0.27636886 0.22557515 0.26300457
0.11424276 -0.22798657 -0.39191395 -0.13010475 -0.15441118 0.29622382 0.19727449 0.2905509
0.14064838 0.14123394 0.29493856 -0.09391762 0.008439695 -0.23358347 -0.038810078 -0.078925095
0.059614625 0.020412037 0.2803296 -0.10470747 -0.19594054 -0.1733719 0.18646072 0.073775664
0.23579676 -0.24366967 -0.35833606 -0.28538567 -0.13671353 0.14996752 0.14457664 0.26049677
-0.18191352 -0.07752484 0.20582564 -0.18373989 0.10092937 0.10800075 0.21875036 -0.3117693
-0.056865226 0.3162534 -0.022347841 -0.23124817 0.29088014 0.33166572 -0.311974 -0.28848666
0.31718734 0.010331586 -0.039923612 -0.23141173 -0.12223338 -0.054313637 -0.1601583 -0.17081985
-0.0738796 -0.3057011 -0.3036652 0.0051458306 -0.18227814 -0.13274351 0.31842753 0.27354142
0.10295622 -0.20189443 -0.13972758 -0.0636747 0.039358784 -0.20763458 -0.121819235 -0.17075598
-0.010264234 -0.13008817 -0.07936268 -0.20358868 -0.13465777 -0.13198647 -0.09969445 -0.18302386
0.33356017 0.08781023 0.3301722 0.20276515 -0.19434427 0.19792841 -0.063987605 -0.055979524
-0.28579152 -0.3376202 -0.060912892 -0.098320395 0.061068345 -0.23252936 0.09737135 -0.19015114
-0.08120944 0.064635485 0.21547303 0.34273615 0.25569504 -0.25507513 0.16713409 -0.17518748
-0.11976188 -0.2060661 0.33807844 -0.31561986 -0.018796565 0.05841778 0.07426154 -0.2244454
0.44308907 0.09867454 0.016736286 -0.19798708 0.3869218 -0.02364856 -0.17710413 0.21313949
0.295055 -0.15771826 -0.24507509 -0.11002274 0.24937814 -0.07529423 -0.2426528 -0.189981
-0.2537146 0.28627586 0.24292822 -0.3666595 0.024489973 0.37750491 0.01704476 -0.2759232
0.21226102 0.31306416 0.0040278197 -0.22843482 -0.067637086 0.15133432 -0.077050075 -0.19763556
0.20969081 0.28077555 0.006531525 -0.05197471 0.00039808408 0.05196146 0.16421247 0.17738478
-0.306213 -0.143105 0.18268228 0.13346456 -0.079903774 -0.22855772 -0.2504335 -0.28880402
-0.19833833 0.00037046865 0.26108962 0.29449996 -0.37410274 -0.30211842 -0.0033196919 0.48656046
-0.114883415 -0.22383273 0.13999842 0.10490742 -0.2722994 0.07181154 -0.066260874 0.08462092
-0.21709967 0.23632301 0.27055684 0.15717222 -0.16257131 -0.19838123 -0.09812731 0.336256
0.14567822 0.2715518 0.11840078 0.04681929 -0.007372585 -0.23031315 -0.30313835 -0.2903935
0.16156842 -0.08125559 -0.010394152 -0.09817146 -0.012563597 -0.14545152 -0.18210298 0.03174358
-0.053101826 0.07235194 -0.16284034 -0.20152603 0.020314807 -0.08618721 -0.06567575 -0.2029578
00000000: f718 e93e 2766 0f3f e1ee 3e3e 410d ed3e
00000010: 965e 5a3d b07a 2cbe 3059 e0be 91f6 7b3e
00000020: 23da 6c3d 5a58 afbe 554b bc3e 636b 7d3e
00000030: a764 8d3e 1431 a23e 3bc5 ae3e 9cdf 17be
00000040: e4be db3e e51c 923e 0d2c ce3d ab54 843e
00000050: 8352 dabd 4365 a93c fd44 2dbd d964 493e
00000060: 35c8 8ebe d370 65be 72fc 71be ac23 59be
00000070: fb0e b3bc 806d 95be 3225 8f3d f2f3 4ebe
00000080: 6cf7 5e3e 3b51 87bc ae06 e1be 524d 95be
00000090: ec5c 283e 5049 443f 8064 b43e d8b1 d8be
000000a0: da39 63be 68a7 623e fe96 263f a64a 423e
000000b0: 7284 58be 3880 8dbe 2cfd 663e 89a8 863e
000000c0: 1cf8 e93d 5075 69be f2a8 c8be 2e3a 05be
000000d0: f71d 1ebe a6aa 973e 5302 4a3e 16c3 943e
000000e0: 2106 103e a19f 103e 3002 973e e257 c0bd
000000f0: a646 0a3c 8130 6fbe 51f7 1ebd 7ba3 a1bd
00000100: 772e 743d 2537 a73c 5d87 8f3e df70 d6bd
00000110: a3a4 48be 6788 31be 8fef 3e3e b217 973d
00000120: b574 713e 8b84 79be d377 b7be 121e 92be
00000130: a2fe 0bbe 1691 193e e60b 143e d55f 853e
00000140: 8a47 3abe 58c5 9ebd f5c3 523e 4f26 3cbe
00000150: 0fb4 ce3d 7f2f dd3d 1800 603e 3aa0 9fbe
00000160: 83eb 68bd f7eb a13e d212 b7bc 52cc 6cbe
00000170: 3eee 943e 17d0 a93e 0ebb 9fbe 86b4 93be
00000180: 6166 a23e d045 293c f186 23bd 32f7 6cbe
00000190: 7f55 fabd fa77 5ebd 8a00 24be 66eb 2ebe
000001a0: 304e 97bd db84 9cbe 017a 9bbe 5b9e a83b
000001b0: 1fa7 3abe eaed 07be ef08 a33e 9f0d 8c3e
000001c0: b6da d23d 6abd 4ebe bf14 0fbe e267 82bd
000001d0: ad36 213d 299e 54be 5d7c f9bd a8da 2ebe
000001e0: 512b 28bc d535 05be e788 a2bd 8d79 50be
000001f0: bae3 09be 7627 07be 9b2c ccbd 9b6a 3bbe
00000200: 66c8 aa3e dad5 b33d 550c a93e aba1 4f3e
00000210: 2f02 47be bfad 4a3e ef0b 83bd c94a 65bd
00000220: 4453 92be 8edc acbe cc7f 79bd 345c c9bd
00000230: cd22 7a3d 2d1c 6ebe a16a c73d fbb6 42be
00000240: 2351 a6bd 9c5f 843d f6a4 5c3e 1d7b af3e
00000250: 76ea 823e 3599 82be 3325 2b3e 5964 33be
00000260: b745 f5bd fe02 53be 9e18 ad3e ed98 a1be
00000270: 41fb 99bc 7b47 6f3d 6f16 983d 04d5 65be
00000280: 92dc e23e e115 ca3d 891a 893c 20bd 4abe
00000290: 9d1a c63e a0ba c1bc c95a 35be 3d41 5a3e
000002a0: 7311 973e e580 21be f7f4 7abe 9a53 e1bd
000002b0: fc5c 7f3e dc33 9abd fa79 78be 618a 42be
000002c0: e1e6 81be c092 923e 2dc2 783e cbba bbbe
000002d0: 329f c83c 5348 c13e 74a1 8b3c ce45 8dbe
000002e0: f45a 593e f249 a03e cdfb 833b d1ea 69be
000002f0: 5085 8abd 62f7 1a3e 6ecc 9dbd fa60 4abe
00000300: 30b9 563e d0c1 8f3e 6706 d63b 6fe3 54bd
00000310: f1b5 d039 8ad5 543d 5027 283e 5ba4 353e
00000320: f3c7 9cbe 1e8a 12be 1011 3b3e efaa 083e
00000330: 97a4 a3bd 090b 6abe d238 80be 1fde 93be
00000340: 3419 4bbe 763b c239 8aad 853e b3c8 963e
00000350: 658a bfbe 44af 9abe 308f 59bb 741e f93e
00000360: ff47 ebbd 6834 65be bf5b 0f3e b4d9 d63d
00000370: d46a 8bbe ee11 933d c8b3 87bd bc4d ad3d
00000380: 604f 5ebe a9fe 713e 6d86 8a3e c1f1 203e
00000390: 1879 26be 7324 4bbe f9f6 c8bd bf29 ac3e
000003a0: ac2c 153e d608 8b3e 1c7c f23d 95c5 3f3d
000003b0: ba95 f1bb 36d7 6bbe f334 9bbe 75ae 94be
000003c0: 3172 253e 5569 a6bd 3c4c 2abc 1e0e c9bd
000003d0: 8cd7 4dbc 3ef1 14be 3479 3abe 8e05 023d
000003e0: 4d81 59bd 412d 943d 9ebf 26be d75c 4ebe
000003f0: 3d6b a63c ec82 b0bd 0281 86bd 2bd4 4fbe

net.0.bias f4 [20]
0.22197443 -0.10656761 0.4462432 0.13969241 -0.09859731 -0.10259852 -0.41233474 -0.34882307
-0.14872448 0.07461359 0.24402565 0.14900188 -0.119533785 -0.117049 0.12838309 -0.37487936
0.035811134 0.122124225 -0.40877023 0.13637744
00000000: 444d 633e 1e40 dabd fd79 e43e 870b 0f3e
00000010: 63ed c9bd 2c1f d2bd 8a1d d3be f098 b2be
00000020: 3b4b 18be 03cf 983d dce1 793e f393 183e
00000030: 21ce f4bd 63b7 efbd db76 033e 30f0 bfbe
00000040: b2ae 123d 441c fa3d 554a d1be 87a6 0b3e

net.3.weight f4 [40, 20, 5, 5]
-0.039334554 -0.07361705 -0.17996514 -0.20938723 -0.16845424 0.040795177 -0.026893416 -0.120698206
-0.06557047 -0.03030637 0.03507204 0.009874541 0.14912303 -0.013852774 -0.16672751 -0.062478874
0.024465848 0.028843196 -0.05048871 -0.04681652 -0.010358025 -0.025731659 0.0058515705 -0.020009529
-0.12432642 0.013144408 -0.009935337 -0.09262877 -0.09269013 -0.02884537 0.0050241686 -0.060526267
-0.12954658 -0.049564004 -0.039997645 -0.1027196 -0.105491206 -0.0035238564 0.018010348 -0.0598723
0.019317543 -0.08717771 -0.017976744 0.04145823 0.01698449 0.05575064 -0.016544528 0.030052584
0.077716306 0.012849817 0.03414116 0.009946726 -0.006116297 0.018475551 0.07028508 -0.14895664
-0.23234487 -0.05683308 0.04591642 0.028440759 -0.073733725 -0.00089054636 0.066510364 0.01029457
-0.062416468 0.13324478 0.15803921 0.08552104 -0.055320863 -0.08772637 0.09691426 0.12676674
0.0759599 -0.021595106 0.0039067403 0.020372482 0.036985535 0.100315094 0.13634034 0.090555124
0.04189621 0.076928884 0.12630367 0.15455765 0.095847614 -0.036779493 -0.03287422 0.01284346
0.07846098 0.07735663 -0.11041982 0.07839779 0.16837355 0.14904426 0.009549102 -0.041667037
0.041976374 0.08927469 0.05210048 -0.032132562 0.05058972 0.18111292 0.20886715 0.12026915
0.028328948 0.008737264 0.0011311068 0.008957962 0.10607456 0.1009959 -0.21078095 -0.049744584
0.08672606 0.2081455 0.094796956 -0.055516575 0.14149061 0.2823928 0.1330374 -0.046834074
0.04945718 0.13957427 0.09766264 -0.0112607265 -0.104923524 0.07878731 -0.00055813364 0.0004077036
0.059702385 0.08649286 0.22065438 0.19631165 0.04262303 0.023233287 0.04149697 0.10937622
0.060315423 -0.13556889 0.011983324 0.04001602 -0.20780063 -0.2614793 -0.1551777 -0.002982984
0.021771599 -0.1704892 -0.16058032 -0.10945865 0.023299957 0.083065584 0.032251444 0.033146076
0.042465918 0.011015992 -0.0013535813 0.026460916 0.049081616 0.023016285 -0.05538603 -0.019864313
-0.03450194 -0.13352059 -0.10322194 -0.0041079023 0.046724454 -0.048236135 -0.18425328 -0.12144346
-0.012295344 0.013512777 -0.013796614 -0.07021514 0.0062823156 -0.019140413 -0.0019265271 -0.015850633
0.052456636 -0.036480505 0.032825515 0.015112843 0.0032146939 -0.00035300228 -0.049035683 0.003336955
0.04819328 -0.046168614 -0.058501586 -0.082962245 -0.0043003606 0.02815969 0.007289123 -0.0668434
-0.057138328 0.03354778 0.04815761 0.009806664 -0.04379669 -0.0136171505 -0.027108716 0.06297828
-0.111993216 -0.1612099 -0.1932926 -0.09490838 0.0077896486 -0.10564642 -0.131584 -0.06345312
0.018897222 0.036132354 -0.22413544 -0.17821239 -0.042864844 0.043012492 -4.1152583e-05 -0.12668145
-0.06884508 0.07179294 0.08673611 0.08906865 0.032503765 0.10846276 0.122077204 0.06718538
0.014950843 -0.08377984 -0.14334002 -0.037986387 -0.07662047 -0.07545046 0.086280406 0.0831857
0.03010561 0.10002935 0.097396195 0.00042908927 0.1076637 0.10399892 0.05679273 0.010930646
-0.09078731 -0.12932643 0.046784926 0.10606638 0.054710336 -0.014134792 0.034706105 0.07255424
0.044541776 0.022152616 0.032653484 -0.08727549 -0.07464967 -0.026745303 -0.04737473 0.048373617
00000000: 451d 21bd 89c4 96bd c848 38be 9b69 56be
00000010: 457f 2cbe d818 273d 954f dcbc 9f30 f7bd
00000020: d049 86bd 1145 f8bc b3a7 0f3d d4c8 213c
00000030: b5b3 183e bff6 62bc 9eba 2abe d9e9 7fbd
00000040: 9a6c c83c 9148 ec3c 40cd 4ebd aec2 3fbd
00000050: b5b4 29bc 33cb d2bc 88be bf3b 06eb a3bc
00000060: da9e febd a55b 573c d3c7 22bc 27b4 bdbd
00000070: 53d4 bdbd 204d ecbc c8a1 a43b 64ea 77bd
00000080: dca7 04be a003 4bbd 92d4 23bd a75e d2bd
00000090: c60b d8bd 80f0 66bb 708a 933c a83c 75bd
000000a0: d33f 9e3c 3a8a b2bd f743 93bc 1bd0 293d
000000b0: 0f23 8b3c c85a 643d 6488 87bc d630 f63c
000000c0: ba29 9f3d 0a88 523c 9ad7 0b3d 98f7 223c
000000d0: 386b c8bb 0a5a 973c a0f1 8f3d 1788 18be
000000e0: d0eb 6dbe cec9 68bd db12 3c3d 98fc e83c
000000f0: b501 97bd 8e73 69ba 9636 883d 8eaa 283c
00000100: 69a8 7fbd 5271 083e 08d5 213e a825 af3d
00000110: 2198 62bd e2a9 b3bd fc7a c63d 24cf 013e
00000120: dd90 9b3d 38e8 b0bc 1d04 803b 31e4 a63c
00000130: 257e 173d 0072 cd3d cd9c 0b3e f774 b93d
00000140: 5c9b 2b3d e48c 9d3d c055 013e 5c44 1e3e
00000150: c14b c43d 18a6 16bd 1ea7 06bd 606d 523c
00000160: 26b0 a03d 276d 9e3d c923 e2bd 058f a03d
00000170: 1e6a 2c3e 0f9f 183e d673 1c3c 0eab 2abd
00000180: 6bef 2b3d a6d5 b63d 5067 553d 6f9d 03bd
00000190: 2b37 4f3d aa75 393e 45e1 553e ac4f f63d
000001a0: 1c12 e83c be26 0f3c a541 943a 6ac4 123c
000001b0: 9e3d d93d f0d6 ce3d f6d6 57be fac0 4bbd
000001c0: 6f9d b13d 1824 553e e824 c23d 5965 63bd
000001d0: eae2 103e ca95 903e f53a 083e 16d5 3fbd
000001e0: 9d93 4a3d 8fec 0e3e 5a03 c83d e97e 38bc
000001f0: 25e2 d6bd 3e5b a13d b74f 12ba 0dc1 d539
00000200: 7d8a 743d 2b23 b13d 39f3 613e ec05 493e
00000210: 7c95 2e3d bc53 be3c baf8 293d a400 e03d
00000220: 4e0d 773d 92d2 0abe b455 443c d7e7 233d
00000230: b0c9 54be 9de0 85be e7e6 1ebe 2b7e 43bb
00000240: 5a5a b23c b994 2ebe 2b6f 24be db2b e0bd
00000250: 8ddf be3c 4a1e aa3d 171a 043d 2ec4 073d
00000260: bef0 2d3d 6b7c 343c a76a b1ba 90c4 d83c
00000270: ce09 493d a68c bc3c 76dc 62bd 7cba a2bc
00000280: e851 0dbd 9fb9 08be 0666 d3bd 959b 86bb
00000290: 2462 3f3d 4193 45bd e4ac 3cbe 59b7 f8bd
000002a0: 6972 49bc b264 5d3c 310b 62bc f5cc 8fbd
000002b0: e2db cd3b 5bcc 9cbc 8683 fcba 30d9 81bc
000002c0: c5dc 563d 956c 15bd 0c74 063d dc9b 773c
000002d0: 9dad 523b 2a13 b9b9 a4d9 48bd d1b0 5a3b
000002e0: 5166 453d 4d1b 3dbd 5c9f 6fbd 1ce8 a9bd
000002f0: 0aea 8cbb 26af e63c 98d9 ee3b 31e5 88bd
00000300: e109 6abd 6669 093d ea40 453d 21ac 203c
00000310: 2864 33bd 781a 5fbc 1913 debc c2fa 803d
00000320: b35c e5bd 3514 25be 7fee 45be 535f c2bd
00000330: 4f40 ff3b 265d d8bd f5bd 06be b6f3 81bd
00000340: 59ce 9a3c 85ff 133d c383 65be 4f7d 36be
00000350: 0c93 2fbd de2d 303d 409b 2cb8 c8b8 01be
00000360: a6fe 8cbd 2d08 933d b4a2 b13d a069 b63d
00000370: ab22 053d b921 de3d 9d03 fa3d 7d98 893d
00000380: 61f4 743c c494 abbd bac7 12be 9d97 1bbd
00000390: 31eb 9cbd c585 9abd c8b3 b03d 445d aa3d
000003a0: 0aa0 f63c 30dc cc3d a877 c73d 63f7 e039
000003b0: c97e dc3d 63fd d43d 7e9f 683d 7416 333c
000003c0: b2ee b9bd 266e 04be 8da1 3f3d 5539 d93d
000003d0: f217 603d 9d95 67bc fd27 0e3d 5197 943d
000003e0: 7071 363d 6779 b53c a9bf 053d 7ebd b2bd
000003f0: ede1 98bd f718 dbbc 010c 42bd 6a23 463d

net.3.bias f4 [40]
0.049349077 0.0142999645 0.0132921655 -0.029468836 -0.032113396 0.028631002 -0.04543015 0.019364705
-0.0073168697 -0.010377363 0.020940073 0.050539367 -0.041094933 0.0057256822 -0.0025861952 -0.028145526
-0.025351806 0.0016089217 -0.04915315 -0.004089865 0.02675774 -0.028219251 0.0038110102 0.06904749
-0.0018323968 -0.025216904 -0.01793999 -0.028461771 0.0516769 -9.19906e-05 0.0145521555 0.03703109
-0.01734348 0.02911474 0.0781246 0.008565927 0.011084061 -0.047195926 0.027558278 -0.020599212
00000000: 4222 4a3d 664a 6a3c 62c7 593c a168 f1bc
00000010: 5689 03bd 908b ea3c f714 3abd bba2 9e3c
00000020: 5ac2 efbb d105 2abc 848a ab3c 5e02 4f3d
00000030: 2953 28bd 819e bb3b 287d 29bb 7291 e6bc
00000040: 97ae cfbc 74e2 d23a d054 49bd 4604 86bb
00000050: 0c33 db3c 0f2c e7bc 24c2 793b c568 8d3d
00000060: 092d f0ba ae93 cebc e3f6 92bc a928 e9bc
00000070: 28ab 533d 14eb c0b8 2a6c 6e3c eaad 173d
00000080: ea13 8ebc 0982 ee3c caff 9f3d 1a58 0c3c
00000090: ec99 353c 8450 41bd e6c1 e13c aebf a8bc

net.7.weight f4 [150, 360]
-0.033135172 0.07165814 0.07254316 -0.06174064 0.017573131 -0.055217747 0.011801758 0.02093158
-0.08268922 0.04168262 0.077498846 0.036974784 0.032956105 -0.025188806 0.00656228 0.08009681
0.03318684 0.06804646 0.036805373 -0.05680642 0.01750412 -0.07382982 -0.041662022 0.033972517
0.015333092 0.096301906 -0.013265391 -0.008903503 0.038501922 -0.024636215 0.008601243 -0.052099742
0.032923896 -0.04752326 0.03779203 -0.004392702 0.0155097395 0.022910187 0.0053331694 0.08868481
0.02746294 0.050659895 0.0642069 0.0028428496 0.02068528 0.007858185 -0.047653392 0.014917092
-0.010267945 0.0064843665 0.035692934 -0.10262407 -0.13954784 -0.10286605 0.016281832 0.007989533
0.029128088 0.008161288 -0.008895412 0.021148976 0.032679964 -0.0009638067 0.007182448 -0.06715992
-0.06166903 0.021112349 0.047994103 0.019950317 0.05967569 0.009562581 0.012767074 -0.08368565
-0.010689699 -0.09453554 0.013617367 0.016689476 -0.033986367 0.01736922 -0.0763987 -0.11132122
-0.118662104 0.08957952 0.039721858 0.030231642 0.013219429 0.08290131 0.0017767927 0.04221825
0.0826941 0.10888374 -0.018367454 -0.0628939 0.02333149 0.023764364 -0.093905084 -0.083655566
-0.01809365 -0.070412904 -0.085083306 -0.042446937 0.05575171 0.054782 -0.0030682336 -0.017645778
0.078125045 -0.10099469 -0.08053884 -0.016228147 -0.011723654 -0.0056064627 0.04035922 0.032647792
0.07660977 -0.016035141 0.059949376 0.034163542 0.05234564 0.06416349 -0.017297018 0.049437813
0.10094514 -0.02065682 -0.0150802 -0.0966107 -0.11016361 -0.17174326 -0.024380183 -0.007416554
0.09595297 0.041592922 -0.015556812 0.06669153 0.03474059 0.087833464 0.009023449 -0.009382402
0.052532546 0.11072541 -0.016210187 -0.028782725 0.049213704 0.07229831 -0.05331297 -0.009193604
-0.04587187 -0.015629552 -0.009296249 -0.01880737 -0.022092897 0.08640819 0.028183848 -0.08026724
0.018580193 0.071070224 0.037140578 0.10302702 -0.0152402455 -0.045206305 -0.04205091 -0.024106355
-0.0032531284 0.05173013 0.006095613 -0.002273351 0.020164354 -0.034848835 -0.00057298044 -0.019370114
-0.014560003 0.014748329 0.02946457 -0.04204855 -0.08209925 -0.076686986 0.013654777 -0.015334919
0.01729521 0.023908349 -0.072091885 -0.035397526 0.066794835 -0.024267836 0.04343189 0.0025175884
0.012995294 0.056609616 0.012256594 0.14359789 0.09077882 0.009419252 -0.03253489 -0.022919143
0.0287713 0.016088758 -0.044451628 -0.031277202 -0.062012 0.014274481 0.016443746 -0.002897831
0.063919276 -0.028687892 0.032419838 -0.058041494 -0.12772684 0.053988524 0.0052044387 0.033258
0.06014356 0.032138195 0.024076443 0.023796812 0.07347517 0.02529692 0.034238037 -0.06429233
-0.034540914 -0.06829728 0.049487036 0.023008544 -0.005412966 -0.040688697 -0.04370688 -0.028597817
-0.095842384 -0.049128823 -0.028737541 0.09291401 0.009800149 0.040832486 0.053263057 0.10730992
0.028044175 -0.017682254 -0.04441631 -0.068773456 0.03409646 -0.03714272 -0.039533615 0.09263778
-0.03448992 -0.12529649 0.06427979 -0.016529575 -0.038956292 -0.032957714 0.052436583 0.015300476
-0.009774915 0.011361305 -0.07021503 -0.05871012 0.037321817 -0.050093807 0.026502283 -0.018450614
00000000: bfb8 07bd 81c1 923d 8291 943d c1e3 7cbd
00000010: 87f5 8f3c 012c 62bd 295c 413c b478 ab3c
00000020: f758 a9bd 65bb 2a3d b7b7 9e3d df72 173d
00000030: fbfc 063d c158 cebc 6508 d73b cc09 a43d
00000040: edee 073d f15b 8b3d 3bc1 163d d9ad 68bd
00000050: cd64 8f3c 1734 97bd cca5 2abd c426 0b3d
00000060: a637 7b3c ef39 c53d 1557 59bc 00e0 11bc
00000070: 31b4 1d3d e3d1 c9bc 3aec 0c3c 8a66 55bd
00000080: 35db 063d c0a7 42bd d1cb 1a3d a8f0 8fbb
00000090: 901c 7e3c 25ae bb3c dec1 ae3b 62a0 b53d
000000a0: f6f9 e03c c080 4f3d e87e 833d 1a4f 3a3b
000000b0: 2d74 a93c 9ebf 003c 3430 43bd d266 743c
000000c0: e23a 28bc cf7a d43b c132 123d 922c d2bd
000000d0: a1e5 0ebe 70ab d2bd 7a61 853c 88e6 023c
000000e0: 079e ee3c ecb6 053c 10be 11bc 9e40 ad3c
000000f0: 6ddb 053d f9a7 7cba be5a eb3b 248b 89bd
00000100: aa98 7cbd cef3 ac3c 7795 443d d96e a33c
00000110: 7f6e 743d 5fac 1c3c fd2c 513c 6263 abbd
00000120: d923 2fbc d99b c1bd 601b 5f3c 5eb8 883c
00000130: 4a35 0bbd e549 8e3c ec76 9cbd 61fc e3bd
00000140: 1e05 f3bd 7875 b73d 63b3 223d 59a8 f73c
00000150: 4e96 583c 29c8 a93d 45e3 e83a 0bed 2c3d
00000160: 865b a93d 70fe de3d 5877 96bc 84ce 80bd
00000170: ae21 bf3c 7cad c23c 4f51 c0bd 9c53 abbd
00000180: 2239 94bc a434 90bd 2840 aebd d7dc 2dbd
00000190: e85b 643d 1763 603d 6b14 49bb e18d 90bc
000001a0: 0600 a03d 4ed6 cebd 8cf1 a4bd e4f0 84bc
000001b0: 9214 40bc 6bb6 b7bb b64f 253d b1b9 053d
000001c0: 95e5 9c3d 215c 83bc 7a8d 753d 12ef 0b3d
000001d0: 6268 563d 2668 833d 7ab2 8dbc 4e7f 4a3d
000001e0: 53bc ce3d 7e38 a9bc f112 77bc d5db c5bd
000001f0: 759d e1bd 77dd 2fbe f3b8 c7bc 9006 f3bb
00000200: fe82 c43d 575d 2a3d 00e2 7ebc 9295 883d
00000210: 264c 0e3d 08e2 b33d 17d7 133c a5b8 19bc
00000220: 5e2c 573d 01c4 e23d 3acb 84bc c0c9 ebbc
00000230: 4f94 493d 2311 943d b35e 5abd c5a0 16bc
00000240: 24e4 3bbd 8c09 80bc 4b4f 18bc ea11 9abc
00000250: 2afc b4bc c7f6 b03d d0e1 e63c 2763 a4bd
00000260: 7d35 983c 448d 913d b820 183d d5ff d23d
00000270: 39b2 79bc 3f2a 39bd 933d 2cbd b17a c5bc
00000280: 7032 55bb f9e2 533d b5bd c73b 80fc 14bb
00000290: b72f a53c a7bd 0ebd 1134 16ba 13ae 9ebc
000002a0: 148d 6ebc faa2 713c af5f f13c 1a3b 2cbd
000002b0: a723 a8bd 110e 9dbd 49b8 5f3c 503f 7bbc
000002c0: afae 8d3c 71db c33c e9a4 93bd fffc 10bd
000002d0: bbcb 883d 57cd c6bc a3e5 313d 20fe 243b
000002e0: 37ea 543c 7cdf 673d e2cf 483c 530b 133e
000002f0: 3fea b93d 3553 1a3c 4e43 05bd edc0 bbbc
00000300: cab1 eb3c 92cc 833c e912 36bd 861c 00bd
00000310: 4b00 7ebd 83df 693c 09b5 863c 89e9 3dbb
00000320: 1ce8 823d df02 ebbc aaca 043d ebbc 6dbd
00000330: d3ca 02be 1223 5d3d ff89 aa3b 8a39 083d
00000340: 1859 763d 57a3 033d f63b c53c 88f1 c23c
00000350: 267a 963d 7d3b cf3c 2f3d 0c3d b2ab 83bd
00000360: c67a 0dbd 72df 8bbd ebb2 4a3d 6a7c bc3c
00000370: 405f b1bb 31a9 26bd fc05 33bd f845 eabc
00000380: 0349 c4bd 4e3b 49bd fe6a ebbc b349 be3d
00000390: ce90 203c f73f 273d 5d2a 5a3d 4ec5 db3d
000003a0: e6bc e53c 60da 90bc e0ed 35bd 19d9 8cbd
000003b0: bba8 0b3d f722 18bd 00ee 21bd e0b8 bd3d
000003c0: 4d45 0dbd b94d 00be 1fa5 833d 0869 87bc
000003d0: a290 1fbd abfe 06bd bec7 563d d9ae 7a3c
000003e0: f726 20bc c424 3a3c e6cc 8fbd 067a 70bd
000003f0: c3de 183d 2a2f 4dbd 511b d93c be25 97bc

net.7.bias f4 [150]
0.0917588 0.0039765714 0.010405836 0.018453345 0.02621823 -0.0142764095 -0.07661125 0.011296403
0.09588487 -0.019087158 0.021731628 -0.014155081 0.011352181 0.053963207 -0.002339407 -0.046954002
0.07178541 0.052305833 -0.017353494 -0.008021029 0.034632437 -0.015398673 0.055056065 -0.05392847
0.021007277 -0.03349902 0.032736428 0.047068663 0.041778766 0.025272122 0.017095456 0.05659223
0.012570347 0.030685626 0.0011764527 -0.05836364 0.028496321 0.021437349 -0.017259778 -0.008232256
0.020737272 -0.058941282 0.042048745 0.027009204 -0.02795542 -0.0007265446 0.035527762 -0.03589234
0.037046302 -0.05633859 -0.058486123 0.045479387 0.009732791 -0.004976309 0.067749724 0.04175017
-0.034662243 -0.07257684 -0.010489143 -0.037871026 0.052855864 -0.010460195 0.056442805 0.020391762
-0.06718348 0.041464448 -0.002728103 -0.024484783 0.020650387 -0.0515774 0.06221701 0.039768893
0.028140374 0.036069468 -0.070407875 -0.026739197 -0.00976212 0.07429154 0.03016748 -0.014271515
0.017977549 -0.058040835 -0.031827345 -0.037205026 -0.055896934 0.02326962 -0.058840238 0.038884137
-0.04916036 0.07370443 0.038226463 0.07081274 0.05398902 0.002288158 0.00036917976 0.018943228
0.018210553 -0.04967992 0.018620694 -0.0023965617 -0.035457008 0.015811725 0.00071207114 -0.06752175
0.06942679 -0.023282591 0.022900913 -0.076525874 0.05414547 0.043410357 0.081082165 0.052191727
0.04552362 -0.051093727 0.06464817 0.028655155 -0.030702434 -0.06193926 -0.031190282 0.03130281
0.010470532 0.06153759 -0.012591603 0.026719457 0.01772142 -0.023399768 -0.0055436655 0.002542671
0.0010765693 0.04350527 0.0014230286 0.04565846 -0.0063252146 0.07269728 -0.013500088 0.014860644
0.08377049 -0.05501274 0.003888559 -0.055415254 0.018866744 -0.054371454 -0.02003856 -0.012605534
0.016285624 -0.027127083 -0.015242851 0.0033406564 -0.022041379 -0.04519845
00000000: 0aec bb3d e64d 823b 3d7d 2a3c 782b 973c
00000010: 9dc7 d63c 9ae7 69bc 5ce6 9cbd 8c14 393c
00000020: 495f c43d ac5c 9cbc 8706 b23c b6ea 67bc
00000030: 80fe 393c 8608 5d3d bd50 19bb d752 40bd
00000040: 3b04 933d a43e 563d ea28 8ebc a26a 03bc
00000050: beda 0d3d b74a 7cbc 7882 613d 19e4 5cbd
00000060: 7417 ac3c 4536 09bd a216 063d 12cb 403d
00000070: 3620 2b3d 7b07 cf3c c50b 8c3c 41cd 673d
00000080: dbf3 4d3c 6c60 fb3c 3433 9a3a b60e 6fbd
00000090: 1e71 e93c 619d af3c 6164 8dbc 96e0 06bc
000000a0: 36e1 a93c 6a6c 71bd 4e3b 2c3d 6842 dd3c
000000b0: c402 e5bc 9575 3eba 8f85 113d d903 13bd
000000c0: ddbd 173d 4bc3 66bd 258f 6fbd 9848 3a3d
000000d0: 4976 1f3c 4e10 a3bb 5ec0 8a3d 3a02 2b3d
000000e0: fff9 0dbd 2ba3 94bd a8da 2bbc a61e 1bbd
000000f0: 647f 583d 3d61 2bbc 9230 673d a00c a73c
00000100: 7e97 89bd a0d6 293d f9c9 32bb 5094 c8bc
00000110: 002b a93c d342 53bd 43d7 7e3d b5e4 223d
00000120: a486 e63c 94bd 133d 0132 90bd 290c dbbc
00000130: 4df1 1fbc 2a26 983d cb21 f73c 13d3 69bc
00000140: a745 933c 3abc 6dbd 645d 02bd 4c64 18bd
00000150: 2ff4 64bd ee9f be3c 7602 71bd f944 1f3d
00000160: 605c 49bd 59f2 963d 5a93 1c3d 4506 913d
00000170: 9723 5d3d ecf4 153b 788e c139 d42e 9b3c
00000180: 4c2e 953c 2c7d 4bbd 6d8a 983c a20f 1dbb
00000190: 5e3b 11bd 9787 813c 49aa 3a3a d848 8abd
000001a0: a22f 8e3d 22bb bebc b29a bb3c 99b9 9cbd
000001b0: a4c7 5d3d 0fcf 313d 680e a63d fec6 553d
000001c0: fa76 3a3d a847 51bd 4266 843d 37be ea3c
000001d0: ac83 fbbc 06b4 7dbd c382 ffbc 6037 003d
000001e0: 988c 2b3c d70e 7c3d 034d 4ebc c3e2 da3c
000001f0: 832c 913c dfb0 bfbc a3a7 b5bb f1a2 263b
00000200: ac1b 8d3a 9532 323d eb84 ba3a 5e04 3b3d
00000210: bf43 cfbb 50e2 943d 792f 5dbc 0f7a 733c
00000220: dd8f ab3d 0a55 61bd 32d7 7e3b 1bfb 62bd
00000230: 6e8e 9a3c 9ab4 5ebd e827 a4bc 7187 4ebc
00000240: 6e69 853c 9e39 debc 27bd 79bc eaee 5a3b
00000250: 1f90 b4bc 0322 39bd

net.9.weight f4 [10, 150]
-0.05018667 -0.07562094 -0.06511642 0.0015572531 0.14197451 -0.14791404 -0.050347906 0.015836194
-0.046139635 -0.06108272 -0.04193886 0.010613595 0.06717967 0.13154995 -0.22426988 -0.052314963
-0.047145646 -0.059875883 -0.17203802 -0.13135082 -0.16401754 -0.025865357 0.09928432 -0.027843466
0.07786616 0.07593476 0.08565182 0.08083567 0.10162609 -0.034338277 0.092622146 0.09162622
0.032197118 -0.023802172 -0.058764834 0.07555698 -0.14471579 0.21713886 0.020159736 0.025026495
0.0034480966 -0.017365819 -0.18101066 0.058831345 -0.041672796 0.098225735 -0.026007248 -0.0021778198
0.081989214 -0.049024533 0.011589503 0.18304129 -0.06131164 0.05212858 -0.031164404 -0.19068265
-0.049012557 -0.0020625694 0.08334124 -0.04810038 0.12451224 0.08358829 -0.15155885 -0.06780173
0.004089507 0.013986401 -0.042284478 -0.18997565 -0.12985674 -0.03217356 0.029225731 -0.014800277
0.004659457 -0.10098393 0.045026287 -0.15402514 0.062865414 -0.29450136 -0.15460983 -0.019017754
-0.039662845 0.004061583 -0.08206054 0.12876375 0.1201386 -0.1727884 0.009546091 -0.03606464
0.12856844 -0.050302155 0.059383996 0.11769077 0.07071456 0.12299581 -0.002470483 -0.030184558
0.13512586 -0.06800995 -0.067610554 -0.022093726 0.011697252 -0.14042401 -0.03052285 0.1165652
0.11522166 0.0055579077 0.01137158 -0.06940561 -0.032806553 -0.16029496 -0.1320011 0.0931177
-0.026993869 -0.018483207 -0.18515065 0.032094404 0.042335317 -0.07133897 -0.13843493 -0.10279584
-0.0051443395 0.06278527 -0.017586302 -0.23289146 -0.014136603 0.04082354 -0.07494987 -0.11433117
0.14554445 -0.10889383 0.05093657 -0.15731029 0.17186151 0.08531085 -0.015080883 0.09145401
0.07775906 -0.037373714 -0.039829936 0.024441976 -0.07041881 0.062292986 0.07100299 0.035429336
0.0022390285 0.12134345 0.028339837 0.047455482 0.0035819265 -0.04693023 0.093791656 -0.000854305
-0.05037787 -0.058249336 0.16616423 0.095119536 0.08060478 0.07028881 -0.09316262 0.024921978
-0.0036185056 0.1340078 0.033396315 -0.11817092 0.0847009 -0.07731917 -0.18176581 -0.17125618
0.13380417 0.034956753 -0.08858888 -0.07528408 -0.16688423 -0.065517455 0.075406134 -0.05949566
-0.030324522 0.15293099 -0.067049116 -0.00059746084 0.16667373 -0.06575461 -0.14932702 -0.038058605
0.026504984 -0.002400978 0.08140073 0.13264032 0.029195677 0.16290429 0.07689802 0.007924651
-0.04281143 -0.10089477 0.08935087 -0.13188371 -0.04175042 -0.10427191 -0.023782285 0.036676098
-0.048364304 0.02504856 0.061033636 0.017762136 -0.011958695 -0.06638642 -0.094488785 0.020489033
0.042025793 -0.054812342 -0.08631254 -0.18102476 -0.06105938 -0.08724957 0.08237498 -0.05236636
0.029407265 -0.14605358 0.08812334 0.08125024 -0.18636875 -0.09912385 0.017449543 0.037741832
-0.039448917 -0.20951122 -0.11784653 0.02094634 -0.06861963 -0.04648917 -0.08124228 0.03429989
0.076133415 0.13501897 0.3712308 0.14942433 0.051513433 0.053684346 -0.40661785 0.030883266
-0.06267666 0.0075288625 -0.13142537 -0.16022833 0.011794995 -0.036529332 -0.2935191 0.058185365
0.02590686 0.018806374 0.029675845 0.039184622 0.05625876 -0.041098833 -0.13018173 0.08832215
00000000: 8a90 4dbd 27df 9abd c25b 85bd be1c cc3a
00000010: c461 113e c776 17be 9b39 4ebd e8ba 813c
00000020: eafc 3cbd e031 7abd 15c8 2bbd a5e4 2d3c
00000030: 7f95 893d 08b5 063e 01a7 65be 3748 56bd
00000040: cb1b 41bd 6a40 75bd bc2a 30be d480 06be
00000050: 37f4 27be 96e3 d3bc 9455 cb3d fb17 e4bc
00000060: 4b78 9f3d af83 9b3d 396a af3d 2c8d a53d
00000070: 5721 d03d 4ba6 0cbd aeb0 bd3d 87a6 bb3d
00000080: 20e1 033d c6fc c2bc 65b3 70bd 9ebd 9a3d
00000090: 6030 14be a659 5e3e 0826 a53c 5d04 cd3c
000000a0: 76f9 613b c342 8ebc dc5a 39be 23f9 703d
000000b0: 18b1 2abd 932a c93d 270d d5bc c1b9 0ebb
000000c0: f6e9 a73d f3cd 48bd e6e1 3d3c 2d6f 3b3e
000000d0: ea21 7bbd c784 553d 7e4c ffbc 5042 43be
000000e0: 64c1 48bd 2c2c 07bb d0ae aa3d e704 45bd
000000f0: 4600 ff3d 5630 ab3d 3e32 1bbe a2db 8abd
00000100: 4501 863b 3827 653c 7d32 2dbd fa88 42be
00000110: 2af9 04be 6cc8 03bd cd6a ef3c dc7c 72bc
00000120: 5cae 983b aad0 cebd 7c6d 383d c4b8 1dbe
00000130: 95bf 803d e2c8 96be 0a52 1ebe 1fcb 9bbc
00000140: 8275 22bd 0717 853b 5b0f a8bd a5da 033e
00000150: 3a0b f63d 71ef 30be 3567 1c3c 84b8 13bd
00000160: 72a7 033e a209 4ebd a23c 733d dc07 f13d
00000170: ccd2 903d 3ae5 fb3d d4e7 21bb 9b45 f7bc
00000180: 6f5e 0a3e cd48 8bbd 6777 8abd e7fd b4bc
00000190: d5a5 3f3c 50cb 0fbe 0e0b fabc bcb9 ee3d
000001a0: 55f9 eb3d 1c1f b63b dd4f 3a3c 8724 8ebd
000001b0: 2a60 06bd 5d24 24be 4c2b 07be 7eb4 be3d
000001c0: 3f22 ddbc 186a 97bc 2298 3dbe 6c75 033d
000001d0: cc67 2d3d 2a1a 92bd e3c1 0dbe a086 d2bd
000001e0: d991 a8bb 9095 803d 2611 90bc 197b 6ebe
000001f0: 369d 67bc 9636 273d 517f 99bd 7626 eabd
00000200: 9b09 153e ba03 dfbd dda2 503d f315 21be
00000210: 77fc 2f3e 74b7 ae3d cf15 77bc 3d4c bb3d
00000220: 2440 9f3d 2e15 19bd b724 23bd 8a3a c83c
00000230: bd37 90bd ee26 7f3d 046a 913d 5a1e 113d
00000240: aabc 123b ea82 f83d f228 e83c ae60 423d
00000250: c1be 6a3b ea39 40bd d715 c03d 70f3 5fba
00000260: 0759 4ebd db96 6ebd f526 2a3e 08ce c23d
00000270: 1e14 a53d 94f3 8f3d 0bcc bebd 2d29 cc3c
00000280: 7324 6dbb 5739 093e 93ca 083d 9803 f2bd
00000290: aa77 ad3d 8359 9ebd d120 3abe c85d 2fbe
000002a0: f603 093e d02e 0f3d 166e b5bd 8a2e 9abd
000002b0: b3e3 2abe 042e 86bd 886e 9a3d b9b1 73bd
000002c0: 226b f8bc f199 1c3e 0c51 89bd eb9e 1cba
000002d0: 85ac 2a3e 5aaa 86bd 2fe9 18be 57e3 1bbd
000002e0: fb20 d93c ba59 1dbb 6db5 a63d ddd2 073e
000002f0: c62b ef3c 62d0 263e b67c 9d3d 65d6 013c
00000300: 0a5b 2fbd eba1 cebd 97fd b63d 860c 07be
00000310: 7d02 2bbd 838c d5bd 11d3 c2bc ad39 163d
00000320: a619 46bd a332 cd3c 68fe 793d e681 913c
00000330: 67ee 43bc 9af5 87bd 5683 c1bd 9ed8 a73c
00000340: 3d23 2c3d e882 60bd a1c4 b0bd 8e5e 39be
00000350: 6719 7abd e7af b2bd 37b4 a83d 1c7e 56bd
00000360: 81e7 f03c 128f 15be 027a b43d 8766 a63d
00000370: 73d7 3ebe 7201 cbbd 58f2 8e3c 2e97 1a3d
00000380: 3095 21bd 1c8a 56be 8659 f1bd a997 ab3c
00000390: 7388 8cbd 6e6b 3ebd 5a62 a6bd 0b7e 0c3d
000003a0: d6eb 9b3d 6a42 0a3e f711 be3e b102 193e
000003b0: c0ff 523d 1ee4 5b3d 3730 d0be e7fe fc3c
000003c0: 9f5c 80bd adb4 f63b 5f94 06be e512 24be
000003d0: cb3f 413c c89f 15bd 2348 96be c753 6e3d
000003e0: a03a d43c d30f 9a3c c21a f33c 0e80 203d
000003f0: 966f 663d 4057 28bd 5c4e 05be 3ee2 b43d

net.9.bias f4 [10]
-0.03612508 -0.05008797 0.042955127 -0.07336517 0.04440638 -0.06583152 -0.030088415 -0.101832956
-0.019125922 -0.004033907
00000000: e4f7 13bd 0b29 4dbd b7f1 2f3d 7a40 96bd
00000010: 77e3 353d add2 86bd fb7b f6bc cc8d d0bd
00000020: f7ad 9cbc dd2e 84bb
