result/model_29_3.pth (torch, 307183 bytes, 8 tensors)

net.0.weight f4 [20, 1, 4, 4]
00000000: acf0 bb3e fbb0 c33e d8c1 c63d e93e a73e
00000010: 9d5d 8c3d b671 2a3e 64fd cdbc e358 503e
00000020: 75bb 8b3e 9190 cfbd af1e 8e3e e58a 993d
00000030: 251c 833e 8127 123e 34d4 5d3e 8365 6cbc
00000040: aba9 933e 0f09 473e fec3 b93c 6217 2a3e
00000050: 896a 00be 98f7 fb3c c89c aabd 34dc 063e
00000060: 43c2 8abe 659f 18be c2d4 1ebe 2675 6fbe
00000070: 8d32 adbc 0739 97be 6d52 ba3d f0b7 94be
00000080: 6012 933e 822d 29bd 8341 d9be 7d5d 95be
00000090: 2aec 343e 1459 cc3e 8fe2 cd3b e198 cfbe
000000a0: 2613 8a3d 107d 513e df88 9b3e 8dc2 523e
000000b0: 1c81 a3bc ad96 0cbd f993 9e3e 7828 783e
000000c0: 8dff b23d 4278 9fbe 26cd f8be 79c2 8dbe
000000d0: eca6 12be 65ca 423e 739a 143c e384 093e
000000e0: 583a 423e 086e 343e 36d4 c53e 7703 e43b
000000f0: de4c b83d 96b8 9cbd fc46 333e 5ec1 123d
00000100: 16eb d13d a7ff 163d 749d a13e 830f 80bd
00000110: 961c 39be b3e9 2dbe 00ff 4d3e bda9 903d
00000120: 4f0a 443e f2d3 87be 0970 a7be 1f4f 86be
00000130: 1845 33be 2938 d33d 7473 c53d 55bb 683e
00000140: 7b22 f6bc 41ad f1bd ae87 b63d c36c 34be
00000150: 1e20 8f3e 1cd2 29bd f5ed 443d c1df 93be
00000160: b11f 413b 6ce5 613d acb8 64bd 059a 26be
00000170: 64e2 993e fad7 2b3e 29ed 7abe c0a5 54be
00000180: 8403 b03e 4ad0 c93a bf23 efbc f860 87be
00000190: 8897 0abe b387 933b a237 c7bd 7784 5fbe
000001a0: 5ff7 b1bd 72b3 97be cf2f aabe aa63 17be
000001b0: 0996 9cbe fa50 79be 69f1 333e c741 fe3d
000001c0: 7e03 963d 54a8 67be 8125 27be 0cc0 debd
000001d0: 8add 3abb b529 72be 3678 09be 78fa 49be
000001e0: 76b5 52bd 3c94 12be fef2 a8bd 80b8 6bbe
000001f0: 2c90 3ebe dd7a 32be 86c5 00be 7c4f 5fbe
00000200: 392a 983e 6cef 9d3d 509d ae3e bcc5 5f3e
00000210: 9512 64be 13cc 3b3e 2644 3bbd df2e c5bc
00000220: 1c5f 8ebe 475a a3be ad4b 78bc dddf a8bd
00000230: dd0a 303d ff0f 86be 509c c73d abe0 68be
00000240: 11ca 043e 31dc 783e 01ef 513e 6172 b33d
00000250: c68f d33e 21d3 41bd 4d00 5e3d 006b a9be
00000260: 8337 333e 1213 b8bd 66d7 ca3d 1454 cdbe
00000270: 878b 9b3e b919 963d b4d6 2cbe 8543 bbbe
00000280: 5620 cc3e 1a95 503e 245d f13d 60ce 25be
00000290: 7d54 a43e 56ab 9f3d abea f5bd 1484 653e
000002a0: 3e3b 4f3e d403 47be d7ba 8bbe 53ad d4bd
000002b0: 70b5 163e d965 3dbe 5a0e 88be 0cbb 26be
000002c0: bea5 34be 95a4 813e 5d87 5a3e 71e4 c3be
000002d0: 6383 013e 4ca9 903e 1c52 a9bc ffaa 9dbe
000002e0: a1f5 753e 9ba0 843e f32d 733b dd67 81be
000002f0: 36bf 493d a97b 2f3e 3d55 8abd 0f61 5ebe
00000300: 9c26 563e 2821 af3e d784 b53d cfad a13c
00000310: e9bd 31bd 9b50 883d 8ada 4f3e 4d09 6d3e
00000320: 19b6 aabe 1746 2abe 129a 223e 1503 f23d
00000330: f907 f2bd 958d 84be f883 84be 5d96 95be
00000340: ac23 3ebe a395 333d ce83 b33e 9a1b b63e
00000350: 07b2 c0be 399c 99be 1e6c a03b af97 f03e
00000360: 72f1 0fbe f17c 75be 8da2 ab3d 286d b53d
00000370: eb51 98be f077 293d 8c2d fcbd 7683 a23d
00000380: 718a 73be 1236 543e dd81 913e 0e24 533e
00000390: fd72 0ebe 219c 1bbe 8625 57bd b49e b23e
000003a0: 52f1 203e 875d 7d3e a113 d23d aa17 803d
000003b0: b0f8 e23b 5f68 6cbe e445 a2be 4e3a a1be
000003c0: 5e3c ff3d d368 babd 96a0 7ebc 0647 06be
000003d0: 53c0 84bd f1ed 32be e16f 2dbe 7ca5 ee3c
000003e0: 896c 02be b032 9d3d bd42 12be 12ab 77be
000003f0: 695d 96bd 652f 28be 521b d6bd b1c9 7bbe
0.36707056 0.38220963 0.097049415 0.32665184 0.06853793 0.1664494 -0.02514524 0.20346408
0.27291456 -0.10134996 0.27757785 0.07497195 0.2560741 0.14272882 0.2166298 -0.014428499
0.28840384 0.1943705 0.022676464 0.16610482 -0.1254064 0.03075771 -0.08330685 0.13169938
-0.27101335 -0.14904554 -0.15510848 -0.23384532 -0.021142269 -0.29535696 0.09097753 -0.29046583
0.28724957 -0.041303165 -0.42432794 -0.29172888 0.17668214 0.3991171 0.0062831114 -0.40546325
0.067419335 0.20457864 0.30377862 0.20582028 -0.019959025 -0.034323383 0.3097227 0.24234188
0.08740149 -0.31146437 -0.48594016 -0.27687433 -0.14321488 0.1902252 0.009070027 0.13429599
0.18967569 0.17620099 0.38638467 0.006958421 0.08999036 -0.076523945 0.17507547 0.03582894
0.10249917 0.036864903 0.3156544 -0.062529586 -0.18077311 -0.1698368 0.20116806 0.07063625
0.19144557 -0.2652889 -0.32702664 -0.2623224 -0.17506826 0.10313446 0.096411616 0.22727711
-0.030045738 -0.11800624 0.089125976 -0.17619614 0.2795419 -0.04146014 0.048078496 -0.28881648
0.0029468352 0.055150434 -0.05584018 -0.16269691 0.30055535 0.16781607 -0.24504532 -0.20766354
0.34377682 0.0015397158 -0.02919185 -0.2644117 -0.13534367 0.0045022606 -0.09727408 -0.21827875
-0.086897604 -0.29629093 -0.332396 -0.14784113 -0.30583218 -0.24347296 0.1757256 0.1241489
0.07324885 -0.22622806 -0.163229 -0.10876474 -0.0028513395 -0.23648722 -0.13424763 -0.19724452
-0.051442586 -0.1431436 -0.08249472 -0.230196 -0.18609685 -0.17429681 -0.12575349 -0.21807665
0.29719713 0.07711682 0.34104395 0.21852773 -0.22272713 0.18339567 -0.04571929 -0.024070201
-0.27806938 -0.31904814 -0.015154761 -0.082458235 0.04297911 -0.2618408 0.09746611 -0.22741954
0.12967707 0.24302746 0.20501329 0.087620504 0.41320628 -0.04732049 0.054199506 -0.33089447
0.17501645 -0.089880124 0.09904365 -0.4010321 0.30379888 0.07329125 -0.16878778 -0.3657495
0.3986842 0.20369378 0.11785343 -0.16192007 0.3209571 0.077963516 -0.1200765 0.22413665
0.20237443 -0.19435054 -0.27290985 -0.103846215 0.1471765 -0.18495883 -0.2657345 -0.1628229
-0.1764135 0.2532088 0.213407 -0.38260224 0.12647776 0.28254163 -0.020669036 -0.30794522
0.24019481 0.25903782 0.0037106245 -0.25274554 0.04925462 0.17137016 -0.06754539 -0.21716712
0.20913166 0.34204984 0.08863228 0.019736199 -0.043394003 0.06655999 0.2029821 0.23148079
-0.33342054 -0.166283 0.15879086 0.11816994 -0.11817927 -0.2588927 -0.25881934 -0.2921628
-0.18568295 0.043843877 0.35061496 0.35567933 -0.37635824 -0.30002 0.004895701 0.46990725
-0.14056948 -0.23973443 0.083806135 0.088587105 -0.29749998 0.041374147 -0.12313375 0.079352304
-0.2378328 0.20723751 0.2841939 0.20619223 -0.13911052 -0.15196277 -0.05252602 0.34886706
0.15717056 0.24742709 0.1025765 0.062545136 0.0069266185 -0.2308669 -0.31693947 -0.31489795
0.12462686 -0.09102025 -0.015541216 -0.13113031 -0.064819954 -0.1747358 -0.1693721 0.029131643
-0.12736715 0.076756835 -0.14283271 -0.24186352 -0.07342035 -0.1642433 -0.1045443 -0.24588658

net.0.bias f4 [20]
00000000: da49 63bd 229f 5abe fd76 a63e cb25 343e
00000010: 40c2 e2bd 8d06 2cbe dff6 e2be 139f acbe
00000020: 2229 2bbe 61af 573d 560a 593e d172 0e3e
00000030: 27d3 d0bd 8720 09be 5815 2c3e cd79 b2be
00000040: 7ff7 6c3d 98f2 0b3e bc47 abbe 5267 b63d
-0.055490352 -0.21349767 0.32512656 0.17592542 -0.110722065 -0.16799374 -0.44328973 -0.33715114
-0.1671491 0.05265749 0.21195349 0.13910986 -0.10196524 -0.13391314 0.16805017 -0.34858552
0.05785322 0.13666761 -0.33453166 0.089064255

net.3.weight f4 [40, 20, 5, 5]
00000000: 3873 ebbd b34c de3c 2ff5 37bd 9a71 94bd
00000010: d04b 84bc 2948 cdbd d764 ad3d 3cdd 98bd
00000020: 29a7 91bd 8beb f73b e5bc ca3c 6a65 943d
00000030: c9fa a03c cefe ce3c cb18 7dbd 15fa a33d
00000040: 9355 453d 762e 443c 43fb fd3b 8f35 68bd
00000050: 3f07 4f3c 3cf8 7bbd 0bc7 82bd 7374 7ebd
00000060: 58c9 0ebe 0acf ad3c 00e4 a8bb 478a 92bd
00000070: 80e5 8abd f951 41bb dfda 6a3d 0fc4 2abd
00000080: 40bb 0abe a10d cf3b b989 9bbb abbd 1bbc
00000090: a7f2 a8bd e13b 65bc e881 c93d 7804 5f3c
000000a0: 40f2 a63c 2bb6 b2bd f7b5 b8bb 1796 713d
000000b0: 76c7 1d3d b934 1b3d 7410 4dbd 15f8 13bd
000000c0: c3eb 1a3d ae9b 013d 98da edbd 4f8a 04be
000000d0: 5b37 b9bd 6bda 55bd 8d00 c3bb 13c7 c1bd
000000e0: 86d4 8bbd a2e7 d4bc 15a0 00bd 1585 2ebd
000000f0: 721e 6ebd 841f 9dbc 187f eebc 77d9 4abd
00000100: a56c 59bd e2db b6bd aa96 7fbd bfb3 223c
00000110: dc7e b7bc 470f c3bc 790f 55bd 06b4 cf3b
00000120: b777 cb3d 92dd 4b3d ce22 7cbb 00b1 83bd
00000130: 0564 733c 5c9e 4c3d fd95 21ba 363d 55bb
00000140: ebda 08bc 0159 dd3c 938c 0b3d a2d2 b33d
00000150: e790 a23d 06a1 c53b 6438 4ebd 911f 8bbd
00000160: 5c93 71bb e299 623c e54d 21bd 1d4f 40be
00000170: 14aa 02bd fd6c d73d eaac 283d 87fd 03be
00000180: a795 b7bd 5641 bb3d 5ede cc3d 93e0 963d
00000190: 482e bbbc 9881 403d 41ae 4abc 6348 333d
000001a0: befe 213d c352 463b 9531 19bd 276d f3bc
000001b0: 522a 8f3d d415 1fbb fc92 a83c 1a53 00be
000001c0: fa53 07be bfb2 833d 7af0 a43d b8cd 8bbd
000001d0: 6bca 66bd ee30 10bd b89a 8d3c 0b67 5c3c
000001e0: 49b9 dcbd b63e eebb ed1a 253d ac29 403d
000001f0: c6f5 833d bcc9 443c c38c 6bbd 0798 1a3d
00000200: 8507 553d 1f58 eb3b 8b17 0e3d 6a01 cfbd
00000210: 1c80 e23d 7ec2 5cbc 715b 86bd d1e0 91bc
00000220: afac 7cbd 8360 883a 6cab 7cbd 90a8 5bbc
00000230: 848b 813d 09be 443d 64c4 08bd f260 4fbc
00000240: 060f aabc a27e 213d d63e 2a3d 4480 b7bc
00000250: 5d90 313d 3541 933d c819 6e3d b0fd 543d
00000260: 6c23 db3c 0a5f 6a3c 0168 4c3c 8ab6 e73c
00000270: aad8 003c 0a5e 78bc 0333 e13b bb55 16ba
00000280: 9d77 c439 3dce f6bd bea3 c0bc c276 9f3d
00000290: f55c 8b3d 6818 f13c 50bf f3bd ec00 ecbc
000002a0: 9bb8 3c3c 644d 913c 9f51 c43a 1099 c0bd
000002b0: c3e5 d2bc 0325 20bd 12bc 05bc ec51 a23b
000002c0: 3bd7 7f3d 9652 08bd 38ba 0b3d 50f8 223b
000002d0: 10e6 b83c 418b 2bbc 6c01 95bd 6022 0b3d
000002e0: 4b4a 333d 5338 cabc 0ddb 9fbd e97c d8bc
000002f0: d276 4b3d a794 193d 1f14 8c3c d7b9 93bd
00000300: 422b e4bb 637c 8e3d 2549 7b3d de01 7eba
00000310: 7527 72bd 7173 a4bc f574 d6bc 4f1b 713d
00000320: c6dd 70be 7677 6dbe 331a 7dbe a0ae 17be
00000330: cffa 90bc 484e 0ebe 1f3d 0cbe ac31 f7bd
00000340: 453f c23c d370 1c3d c404 95bd ea1e cabd
00000350: 5997 c3bd 03e0 953d 7d77 a93d f378 07be
00000360: f2a5 dbbd 69e7 c1bd 792f d03c fc0c e83d
00000370: 0fa5 a2bd eb40 d5bc 7275 133c 8a54 493d
00000380: 55b2 c53d 6ff6 eebd d711 cbbb 0656 833d
00000390: a85b 91bd 086e 26bd 2cab 17be d82e d13d
000003a0: ce9c 913d ce28 433c 6a68 943c cba8 0cbe
000003b0: 49dc 0e3e 740f dc3d 2f79 a0bc c2a4 07bd
000003c0: 9524 263e f7b4 643d de7c 023d 0822 d1bc
000003d0: 1e66 4fbd 9117 2c3e 20b3 503c f04d 64bd
000003e0: fc57 3ebd 6423 8cbd 26e1 b7bd cfe2 b8bd
000003f0: 4188 fb3b 62cc 763d 0c64 40bc 12fd e2bd
-0.114965856 0.027136182 -0.04491156 -0.0724823 -0.016149431 -0.10023529 0.08466499 -0.07464072
-0.071119614 0.0075659207 0.024748275 0.07245906 0.019650834 0.025267985 -0.061791223 0.08006684
0.048177313 0.011973968 0.0077509 -0.056691702 0.012636005 -0.06151603 -0.06385621 -0.062122773
-0.13943994 0.021216888 -0.005154133 -0.071552806 -0.06782055 -0.0029498322 0.057337638 -0.041690882
-0.13547993 0.0063187634 -0.0047466424 -0.00950567 -0.08249407 -0.013991327 0.09839231 0.013611905
0.020379186 -0.08726152 -0.0056369263 0.058981027 0.0385203 0.037892077 -0.05006452 -0.03612526
0.037822496 0.03164261 -0.11613959 -0.12943386 -0.09043761 -0.052210253 -0.0059509934 -0.094617985
-0.06827645 -0.025989357 -0.031402666 -0.042607386 -0.058134504 -0.019180067 -0.029113337 -0.049523797
-0.053082127 -0.08928658 -0.062399544 0.00993055 -0.022399358 -0.023810996 -0.05201671 0.006338599
0.09934943 0.049771853 -0.0038472894 -0.064302444 0.0148553895 0.04995571 -0.00061640126 -0.0032537705
-0.008352975 0.02701998 0.03406961 0.087804094 0.07937794 0.0060311584 -0.050346747 -0.0679313
-0.0036861515 0.013830634 -0.039380927 -0.1878018 -0.03190048 0.10518835 0.04118053 -0.12889682
-0.08964091 0.09143321 0.10003351 0.07367053 -0.022849217 0.04699859 -0.012370647 0.043770205
0.03954958 0.0030261732 -0.0374008 -0.029715134 0.06990494 -0.0024274485 0.0205779 -0.125317
-0.13215628 0.064305775 0.0805368 -0.06826347 -0.056345385 -0.035202913 0.01728569 0.013452302
-0.10777528 -0.0072706593 0.04030888 0.04691474 0.06443362 0.012010988 -0.057507288 0.03774264
0.052009124 0.0071821357 0.03469042 -0.101076916 0.11059591 -0.013474105 -0.0656041 -0.017807396
-0.06168812 0.0010404739 -0.06168692 -0.013406888 0.063254386 0.048032794 -0.033390418 -0.012657391
-0.020759117 0.039427407 0.04156383 -0.022400029 0.043350566 0.07190172 0.058130056 0.051999748
0.026750289 0.014304886 0.012475968 0.028285284 0.007864157 -0.015159139 0.006872536 -0.0005734821
0.00037473152 -0.120510556 -0.023515578 0.07786323 0.068048395 0.029430583 -0.11901724 -0.028809033
0.011518623 0.017737098 0.0014977938 -0.09404194 -0.025744325 -0.039097797 -0.008162515 0.0049536135
0.06246112 -0.033281885 0.03411314 0.0024867244 0.02257064 -0.010470212 -0.07275662 0.03396833
0.043772023 -0.02468506 -0.078054525 -0.02642675 0.049673863 0.03749528 0.017099438 -0.072131805
-0.0069631645 0.06957319 0.061349053 -0.0009689609 -0.05911966 -0.020074578 -0.026178816 0.058863934
-0.235221 -0.23190102 -0.24717025 -0.14812708 -0.01769772 -0.1389705 -0.13695191 -0.12070021
0.02371181 0.038193535 -0.072762996 -0.09869178 -0.09550352 0.073181175 0.08274744 -0.13229732
-0.10725011 -0.09467966 0.025413262 0.113306016 -0.07941639 -0.026031932 0.009000169 0.04915289
0.09653155 -0.11668097 -0.006197195 0.06412892 -0.0709756 -0.040632278 -0.1481139 0.10214013
0.07109986 0.011911584 0.018116195 -0.13736264 0.1395122 0.10745135 -0.019589035 -0.03311611
0.16224892 0.055836644 0.031857364 -0.025528923 -0.050634496 0.16805865 0.012738019 -0.05573839
-0.046470627 -0.06842688 -0.089784905 -0.09027635 0.007676155 0.06025351 -0.011742603 -0.110834256

net.3.bias f4 [40]
00000000: a687 6a3d 06ee 8f3c 6c2e 4f3d d9ee f1bc
00000010: 191d 54bd dd84 623d 3320 9dbb d269 173d
00000020: be98 13bd 79ae 97bc 9d4e 4e3c c62b 9b3c
00000030: 157d 1abd 36c7 b33c c88e c73b 9c5a 56bc
00000040: a5eb 3dbb 982c 903c 4489 26bd e406 8abc
00000050: d3a7 843c 90ea b5bc 8cad 403c ef52 753d
00000060: 1d4c 353c c27d 62bc 411a c2bc 574d 563c
00000070: a4bc c93c e95a 48bc 4665 4a3d ff08 b83c
00000080: ae85 87bc 8862 333d 8bbc e23d 6cf0 ed3c
00000090: e03e 0d3c 8bb6 3bbd e670 ed3c c082 a3bc
0.05725827 0.017569553 0.05058138 -0.029532837 -0.051785562 0.05530249 -0.004795098 0.036966152
-0.03603434 -0.018515812 0.012591985 0.018941771 -0.037716944 0.021945577 0.006090019 -0.013083126
-0.0028979566 0.017599389 -0.04065825 -0.016848989 0.016193306 -0.022206575 0.011760127 0.059893545
0.01106551 -0.013823928 -0.02369416 0.013079963 0.024626084 -0.012228706 0.049412988 0.022465227
-0.016543236 0.04379514 0.11071118 0.029045306 0.008620948 -0.045828383 0.028984498 -0.019959807

net.7.weight f4 [150, 360]
00000000: b35e 663d fb34 9f3d 6bcb 0b3b cd75 2c3d
00000010: 0b0d 9a3d 1205 1fbc ef7f d33d e792 f33d
00000020: cbc7 0ebd 6a3d bd3d 9a39 b73d 19f3 343d
00000030: 506e c33c a8db 09bd 9d68 82bd 6eca 573c
00000040: 381f de3c d809 373c cf16 623d dc8f 83bd
00000050: 3f99 243c 57d3 cdbc b9fa 1fbd 655f 063d
00000060: 79a5 be3d 824c a23c 0c55 b73b 00e0 11bc
00000070: 7d1b 283d 2d91 9abc 7d5a 1c3c 3b51 55bd
00000080: a7d8 063d 94e5 6cbd 6cb8 d33c 94cb 2fbc
00000090: 9bb9 51bc a0bb 933d 1756 4cbc 6a50 9d3c
000000a0: d6f9 b93d 597f 4e3d 9abe ea3d dd1d 403d
000000b0: 9613 a3bc 85fe a039 a78b 99bc 97b9 41bb
000000c0: 6836 64bd 63ff 513d 2b87 ff3c b511 43bd
000000d0: d7b0 15bc 168b 86bb d614 ee3c 6a35 21bd
000000e0: 8ee7 7bbc a10f 0b3c 114a 2f3a 73c7 1e3d
000000f0: 81aa 9f3d 2d87 93bd ceba 14bc b554 20bd
00000100: df1a 6dbd 9e78 64bd ddb5 103d 3319 cb3c
00000110: 47d2 7f3d 95eb 2cba 4706 00bc e6ec 323d
00000120: 5d59 c9bc 47f0 43bd 8d7c ce3b 768f 953d
00000130: d09c eb3c a897 423d 559b 133a 655c 2bbd
00000140: 9516 45bd 3d89 a33d 2415 c53c 3a7d 70ba
00000150: 6d58 5cbc 4fdc 363d aaee 863b 9134 053d
00000160: 1230 553d 823e 0a3e 4811 60bd 93e9 aa3c
00000170: 9d55 043d e074 ab3c 20b4 26bb 20b9 063a
00000180: a977 a33c fcb9 393d 2138 85bc b3cd 41bc
00000190: 0924 f73c 20a9 13bd 97b2 173d 8379 ff3b
000001a0: 0675 863c 0470 3dbd bc57 48bc 7ecc 0f3d
000001b0: e1c2 933c 27c4 683d 65ca 29bc d1c1 9ebb
000001c0: fdb4 763d 72dc 2d3d d443 dc3c e36d 0a3d
000001d0: 9ff3 113e 9239 773d cc35 aabc 4176 d73c
000001e0: 56fa a63d f312 823c 0310 5e3d b913 a8bc
000001f0: 1fda fbbd ec09 82be 5b63 033d 9949 613c
00000200: 05a5 9b3d ad12 813d 9c49 08bd b3fe 203d
00000210: 421b 1c3d 56b3 5d3d 6e38 14bd 627f 693d
00000220: 0f6a 9dbc 79c6 a23b 8985 363e 90be 00bc
00000230: 43a3 0b3d 8fa0 3a3e a2c7 f8bc 0347 85ba
00000240: 9954 2cbd 5fe4 8dbb 744a 92bc 2950 60bd
00000250: ea43 553c 6ce6 1a3d 5f07 50bd 56df 07bd
00000260: 7eeb 0abc dc6b 153d 107f 883d e83f 7c3d
00000270: baaf 9abc 44df c8bd 03cf 81bd c8a9 3fbe
00000280: 1397 8abe 44f7 60be 0008 303d ba93 893c
00000290: 472a f93c fec4 aabc 1d83 cb3d 4c43 163b
000002a0: 1d65 f1bc 0e85 873d f58f c33d 1c1e 69bd
000002b0: b51a 31bd 76f2 61bd 1dfa c13b 82f3 853c
000002c0: 24d6 41bb f531 b4bc 7625 a1bd b436 23bc
000002d0: e244 323d 6591 22bd d3b5 2ebb 62b8 f43c
000002e0: 8fff e93d 6620 3cbb d23e 25bc d582 043e
000002f0: 4be4 763d 5393 4a3c 4d1a 1e3b b50c 933d
00000300: dce3 64bd 00b5 e93c d1ab 3abd eeb2 42bd
00000310: 061e 93bc 6d0a 013d ff61 17bc 7952 97bd
00000320: 570f dcbc ae09 2b3c 0821 a93c c2fd f9bd
00000330: b2ea 4cbe 2d3c 1fbe 7548 22be 0964 243d
00000340: b6bb ea3d 00c0 0c3c c4f3 d5ba 7d84 03b9
00000350: b811 8f3d 378c 04bd 3d13 6b3c a9d0 39bc
00000360: 781f 9f3c c766 67bd 0240 4cb9 37d8 32bd
00000370: 20b0 18bd 5348 b03d 5c3e 5cbc 743a 473b
00000380: d843 8e3d a131 e23b 9f30 c0bc 2e3a bc3d
00000390: 6c4d f83b 997a f23c a86a 943d 7dcc 063e
000003a0: 210b 7c3c 8f67 6c3d fbfa d6bd 92e7 96bd
000003b0: 0d7a 0bbd 8506 31bd 7d6a 38bd b202 883d
000003c0: f551 4cbd 99a0 86bd 1380 42bd 4666 08bc
000003d0: c40e a4bd 0ac3 433c c62e 0ebd 52c4 48bc
000003e0: 9f8a 983c 4769 40bd 9bae 10be a5aa c4bd
000003f0: 62e1 37bc 4f2d 40bd 86ea b6bc 2810 793c
0.056242656 0.07773777 0.0021330963 0.04210453 0.07522019 -0.009705799 0.10327136 0.11893254
-0.034858506 0.092402294 0.089465335 0.04417715 0.023856312 -0.033656746 -0.0636761 0.013170822
0.027114496 0.0111717805 0.055197533 -0.064239234 0.010046302 -0.025125189 -0.039057467 0.03280582
0.09308905 0.019811872 0.005594855 -0.008903503 0.04104184 -0.018868053 0.009543058 -0.05207942
0.03292146 -0.05783613 0.025844775 -0.010729689 -0.012800599 0.07213521 -0.012471697 0.019203383
0.090808555 0.050414417 0.114621356 0.04690348 -0.0199068 0.0003070721 -0.01874335 -0.0029560083
-0.05571595 0.051268946 0.031192383 -0.04762431 -0.0091364 -0.004105936 0.02906267 -0.03935758
-0.015375031 0.008487613 0.0006686757 0.03876443 0.07796193 -0.07203517 -0.009077741 -0.039143283
-0.057886954 -0.055779092 0.03532969 0.02479229 0.062456395 -0.0006596384 -0.007813997 0.043682955
-0.024578745 -0.04783657 0.0063014687 0.073027536 0.028761297 0.047507912 0.0005630751 -0.04183616
-0.04811724 0.079851605 0.024057932 -0.00091739336 -0.013448817 0.044643696 0.0041178064 0.032520834
0.052047797 0.13500407 -0.05470398 0.02086333 0.03230821 0.020929754 -0.0025436953 0.000513928
0.01995452 0.045343384 -0.016262116 -0.011828828 0.03016855 -0.036049962 0.03703555 0.0077964677
0.016413223 -0.046249405 -0.012227949 0.03510713 0.018037261 0.05682769 -0.010363196 -0.004844882
0.060231198 0.04244656 0.026887812 0.033796202 0.1425309 0.060357638 -0.020777605 0.026301505
0.081532165 0.015878176 0.05421449 -0.020517217 -0.12297463 -0.25398195 0.032077175 0.013750457
0.07599834 0.0630239 -0.033273324 0.0393054 0.038111933 0.054126106 -0.036186628 0.057006247
-0.019215612 0.0049675074 0.17824377 -0.007857934 0.034091245 0.1822531 -0.03036863 -0.0010168258
-0.042072866 -0.0043302025 -0.017857768 -0.054763947 0.01301668 0.037817404 -0.05078828 -0.033171974
-0.008478997 0.036479816 0.0666486 0.061584383 -0.018882621 -0.098082095 -0.063383125 -0.1871711
-0.27068385 -0.21969324 0.04297638 0.016794074 0.030415667 -0.020845886 0.09937117 0.0022928296
-0.02946716 0.06617175 0.09548942 -0.05691348 -0.04323836 -0.05516287 0.0059197084 0.016351465
-0.00295771 -0.021996478 -0.07868473 -0.009961773 0.043522723 -0.03968944 -0.0026658669 0.029873077
0.11425697 -0.0028705834 -0.010085778 0.12940533 0.06027631 0.012364226 0.0024124563 0.07180158
-0.055881366 0.02852869 -0.045574013 -0.047533922 -0.017958652 0.031504083 -0.009239673 -0.07388777
-0.026862783 0.01043932 0.020645633 -0.122066036 -0.20011404 -0.15550299 -0.15847953 0.040134463
0.11461584 0.008590698 -0.0016323258 -0.0001254249 0.069858015 -0.03236028 0.0143478485 -0.011341252
0.019424185 -0.0564945 -0.00019478801 -0.04366323 -0.03727734 0.08607545 -0.013442602 0.003039983
0.06946534 0.006902889 -0.023460684 0.091907844 0.007577589 0.029599475 0.072469056 0.13163944
0.015383513 0.05771595 -0.104970895 -0.07368387 -0.034051944 -0.043219108 -0.04502343 0.06641139
-0.049882848 -0.065736 -0.047485422 -0.008325165 -0.08010629 0.011948356 -0.034712575 -0.012253838
0.018620787 -0.0469754 -0.14129107 -0.0960286 -0.011223169 -0.04691821 -0.022328626 0.015201606

net.7.bias f4 [150]
00000000: ddb4 913d 506a 363d 4410 bf3c 7eff 323c
00000010: 6590 223c 5eef 2aba 2ec4 6abd 2549 2e3c
00000020: c089 0c3d bf04 193d a6b6 023d 6dfc 11bc
00000030: ce2b 83bb 8acf 1f3d 836b 333c 6f2c 76bd
00000040: 2f30 7a3d f8b0 043d 5359 4abd 71d2 deba
00000050: ac20 e63c 568e 02bc 1564 7d3d 7e1c 59bd
00000060: 9c58 5b3c 7e67 6ebd f834 973c 3aee fe3c
00000070: 1102 1d3d a135 a53c 34cb ff3b 640f 603d
00000080: f26a 983c a9e1 783d c412 893c 5d92 69bc
00000090: baf1 473d 7d1a edbc 59ec 00bd 5107 d8bc
000000a0: 7723 fc3c 4beb 39bd f617 3f3d 2c0e c83c
000000b0: adcb 3abc f1bf a83a 6e73 233d 4789 35bd
000000c0: aaa8 433d 5e54 93bd bc92 8fbd 4ec2 f93c
000000d0: 8f49 1c3c d3ca 6b3b fe28 9b3d 0e5d 913c
000000e0: 55ea 683a 6538 b2bc 3de5 89bc 25d4 143c
000000f0: d42b 303d 2465 4dbc 0ea0 bd3c a2df 513c
00000100: e15f a5bd 832d 913d dbe5 453d b8c3 1dbd
00000110: 8565 94bc 0eb1 f8ba bfd2 1d3c e8c9 233d
00000120: cc60 513d e279 003d 248c 6fbd 5719 3cbd
00000130: 7d23 1dbd 3c6a 733d d645 493c 08d3 69bc
00000140: 3570 ed3b ab63 74bd 1145 5abd 9b59 1dbd
00000150: 31a8 5abd 470e e33b fe92 4bbc 8054 5b3d
00000160: 43f8 84bd bec0 9c3d 8e76 273d 044e 883d
00000170: 66b7 403d c747 2a3c 4f25 8fba 6715 db3c
00000180: 55c4 013d 338e 56bd 4748 8cbc e9eb a63c
00000190: a7ac 37bc 45fd eabb c379 a6bb d107 23bd
000001a0: 32e4 9d3d 796b 12bd e03f c3ba 1cdf 80bd
000001b0: 3b2d 323d affd 283d 9922 813d 91b3 6b3d
000001c0: 9c80 123d 0ae8 8bbd a148 7a3d bbf2 f13c
000001d0: 1fa5 07bd d12e 6fbd ac38 adbc 097c 0b3d
000001e0: 68a6 c3b8 3a6f b43c 48e7 5bbc e6dc 5a3c
000001f0: 78dd 5e3c 1c6f f8bc d267 84bb 5780 a2bc
00000200: eaed d33b 4901 273d 5a7a 373c c0f8 063d
00000210: 2bcb 21bb ff18 0e3d 07b6 7abb 44b1 213d
00000220: 31c3 883d 9bfa 44bd 4f11 963c 5775 bc39
00000230: 505c 423d 444b 95bd d68f a9bc a369 0dbd
00000240: 14c9 a03c 4cff 66bc f59f 22bc 05c9 823c
00000250: 47ad abbc 9c59 33bc
0.07114575 0.04453498 0.023323186 0.010925172 0.009922122 -0.0006520654 -0.057315998 0.010637556
0.034311056 0.03735804 0.03191247 -0.008910281 -0.0040030247 0.039016284 0.010950926 -0.06010097
0.061081108 0.032395333 -0.049401592 -0.0016999972 0.028091751 -0.007968506 0.061863024 -0.053005688
0.013387825 -0.058204167 0.018457875 0.031119455 0.03833205 0.020167174 0.007806206 0.054702178
0.018605683 0.06076208 0.016732581 -0.014256087 0.048814513 -0.028943295 -0.0314754 -0.026370676
0.03077863 -0.04539041 0.04665371 0.02442082 -0.011401099 0.0012874586 0.039905004 -0.04432037
0.047768272 -0.07193826 -0.07010409 0.03048816 0.009539022 0.0035979047 0.07576178 0.017744567
0.0008885016 -0.021755407 -0.016832942 0.009083782 0.043010548 -0.012536321 0.02314761 0.012809666
-0.08074928 0.07088759 0.04831491 -0.03851673 -0.018114815 -0.0018973665 0.009632765 0.039987475
0.051117703 0.031366237 -0.058483258 -0.045922603 -0.038363922 0.059427485 0.012284717 -0.014271505
0.007246042 -0.059665363 -0.053288523 -0.038415533 -0.053383056 0.006929192 -0.012425182 0.053547382
-0.06492665 0.0765395 0.040884547 0.06655505 0.047049902 0.01039309 -0.0010921153 0.026743604
0.031681377 -0.052381705 -0.017124308 0.020376163 -0.011210597 -0.0071713054 -0.005080433 -0.039802376
0.077095404 -0.035747025 -0.0014896356 -0.06292555 0.043500166 0.041257557 0.06305427 0.057544295
0.035767183 -0.06831367 0.06110442 0.029534688 -0.033116456 -0.058394257 -0.021145187 0.034053836
-9.32932e-05 0.022025693 -0.013421841 0.01335833 0.013602607 -0.030326419 -0.0040406967 -0.019836588
0.0064675706 0.04077271 0.0111986045 0.03295207 -0.0024687748 0.034691807 -0.003825547 0.039475694
0.06677855 -0.04809056 0.0183188 0.0003594558 0.047451317 -0.072897464 -0.02069847 -0.03452457
0.019627132 -0.014098953 -0.009925832 0.015964994 -0.020956649 -0.0109466575

net.9.weight f4 [10, 150]
00000000: 4e68 d4bd 897e f0bd 6765 1dbe d9d1 a83d
00000010: da89 ee3d 5632 56bd 9ed3 79bd 7b20 693b
00000020: b025 6dbd 9c7c 35be c424 2cbd e24c d73d
00000030: 91ab 733d cc85 ac3d b407 4abe a232 67bd
00000040: b512 cfbd 8259 393a 9072 6dbd 7a35 c7bd
00000050: 60e2 0bbe 2156 1dbd b079 503d bb24 c6bc
00000060: 056e 8c3d c2d4 963d 5990 7f3d 2650 993d
00000070: b23f ba3d f2ca 6fbc 7a40 7a3d a2b3 bf3d
00000080: 3cab 0b3d a0ff ccbd 1bbf b4bd 2561 9a3d
00000090: ec18 adbd d8c9 263e 2757 fc3d dec0 833d
000000a0: 461e 043e ce52 273c 8b35 20be 4bf3 303d
000000b0: 771d bf3c 852f c03d b8d4 c43c 40c4 99bc
000000c0: 41ab 993d 2991 b3be 89c7 523c 82e7 0d3e
000000d0: ef8d e9bc 628a b63d 7b66 13bc f1d4 26be
000000e0: 91e3 76bc bb94 1e3c 3d32 fb3d 9b44 a9bd
000000f0: 3e5b d23d 617d a23d 734b acbd 7543 90bd
00000100: 55a4 363e 53b4 a3bd fe08 e2bc fa72 f3bd
00000110: 30d5 0bbe e084 e3bd 9a5d 513c 8731 4f3c
00000120: c26e 2a3d 26a9 5cbd fa73 573d a54c b2bd
00000130: 131c d83a f67f 02be 0885 15be 3ee2 9dbc
00000140: 3add c6b9 a2dc 953b 3743 4fbd 1587 e13d
00000150: 8352 283e cf0c cdbd e177 86bc 992a 83bc
00000160: 3ebc 1c3e 1239 213d 54f8 b73c 6594 c03d
00000170: 644b 903d f7a3 d23d d606 9b3c ff30 7f3c
00000180: d07e 143c 78af 86bd e29a 4ebd b6b6 8fbd
00000190: 4207 163c d19d 82bd 1122 eabc 285c 033e
000001a0: 7c4e bf3d b3b0 2d3d 8953 b73c cd38 27be
000001b0: b007 72bc 348d 9cbd e780 8fbe ae30 c03d
000001c0: 4307 95bd 811b e03a 6522 b6bd 91a7 073d
000001d0: dff7 4d3d 4959 01bc 7f64 bfbd dab8 f6bc
000001e0: c231 b13c a05d ab3d 8026 73bc 0e73 27be
000001f0: 1009 3fbc 06e1 a73c 3922 99bd 8465 97bd
00000200: 5219 023e 3bb1 95bd c5cc c63d d986 fabd
00000210: cab3 f43d 90ae 83bd d458 c0bd 3d68 733d
00000220: de6e ab3d 01a4 0fbc 36c4 2b3e d96a 9c3d
00000230: 97e5 e1bd c59c 623d 3e77 963d 5de4 0e3d
00000240: 6e11 683b a33a c73d aa04 6e3d b6e9 513d
00000250: 9222 b13b 3153 a5bd e3a4 0c3e 8e5e 8b3b
00000260: d439 d2bb 9377 d4bc bf61 353e e1e0 c33d
00000270: 8c39 1a3d c7c5 af3d 92f3 ebbc def7 a03d
00000280: 1c1f 233c 9b98 163e 43c0 c83c 6a1f 05be
00000290: 3d7c 8e3d 3ecb d53c 6be8 ddbd 4bbf dbbd
000002a0: e817 833d fd18 0f3d fba9 94bd f6d7 ccbd
000002b0: 1a80 c1bd b3f5 54bd 8709 903d 5893 b03c
000002c0: a9b5 3cbd b3e2 a33d 91ab 55bd 8713 d6bb
000002d0: 56f2 093e 5b64 64bd d649 05be 37dc 6bbd
000002e0: a40d b73d e40d 113c 200e 963d a59c bd3d
000002f0: 0963 973d 9993 0e3e 9f6d db3d 17cc b03c
00000300: f373 06bd ea90 09be 4983 743d 5df2 24be
00000310: f617 81bd 5215 ccbc 5fa7 5dbd a8ec 3e3d
00000320: 668d 80ba c3bd 303b 2fe4 2c3d c474 b03a
00000330: a740 19bd d837 463c 6667 83bd a1d2 4f3d
00000340: e55b b13d 5fcd bdbd 6a94 cabd 2ba8 4cbe
00000350: c193 11bd 6286 afbd 6d0c 9e3e 801d fbbd
00000360: df04 013d 0149 c9bd 1037 453d a640 753d
00000370: 6a4f 8fbd 9576 a7bd 8f9d 1939 60c0 a33c
00000380: 5866 52bd 3754 18be ff61 c4be 7853 9abc
00000390: 6ea3 44bd 0a48 3fbd e1ad e2bd 32e8 1f3d
000003a0: 6517 da3d 1691 e63d 6f4d 2d3e 449e bf3d
000003b0: b177 c03d f6f5 143e 19c1 e5bd 9784 263d
000003c0: 94b8 4bbd f80a c23c 1902 ecbd 71da eabd
000003d0: f6a1 3e3c 7290 99bd dbd9 1cbe afb9 5f3d
000003e0: adb7 273c 54e5 e13c e8b8 873d 9ef8 513c
000003f0: e771 463d a0c5 2fbe 8e0a 08be 108e 33be
-0.10371457 -0.11742885 -0.15370713 0.0824315 0.11647387 -0.052294098 -0.06099283 0.0035572338
-0.05789727 -0.17723316 -0.04202725 0.10512711 0.05948979 0.08423957 -0.19729501 -0.05644477
-0.1011099 0.00070705276 -0.057970583 -0.09726997 -0.13660574 -0.038412217 0.0508973 -0.024187436
0.06856922 0.07364799 0.06239352 0.0748599 0.0909418 -0.014635788 0.061096646 0.09360434
0.03409885 -0.10009694 -0.08825513 0.0753806 -0.08452019 0.16287935 0.123213105 0.06433271
0.12902173 0.010212613 -0.15645425 0.043200772 0.02332948 0.09384064 0.024027213 -0.018770337
0.07503367 -0.35071686 0.012864956 0.13857844 -0.028510062 0.08913113 -0.008996601 -0.16292168
-0.0150689045 0.009679015 0.122654416 -0.082650386 0.10271309 0.079340704 -0.08412828 -0.070441164
0.17836125 -0.079933785 -0.027592178 -0.118871644 -0.13655543 -0.11109328 0.012778664 0.012646086
0.041609533 -0.05387225 0.05260084 -0.08706025 0.0016487859 -0.12744126 -0.14601529 -0.01927292
-0.0003793033 0.0045734206 -0.05060121 0.11012093 0.16437726 -0.10012209 -0.016414585 -0.016011523
0.15306184 0.039361067 0.02245728 0.09403304 0.070456296 0.1028518 0.018924158 0.015575646
0.009063438 -0.06576437 -0.050440677 -0.07017271 0.009157004 -0.06377757 -0.028580697 0.12828124
0.093411416 0.04240484 0.0223787 -0.16330262 -0.014772341 -0.0764412 -0.28028032 0.09384285
-0.07276776 0.001709804 -0.08893279 0.03311879 0.050285216 -0.007894822 -0.0934534 -0.030117441
0.021630172 0.08367467 -0.014840722 -0.16352484 -0.0116598755 0.020493042 -0.074772306 -0.073924094
0.12704971 -0.07309195 0.097070254 -0.122327514 0.119483545 -0.064297795 -0.093919426 0.05942558
0.083707556 -0.008767129 0.16774067 0.07637567 -0.11030119 0.05532529 0.073469624 0.034885753
0.003541078 0.09727981 0.058109917 0.051248275 0.0054057324 -0.08072508 0.13734774 0.004253215
-0.006415585 -0.025935924 0.17713068 0.095643766 0.037652537 0.08582645 -0.028802667 0.07859777
0.0099561475 0.14706652 0.02450574 -0.13000265 0.0695729 0.02609789 -0.10835346 -0.107298456
0.06401044 0.03493594 -0.07258984 -0.10002129 -0.094482616 -0.05199213 0.07033067 0.021554634
-0.046071682 0.08002224 -0.05216557 -0.0065330896 0.1347135 -0.05575977 -0.13016447 -0.05758306
0.089381486 0.008853409 0.07326913 0.09258393 0.07391936 0.13923492 0.10714268 0.021581693
-0.03282542 -0.13434187 0.059695516 -0.16108079 -0.06303398 -0.02491251 -0.054114696 0.04661241
-0.0009807765 0.0026968576 0.0422098 0.0013462533 -0.037415173 0.012098275 -0.06416206 0.05073798
0.086601056 -0.09267687 -0.09891589 -0.19986026 -0.0355413 -0.08570553 0.30868855 -0.12261486
0.031498786 -0.098283775 0.048148215 0.059876107 -0.06997569 -0.081769146 0.00014649912 0.019989192
-0.051367134 -0.14875875 -0.38356015 -0.01883863 -0.04800742 -0.04669956 -0.11068321 0.039039798
0.106489934 0.11258142 0.1692407 0.09356359 0.09397829 0.14546952 -0.11218471 0.04065379
-0.049736574 0.023686871 -0.115238376 -0.11467446 0.011635294 -0.07498254 -0.1531748 0.05462044
0.010236663 0.027575172 0.06627065 0.012815623 0.04844847 -0.17165232 -0.13285276 -0.17534661

net.9.bias f4 [10]
00000000: bf4b e4bc c902 40bd 1104 0b3d 4277 90bd
00000010: 52bd 143d b379 9abd 0bfc d2bc 99ed c9bd
00000020: b527 96bb c6a1 6fbc
-0.02786815 -0.046877656 0.033939425 -0.070539966 0.036313362 -0.075427435 -0.02575495 -0.09859771
-0.00458237 -0.014625972
