result/model_29_2.pth (torch, 307183 bytes, 8 tensors)

net.0.weight f4 [20, 1, 4, 4]
0	0x3ebfa06d	0.37427083
1	0x3ec46933	0.3836151
2	0x3dc53664	0.09629515
3	0x3ea344fd	0.3188857
4	0x3d8b74e4	0.068094045
5	0x3e27d81e	0.16391036
6	0xbce35979	-0.027752625
7	0x3e4bae3c	0.19890684
8	0x3e89743e	0.26846498
9	0xbddabfdb	-0.10681125
10	0x3e8bb15c	0.27283752
11	0x3d9d1c29	0.07671387
12	0x3e805afa	0.2506941
13	0x3e0e90d6	0.13922438
14	0x3e60c312	0.21949413
15	0xbc0e22d0	-0.008675292
16	0x3e94d63c	0.29069698
17	0x3e499300	0.19684982
18	0x3cd6b0a1	0.02620727
19	0x3e291a4b	0.16513936
20	0xbdfa0671	-0.1220826
21	0x3d03797b	0.032098275
22	0xbda3d7d7	-0.080001526
23	0x3e089201	0.13336946
24	0xbe898b0a	-0.2686389
25	0xbe172ad3	-0.1476243
26	0xbe1e33c5	-0.15449436
27	0xbe6f41c2	-0.23364928
28	0xbc9e11d7	-0.019295616
29	0xbe95edfb	-0.29283127
30	0x3dc07d19	0.093988605
31	0xbe92ce67	-0.28673097
32	0x3e9448d4	0.28961813
33	0xbd0adf41	-0.033904318
34	0xbed7b134	-0.42127383
35	0xbe9589c3	-0.29206666
36	0x3e328fa8	0.17437613
37	0x3ecb27f4	0.3967892
38	0x3bdc1d27	0.0067173424
39	0xbed07283	-0.40712366
40	0x3d84c337	0.06482547
41	0x3e4b518e	0.1985533
42	0x3e99af61	0.30016616
43	0x3e5529a7	0.2081667
44	0xbc7a5dcc	-0.015281152
45	0xbd1ab5ff	-0.03777122
46	0x3e9cebe5	0.30648723
47	0x3e7c1120	0.24615908
48	0x3db9011b	0.09033414
49	0xbe9f6605	-0.31132522
50	0xbef838a9	-0.48480728
51	0xbe8c2997	-0.2737548
52	0xbe10c993	-0.14139394
53	0x3e4207e1	0.18948318
54	0x3c29fcd7	0.010375223
55	0x3e0c5892	0.13705662
56	0x3e42cf24	0.1902433
57	0x3e34ba0f	0.176491
58	0x3ec67b2c	0.38765848
59	0x3b90ff60	0.0044249743
60	0x3db73e0f	0.089473836
61	0xbd9f09e6	-0.0776556
62	0x3e2e42cb	0.17017667
63	0x3ce5dfb9	0.02806078
64	0x3dcd77dd	0.10032628
65	0x3d114d2f	0.035474
66	0x3ea147a6	0.31499976
67	0xbd80ab62	-0.06282689
68	0xbe3ada30	-0.18247294
69	0xbe2e3182	-0.17011073
70	0x3e4e3112	0.20135906
71	0x3d92933e	0.071569905
72	0x3e4267a1	0.18984844
73	0xbe8862e0	-0.26637936
74	0xbea7a441	-0.32742503
75	0xbe860c52	-0.26181275
76	0xbe33e51d	-0.17567869
77	0x3dd00499	0.10157127
78	0x3dc43e7f	0.09582233
79	0x3e68df58	0.22741449
80	0xbcfcce11	-0.030859979
81	0xbdf29c1a	-0.1184618
82	0x3db971ad	0.09054885
83	0xbe33fa59	-0.17575969
84	0x3e8e63fe	0.27810663
85	0xbd2ab8b7	-0.041680064
86	0x3d4b3a52	0.049616165
87	0xbe93fa2a	-0.28901798
88	0x3a83e91e	0.0010063981
89	0x3d5d7c60	0.05407369
90	0xbd669389	-0.056293044
91	0xbe2887a4	-0.16457993
92	0x3e997364	0.2997085
93	0x3e285dbf	0.16442011
94	0xbe7dbc51	-0.24778868
95	0xbe57c6d7	-0.21071945
96	0x3eaf622e	0.34254593
97	0xb9d187dc	-0.0003996481
98	0xbce7aea6	-0.028281521
99	0xbe84e986	-0.25959414
100	0xbe09ffa6	-0.13476428
101	0x3bb84015	0.0056228735
102	0xbdc23de2	-0.094844595
103	0xbe5ac1cd	-0.21362992
104	0xbdb05f19	-0.086118884
105	0xbe960a4c	-0.2930473
106	0xbea84a37	-0.3286912
107	0xbe12c0c6	-0.1433135
108	0xbe9cac70	-0.3060031
109	0xbe742ef3	-0.23846035
110	0x3e39910d	0.18121739
111	0x3e08231e	0.13294646
112	0x3d94d31c	0.072668284
113	0xbe678f76	-0.2261332
114	0xbe2627e1	-0.1622615
115	0xbddb033a	-0.10693975
116	0xbb7f0d83	-0.0038917966
117	0xbe71ea07	-0.2362443
118	0xbe0788b2	-0.13235739
119	0xbe478d6f	-0.19487546
120	0xbd5a1b24	-0.05324854
121	0xbe12db92	-0.14341572
122	0xbda4eaa8	-0.0805257
123	0xbe694f4e	-0.22784159
124	0xbe41a018	-0.18908727
125	0xbe32e952	-0.17471817
126	0xbdfdd0a1	-0.123933084
127	0xbe5b3e2d	-0.21410437
128	0x3e97fa0a	0.29682952
129	0x3d9ff00b	0.078094564
130	0x3eaf6cd7	0.34262726
131	0x3e61aa2a	0.22037569
132	0xbe62fa6c	-0.22165841
133	0x3e3c9b18	0.18418539
134	0xbd3c4967	-0.04596844
135	0xbcc0267b	-0.023455849
136	0xbe8e093d	-0.27741423
137	0xbea34eaf	-0.31895968
138	0xbc811d00	-0.015760899
139	0xbda8a83e	-0.08235215
140	0x3d2c8d6c	0.042127058
141	0xbe867780	-0.26263046
142	0x3dc7be05	0.0975304
143	0xbe6860e5	-0.22693212
144	0x3e0fa1b1	0.14026524
145	0x3e78cecc	0.24297637
146	0x3e4c95c5	0.19979008
147	0x3dad618a	0.0846587
148	0x3ed554f7	0.41666386
149	0xbd4d3010	-0.050094664
150	0x3d441b15	0.04787739
151	0xbeaaa6b9	-0.33330324
152	0x3e36108f	0.17779754
153	0xbdb9ee0a	-0.090786055
154	0x3dc8cab7	0.0980429
155	0xbecece5d	-0.40391818
156	0x3e9d2dee	0.30699104
157	0x3da0b25b	0.078465186
158	0xbe279544	-0.16365534
159	0xbebb1908	-0.36542535
160	0x3eca8f83	0.39562616
161	0x3e532119	0.20618095
162	0x3dee9c6f	0.11650931
163	0xbe2b29d9	-0.16715182
164	0x3ea24909	0.31696346
165	0x3da1e486	0.079049155
166	0xbdf0fe12	-0.1176721
167	0x3e640b89	0.22270025
168	0x3e4afe31	0.19823529
169	0xbe465bb1	-0.19370915
170	0xbe89ab92	-0.2688871
171	0xbdd0e29b	-0.101994716
172	0x3e11b1a5	0.14227922
173	0xbe3dbb05	-0.18528374
174	0xbe858957	-0.26081344
175	0xbe2184e5	-0.15773351
176	0xbe319e65	-0.17345579
177	0x3e8182bb	0.25295052
178	0x3e5baaaf	0.2145183
179	0xbec4ab6a	-0.3841203
180	0x3e05e76f	0.13076566
181	0x3e9266b7	0.2859399
182	0xbca522ec	-0.020158254
183	0xbe9e5547	-0.30924436
184	0x3e7995e2	0.24373582
185	0x3e855a43	0.26045427
186	0x3b627051	0.003455181
187	0xbe81615a	-0.25269586
188	0x3d581421	0.05275357
189	0x3e2f6665	0.17128904
190	0xbd84cffc	-0.06484982
191	0xbe5d1e9c	-0.21593708
192	0x3e552003	0.20812993
193	0x3eae5c21	0.34054664
194	0x3db0e830	0.08638036
195	0x3c8d6595	0.017260352
196	0xbd335a40	-0.04378724
197	0x3d85dcce	0.06536256
198	0x3e4b4aff	0.19852827
199	0x3e66c9d7	0.22537933
200	0xbeaa48fe	-0.33258814
201	0xbe2b6290	-0.16736817
202	0x3e1f0bb1	0.15531804
203	0x3deb8989	0.11500842
204	0xbdf266a5	-0.11835984
205	0xbe85619c	-0.26051033
206	0xbe856ff2	-0.2606197
207	0xbe969e27	-0.29417536
208	0xbe3ba47a	-0.18324462
209	0x3d4cc53e	0.049992792
210	0x3eb3e6ad	0.3513693
211	0x3eb4636e	0.3523211
212	0xbebef5c9	-0.37296894
213	0xbe98ceff	-0.29845425
214	0x3ba61594	0.0050684903
215	0x3ef14318	0.471215
216	0xbe0e7475	-0.13911612
217	0xbe75e3bf	-0.2401266
218	0x3da66750	0.08125174
219	0x3db6c98e	0.08925162
220	0xbe95e274	-0.29274333
221	0x3d2c8a47	0.04212406
222	0xbe004459	-0.12526073
223	0x3da12ce9	0.07869894
224	0xbe745053	-0.23858766
225	0x3e533600	0.20626068
226	0x3e9313fe	0.2872619
227	0x3e55e39c	0.20887607
228	0xbe0f3a1d	-0.13987012
229	0xbe1a942d	-0.15095587
230	0xbd504693	-0.050848555
231	0x3eb292ea	0.34877712
232	0x3e1fb87e	0.15597722
233	0x3e7b964c	0.24569052
234	0x3dd2a1ef	0.10284793
235	0x3d81d8c6	0.063401744
236	0x3bc03344	0.0058654863
237	0xbe6e8c6a	-0.23295751
238	0xbea2d2c0	-0.31801414
239	0xbea13714	-0.31487334
240	0x3df5fcdf	0.12011122
241	0xbdbda9da	-0.09260912
242	0xbc671385	-0.014103775
243	0xbe023bc5	-0.12718113
244	0xbd8d4ccd	-0.06899414
245	0xbe342933	-0.17593841
246	0xbe2b9745	-0.16756923
247	0x3d0858e9	0.033287916
248	0xbe06f1f8	-0.13178241
249	0x3d99f3d6	0.07517211
250	0xbe1175c6	-0.14205083
251	0xbe741ff3	-0.23840313
252	0xbd9cf69c	-0.076642245
253	0xbe28d2a8	-0.16486609
254	0xbdd35aa4	-0.10320023
255	0xbe774e49	-0.24150957

net.0.bias f4 [20]
0	0xbd7f5b25	-0.06234278
1	0xbe5ae061	-0.21374656
2	0x3ea2bd59	0.31785086
3	0x3e33c1a3	0.17554335
4	0xbddfc3ec	-0.10926041
5	0xbe2b16d9	-0.16707934
6	0xbee44e84	-0.44591153
7	0xbead0bd9	-0.33798102
8	0xbe2abc36	-0.1667336
9	0x3d5541de	0.05206477
10	0x3e5d49a7	0.21610127
11	0x3e0c2c2f	0.1368873
12	0xbdce09bc	-0.100604504
13	0xbe0b3b8e	-0.13596937
14	0x3e2c5a58	0.16831338
15	0xbeb2ac17	-0.3489692
16	0x3d67a82b	0.05655686
17	0x3e0cc4ed	0.13746996
18	0xbeaab46d	-0.3334078
19	0x3db31787	0.08744722

net.3.weight f4 [40, 20, 5, 5]
0	0xbdfb76c2	-0.12278511
1	0x3cc234be	0.02370679
2	0xbd74ac8a	-0.05973486
3	0xbd999478	-0.07499021
4	0xbc581318	-0.013188146
5	0xbdce05b0	-0.100596786
6	0x3dab83ea	0.0837477
7	0xbda0f6e0	-0.07859588
8	0xbd89473e	-0.067030415
9	0x3c320226	0.01086477
10	0x3cbf6b4f	0.023366598
11	0x3d8e10a6	0.06936769
12	0x3c944279	0.018098103
13	0x3cffcaca	0.031224627
14	0xbd71f229	-0.059068833
15	0x3da66c40	0.08126116
16	0x3d499a88	0.049219638
17	0x3c5aa18b	0.013344179
18	0x3c726560	0.0147946775
19	0xbd4d2a74	-0.050089315
20	0x3bc258d1	0.005930998
21	0xbd85405d	-0.06506417
22	0xbd823b1f	-0.06358933
23	0xbd6de01e	-0.058075063
24	0xbe03a5fd	-0.12856288
25	0x3cc14a00	0.023594856
26	0xbb2db1fe	-0.0026503797
27	0xbd987f55	-0.07446162
28	0xbd8e8f59	-0.06960935
29	0xbaa4bc14	-0.0012568259
30	0x3d63461c	0.055486783
31	0xbd24aed0	-0.040205777
32	0xbe08addb	-0.1334757
33	0x3bc8ae1f	0.0061242725
34	0xbb86e3f0	-0.0041165277
35	0xbc3f9360	-0.011692852
36	0xbda9445f	-0.08264994
37	0xbc7e7891	-0.015531675
38	0x3dc32406	0.09528355
39	0x3c2f818d	0.01071204
40	0x3ca6a009	0.020339983
41	0xbdb20a9d	-0.086934306
42	0xbbafecb5	-0.005368794
43	0x3d6eb680	0.058279514
44	0x3d1391fb	0.03602789
45	0x3d19817d	0.037477005
46	0xbd56bcd2	-0.052426167
47	0xbd197d00	-0.037472725
48	0x3d18c149	0.037293706
49	0x3d011497	0.031513777
50	0xbdf79645	-0.120892085
51	0xbe06decf	-0.13170932
52	0xbdbc4b36	-0.09194033
53	0xbd50c6e9	-0.050970946
54	0xbb3d12e3	-0.0028850369
55	0xbdbc988f	-0.09208786
56	0xbd9af9b0	-0.07567155
57	0xbd0ae1bf	-0.033906695
58	0xbce7c230	-0.028290838
59	0xbd28223f	-0.041048285
60	0xbd6710ea	-0.056412615
61	0xbcb6c9aa	-0.022312958
62	0xbcefd388	-0.02927567
63	0xbd32d4fe	-0.043660156
64	0xbd4a734f	-0.049426373
65	0xbdb7de51	-0.0897795
66	0xbd809247	-0.062779
67	0x3b9f7c0f	0.004867084
68	0xbcb633ec	-0.022241555
69	0xbc945f4f	-0.018111853
70	0xbd48378d	-0.048881102
71	0x3c30351d	0.010754851
72	0x3dca3835	0.09874002
73	0x3d3b958c	0.045796916
74	0xb9e1098b	-0.00042922454
75	0xbd8b51ce	-0.068027124
76	0x3c1604e8	0.009156443
77	0x3d51a3ca	0.051181592
78	0xbb7d3318	-0.003863519
79	0xbc03895d	-0.008028355
80	0xba068d2a	-0.00051327294
81	0x3cd83333	0.026391601
82	0x3cffd70a	0.031230468
83	0x3dab36bf	0.08360051
84	0x3d9b4b81	0.075827606
85	0x3c149f5f	0.0090712
86	0xbd4e6ec4	-0.050398603
87	0xbd94267c	-0.07233903
88	0xbabfe24d	-0.0014639586
89	0x3ca068c2	0.019581202
90	0xbd26f48a	-0.040760554
91	0xbe40b239	-0.18817987
92	0xbd14fbcc	-0.036372945
93	0x3dcf2aea	0.10115607
94	0x3d2772fb	0.04088114
95	0xbdfb810f	-0.12280475
96	0xbdafa14a	-0.08575685
97	0x3dbfaa7a	0.09358688
98	0x3dc950f9	0.098298974
99	0x3d98a85e	0.074539885
100	0xbc7f962b	-0.015599768
101	0x3d3d1b55	0.046168644
102	0xbc3f4050	-0.011673048
103	0x3d13dc30	0.03609866
104	0x3d2c0b46	0.04200294
105	0x3bc55fa7	0.0060233655
106	0xbd2985ec	-0.041387483
107	0xbcc569be	-0.024098273
108	0x3d8d7434	0.069069296
109	0x3ae27040	0.0017275885
110	0x3cb36d54	0.021902718
111	0xbe0939e9	-0.13400997
112	0xbe07d368	-0.13264239
113	0x3d6ecae4	0.05829896
114	0x3d9d92e0	0.0769403
115	0xbd791dcd	-0.060819436
116	0xbd7b113a	-0.061295725
117	0xbd085c5e	-0.033291213
118	0x3cb3ab89	0.02193238
119	0x3bd9a2f6	0.006641741
120	0xbdce1352	-0.10062279
121	0xbc42cd4b	-0.011889766
122	0x3d23feb6	0.040037833
123	0x3d393f06	0.04522612
124	0x3d7b3dad	0.061338115
125	0x3c5c42f4	0.013443697
126	0xbd6a581a	-0.057212926
127	0x3d11819d	0.035524
128	0x3d4e8d97	0.050428
129	0x3bfd5285	0.0077307844
130	0x3d036910	0.032082617
131	0xbdc2a8b1	-0.095048316
132	0x3ddedcef	0.108819835
133	0xbc5d9747	-0.013524837
134	0xbd81052c	-0.062998146
135	0xbc935a4d	-0.017987395
136	0xbd5aa555	-0.05338033
137	0xbb42bb0e	-0.0029713544
138	0xbd7b4666	-0.061346434
139	0xbc217147	-0.009853668
140	0x3d8367c0	0.06416273
141	0x3d608798	0.054816812
142	0xbd1721d7	-0.036897507
143	0xbc886c7f	-0.016653297
144	0xbcc4eb4b	-0.024037978
145	0x3d030c16	0.031993948
146	0x3d4808f0	0.04883665
147	0xbcb9a377	-0.022660954
148	0x3d1d188b	0.038353484
149	0x3d7fce80	0.062452793
150	0x3d6e39c6	0.058160566
151	0x3d59782c	0.05309312
152	0x3cd79be4	0.026319452
153	0x3c061ac3	0.008185091
154	0x3c24df5e	0.0100630205
155	0x3ce8a33c	0.028398149
156	0x3bffdbf1	0.0078082015
157	0xbc90f259	-0.017693685
158	0x3baba674	0.0052383486
159	0xba319ec2	-0.0006775671
160	0xbac9c26e	-0.0015393028
161	0xbdf2d17b	-0.118563615
162	0xbcc96f8b	-0.02458932
163	0x3d9a10f5	0.075227655
164	0x3d8ba63e	0.068188176
165	0x3cde5cb7	0.02714382
166	0xbdf06d95	-0.11739651
167	0xbce8f2b8	-0.02843605
168	0x3c2399df	0.009985416
169	0x3c8171f6	0.015801411
170	0x39ca36af	0.00038569185
171	0xbdc5f285	-0.096653976
172	0xbcd452b0	-0.025918335
173	0xbd238487	-0.03992131
174	0xbc2da9c0	-0.010599554
175	0x3ba2f929	0.00497355
176	0x3d8303a2	0.06397177
177	0xbd11fa07	-0.035638835
178	0x3cfa189a	0.030529309
179	0x3a698af2	0.0008908949
180	0x3cb663f3	0.022264456
181	0xbc187133	-0.009304333
182	0xbd9720ae	-0.0737928
183	0x3d068b95	0.03284796
184	0x3d3639a2	0.044488557
185	0xbcdc5bc7	-0.026899232
186	0xbd9d963c	-0.076946706
187	0xbccfd13d	-0.025368327
188	0x3d467cae	0.048458748
189	0x3d19d952	0.03756077
190	0x3c642756	0.013925394
191	0xbd928cdf	-0.07155775
192	0xbbceb134	-0.0063077454
193	0x3d8805f6	0.06641762
194	0x3d71d6ad	0.05904262
195	0xbb66ddd8	-0.0035227444
196	0xbd80c18a	-0.06286915
197	0xbcacdc9e	-0.021101292
198	0xbce5f645	-0.028071532
199	0x3d6b6c0c	0.05747609
200	0xbe6441f9	-0.22290792
201	0xbe68a2ac	-0.22718304
202	0xbe799b46	-0.24375638
203	0xbe1528fd	-0.14566417
204	0xbc1e8679	-0.0096756155
205	0xbe14bf7e	-0.14526173
206	0xbe0f6096	-0.14001688
207	0xbdeaacd6	-0.11458747
208	0x3cdf6593	0.027270114
209	0x3d26df95	0.04074057
210	0xbd9545a9	-0.07288677
211	0xbdd978cb	-0.106187426
212	0xbdc23aba	-0.094838575
213	0x3d8cd9bc	0.06877467
214	0x3d9f70db	0.07785197
215	0xbe02984f	-0.12753414
216	0xbddd1770	-0.10795486
217	0xbdc3a4be	-0.095529065
218	0x3cf0914b	0.029366156
219	0x3de00e45	0.10940222
220	0xbda1905d	-0.07888863
221	0xbd03b8fe	-0.032158844
222	0x3c108340	0.008820355
223	0x3d52687f	0.051369186
224	0x3dc65bb5	0.096854605
225	0xbdec53c1	-0.11539412
226	0xbaf8b306	-0.0018974252
227	0x3d664f93	0.05622823
228	0xbd969ec9	-0.073545046
229	0xbd332b0a	-0.043742217
230	0xbe1bce18	-0.15215337
231	0x3dd34d28	0.10317451
232	0x3d87c4d9	0.066293426
233	0x3c2d82c8	0.010590263
234	0x3c8ccab3	0.017186498
235	0xbe0254a1	-0.12727596
236	0x3e14b51b	0.14522211
237	0x3dce5700	0.10075188
238	0xbcc350a1	-0.023842158
239	0xbd023905	-0.03179266
240	0x3e2eed9b	0.17082827
241	0x3d79a580	0.06094885
242	0x3ceb3d29	0.028715687
243	0xbcebbf94	-0.028777875
244	0xbd5af433	-0.053455543
245	0x3e2a161f	0.16610001
246	0x3c906165	0.017624566
247	0xbd6ca903	-0.05777837
248	0xbd5e90e5	-0.0543374
249	0xbd9e13eb	-0.07718643
250	0xbdadd029	-0.08486969
251	0xbdb10970	-0.08644378
252	0xb986d914	-0.00025720207
253	0x3d6e1708	0.058127433
254	0xbc2a595f	-0.010397284
255	0xbdef9cbd	-0.11699817

net.3.bias f4 [40]
0	0x3d661d1b	0.0561801
1	0x3c8dc9ee	0.017308202
2	0x3d532a45	0.051553983
3	0xbcf1eed9	-0.029532837
4	0xbd5225cf	-0.05130559
5	0x3d626f69	0.05528203
6	0xbbb0b614	-0.005392799
7	0x3d194e84	0.037428394
8	0xbd131de2	-0.03591717
9	0xbc9c472f	-0.019076912
10	0x3c566019	0.013084435
11	0x3c9b2bc6	0.018941771
12	0xbd1cd1cb	-0.03828601
13	0x3caa9f33	0.020827865
14	0x3bda3e7a	0.00666028
15	0xbc623d52	-0.013808565
16	0xbb383e80	-0.0028113425
17	0x3c92f884	0.017940767
18	0xbd2c282b	-0.042030495
19	0xbc905e77	-0.01762317
20	0x3c8b07df	0.016971527
21	0xbcaa8252	-0.020814095
22	0x3c3d9a06	0.011572367
23	0x3d6abd87	0.057309654
24	0x3c39b5e6	0.011334872
25	0xbc67aa35	-0.014139702
26	0xbcb67557	-0.022272749
27	0x3c5199d6	0.012793025
28	0x3bbae4fe	0.0057035675
29	0xbc5557cf	-0.0130214235
30	0x3d4efbc5	0.050533075
31	0x3cc01cd0	0.023451239
32	0xbc8b7959	-0.017025637
33	0x3d38569b	0.04500447
34	0x3de000f9	0.109376855
35	0x3cf34d6c	0.029700004
36	0x3c0d3ee0	0.008620948
37	0xbd3bdc09	-0.04586414
38	0x3cee28f0	0.029072255
39	0xbcb2860f	-0.02179244

net.7.weight f4 [150, 360]
0	0x3d6ae65b	0.05734859
1	0x3d9b83b3	0.07593479
2	0x3bde0956	0.0067760153
3	0x3d1d22f1	0.0383634
4	0x3d8aaddf	0.067714445
5	0xbc7e1ae3	-0.01550934
6	0x3ddb8873	0.10719385
7	0x3dde7e74	0.10863963
8	0xbd219c47	-0.03945568
9	0x3db76c72	0.08956231
10	0x3db4c30a	0.08826263
11	0x3d4a9652	0.049459763
12	0x3bfc1a78	0.007693585
13	0xbd2f5317	-0.04280385
14	0xbd9a2bd8	-0.07527894
15	0x3cfc583f	0.030803798
16	0x3d149f34	0.03628464
17	0x3d16030a	0.036623992
18	0x3d852e9f	0.06503033
19	0xbd623a1c	-0.0552312
20	0x3c065499	0.008198881
21	0xbc59111d	-0.013248709
22	0xbd16997f	-0.03676748
23	0x3c9c8802	0.019107822
24	0x3db96587	0.09052568
25	0x3cab804b	0.020935198
26	0x3b78506b	0.003788973
27	0xbc11e000	-0.008903503
28	0x3d281b7d	0.04104184
29	0xbc9a912d	-0.018868053
30	0x3c1c5a7d	0.009543058
31	0xbd55513b	-0.05207942
32	0x3d06d8a7	0.03292146
33	0xbd6ce594	-0.05783613
34	0x3cd3b86c	0.025844775
35	0xbc2fcb93	-0.010729688
36	0xbc393c12	-0.011305826
37	0x3d7cf0aa	0.061752953
38	0xbc8aacc8	-0.016928092
39	0x3c841339	0.016122447
40	0x3daa1706	0.083051726
41	0x3d56baae	0.052424125
42	0x3dd2ab43	0.10286572
43	0x3cf2c438	0.02963458
44	0xbd1722ff	-0.03689861
45	0x3c1b4f8f	0.009479417
46	0xbca931a2	-0.02065355
47	0xbbedfa71	-0.007262521
48	0xbd62759d	-0.055287946
49	0x3d33757f	0.043813225
50	0x3cbc0c1c	0.022954993
51	0xbd24961d	-0.04018222
52	0x3b268057	0.0025406086
53	0xbb245afc	-0.0025078645
54	0x3d337438	0.043812007
55	0xbd15223a	-0.036409594
56	0xbc983091	-0.018577846
57	0x3c9c3176	0.019066554
58	0xbb362d73	-0.0027798086
59	0x3ca7b375	0.020471314
60	0x3d9b7309	0.075903006
61	0xbd95c1e1	-0.0731237
62	0xbb297cbc	-0.00258617
63	0xbd1b0fb9	-0.03785679
64	0xbd6c34f7	-0.0576677
65	0xbd832336	-0.064032
66	0x3d0fb264	0.035082236
67	0x3ca08d91	0.019598754
68	0x3d4d040a	0.05005268
69	0xbb91f999	-0.004454803
70	0xbb191637	-0.0023359188
71	0x3d3b9114	0.045792654
72	0xbce0dcd7	-0.027449055
73	0xbd481d6f	-0.048856195
74	0x3c88deb6	0.01670776
75	0x3d8a6afb	0.06758686
76	0x3cd47312	0.025933776
77	0x3d461a98	0.048365206
78	0xbbbfb8b7	-0.005850877
79	0xbd492ab3	-0.049112987
80	0xbd66b2fc	-0.056323037
81	0x3da744ca	0.08167417
82	0x3ce42e72	0.027854178
83	0x3b5979dc	0.0033184206
84	0xbc2befb2	-0.01049416
85	0x3d3eceb8	0.04658386
86	0x3c402963	0.011728617
87	0x3cc69480	0.024240732
88	0x3d5d358b	0.05400614
89	0x3e081f0c	0.13293093
90	0xbd5fbb98	-0.054622263
91	0x3c9f11b5	0.019417623
92	0x3d23733c	0.039904818
93	0x3c415b05	0.011801486
94	0xbaf66cfa	-0.0018800788
95	0xbb1b4b91	-0.0023696164
96	0x3ccd7b52	0.025083218
97	0x3d15bb82	0.036555775
98	0xbca6ae1b	-0.020346692
99	0xbc41cdb3	-0.011828828
100	0x3cf72407	0.030168546
101	0xbd13a920	-0.036049962
102	0x3d17b297	0.03703555
103	0x3bff7983	0.0077964677
104	0x3c867503	0.016413217
105	0xbd3d7004	-0.046249405
106	0xbc4857bb	-0.012227948
107	0x3d0fcc7e	0.03510713
108	0x3cb867fe	0.022510525
109	0x3d67fa52	0.05663521
110	0x3b479335	0.0030452732
111	0x3c1cd026	0.009571111
112	0x3d7af1d1	0.06126577
113	0x3d5d2e55	0.053999264
114	0x3ccb1067	0.024788095
115	0x3cf2687f	0.029590843
116	0x3e1c7d98	0.15282285
117	0x3d77ab43	0.060466062
118	0xbcc8a4ed	-0.024492705
119	0x3cc44b3d	0.023961658
120	0x3da3b683	0.07993796
121	0x3c5236e7	0.012830473
122	0x3d56b1bd	0.0524156
123	0xbcd6feb3	-0.026244497
124	0xbe117fff	-0.14208983
125	0xbe870d7c	-0.26377475
126	0x3ce415e1	0.027842464
127	0x3c85dd3e	0.016340848
128	0x3d9f3503	0.07773783
129	0x3d9439f5	0.07237617
130	0xbd1589f2	-0.036508508
131	0x3d12c12b	0.03582875
132	0x3d1c9e3f	0.038236853
133	0x3d18fb72	0.037349172
134	0xbd4a51ff	-0.049394604
135	0x3d766e69	0.06016389
136	0xbca967cb	-0.020679375
137	0x3bdfb5b1	0.006827079
138	0x3e3ec31a	0.18629113
139	0xbc633a4b	-0.013868879
140	0x3cece2ec	0.028916799
141	0x3e4441cd	0.19165726
142	0xbd1f6417	-0.038913812
143	0xbc0a9c9c	-0.00846019
144	0xbd0df0aa	-0.034653343
145	0xbc0127f9	-0.007883065
146	0xbcdeed85	-0.027212868
147	0xbd7b36fe	-0.06133174
148	0x3c592e14	0.013255615
149	0x3d3cef88	0.046126872
150	0xbd2306ec	-0.039801523
151	0xbd0b2504	-0.033970848
152	0xbb0b51bd	-0.0021258437
153	0x3d04f3e0	0.03245914
154	0x3d85d860	0.06535411
155	0x3d5c234c	0.0537446
156	0xbcb0ffed	-0.02160641
157	0xbdbec7b3	-0.09315433
158	0xbd8d7441	-0.06906939
159	0xbe3faa04	-0.187172
160	0xbe927c13	-0.28610286
161	0xbe5d73ff	-0.2162628
162	0x3cfff733	0.031245803
163	0xbbf12848	-0.007359538
164	0x3ca6fd8a	0.020384569
165	0xbcd74283	-0.026276832
166	0x3daa351f	0.08310913
167	0x38e226b5	0.000107837295
168	0xbd11afdf	-0.035568114
169	0x3d8a03cc	0.067390054
170	0x3db30123	0.08740451
171	0xbd5de8d6	-0.054177128
172	0xbd33db6b	-0.043910425
173	0xbd71b2a2	-0.05900825
174	0x3c1a9884	0.009435777
175	0x3c851316	0.016244452
176	0x398a000c	0.00026321446
177	0xbc4df57d	-0.012570736
178	0xbd993bad	-0.074820854
179	0xbc447ea8	-0.011993088
180	0x3d21def6	0.039519273
181	0xbd35d3df	-0.04439151
182	0x3b8b784f	0.0042562853
183	0x3cd88353	0.026429808
184	0x3dcf2206	0.10113911
185	0xba15a5f2	-0.00057086267
186	0xbc826bb0	-0.01592049
187	0x3dddbb68	0.108267605
188	0x3d75831f	0.0599395
189	0x3c982f2c	0.01857718
190	0x3ba7cd01	0.005120874
191	0x3d9069bd	0.07051418
192	0xbd5f561b	-0.054525476
193	0x3d0b847b	0.03406189
194	0xbd3f6ecd	-0.046736527
195	0xbd0de0cf	-0.034638222
196	0xbb982c01	-0.0046439175
197	0x3d27b67c	0.040945515
198	0xbbe9694d	-0.0071231485
199	0xbd8daff9	-0.0691833
200	0xbcc755b0	-0.024332851
201	0x3c99141f	0.018686352
202	0x3ce45725	0.027873585
203	0xbde42b48	-0.11141068
204	0xbe2d22bb	-0.1690778
205	0xbe10c517	-0.14137684
206	0xbe11b204	-0.14228064
207	0x3d2e105c	0.04249607
208	0x3deab4b1	0.114602454
209	0x3c8e624e	0.01738086
210	0x39138593	0.00014068773
211	0x3c577019	0.013149285
212	0x3d776a1e	0.060403936
213	0xbd021712	-0.031760283
214	0x3cb6dc04	0.022321709
215	0xbc25235e	-0.010079233
216	0x3ca27314	0.019830264
217	0xbd453c90	-0.04815346
218	0x3af0f99e	0.0018384939
219	0xbd157869	-0.036491785
220	0xbd015a9d	-0.031580556
221	0x3d9278be	0.07151936
222	0xbc2bc53c	-0.010484036
223	0x3b875dd7	0.0041310596
224	0x3d5da342	0.054110773
225	0x3c5d0e51	0.013492183
226	0xbc9a5e93	-0.018843925
227	0x3db122d8	0.08649224
228	0x3c5e554d	0.013570142
229	0x3ce38709	0.02777435
230	0x3d82208b	0.06353863
231	0x3df9e56d	0.122019626
232	0x3c09d978	0.008413665
233	0x3d86fe41	0.06591464
234	0xbdbfd6de	-0.093671545
235	0xbd934767	-0.07191353
236	0xbcfff6a4	-0.031245537
237	0xbd5e4342	-0.05426336
238	0xbd887027	-0.06662016
239	0x3d542fa4	0.051803246
240	0xbd1e81db	-0.03869806
241	0xbd599fdb	-0.053130966
242	0xbd3139ea	-0.04326812
243	0xbc16b80a	-0.009199152
244	0xbda0e86b	-0.0785683
245	0x3c24a39e	0.010048775
246	0xbd1a46f2	-0.037665315
247	0xbc5bcdf1	-0.0134157995
248	0x3c94287a	0.018085707
249	0xbd39cdf8	-0.045362443
250	0xbe1027cc	-0.14077681
251	0xbdc10587	-0.094248824
252	0x3c606036	0.0136948135
253	0xbd438a52	-0.047739334
254	0x3bc450b7	0.0059910673
255	0x3d6beb11	0.057597224

net.7.bias f4 [150]
0	0x3d8dfd42	0.06933071
1	0x3d36fac0	0.044672728
2	0x3cd847bd	0.026401395
3	0x3c6b964c	0.014379095
4	0x3c55d12e	0.013050361
5	0xba4747e4	-0.000760196
6	0xbd6ac55f	-0.057317134
7	0x3c07500f	0.008258834
8	0x3d0c89c0	0.034311056
9	0x3d292fb6	0.041305266
10	0x3ce79917	0.028271241
11	0xbc100e6f	-0.008792504
12	0xb9246cd6	-0.00015680803
13	0x3d1c8ebd	0.038222063
14	0x3bffddf3	0.007808441
15	0xbd51184f	-0.051048573
16	0x3d6e7ad2	0.0582226
17	0x3d0825c5	0.033239145
18	0xbd626785	-0.055274505
19	0x3aa87e3e	0.0012855006
20	0x3cea3a79	0.028592335
21	0xbc972b4f	-0.018453268
22	0x3d6eeb5a	0.058329917
23	0xbd592055	-0.05300935
24	0x3c41c8dc	0.011827674
25	0xbd44e148	-0.048066407
26	0x3c98464e	0.018588211
27	0x3ceb7005	0.028739939
28	0x3d191ec6	0.037382863
29	0x3ca535a1	0.020167174
30	0x3bdb59a1	0.006694034
31	0x3d5b6521	0.05356324
32	0x3c93162c	0.017954908
33	0x3d8868ec	0.06660637
34	0x3c916400	0.017747879
35	0xbc457174	-0.012050975
36	0x3d38fcf6	0.045163117
37	0xbd0813a7	-0.033221867
38	0xbd072fef	-0.033004697
39	0xbcda0e19	-0.02661805
40	0x3ce775d3	0.028254425
41	0xbd7b0818	-0.061287016
42	0x3d41bd3c	0.04729961
43	0x3cbdc504	0.023165233
44	0xbc4719b7	-0.012152127
45	0x3adf4d47	0.001703658
46	0x3d1eea1f	0.038797494
47	0xbd3629ab	-0.04447333
48	0x3d39c3f9	0.04535291
49	0xbc992a75	-0.018697003
50	0xbd8da36d	-0.069159366
51	0x3d052bb2	0.032512374
52	0x3c22b003	0.00992966
53	0xbc6114d9	-0.013737881
54	0x3d9abcfc	0.07555577
55	0x3cb17833	0.02166376
56	0x3ae9db32	0.0017841815
57	0xbca6b725	-0.020351002
58	0xbcaafd0a	-0.020872612
59	0x3c1d4902	0.009599926
60	0x3d2a0557	0.041509
61	0xbc6b9f96	-0.01438131
62	0x3ce4f224	0.027947493
63	0x3c5b594c	0.013387989
64	0xbda521c3	-0.0806308
65	0x3d9501b1	0.07275713
66	0x3d49403f	0.049133535
67	0xbd11a826	-0.03556075
68	0xbc8eaa56	-0.017415207
69	0x392979f0	0.00016162521
70	0x3c4b1b6d	0.012396676
71	0x3d283e99	0.041075323
72	0x3d5fb8bc	0.054619536
73	0x3cf84b28	0.030309275
74	0xbd6f8c24	-0.058483258
75	0xbd2e3f02	-0.042540558
76	0xbd22988b	-0.039696258
77	0x3d774bae	0.06037491
78	0x3c19bad1	0.009382919
79	0xbc69d308	-0.014271505
80	0x3bbbbffb	0.005729673
81	0xbd746358	-0.059665054
82	0xbd64a5fa	-0.05582235
83	0xbd23e311	-0.04001147
84	0xbd5e11b6	-0.05421611
85	0x3bbeed11	0.0058266004
86	0xbc90d42c	-0.017679296
87	0x3d4cd2a0	0.050005555
88	0xbd8327c2	-0.064040676
89	0x3d9a21a5	0.075259484
90	0x3d267ae9	0.04064456
91	0x3d8600af	0.06543099
92	0x3d3a74bd	0.045521487
93	0x3c1b152f	0.0094655
94	0xba8d39c4	-0.0010774662
95	0x3ce82eae	0.028342571
96	0x3ce85c2f	0.028364269
97	0xbd568e33	-0.052381705
98	0xbc8c4847	-0.017124308
99	0x3cb64a0d	0.022252107
100	0xbc368e81	-0.011142374
101	0xbac896b6	-0.0015303704
102	0xbb64ce64	-0.0034913057
103	0xbd17d2dd	-0.03706633
104	0x3da1afb9	0.078948446
105	0xbd15e62f	-0.036596473
106	0x3c7aac2b	0.015299837
107	0xbd7d1d60	-0.061795592
108	0x3d37589c	0.04476224
109	0x3d2f53b2	0.042804427
110	0x3d70ba1f	0.05877125
111	0x3d65113e	0.055924647
112	0x3d161bc3	0.03664757
113	0xbd8e5ef2	-0.06951703
114	0x3d8452ef	0.06461131
115	0x3cf1f2bb	0.029534688
116	0xbd07e27d	-0.03317498
117	0xbd586175	-0.052827317
118	0xbcb57338	-0.022149667
119	0x3d149882	0.036278255
120	0xba2cd03b	-0.0006592308
121	0x3cc86117	0.024460359
122	0xbc5be442	-0.01342112
123	0x3c5f0f82	0.013614537
124	0x3c52568a	0.012838015
125	0xbd01eb9d	-0.03171884
126	0xbb838097	-0.004013132
127	0xbca941bd	-0.02066123
128	0x3b0c70f7	0.0021429637
129	0x3d1f5125	0.038895745
130	0x3c5ce126	0.013481414
131	0x3d14179e	0.036155336
132	0xbb0a2214	-0.002107744
133	0x3d0e18ff	0.034691807
134	0xbb8a6f19	-0.0042246697
135	0x3ca70f41	0.020393016
136	0x3d8c35f4	0.06846228
137	0xbd44fa9b	-0.04809056
138	0x3c7b8ea6	0.015353834
139	0xbabc5d3f	-0.0014371051
140	0x3d473f44	0.04864432
141	0xbd9b93bd	-0.07596538
142	0xbca9961a	-0.020701457
143	0xbd20f9ff	-0.039300915
144	0x3c9cb369	0.019128518
145	0xbc3bb280	-0.011456132
146	0xbc330440	-0.010926306
147	0x3c68f3ab	0.014218251
148	0xbcb730d4	-0.02236215
149	0xbc4fd1d6	-0.012684306

net.9.weight f4 [10, 150]
0	0xbdd32679	-0.103100725
1	0xbdf535a9	-0.119731255
2	0xbe1cc9ac	-0.15311307
3	0x3db26c17	0.08712023
4	0x3e04a754	0.12954456
5	0xbd55fd82	-0.052243717
6	0xbd79d39e	-0.06099283
7	0x3c22858c	0.009919535
8	0xbd6d25b0	-0.05789727
9	0xbe34563e	-0.17611024
10	0xbd2138a3	-0.039360654
11	0x3ddb5bc9	0.10710866
12	0x3d625bdf	0.055263396
13	0x3db240e1	0.08703781
14	0xbe3fae6e	-0.18718883
15	0xbd9c13e2	-0.0762098
16	0xbdbceac3	-0.09224465
17	0xbcadbc8f	-0.021208076
18	0xbda1c174	-0.078982264
19	0xbdc88fc2	-0.097930446
20	0xbe1205af	-0.1425998
21	0xbd0fee43	-0.035139333
22	0x3d562abd	0.052286852
23	0xbccaab92	-0.024740014
24	0x3d889126	0.0666831
25	0x3d6eb175	0.058274705
26	0x3d7e334e	0.062060647
27	0x3d99f4d1	0.07517398
28	0x3db799fb	0.08964916
29	0xbc6fcaf2	-0.014635788
30	0x3d6fb809	0.05852512
31	0x3dbf8879	0.09352202
32	0x3d04d995	0.032434065
33	0xbdcddeec	-0.100522846
34	0xbdb2e9e4	-0.08736017
35	0x3da83e38	0.08214992
36	0xbd8ebbec	-0.06969437
37	0x3e29a23f	0.16565798
38	0x3df27e92	0.118405476
39	0x3d894976	0.06703465
40	0x3e0278cb	0.12741391
41	0x3d21df59	0.03951964
42	0xbe22e403	-0.15907292
43	0x3d2f3ecf	0.04278451
44	0x3cb1c1e9	0.021698909
45	0x3dc1a7ce	0.09455834
46	0x3cb3eff1	0.021964999
47	0xbcac724b	-0.021050593
48	0x3d96c119	0.07361049
49	0xbea9fd3d	-0.33201018
50	0x3c11d9eb	0.008902053
51	0x3e119ceb	0.14220016
52	0xbd03121d	-0.031999696
53	0x3d787f3a	0.060668208
54	0xbc5bc74a	-0.013414213
55	0xbe24bbfa	-0.16087332
56	0xbc94ec92	-0.018179212
57	0x3ba6f140	0.005094677
58	0x3df8ba1d	0.12144873
59	0xbdaf43e2	-0.085578695
60	0x3dd0a11b	0.101869784
61	0x3da24142	0.07922603
62	0xbdadb62c	-0.08482012
63	0xbd905155	-0.07046763
64	0x3e3cd9c2	0.18442443
65	0xbd9cd9c9	-0.07658727
66	0xbce47746	-0.027888905
67	0xbdfaf650	-0.12254012
68	0xbe098a8b	-0.13431756
69	0xbdf174c0	-0.117898464
70	0x3c6044f8	0.013688318
71	0x3c4ef068	0.0126305595
72	0x3d1b1f33	0.03787155
73	0xbd5c0fa4	-0.053725854
74	0x3d577413	0.05260093
75	0xbdb0d742	-0.08634807
76	0xbb3af68e	-0.0028528306
77	0xbe01725d	-0.12641282
78	0xbe16101a	-0.1465458
79	0xbc9de23e	-0.01927292
80	0x384acbe6	4.835045e-05
81	0x3b95dca2	0.0045734206
82	0xbd6c20f2	-0.057648607
83	0x3ddfbb23	0.10924365
84	0x3e278108	0.16357815
85	0xbdcb9c11	-0.09941877
86	0xbc228b5f	-0.009920924
87	0xbc5a79ee	-0.013334734
88	0x3e16ddec	0.14733094
89	0x3d267209	0.040636096
90	0x3cbbc085	0.022918949
91	0x3dbd6915	0.092485584
92	0x3d8b8ae2	0.06813599
93	0x3dd61577	0.10453313
94	0x3c98a5da	0.018633772
95	0x3c477697	0.01217427
96	0x3b9ee138	0.0048486255
97	0xbd86af78	-0.06576437
98	0xbd4e9ae2	-0.050440677
99	0xbd91fc23	-0.071281694
100	0x3c3cc668	0.011521913
101	0xbd9311d1	-0.071811326
102	0xbd021880	-0.031761646
103	0x3e000233	0.12500839
104	0x3dc16f2b	0.09445032
105	0x3d0d6f29	0.03452984
106	0x3cb132c9	0.021630662
107	0xbe18d00b	-0.14923112
108	0xbc81c286	-0.015839826
109	0xbd9b4199	-0.07580871
110	0xbe8aaf17	-0.27086708
111	0x3dc39a81	0.09550954
112	0xbd99f3e3	-0.07517221
113	0x3c5836ee	0.01319669
114	0xbdac28f6	-0.0840625
115	0x3d07a790	0.033118784
116	0x3d4dca10	0.05024153
117	0xbc96f557	-0.018427534
118	0xbdc9fc11	-0.09862531
119	0xbce98aea	-0.028508622
120	0x3c9f0159	0.019409822
121	0x3db456c3	0.08805611
122	0xbc7328ee	-0.014841301
123	0xbe271c27	-0.16319333
124	0xbc28a8e3	-0.010294172
125	0x3ca7ffcb	0.020507714
126	0xbd992514	-0.07477775
127	0xbd9731db	-0.07382556
128	0x3e035a64	0.1282745
129	0xbd98caa4	-0.07460526
130	0x3dea3d69	0.11437494
131	0xbe0245d4	-0.1272195
132	0x3deececc	0.11660537
133	0xbd83ae90	-0.064297795
134	0xbdb5daea	-0.08879645
135	0xbbb37f98	-0.005477857
136	0x3da9fc56	0.083000824
137	0xbc0fa405	-0.008767133
138	0x3e2bf72d	0.16793509
139	0x3d9c34cb	0.07627257
140	0xbde9b6db	-0.1141183
141	0x3d0b78f1	0.034050886
142	0x3d967919	0.07347316
143	0xbb60b203	-0.003428579
144	0xb87bb0ef	-6.0007846e-05
145	0x3dc85ddb	0.097835265
146	0x3d71ec2f	0.059063133
147	0x3d48e8d6	0.049050175
148	0x3bae951d	0.0053278343
149	0xbda8c4b3	-0.082406424
150	0x3df88b94	0.121359974
151	0x3bdfa235	0.0068247565
152	0xbc272365	-0.01020131
153	0xbc849f8d	-0.016189361
154	0x3e1c56a2	0.15267423
155	0x3dc4b51c	0.09604856
156	0x3d1a3982	0.0376525
157	0x3db07262	0.08615567
158	0xbcebf392	-0.028802667
159	0x3da18dcf	0.07888376
160	0x3c586932	0.013208674
161	0x3e12d2ff	0.14338301
162	0x3ccb80cf	0.024841694
163	0xbe04b3f0	-0.12959266
164	0x3d8422fe	0.06451987
165	0xbc5b4a2d	-0.013384384
166	0xbdafed99	-0.0859024
167	0xbde37bbc	-0.11107585
168	0x3d694179	0.056947205
169	0x3d1600ee	0.03662198
170	0xbd6e9254	-0.058245018
171	0xbdb88ec6	-0.09011607
172	0xbdc7f855	-0.097641625
173	0xbd53d533	-0.051716994
174	0x3d8606bc	0.06544253
175	0xbb48eb0b	-0.0030657675
176	0xbd1d18b0	-0.038353622
177	0x3da2d0f7	0.07950013
178	0xbd34c05d	-0.044128764
179	0xbbd61382	-0.006533087
180	0x3e08d1e8	0.13361323
181	0xbd5de7e6	-0.054176234
182	0xbe01d746	-0.12679777
183	0xbd80fa54	-0.06297746
184	0x3dbe2f84	0.09286407
185	0x3c8b8463	0.0170309
186	0x3d6c374f	0.057669934
187	0x3da1aa6d	0.07893834
188	0x3d9b3ec0	0.07580328
189	0x3e0bb9d6	0.1364511
190	0x3dd1f0c1	0.10250998
191	0xbb1555af	-0.0022786667
192	0xbccc204a	-0.02491774
193	0xbe081e12	-0.13292721
194	0x3d7044c2	0.058659323
195	0xbe20951c	-0.1568188
196	0xbd7d4e61	-0.061842326
197	0xbce3eb5e	-0.027822193
198	0xbd60f83d	-0.05492424
199	0x3e93dc79	0.28879145
200	0xbb9644bb	-0.00458583
201	0xbc834f8d	-0.016029144
202	0x3d2b0cc1	0.04176021
203	0x3b87f8e8	0.004149545
204	0xbd0a2a86	-0.03373196
205	0x3b095a64	0.0020958418
206	0xbd7d6760	-0.061866164
207	0x3d55ee52	0.052229233
208	0x3da15908	0.078783095
209	0xbdb42f06	-0.087980315
210	0xbdd07e4d	-0.1018034
211	0xbe47251c	-0.1944775
212	0xbd50644e	-0.050876908
213	0xbdb066db	-0.08613368
214	0x3ea05c21	0.3132029
215	0xbdf6b9a6	-0.120471284
216	0x3d0791b4	0.033097938
217	0xbdbf67c9	-0.09345967
218	0x3d4bb94e	0.049737267
219	0x3d7ff28a	0.062487163
220	0xbd8f3305	-0.06992153
221	0xbda58a24	-0.08082989
222	0x3bdf11dc	0.006807549
223	0x3c6bd0e1	0.014393062
224	0xbd526658	-0.051367134
225	0xbe1e6981	-0.15469934
226	0xbebe75d0	-0.3719926
227	0xbc7de80f	-0.015497222
228	0xbd670e2d	-0.056410003
229	0xbd3f480a	-0.04669956
230	0xbdd845a1	-0.10560156
231	0x3d1fe83a	0.039039828
232	0x3dd13f1f	0.102171175
233	0x3de91ff0	0.11383045
234	0x3e2e921b	0.17047922
235	0x3dc1443a	0.09436841
236	0x3db6eeea	0.08932288
237	0x3e010d04	0.12602621
238	0xbdf738f9	-0.120714135
239	0x3d2886a2	0.04114402
240	0xbd4973d2	-0.04918272
241	0x3c9f025f	0.01941031
242	0xbde48d6c	-0.111597866
243	0xbdf18a5b	-0.11793967
244	0x3c3ea21c	0.01163533
245	0xbda6b743	-0.08140423
246	0xbe0fb1f5	-0.14032729
247	0x3d5fb9af	0.05462044
248	0x3c27b7ad	0.010236663
249	0x3cea5522	0.028605048
250	0x3d87b950	0.066271424
251	0x3c4b58ad	0.012411279
252	0x3d4b2391	0.049594466
253	0xbe2ee918	-0.17081106
254	0xbe0754b7	-0.1321591
255	0xbe2c477b	-0.16824143

net.9.bias f4 [10]
0	0xbcff496e	-0.031162944
1	0xbd400dab	-0.046888035
2	0x3d0bc6a4	0.034124985
3	0xbd8dc907	-0.069231085
4	0x3d1b866c	0.03796999
5	0xbd9b09f9	-0.075702615
6	0xbcd6a563	-0.02620191
7	0xbdca11a3	-0.09866645
8	0xbbc579e1	-0.006026492
9	0xbc5a6869	-0.013330557
