result/model_11_0.pth (torch, 307183 bytes, 8 tensors)

net.0.weight f4 [20, 1, 4, 4]
00000000: ce63 d43d c11f e53e e7dc aa3e 9534 bf3e
00000010: 3a5c 83be e743 babe 9a19 1abf feab a73e
00000020: 7e74 02be eb58 bcbe 35a0 093f de1d b83e
00000030: 05e0 fa3c bdf3 be3e 3bf4 643e 47b4 81be
00000040: e63a ba3e 940b 363e 1a54 ea3c 16a8 943e
00000050: 5ec2 863c bd9a 02be 7fd4 a7bd 874c b53e
00000060: d2c7 85be eb53 b8be c7e7 80be c4fa efbd
00000070: 2870 6bbd b011 84be ce01 733e 2e39 3bbe
00000080: 4698 b73d 46ed 2bbe fbf4 9ebe 3f23 a9bd
00000090: e30b 4b3e 0474 143f 154d 7f3e 86b3 88be
000000a0: 6de9 4dbe da1f 56bd 62af c33e a800 ac3e
000000b0: 1842 d9bc 1842 2ebe 70ff 9bbd 3691 10bc
000000c0: 52c9 a63d 5e55 74be bcb7 b0be 5551 18be
000000d0: 93a8 4abe 5296 7e3e 9607 2f3e 862f 863e
000000e0: 28ad 3f3e 5072 203e c67a 833e 19c4 adbd
000000f0: 9aa9 033d c817 3cbe 04cb aab9 384f 8cbd
00000100: 72b7 993d 24b0 1abc 6f59 313e 76ae 83bd
00000110: 714e 3ebe f8e2 20be 5b6b 3e3e 4cbd 2b3e
00000120: 13ff 653e c77d 76be 8b54 c3be 6751 98be
00000130: 20a8 25be 59f5 1f3e 2dc0 323e 561a 563e
00000140: 31e4 56be 2486 39be a447 5e3e c278 0ebe
00000150: 5a5f 9e3c 6778 fe39 c921 933e 7d60 94be
00000160: 2cf3 3ebe 34cf a53e 7e76 a23d e59f 33be
00000170: 489d 0b3e 165f b33e 28cf 57be 9bb5 26be
00000180: f09d aa3e 70dd f03c 0c44 9e3b eaac 79be
00000190: 06e3 1dbe 68db 24bd f26f febd d505 8abe
000001a0: c818 07bd 973b 5fbe 4cfa 3abe 9766 edbd
000001b0: c402 f9bd c448 38bd e095 e23e 08aa 713e
000001c0: 77b7 153e 3b26 41be 0098 05be b07f c1bc
000001d0: 05ef b83d 2d7b 41be e2d4 9ebd 50d0 e2bd
000001e0: 8bd5 113d c672 a4bd 5114 443d 94e8 d9bd
000001f0: b55a ecbd fe84 d5bd d519 2ebd 956c 25be
00000200: 9474 a63e 88f7 cb3d ee93 ae3e d025 233e
00000210: 7e51 50be 2bd4 1c3e 52c5 86bd 8290 08be
00000220: 495f 98be ec48 b2be 341f 34bd 87ca 03be
00000230: d301 bf3d d2e8 24be d311 483e 67d8 29be
00000240: 22f3 92bd e124 073e e241 2f3e 4192 643e
00000250: 9f5a 693e 3de1 70be e764 833d a218 1ebe
00000260: bfaa 06be a82a 80be 3205 7d3e f63a 8bbe
00000270: 016f 103d 645e 503d 5063 e93d f091 3bbe
00000280: d8ea df3e 240b a63d f76b a2bc 3fa6 9cbe
00000290: 1908 c03e 6448 8f3c 5fb1 27be 3cfc 2c3e
000002a0: d811 4e3e 15d5 95bd 5514 4bbe 7475 c5bd
000002b0: cfc5 3d3e 48ed ddbc 0529 20be 0055 00be
000002c0: c5b9 82be e3e4 3b3e f2db 473e e7ea c6be
000002d0: 61ec 15bc 3868 bc3e f309 383d e1e2 7fbe
000002e0: bb8d 493e 853a 703e 5679 4b3d 32ac 19be
000002f0: 4004 a2bd 1191 6c3d 8c79 a03c 68bc afbd
00000300: 2ea0 563e c8f4 843e b446 9ebc 17f8 b3bd
00000310: 2b35 673c 7cb1 143d 1494 f33d 5788 053e
00000320: 26c3 8dbe 4cf2 e1bd 65c0 533e fd30 c93d
00000330: ca02 c6bc 0628 43be ee0d 81be e88d 98be
00000340: 60e1 42be 9c05 57bd 4e05 893e fd81 7c3e
00000350: c083 abbe aee4 8dbe d37e 8b3d 0e4e cb3e
00000360: aa17 eabd fb2d 16be b92f 7b3e c272 3bbd
00000370: 89ca 99be 85e3 193e f712 8ebd cb2e a4bd
00000380: 02be 59be 3efd 513e 2e18 633e 1d2e ca3d
00000390: fef3 30be e364 79be fb34 1dbe 9f4b 603e
000003a0: 0170 2f3e 4d3d bc3e 8787 9a3e 84b4 9c3d
000003b0: 9996 0dbd 4146 4dbe 269f 81be 74b6 88be
000003c0: 9d1b 3c3e 5554 adbd 5f0f 66bd d03e bfbd
000003d0: b432 1a3d 2908 dfbd e0fb 13be 6106 023e
000003e0: 7c36 7dbd a41b 0e3e aa81 cbbd db1a 2ebe
000003f0: 92df 0bbb 32f3 48bd ecbb 32bd d643 53be
0.10370599 0.4475079 0.3337166 0.37344804 -0.256563 -0.3637993 -0.60195315 0.32748407
-0.1273975 -0.3678659 0.5376008 0.35960287 0.030624399 0.37295333 0.22358792 -0.25332853
0.3637306 0.17777854 0.028604556 0.2903449 0.016450103 -0.1275434 -0.08194827 0.35409948
-0.26129013 -0.36001524 -0.25176832 -0.117177516 -0.057480007 -0.25794744 0.23731157 -0.18283531
0.08964591 -0.16789731 -0.3104628 -0.08258676 0.19828753 0.57989526 0.24931748 -0.26699466
-0.20108576 -0.05227647 0.38219744 0.3359425 -0.026520774 -0.170174 -0.0761708 -0.0088236835
0.081438676 -0.2386069 -0.34515178 -0.14874776 -0.19790868 0.2486203 0.17092738 0.26208133
0.18718398 0.15668607 0.25679606 -0.08484668 0.032144167 -0.18368447 -0.00032576185 -0.06851047
0.075056925 -0.009441409 0.17319272 -0.0642976 -0.1858461 -0.15711582 0.1859564 0.1677143
0.22460584 -0.24071418 -0.3815044 -0.29749605 -0.16177416 0.15620936 0.17456122 0.20908484
-0.20985486 -0.18117577 0.21707016 -0.13913253 0.019332577 0.00048536362 0.28736714 -0.28979865
-0.1864745 0.32384646 0.07932757 -0.17541464 0.13634217 0.35033482 -0.21075118 -0.16280214
0.33323622 0.029402465 0.004829889 -0.24382368 -0.15418634 -0.040248305 -0.124236956 -0.26957574
-0.032982618 -0.21800075 -0.18259543 -0.11591833 -0.121587306 -0.04499127 0.4425497 0.23600018
0.14620768 -0.1886224 -0.13046265 -0.023620456 0.09029964 -0.18894644 -0.07755448 -0.11074889
0.03560404 -0.08029704 0.047870938 -0.10640064 -0.115407385 -0.10425757 -0.042505104 -0.16154702
0.32510817 0.09959322 0.34097236 0.15932393 -0.20343587 0.1531531 -0.065806046 -0.13336375
-0.29760197 -0.3482126 -0.04397507 -0.12870227 0.0932652 -0.16104439 0.1953805 -0.16586457
-0.0717528 0.13197662 0.17114976 0.22321416 0.22788475 -0.23523422 0.0641573 -0.15439084
-0.13151072 -0.25032544 0.24709013 -0.2719342 0.03526211 0.050871268 0.113958955 -0.1831739
0.4373386 0.08107594 -0.019826872 -0.30595586 0.37506178 0.017490573 -0.16376255 0.16893095
0.20123994 -0.07316033 -0.19831975 -0.09641543 0.18532489 -0.027090684 -0.15640648 -0.12532425
-0.25532356 0.18349032 0.19517496 -0.3885109 -0.009150595 0.36798263 0.044931363 -0.24988891
0.19682972 0.23459823 0.04967626 -0.15007094 -0.07910967 0.057755534 0.019589208 -0.085808575
0.20959541 0.25968003 -0.019320823 -0.08787554 0.014111797 0.036302075 0.11893478 0.13040291
-0.2768795 -0.110325426 0.20678861 0.09823797 -0.024171252 -0.19058236 -0.2520594 -0.29795766
-0.19031286 -0.052495584 0.2676186 0.24658962 -0.33498955 -0.2771353 0.06811299 0.39707989
-0.11430295 -0.14665978 0.24529923 -0.04576374 -0.30037335 0.15028198 -0.06937211 -0.080167376
-0.21263888 0.2050676 0.22177193 0.09872077 -0.17280576 -0.24354891 -0.15352242 0.21903847
0.1713257 0.3676552 0.30181524 0.07651618 -0.03456745 -0.20046331 -0.25316733 -0.267017
0.18369909 -0.08463351 -0.056167003 -0.093381524 0.03764601 -0.10890228 -0.14451551 0.12697746
-0.06181954 0.13877732 -0.09936841 -0.17002432 -0.0021342975 -0.049060054 -0.043636248 -0.20631346

net.0.bias f4 [20]
00000000: b655 8a3e 7cec 19be 208b c33e 5d31 0b3e
00000010: 9018 01be 00b6 31be e9d0 cabe c5c2 c6be
00000020: d911 2bbe b5e4 53bc 430c 593e 1824 0c3e
00000030: 020b 10be 6812 ffbd a8fc da3d 1d3a bcbe
00000040: 9e15 193c 158c ea3d 8252 babe 5104 ec3d
0.27018517 -0.15031618 0.3819208 0.1359305 -0.12607026 -0.17354584 -0.3961251 -0.38820472
-0.16706027 -0.012932946 0.21196084 0.13685644 -0.14066699 -0.124546826 0.106927216 -0.36763087
0.009343533 0.114525 -0.36391073 0.11524261

net.3.weight f4 [40, 20, 5, 5]
00000000: 822e 2cbe bb2a 88bd ed4e 8fbd 74a1 12be
00000010: 2f15 19be 6afa fabc a99e ecbc 9571 24be
00000020: e78f d5bd 4070 87be e6a0 1dbd be40 f5bd
00000030: 0ff7 cdbc 878c 803d ea85 7abd fee8 51bd
00000040: bdf7 403d 9407 f63d 9bd1 0d3e 8a4a 173e
00000050: 458c 2fbe cd9f 2bbe 93ed a2bd fd34 8b3d
00000060: c108 3b3e 7f8c fa3c 7c9d 963c 97e9 61bd
00000070: 6db7 8bbc 60ef 903d c0c8 8b3c 4818 d8bd
00000080: 74f7 44be 855c 6fbd 25b2 a9bc 53c1 373d
00000090: 0528 68bd 8c8c 80bd 2970 7b3d 8487 5ebb
000000a0: 9508 a23b 3bef eabd e1bd 3bbd 6285 11bc
000000b0: 37e3 ce3c a4b7 873d 5819 98bd 5310 43bd
000000c0: 9f3d 393d eb88 09bd 75d2 54bd 90fe 36be
000000d0: 7077 26be db3b 32be 6df2 84be 88be 8ebd
000000e0: 0281 27be a77f 78bd d2c9 553a 6604 12be
000000f0: f74c 303b 6e57 543e 96c8 373e 5e41 0d3e
00000100: 5e14 2a3e 969e f3bd bc68 673d 2e75 bf3d
00000110: 0b55 31be d0b6 3bbd f2dc cc3d 012f 173e
00000120: 80a6 e03b 5227 48be 6aa7 11be 0183 b2bc
00000130: 5aa7 c0bc 5325 aa3d 9428 233d d5f4 c4bd
00000140: ffe4 ddbb 5cd1 11bb c228 6d3d aab3 243e
00000150: e503 5d3d 9009 f0bd b9a0 efbc 2bdb 9a3d
00000160: bdf1 043c 71a0 923c 40dd 9ebd 130b dfbc
00000170: 162f 993c 2e8f 3f3c f8b8 49bb b335 fcbd
00000180: 7f89 003d 8504 ef3c e824 bd3d 3426 f73c
00000190: d029 7f3d dbf7 d53d 968b 143e 3b56 b83d
000001a0: 9c41 173d 403e 41be 0b66 57be 9927 f13d
000001b0: 6ff8 f13d 685d 903d a529 bf3c 6ceb c43c
000001c0: 7815 f33c d6de 393e 2d32 1f3e df75 ccbd
000001d0: 5a70 4d3d 0d27 143e eb68 2e3e 5668 9f3c
000001e0: e04d 053e 46ad 6f3d 6993 b93d 8f73 fc3c
000001f0: 2ace d4bc f90e 7d3d be73 2c3e f73d b83d
00000200: a283 223e 5c8e df3d cf88 cb3d 30fe 353e
00000210: 1586 443d f0e8 993c 42da 6ebd 6766 703c
00000220: 2cc9 d43c 3b77 6d3c 865d 0c3d 1a00 96bd
00000230: 6de6 d7bc 522f 5ebd 57cd 483d 1982 8e3d
00000240: f21f 3f3d 2383 f8bd fd4d 50bc 2634 98bc
00000250: f703 ffbc 5225 b63d aecc 173d a283 5d3d
00000260: 01e8 913d 80ee 8d3d 1853 803c 4694 1e3a
00000270: 7a9a d63c 1b49 913d f66c 9fbb 3e75 f2bc
00000280: 790c 53bd 5ac6 cebd 6614 72bd f268 ef3c
00000290: fa74 ac3d 33ad 4fbd b8ad 3ebe d721 5fbd
000002a0: 4f97 d13b be7e a6bb 70da 67bd b2ff cabd
000002b0: 5c1a 303c b0ad 793c 35ed 5cbc 8d97 bdbc
000002c0: 127b 3f3d 7b92 0abd 094d 8e3d 20db fe3c
000002d0: c96d 17bc a8ad 9bbc ae59 25bd 12f2 1e3d
000002e0: 026d 653d 18b0 6bbd 563b 9dbd 3af5 74bd
000002f0: 3d84 503c 4a06 a13c b454 63bc 326b c2bd
00000300: 9de8 01bd ff2c 803d 4d59 1d3d 390a b6bc
00000310: 8cd8 afbd 9e07 86ba 8bcd d5bb ef4e 213d
00000320: 0c62 81bc 16b1 23be 6ca7 07be e428 b13c
00000330: 024d e03d 0dfb cfbd 35c1 39be 9b3f 19be
00000340: d14c a03d de67 9f3d 05e3 20be 7e66 f1bd
00000350: fac3 bbbc adae fd3d 3647 903d 986e 33be
00000360: d892 ddbd a8e8 a5bc f962 883d 7f50 893d
00000370: a35f d8bb fb3b 7e3d dfc5 243d c1d1 013c
00000380: 9aa6 e7bc 74ba 5fbd 93fb 34bd d7dd 2a3d
00000390: 1608 273d 0453 de3d ab75 02bc f0a9 4fbd
000003a0: 0647 b3bb 2370 9c3d 4898 a43d 147c 4ebc
000003b0: 0019 18bd c4cb a23d 5fa3 733d 6020 07bd
000003c0: cd25 c5bd 6eb7 a1bd 6882 b73d ba2a de3d
000003d0: b23d f43d 238f 17bd 0a7d e3bc 669b 2a3c
000003e0: 3a49 debc 4e09 8fbc b0cc 25bd 1b9a acbc
000003f0: 334c 05be 8050 41bd 2f10 20bd 7c79 26be
-0.16814616 -0.06648775 -0.06997476 -0.14319402 -0.14949487 -0.030636985 -0.028884249 -0.16058953
-0.10427838 -0.26452827 -0.038483523 -0.11975239 -0.02514222 0.062768035 -0.061162867 -0.05124759
0.04711126 0.12013164 0.1384949 0.14774528 -0.17143352 -0.16760178 -0.0795547 0.06797216
0.18265058 0.030584572 0.018385641 -0.05515441 -0.017055238 0.07076907 0.017063498 -0.10551506
-0.19235021 -0.058437843 -0.020714829 0.044862103 -0.05667879 -0.06276807 0.06138626 -0.0033955285
0.0049448707 -0.11471411 -0.04583538 -0.008881899 0.025254829 0.066268235 -0.07426709 -0.04762299
0.045224782 -0.03357784 -0.05195852 -0.17870545 -0.162565 -0.17405646 -0.25966206 -0.06969935
-0.16357806 -0.060668614 0.0008155379 -0.1425949 0.0026901343 0.20736477 0.17947611 0.13794467
0.16609332 -0.11895482 0.056496367 0.09348522 -0.17317598 -0.04582864 0.100030795 0.14764024
0.006855786 -0.1954625 -0.1422402 -0.021790983 -0.0235173 0.083079 0.03983362 -0.096170105
-0.006771683 -0.0022250032 0.057900198 0.16084161 0.053958792 -0.11720574 -0.029251443 0.07561334
0.0081142755 0.01789877 -0.07757044 -0.02722696 0.01869921 0.011691852 -0.0030780416 -0.1231493
0.031381126 0.02917696 0.09235555 0.030169584 0.062295735 0.10447665 0.14506373 0.09000822
0.036927804 -0.18871403 -0.2103502 0.11775131 0.11814963 0.07049066 0.023335287 0.02403804
0.029673323 0.18151411 0.15546484 -0.099834196 0.050155975 0.14468022 0.1703221 0.019458931
0.13017988 0.058514856 0.090613194 0.030816821 -0.025977213 0.061781857 0.16841027 0.08996194
0.15870526 0.10915825 0.099382035 0.17772746 0.047979433 0.018787831 -0.058313616 0.014672852
0.025974832 0.014493759 0.03426888 -0.07324238 -0.026354993 -0.054244347 0.049023952 0.06958408
0.046661325 -0.12134387 -0.012713906 -0.018579554 -0.03112982 0.08893837 0.037060432 0.054080613
0.07124329 0.06930256 0.015664622 0.0006049316 0.026196707 0.07094022 -0.004865284 -0.029596921
-0.051525567 -0.10096426 -0.059101485 0.029224847 0.08420749 -0.050702285 -0.18620956 -0.05447563
0.006396211 -0.005081027 -0.056604803 -0.09912051 0.010748472 0.015239164 -0.013484289 -0.023143554
0.04674823 -0.0338311 0.06948287 0.031110346 -0.009242483 -0.019003704 -0.04036873 0.038805075
0.05601216 -0.057540983 -0.07677333 -0.05980418 0.012726841 0.01965632 -0.013875175 -0.09493102
-0.031715978 0.06258582 0.038415242 -0.022221671 -0.08586225 -0.0010225659 -0.006524747 0.039381918
-0.015793823 -0.15985522 -0.1324746 0.021625943 0.10952188 -0.10155306 -0.18140109 -0.1496567
0.078271516 0.07783483 -0.15711601 -0.11787127 -0.022920597 0.123868324 0.070448324 -0.17522657
-0.10819024 -0.02025254 0.066595025 0.067048065 -0.0066031977 0.06206892 0.040227767 0.007923544
-0.028277684 -0.054621175 -0.044185232 0.04171547 0.040779196 0.10855678 -0.007962625 -0.050699174
-0.005471113 0.07638576 0.08036858 -0.012602825 -0.037133217 0.079490215 0.059481975 -0.03298986
-0.096263506 -0.078963146 0.0896042 0.10847993 0.1192583 -0.03700174 -0.027769584 0.010413026
-0.027134527 -0.017460492 -0.04047841 -0.021069577 -0.13017349 -0.04719591 -0.039077934 -0.1625728

net.3.bias f4 [40]
00000000: a410 0b3d f88f 7bbc db7b e63c 2b78 97bc
00000010: ff0d 8dbc 2732 bf3c 1564 cebc e90e 983b
00000020: 9b6d cdbc 93e2 8b3b bf9d ab3c 84ae 893c
00000030: f70c ffbc f4b4 dc3b 266f 6e3b 4d9f 58bc
00000040: c0e8 b3bc d413 a13b 70c7 b7bc 871e d5bc
00000050: 2d37 223d 8d32 16bd 4227 c9bb 3279 c83c
00000060: e30c 30bc b72b 0d38 d0b0 b1bc bdc2 45bd
00000070: b0dc 4a3d 6429 ebbc 6568 e23b 0fe9 9c3c
00000080: 5401 06bd fd9c 183d 0f11 f63b f418 36bb
00000090: 8d71 29bb 4d2c d0bc 0da2 063d fd5e 27bd
0.033951417 -0.015354149 0.02813523 -0.018489918 -0.017218588 0.023339344 -0.025194207 0.0046404493
-0.025076678 0.004268953 0.020949243 0.016806848 -0.031134112 0.0067354385 0.0036382168 -0.013221574
-0.02196157 0.004915694 -0.022433966 -0.026015533 0.0396034 -0.036669303 -0.006138713 0.024471853
-0.01074526 3.3657732e-05 -0.021690756 -0.04828142 0.04952687 -0.02870626 0.0069094175 0.0191541
-0.03271611 0.03725909 0.0075093578 -0.002778587 -0.0025855035 -0.02541175 0.032869387 -0.040862072

net.7.weight f4 [150, 360]
00000000: c33a c9bd 601e 3d3d 1ee9 1dbd 0466 adbd
00000010: 1beb 733c 041d 2dbd ed33 a5bc 4747 ae3d
00000020: ead1 f2bc 3a39 023d 7177 1d3e 927c 813d
00000030: 2eaf 03bd abb4 c9bb 8903 eb3c 6dda c13d
00000040: fcac 973d e356 0f3d 328d c53c 9d4e afbd
00000050: 5c12 623d 54c6 a5bc fe43 ccbc 7650 01bd
00000060: ffc8 883d fc3e 023e cc84 9fbc 2686 c0bd
00000070: 7871 3e3c a185 4c3d 9a72 a8bd 40fe 26be
00000080: 1042 29bc abc4 98bd 6e0c c0bd 3465 73bd
00000090: ba54 36bc bb4f 903c ddb9 13bc 2b4a 403d
000000a0: e52a a13d 694e 883d 22de 763d 6d90 c33b
000000b0: e577 09bd e36e 1abd 533a c8bd 0225 86bd
000000c0: 0bc7 f9bd 83f5 94bc a1de f83c 1850 9abd
000000d0: 768c a9bd 32ae e8bd bbb7 bc3d 4132 603d
000000e0: 54c6 8f3d a8c0 be3d 90b1 b43d 7b4d a53c
000000f0: 6fc9 0ebc 5cf1 c1bc 5bf0 d6bc 2183 f4bd
00000100: 5a6b ddbd d554 7cbd bff3 953c 2f44 94bd
00000110: 0615 0b3e 0880 3cbd a5dd 883c 64a9 303d
00000120: 0d1a 3d3e 6658 833c 1c53 84bd 8cbf 0b3d
00000130: b941 593c 9b6f 4c3c 6145 fcbd c04b ddbd
00000140: 15f9 81bd ac10 9a3d 7fa1 a33c a194 563d
00000150: 9db5 a93b 98f4 263d 1f3c 693c f532 d83c
00000160: 5507 123d 2c1a 8b3d f9c8 8f3c efdd 743c
00000170: ac20 653c 0322 52bc 82af f1bd cb19 16bd
00000180: 4b5c f43c 22f0 b9bb 5a35 eebd 081a f5bb
00000190: 0516 023d 98c4 39bd c937 b63c 6595 7f3b
000001a0: f9a4 9d3c aa97 23bd 13e4 623b c284 443d
000001b0: 238e 81bd d0d2 67bd 1027 a0bb 80ca f4bc
000001c0: f344 b03d dc88 61bd 7b2f 673d 5b9f 533d
000001d0: 4a53 713d 8e27 67bd 34db 35bc ea9a 4b3d
000001e0: 1dd4 0a3d 67a0 6dbd 95cd 453d c844 c0bc
000001f0: 16a4 85bc 1a4f 8cbd f909 c4bd 5848 61bd
00000200: c1c0 66bc 77bd ac3c 13f5 91bd 23d5 03bc
00000210: b813 4c3d 8402 c53d 87b9 2ebc b08c d0bd
00000220: 7ce4 dbba 602c 3e3d 8b03 6b3b 6d8c fa3c
00000230: 2f90 463d 6132 763c 7f1f 4ebd 30de 063d
00000240: 9c28 ddb9 3c3e 243d e57e 4a3c cf1f d5bc
00000250: da89 9f3d 3c49 c83d cf9c 223d 3fb1 65bc
00000260: a49e 713c 1e66 503d fbc4 b13d 351d 8e3d
00000270: 8276 2b3b ace4 da3c a5ea 8f3d e3d1 5abd
00000280: 5bf3 5bbd ec28 9abd ad9d 6d3d 669e 813d
00000290: 448b 203d 4105 963b bf53 343d 349a 5b3c
000002a0: e27f 1dbd bcbd 8e3c 7520 363d 4483 9a3d
000002b0: 1a64 75bd a2fd 2dbc d189 e63b 89f2 cabc
000002c0: 2a18 bb3c 207c a23d 0034 8fbd 22bb 66bd
000002d0: 2e89 2b3d 1447 77bd 2441 0a3e 4a72 313d
000002e0: 30ea f13d e080 ba3d 1a33 d5bb 8173 203e
000002f0: bf9b 8d3d 62ad 1a3d a0e9 363c 1721 103a
00000300: 12f4 013c fdb0 4b3d 8275 f7bc 37d2 ba3b
00000310: eeca b5bb 00a1 213d 99ac d73d de72 583d
00000320: 395f 483d c346 9bbc a461 fa3c 5987 3fbb
00000330: 54f7 a3bc 8797 2fbc b12e 4cbc 99ed de3b
00000340: 9166 183d a0e0 15bd da79 09bc 2c8e acbc
00000350: 63b3 b83c c4d4 d5bc 5a92 233d 008d e53a
00000360: bb52 64bd 6ebf 9ebd dab5 2d3c 34e2 50bd
00000370: 7112 7dbd 1587 da3c 362d 4cbd f529 813c
00000380: 17ee 1b3d 4c8c 623d acc0 2f3e ddae 403e
00000390: 26ca a6bc e941 0cbd a001 843c 879e efbd
000003a0: 37b9 59bd 833b 35bc dd53 e5bd ff80 f9bd
000003b0: 68fd b33d 0988 04bd 2465 24bc 6a76 163e
000003c0: 0355 1c3b cd7e 8fbd c352 54bc 08b8 813c
000003d0: c8f8 54bd e5c3 afbc 858c 5b3c 5c7a 373c
000003e0: a0d5 cebb b814 833c 3776 1bbd 6f3f b3bc
000003f0: 393f 3a3c 73da 8bbd d05e f7ba dc1c 113d
-0.09825661 0.046171546 -0.038552396 -0.084667236 0.0148875965 -0.042264 -0.020166362 0.08509689
-0.02964111 0.031792857 0.15377595 0.06322588 -0.032149486 -0.0061555705 0.02868821 0.094654895
0.07406041 0.03499497 0.024115179 -0.08559916 0.05519329 -0.020236172 -0.024934765 -0.031570874
0.06678962 0.12719339 -0.019472502 -0.09400587 0.011623733 0.049932126 -0.082249835 -0.16307926
-0.010330692 -0.074593864 -0.09377371 -0.059422687 -0.011128599 0.017616143 -0.009016481 0.046945732
0.078695096 0.066555806 0.060270436 0.0059681446 -0.033561606 -0.037703406 -0.097767495 -0.065500274
-0.121961676 -0.018183475 0.030379595 -0.07534808 -0.08278744 -0.1136135 0.09214731 0.054735426
0.0702025 0.0931409 0.0882293 0.020178547 -0.008715018 -0.02367466 -0.026237657 -0.11939073
-0.10811491 -0.06160434 0.018304704 -0.072395675 0.13582239 -0.046020538 0.01670725 0.043130293
0.18466969 0.016033363 -0.06461164 0.03411822 0.013260298 0.012477781 -0.123179205 -0.10805464
-0.06346337 0.07522711 0.019974468 0.052387837 0.0051791207 0.040760607 0.014235525 0.026391486
0.035651524 0.06792101 0.017551886 0.014945491 0.01398484 -0.012825492 -0.118010536 -0.03664569
0.029829165 -0.005674378 -0.1163127 -0.00747991 0.03175928 -0.045353502 0.022243397 0.0038998958
0.019243704 -0.03993956 0.0034620806 0.04797817 -0.063259386 -0.05659753 -0.004887469 -0.029881716
0.08606901 -0.05506216 0.056441765 0.051665645 0.05891732 -0.056434207 -0.011099625 0.049708284
0.033893693 -0.0580143 0.04829176 -0.023470297 -0.016313594 -0.06851025 -0.09572215 -0.055000633
-0.014084042 0.021086438 -0.07126822 -0.008046421 0.049823493 0.096196204 -0.01066435 -0.10183084
-0.0016776468 0.046429038 0.0035860266 0.030584538 0.048477348 0.01502666 -0.050323006 0.03292674
-0.0004218266 0.040098414 0.012359356 -0.026016144 0.07789965 0.09779593 0.039700326 -0.01401931
0.0147472955 0.050878637 0.08680149 0.069391645 0.0026163165 0.026720367 0.07027177 -0.05342282
-0.05369888 -0.075273365 0.0580117 0.0632904 0.039195314 0.004578263 0.04402518 0.013403464
-0.038452037 0.017424457 0.044464547 0.07544568 -0.059909917 -0.010619553 0.007035472 -0.024773853
0.02283867 0.07933831 -0.0699234 -0.056330808 0.04187887 -0.06037052 0.13501412 0.043321885
0.11812246 0.09106612 -0.006506336 0.15669061 0.06914472 0.037763007 0.011164099 0.0005498095
0.007931726 0.049729336 -0.0302074 0.005701329 -0.0055478727 0.039460182 0.10530967 0.05284392
0.048918936 -0.01895464 0.030564137 -0.002922496 -0.020015396 -0.010717279 -0.012462304 0.006803226
0.03720719 -0.036591172 -0.008390868 -0.021063887 0.022546476 -0.026102431 0.039934494 0.0017513335
-0.05574296 -0.07751356 0.010602439 -0.050996974 -0.061785165 0.02667574 -0.049847804 0.015767077
0.038068857 0.05530958 0.17163342 0.18816705 -0.020360064 -0.034242544 0.016114056 -0.117001586
-0.05315515 -0.011061552 -0.11197636 -0.12182807 0.08788568 -0.032356296 -0.010033879 0.14693609
0.0023854382 -0.07006607 -0.012959185 0.015834823 -0.05199507 -0.021455714 0.013400202 0.011198606
-0.006312087 0.01600109 -0.037954535 -0.021880833 0.0113676125 -0.06828775 -0.0018872861 0.035427913

net.7.bias f4 [150]
00000000: 9c6d 843d dbb7 0f3a 4a56 533c 50ae 133d
00000010: 7e4f 9bbb edee e3bb 2e90 99bd 5af0 113c
00000020: c455 923d b398 fcbc acd4 a63c b53a 813b
00000030: b085 483c a14a b33d dcd7 cfba ca54 19bd
00000040: ee78 173d e3b5 853d e729 20bc 6cb8 953c
00000050: b357 1c3d 5fb4 f9bb 8cf6 d93c ec65 f7bc
00000060: 11c0 c03c 5b56 f9bc ad4e 153c c2a7 583d
00000070: d084 8e3c e9ad 293d 4cfd e23c 3da7 233d
00000080: c914 88bb 13c7 a63d 19c0 323b 5847 76bd
00000090: ecfd 86bc e066 c7bb 71fe fabc b6d1 c53b
000000a0: ad1d 1dbd 125d 56bd 978b 913c a0f1 173b
000000b0: aefe bf3c a98d 0bbd 1f88 563d c886 d5bc
000000c0: 3e88 4e3d 8dde 6abd dd72 5ebd ca4d 953c
000000d0: 658c 58bb cc73 82bc b5b1 713d 8df4 6a3d
000000e0: a65b 713c d6c8 4cbc 55e7 04bc 7392 0fbd
000000f0: f03d aebc 6207 3fbc 6066 8d3d e895 7a3d
00000100: e8ed 8ebd 2a7f 2a3d cdc9 32bb e80f 113c
00000110: b7af ba3c 14a8 3dbd cea3 3d3d 74f7 9e3d
00000120: ba23 dc3c 7a0f 37bc dd97 9dbc 2453 3dbd
00000130: 8bc2 13bd f92d c03d 0082 c83c 0740 35bc
00000140: 52a8 2f3d d5af 6dbd 159b 9cbb 43fd a5bc
00000150: be6c 73bd 37c5 693d e957 6dbd 8b7a 203d
00000160: e6c6 61bd 9f6d 873d 06a1 ebbc 6582 6d3d
00000170: 7959 803d d0f4 9fbc 4d9c 51ba ef5f b53c
00000180: 035d 67bc a31c 413c 49e6 aebc a00f 1dbb
00000190: c091 14bc 4d18 b7bc 82bb 9abc 39ef 75bd
000001a0: 5f66 fd3c 2ca5 d53c 4542 dc3c c5a8 aabd
000001b0: db1d 493d 6b22 173d b7cd ae3d c2c3 b83d
000001c0: 3fb8 713c 71c7 55bd b8ec ba3d 4e4b df3c
000001d0: 271a 1dbd 7038 4fbd fd23 cabc e83d 033d
000001e0: bec3 bbbc bd6b 893d 348f 5cbc 565f 183d
000001f0: b7b0 b83c cb1c 3cbc 9694 733d 86e6 153d
00000200: d765 efbc 8b95 d83a 010a 2e3c 8349 833d
00000210: f854 d9bc 64f3 883d 4dcc 54bc 0722 963c
00000220: 3c28 6a3d df89 44bd c6a4 92bb 82c4 f5bc
00000230: 413e a13b 3dbe 17bd cd59 21bc c479 b8bb
00000240: 2c1d ca3b 703d 6abd 039a a43c dd68 e6bb
00000250: e90b b03c 48d2 b8bc
0.06466219 0.00054824137 0.012898991 0.03605491 -0.004739701 -0.0069559724 -0.07498203 0.008907402
0.07145265 -0.030834531 0.020365082 0.003943766 0.012238905 0.08754469 -0.0015857178 -0.037434377
0.036980562 0.06528833 -0.009775615 0.018276416 0.038169574 -0.007620379 0.02660682 -0.030199967
0.023529084 -0.030436685 0.009112996 0.05289436 0.017397314 0.04142562 0.027708672 0.039954413
-0.0041528684 0.08143439 0.0027275144 -0.060126632 -0.016478501 -0.0060852617 -0.030638905 0.0060369624
-0.03835838 -0.052334853 0.017766757 0.0023184791 0.02343687 -0.034070645 0.05237591 -0.026065245
0.0504229 -0.057341147 -0.05430876 0.01822557 -0.0033042666 -0.015924357 0.059007365 0.057362128
0.014731323 -0.012499055 -0.0081117945 -0.035051774 -0.021269768 -0.011659475 0.06904292 0.061178118
-0.06978971 0.04162518 -0.0027280927 0.00885389 0.022788865 -0.04630287 0.046298794 0.07762042
0.026872505 -0.0111731235 -0.019237453 -0.046221867 -0.036074203 0.093837686 0.024476051 -0.011062629
0.042885132 -0.058029015 -0.0047792294 -0.020262366 -0.059429877 0.057072844 -0.057945166 0.039179366
-0.055121325 0.066127054 -0.028763305 0.057985682 0.062670656 -0.019525915 -0.0007996008 0.022140471
-0.014121297 0.011786613 -0.021350043 -0.0023965612 -0.009067953 -0.022350455 -0.018888239 -0.060042594
0.030932603 0.026079737 0.026887069 -0.083329715 0.049100738 0.036898058 0.08535331 0.09021713
0.0147534 -0.052192155 0.09127182 0.027257588 -0.03835502 -0.050590932 -0.024675364 0.03204146
-0.022920486 0.067100026 -0.013461877 0.037200294 0.022545202 -0.011481474 0.059467874 0.036596797
-0.029223366 0.001652406 0.010622502 0.064105056 -0.026529774 0.06687048 -0.012988162 0.018326772
0.057167277 -0.047983047 -0.004475209 -0.030000929 0.0049207513 -0.03704666 -0.00984807 -0.00562975
0.0061680283 -0.057187498 0.02009297 -0.0070315436 0.021490054 -0.022561207

net.9.weight f4 [10, 150]
00000000: 9263 70bb 5ef4 87bd 55c1 85bd 27ad 4e3d
00000010: 8334 5b3e f0df 53be 566b b3bd 8ea4 c33b
00000020: 9932 b6bd 255a aebd 4125 2cbd 1d5a e4bc
00000030: e5b0 433a 2ef4 043e 09f0 fabd be2c 58bd
00000040: 33a0 b63c f14f 9abc 80bf 3ebe 2751 54be
00000050: c9ba 8abd 4486 87bc 2352 2e3e 3677 3e3c
00000060: 7fce bf3d 1ee2 ff3d e6d8 083d fd0f b13d
00000070: 315c 1a3e 77be 45be 98d9 f63d e950 043e
00000080: 7d46 8e3d ce91 d3bd efc2 67bd cd89 7c3d
00000090: 967e 89bd 8417 c33d 4c90 da3d e3ac 623a
000000a0: 0e95 233c 3351 503a eba7 88bd 8fc7 4e3c
000000b0: 3e42 793e 2bac a13d 9841 21bd 826d b43c
000000c0: de02 e43d d8fb 50bd 93fb e03a 105e 623e
000000d0: e1d4 393d a18c 9f3c 3226 8cbd 7cd5 6abe
000000e0: be7d 373c 3f55 08bd bb42 f13d 8bc0 19bd
000000f0: f2b0 b03d 7c50 b93d 0fe6 5bbe fc59 50be
00000100: a797 0b3d 860f 653c a232 2dbd 2494 23be
00000110: ce37 21be f672 47bd 4fc0 893d 8a65 7f3d
00000120: 9266 f03a 6a82 64bd c8de ad3d f341 54bd
00000130: ef30 e93c ef5a b5be 370b 18be 1a02 6abc
00000140: 3125 e2bc ac1e 173c e509 33be b8d0 583e
00000150: e5cf 343d 7321 2cbe 722a 083c f54f 03bd
00000160: c6ad 4d3d c79c a3bc 703f ddbc 0016 3c3e
00000170: d9a9 0e3d 27c5 273e 4131 0cbb 9136 97bd
00000180: 783d df3b 37bb 66bd 8081 18bd e28e 0bbd
00000190: 5b47 5ebc ef53 49bd 28a8 23bd f581 8a3d
000001a0: 7c27 0a3e 56f0 25bd fa2a a63c e413 a9bd
000001b0: b1e6 a7bd a798 40be be25 20be 8f0e 2c3e
000001c0: 0800 58bb d1a1 1ebb 90f1 98be 9de3 043d
000001d0: 2bca 373d 4097 febc cf5a 6dbe 3e92 a7bd
000001e0: 448a 6d3c 704a 523d 15a2 703b 6c73 abbe
000001f0: f530 69bc 7497 d53d 0892 8ebe d805 74be
00000200: 96cf 9d3d af07 99bd b368 a33d 6a0e 58be
00000210: 2c95 9a3d 93de 23be d449 76bc 6ea2 37bc
00000220: 3406 d03d 0d32 febc fd71 50bd 18f1 3b3d
00000230: 09f4 aebd 62ed 0f3e 4b2e 3d3e 164d 3e3d
00000240: 65c3 4abd a846 533d bc41 1e3e 8d3f 423c
00000250: c691 d2bd 60af 4ebe f0c1 ab3d bef3 b8bb
00000260: c8f0 45bd ab11 15be 95da 143e fdf0 083e
00000270: 83cd f03b a8f0 913d c53a 82bc 81f3 093d
00000280: 4914 e9ba 0c42 503e fb6b b93d 1423 5fbd
00000290: 4c8a 363e e6c7 09bd 3c3e 06bd 36ba 5fbe
000002a0: c292 103e b98f 303c b1b2 9dbd 7d4c 83bd
000002b0: ee30 16bd da58 c2bd 30b0 f4bc 6ad4 b5bd
000002c0: ebc4 dabc 654c 553e dd6f b6bd 0031 a93d
000002d0: c5b3 7a3e 73c3 aebd c2ca 3abe 7846 3fbe
000002e0: ceeb a63c 04c2 5ebc 23fc 9a3d 4575 a13d
000002f0: 3818 3a3d 8192 583e b68c 5d3d c367 ad3c
00000300: fd2d 21bc d8b6 7cbd 3371 9e3d 2349 41be
00000310: d753 9ebd e6bb 2dbd cd8b dc3a ba0b ec3c
00000320: ee3e 9dbc a517 21bc 983d b93c 958f c73b
00000330: afa5 8bbb b601 9fbd a9d8 1abe cce6 f53d
00000340: f80c 913c 6285 63bd d312 96bc 53c2 6cbe
00000350: d54f bcbd 11d6 4bbe 3807 423d 228f 56bd
00000360: 97e7 f03c 4e96 39be 9f25 a43d e392 083d
00000370: 5caf 4bbe e5be 4fbe 56e0 ad3c c009 173d
00000380: a0e7 2ebe 1fd2 72bd eefe 7bbd 0c63 083d
00000390: cfd2 88bd 7889 26bd 3c0f 15be 8ea9 103d
000003a0: 1128 a13d 36e3 153e c1b4 963d 42d7 553e
000003b0: 1e43 683d 2997 8b3d aac4 76bd b408 1f3c
000003c0: a632 cbba 14ab dabc c9f5 5cbd 93f3 25be
000003d0: 4d09 423c c7fd 4fbc cd02 02bd bf7c f43d
000003e0: 53d8 203c 2382 df3b d265 873d 802d 0a3d
000003f0: c3be 533d b643 8ebc 4384 57be eb2a 7e3d
-0.0036680442 -0.06638406 -0.06531016 0.0504581 0.2140675 -0.20690894 -0.08760707 0.005970544
-0.088963695 -0.085132875 -0.042027716 -0.027875 0.0007465019 0.12983772 -0.12252814 -0.052777044
0.022293186 -0.018836947 -0.18627739 -0.20734082 -0.06773908 -0.016543515 0.1702352 0.011625102
0.09365558 0.124943 0.033409975 0.08645628 0.1507423 -0.19310938 0.120532215 0.1292149
0.06947038 -0.103305444 -0.056582388 0.061654855 -0.067135975 0.095259696 0.10672054 0.0008646978
0.009984268 0.000794667 -0.06672653 0.012620821 0.24341676 0.078941666 -0.039369196 0.022024874
0.111333594 -0.051021427 0.0017164819 0.22106194 0.045369033 0.019476237 -0.06843223 -0.22933
0.011199413 -0.033284422 0.11780306 -0.03753714 0.086275 0.09048554 -0.21474479 -0.20346826
0.034080174 0.013980752 -0.042284615 -0.1597448 -0.15743944 -0.04869362 0.06726133 0.062352695
0.0018341115 -0.055788435 0.08489758 -0.051820707 0.028465716 -0.3542094 -0.14848028 -0.014282728
-0.027605625 0.009223621 -0.17484243 0.2117337 0.044143576 -0.16809635 0.008310901 -0.032058675
0.05021455 -0.019972218 -0.027007788 0.18367767 0.034829948 0.16383801 -0.0021391662 -0.073834546
0.0068127476 -0.056330886 -0.037232876 -0.03407181 -0.013566817 -0.04915231 -0.03995529 0.067630686
0.13491625 -0.040512405 0.020284165 -0.08255747 -0.08198298 -0.18808232 -0.15639398 0.16802429
-0.0032959003 -0.0024205337 -0.29871798 0.03244363 0.044870537 -0.031077981 -0.23179172 -0.0818219
0.014498297 0.05134052 0.0036717702 -0.33486497 -0.014232864 0.10429278 -0.27845788 -0.23830354
0.077056095 -0.07472169 0.07978954 -0.21099249 0.075479835 -0.16002874 -0.01503225 -0.01120816
0.10157433 -0.031029725 -0.050889958 0.04588422 -0.0854264 0.14055398 0.1847469 0.046460234
-0.04950275 0.051581055 0.15454763 0.011855972 -0.1028171 -0.20184088 0.083866 -0.0056442907
-0.04832533 -0.14557521 0.14536507 0.1337318 0.0073487177 0.0712598 -0.015897164 0.03367949
-0.0017782535 0.20337695 0.09053799 -0.054476812 0.17826194 -0.033637904 -0.032774195 -0.21848378
0.14118484 0.010776454 -0.07700098 -0.06411073 -0.036667757 -0.09489603 -0.029869169 -0.088784054
-0.026705226 0.20829923 -0.08908055 0.08261299 0.24482639 -0.08533373 -0.18241408 -0.18679225
0.020376112 -0.013596062 0.075676225 0.078836955 0.045433253 0.21149637 0.05408927 0.021167642
-0.009837625 -0.06169781 0.07736435 -0.18875556 -0.07730835 -0.042415522 0.0016826332 0.028814185
-0.019195046 -0.009832297 0.022612378 0.0060901144 -0.0042616944 -0.07763998 -0.15121712 0.12006912
0.01770638 -0.055547126 -0.018319523 -0.23121004 -0.09194914 -0.19905879 0.047370166 -0.052382596
0.029407306 -0.18123743 0.08014988 0.033343207 -0.19891113 -0.20287664 0.021225136 0.036874533
-0.17080545 -0.05928242 -0.061522417 0.033297583 -0.066808335 -0.040658444 -0.14556593 0.03531795
0.0786897 0.14637455 0.07358695 0.20882896 0.056704633 0.06815941 -0.060246147 0.009706665
-0.0015502765 -0.026692905 -0.053945336 -0.16206197 0.011843038 -0.012694783 -0.031740952 0.11937856
0.009817201 0.0068209334 0.066112176 0.0337348 0.051695596 -0.017366271 -0.21046548 0.06205265

net.9.bias f4 [10]
00000000: 85a4 66bd fa8c 2dbd 14c9 383d 0af1 7abd
00000010: 1ca9 243d 5f20 49bd b49f f8bc 4683 a1bd
00000020: 16c3 53bd 5c17 203a
-0.05630924 -0.042370774 0.045113638 -0.06126503 0.040200338 -0.049103137 -0.03034959 -0.078863665
-0.05169972 0.00061069964
