result/model_19_2.pth (torch, 307183 bytes, 8 tensors)

net.0.weight f4 [20, 1, 4, 4]
00000000: 5cf9 e73e d7cf 103f 2277 473e 5849 e93e
00000010: 943e 7c3d 7a19 23be 0597 debe cecd 733e
00000020: a567 7c3d 26f1 b2be 572e bc3e 116a 763e
00000030: 9852 853e d209 9e3e 59b2 ac3e c916 19be
00000040: 2beb da3e 299e 903e f070 ca3d 8669 853e
00000050: e9b0 d8bd ac60 8f3c 25b4 43bd acd9 493e
00000060: 06e3 8ebe 0269 66be 7278 74be a988 57be
00000070: 320c b4bc af0f 95be c271 953d 978e 4dbe
00000080: 4956 633e 63d5 a8bc 9312 e3be d400 95be
00000090: 1efa 223e 106b 423f 4a1f b43e 78d3 d8be
000000a0: 5eab 63be 8455 5b3e 6d48 263f 1369 463e
000000b0: 8d3d 53be 8530 8ebe 1151 613e 40da 853e
000000c0: a8f1 ec3d a917 68be a074 c8be 775f 05be
000000d0: deb9 1ebe c51f 983e a3cf 4b3e 870e 963e
000000e0: 6b99 0e3e 57f0 0f3e 6957 963e 9ee8 c1bd
000000f0: 9062 063c 84b4 6ebe 3b3a 26bd 3a93 a5bd
00000100: 72bc 6f3d dc6b ae3c 9b6a 8f3e 4b64 d2bd
00000110: a59e 49be 4ca7 30be edb8 3e3e 1f93 983d
00000120: f33e 703e d975 79be 1a5e b8be 87c4 93be
00000130: 7daa 0dbe 7b69 183e e821 153e 1955 853e
00000140: 5520 39be 933c a7bd 85dd 4d3e 6c83 3fbe
00000150: f426 d43d 9584 d53d de39 593e dd1a 9fbe
00000160: 4970 67bd 54e6 a03e 5310 84bc 2e87 66be
00000170: 5bb2 963e 36ac ab3e e81a 9dbe 0a8f 91be
00000180: 1de2 a33e 8924 303c aca6 1ebd 4ea5 6abe
00000190: b2ce eebd fb96 53bd fb4b 25be 58f8 31be
000001a0: 8ad2 8cbd a210 9cbe 0cfe 9abe 68d7 0c3b
000001b0: b5ff 37be 0811 09be 791e a13e 261c 8b3e
000001c0: 4fea d23d 096e 4ebe 3b79 0fbe 7682 81bd
000001d0: d402 203d ed28 54be b03f fabd 8884 2dbe
000001e0: a1a6 1cbc cc9e 04be afd2 a1bd d1c4 50be
000001f0: 56ae 09be 55bb 06be e561 cbbd ce39 3bbe
00000200: 0183 aa3e 7a23 b43d 53ec a83e 64ba 4f3e
00000210: ce27 47be 9dcd 493e 19d2 83bd e9b1 69bd
00000220: 2e72 92be 4805 adbe 012a 7bbd f25a ccbd
00000230: bc24 773d 7ece 6ebe d25a c83d 40f3 42be
00000240: 7c7c a6bd 47d4 893d 91d3 5c3e d438 af3e
00000250: de63 823e 4830 83be 1d31 293e d6c0 35be
00000260: d19f f4bd ab17 53be b991 ab3e a0ec a2be
00000270: 5ee4 8abc 5359 6d3d 4bf7 943d 4378 65be
00000280: daa2 e03e f24e c23d 10e5 333c fce8 4ebe
00000290: 6491 c63e 4fcb d1bc 7f32 3bbe c6e0 543e
000002a0: e4ce 963e 10ba 23be a680 80be 5cb2 ecbd
000002b0: c715 7a3e d861 a2bd ab5e 7bbe 6ee3 44be
000002c0: 18ac 81be e85a 933e f826 7b3e 2d20 bbbe
000002d0: 1073 c33c 1028 c23e a06f 883c 68e1 8dbe
000002e0: 3270 593e c63c a13e 7bd1 663b 2409 6cbe
000002f0: 8e26 97bd c475 193e 32ad 9bbd aa0c 4abe
00000300: ca98 553e aeb7 8f3e cea7 c83b 4379 54bd
00000310: 94a2 53b7 11c6 543d 396f 273e 3d16 353e
00000320: a0e7 9cbe cf12 13be 89e3 393e 83cb 073e
00000330: ffd8 a4bd adc2 6abe 4c65 80be 5d1b 94be
00000340: 1590 4abe 06ca ef3a c201 863e a51b 973e
00000350: 8402 c0be 4b9a 9abe d4f9 90bb 22dc f73e
00000360: ccc3 ebbd e02d 64be 2f1e 0e3e 33fe d13d
00000370: 06a0 8cbe 117c 913d 4612 85bd 0562 ae3d
00000380: f1db 5ebe 053d 713e 7031 8a3e 2caa 1f3e
00000390: f86a 26be d1c2 4cbe aac8 c8bd f5f6 ab3e
000003a0: db5b 143e 081a 8a3e 0d94 f13d 46fe 363d
000003b0: 58ba 2fbc 40f8 6dbe 3ed0 9bbe 9f04 95be
000003c0: f10e 273e 6251 a2bd fde6 04bc 78ac cabd
000003d0: 058a 2ebc 24e0 12be f4ee 38be aeae 043d
000003e0: c7fe 59bd 94dd 953d ff75 26be cccc 4dbe
000003f0: 8416 a33c 25d4 b3bd 4a61 8cbd e322 52be
0.45307434 0.5656714 0.1947904 0.4556377 0.061583117 -0.15927687 -0.43474594 0.23808977
0.06162228 -0.34949607 0.36754104 0.24063899 0.26039577 0.30866867 0.33729818 -0.14950098
0.42757544 0.28245667 0.09884822 0.2605707 -0.10580618 0.017502151 -0.04777922 0.19711941
-0.2790758 -0.22500995 -0.23874071 -0.21048225 -0.021978471 -0.29113528 0.07297088 -0.20073925
0.22200884 -0.020609563 -0.44350109 -0.29102194 0.15915725 0.75944614 0.35180122 -0.42348838
-0.2223334 0.2141934 0.6495426 0.1937602 -0.20628949 -0.27771392 0.2200358 0.26143074
0.1156953 -0.22665276 -0.39151478 -0.13024698 -0.1550059 0.29711738 0.19903426 0.29307958
0.13925712 0.14056526 0.29363564 -0.09468196 0.00820221 -0.23311049 -0.040582877 -0.08084722
0.058529325 0.021291666 0.2801102 -0.102730356 -0.19689424 -0.17251319 0.18625231 0.07449936
0.23461513 -0.24361362 -0.36009294 -0.28860876 -0.13834567 0.14883988 0.14563715 0.26041487
-0.1807874 -0.081658505 0.20104034 -0.18702477 0.10358992 0.10425679 0.21213481 -0.31075183
-0.056503568 0.31425726 -0.016121065 -0.22512504 0.2943295 0.33529824 -0.3068459 -0.28429443
0.32008448 0.010750898 -0.03873317 -0.22914621 -0.11660518 -0.051657658 -0.16142265 -0.17379892
-0.06876095 -0.3048144 -0.30271947 0.0021490697 -0.17968638 -0.13385403 0.3146856 0.27169913
0.10298597 -0.20159163 -0.1401109 -0.063237116 0.039065197 -0.20718737 -0.12219179 -0.16945088
-0.009561212 -0.12951201 -0.07901513 -0.2038758 -0.1344541 -0.13157399 -0.09930781 -0.1828377
0.33303073 0.08795829 0.329928 0.20285946 -0.19448778 0.19707341 -0.06436557 -0.057054434
-0.28602737 -0.33793092 -0.061319355 -0.09978284 0.060337767 -0.23320958 0.097829476 -0.19038105
-0.08129212 0.06729942 0.21565081 0.34223044 0.25466818 -0.25622773 0.16522641 -0.17749342
-0.11944545 -0.20614497 0.33509615 -0.31821156 -0.016954597 0.057946514 0.0727373 -0.22409157
0.43874246 0.09487714 0.010979906 -0.20206064 0.387828 -0.02560964 -0.18280981 0.2078887
0.2945472 -0.15988946 -0.2509815 -0.11557457 0.2442237 -0.079288185 -0.24547832 -0.19227383
-0.2532661 0.28780293 0.24526584 -0.36547986 0.023858577 0.3792119 0.01665479 -0.27711034
0.21234205 0.3149168 0.0035220075 -0.23050362 -0.073804006 0.1498633 -0.07601394 -0.19731393
0.20859066 0.28069824 0.0061235195 -0.051873457 -1.2614433e-05 0.051946703 0.16351022 0.17684264
-0.30645466 -0.14362644 0.18153204 0.13261227 -0.08049201 -0.22925825 -0.25077283 -0.28927127
-0.19781525 0.0018294461 0.26173216 0.2951328 -0.3750192 -0.3019584 -0.004424313 0.48410136
-0.11511955 -0.22283125 0.13878702 0.10253563 -0.27465838 0.07103742 -0.06497626 0.085147895
-0.21763588 0.23558433 0.26990843 0.15592259 -0.16251743 -0.19996192 -0.09803899 0.3358685
0.14488165 0.26972985 0.117958166 0.044676088 -0.01072558 -0.23239231 -0.30432314 -0.29105088
0.16314293 -0.07925679 -0.0081117125 -0.09896177 -0.010653024 -0.14343315 -0.18059903 0.03239315
-0.05322149 0.07317653 -0.1625595 -0.20097655 0.019908197 -0.08780698 -0.06854494 -0.2052112

net.0.bias f4 [20]
00000000: afb0 633e fd2d dfbd 2aec e33e 358c 0e3e
00000010: 2a03 c8bd 2d2c d6bd 8ce9 d2be a9b2 b2be
00000020: 442d 18be b635 9b3d 1f6a 7d3e fd14 183e
00000030: 00f7 f2bd 9209 f2bd 3e5e 043e 5dd1 bfbe
00000040: ce35 193d 00dd f93d ed03 d1be 039e 0a3e
0.22235368 -0.108974434 0.44516116 0.13920672 -0.097662285 -0.104576446 -0.41193807 -0.34901932
-0.14861017 0.07578604 0.24747513 0.14851756 -0.11863518 -0.11818232 0.12926576 -0.3746442
0.037404828 0.122003555 -0.40823308 0.13536839

net.3.weight f4 [40, 20, 5, 5]
00000000: 2a0d 13bd 62ce 93bd 7ca8 38be 6ff6 58be
00000010: a23a 3cbe f1ac 003d 63fe afbc c45c e7bd
00000020: 646e 8dbd 7df7 03bd 84a3 da3c c5bc 2eba
00000030: 9b77 193e f7fb 08bc d49b 20be dff7 92bd
00000040: 6159 833c fdbb ac3c 99c5 75bd 8d62 1dbd
00000050: fc9d 8dbc 8bd0 04bd 4d67 8eba 81d5 9dbc
00000060: 509c e4bd fd68 803c 5c2d 8cbb 85ce b8bd
00000070: 2ff8 c9bd a2fc f8bc c18d ae3b f41a 65bd
00000080: 8a2f 00be e222 5ebd ff87 23bd 701a d3bd
00000090: 36e0 d6bd 0b05 26ba c011 7d3c bf1f 7dbd
000000a0: f564 923c dc26 adbd beba 7abc 1766 3a3d
000000b0: 162b b03c f39e 693d 9ff6 8dbc 0710 e23c
000000c0: a4cb 973d 93d0 363c 15cc f43c b507 f43b
000000d0: be77 8f3b 2519 c93c 50f7 853d b140 21be
000000e0: b9ef 76be 4d2d 70bd 4f74 643d 3c7c e23c
000000f0: 1a5d 99bd d7f7 65bb 843e 713d 0015 343c
00000100: 77ff 74bd 6c22 013e fa17 263e 1b40 b23d
00000110: 4f62 6dbd 6699 abbd 2ef5 cb3d 9f9c 023e
00000120: ba59 ab3d c953 8dbc 8e79 693b 3030 cc3c
00000130: 7b6f 2a3d 1ba2 ca3d 746e 093e fd68 bb3d
00000140: baa8 243d a416 a13d 769b 053e d578 253e
00000150: cc81 c23d 7b16 07bd 8c42 ebbc 3b3a 273c
00000160: 7e85 983d bb68 ac3d f0d9 e6bd c3e4 a03d
00000170: 863b 2b3e b182 1a3e 8067 673c 6228 0ebd
00000180: 9801 2f3d c56c c53d 94b7 6d3d 5bdb dbbc
00000190: a41b 503d 48ab 433e 8b48 5b3e 544d 043e
000001a0: 053c ce3c a792 503c 98a2 4e3b 107a 0a3c
000001b0: c275 d93d f1fd d53d 130f 57be 81d2 5abd
000001c0: 4b32 a73d 4f56 533e 8c47 cb3d 9855 5fbd
000001d0: b365 173e 0870 933e 7c5f 0f3e 6547 03bd
000001e0: 2165 3f3d 3569 103e b7df c53d 0689 5dbc
000001f0: a14c cabd e930 963d adf2 54b9 fda5 bbbb
00000200: b72e 873d 70ba bc3d cf57 673e a369 4c3e
00000210: 0c8d 203d caa7 fb3c ba5c 2b3d 55d4 e63d
00000220: e74f 803d c212 0cbe 0cb0 463c 216e 213d
00000230: f418 4cbe 803e 87be f1aa 1fbe db6f 7bba
00000240: cb16 953c e913 31be 5468 28be bf69 d8bd
00000250: 5641 bc3c 59d5 aa3d b085 083d 257e 093d
00000260: 000e 2d3d 3930 3d3c ccae 8f3a c079 e43c
00000270: bd43 503d 872c cb3c dbb8 6bbd 3f24 8cbc
00000280: b76d 0abd e7e3 05be df99 cdbd eed4 dcba
00000290: d3f3 3f3d 4a0a 47bd 147e 3abe 68f4 f8bd
000002a0: 29a6 45bc 9891 6f3c da3e 54bc 3938 93bd
000002b0: 00c0 7d3b 7d44 a2bc 134c e6ba 4cd2 80bc
000002c0: f51b 583d ba91 12bd 50f9 063d ba3d 8a3c
000002d0: abe3 8a3b 13b0 233b e2ae 4bbd 72f9 1a3b
000002e0: bb47 4c3d 5f6b 3abd 935f 65bd 2dd8 a4bd
000002f0: 4059 88bb 6fa2 df3c d34f 013c 0794 84bd
00000300: 34c7 6fbd 689a 093d 3169 413d fbc4 263c
00000310: 5474 34bd b335 6ebc 99d7 debc 3381 7f3d
00000320: a4af dabd 0057 1ebe 96de 44be 7635 cbbd
00000330: ff3d 963b 5b7f ccbd 2336 05be be9e 7abd
00000340: 98c3 813c 82cb 0b3d 5c59 65be ecd8 38be
00000350: b5ae 15bd 61e4 1d3d 7b15 d3bb 8ef1 04be
00000360: 1106 83bd cc3d 9a3d c3e5 bd3d 3ebd c33d
00000370: 54a5 073d 551d da3d a379 f33d 8e47 843d
00000380: 58c9 5e3c 7d1a 94bd b7c5 0ebe 4aa7 25bd
00000390: 97f3 99bd 046b a0bd 6eac cc3d b2ab b43d
000003a0: 282a e83c fc1e d83d e6b9 bf3d 2d9e 043b
000003b0: b195 e23d 9a60 d93d 0569 723d 9f91 1a3c
000003c0: 2fc4 b9bd 56ba 01be 4fcf 443d f788 e33d
000003d0: 06cc 803d 677c 6dbc 017e 0c3d e390 963d
000003e0: 1abf 2b3d 3225 d93c 386c bd3c 9cd8 acbd
000003f0: c44d aabd ae8e e8bc 5843 3fbd 03db 343d
-0.035901226 -0.07217099 -0.18033022 -0.21187757 -0.18381742 0.03141493 -0.021483606 -0.112969905
-0.06905821 -0.032218445 0.026689298 -0.0006665702 0.14987032 -0.008360854 -0.15684444 -0.07176184
0.01603383 0.021085734 -0.060002897 -0.038424063 -0.017287247 -0.032425445 -0.0010864526 -0.019266846
-0.11162627 0.015675062 -0.004277868 -0.090237655 -0.098617904 -0.030393902 0.005326957 -0.055933908
-0.12518135 -0.054232486 -0.039924618 -0.10307777 -0.104919836 -0.0006333149 0.015446126 -0.061797854
0.017870406 -0.084546775 -0.015303312 0.045507517 0.02150492 0.05703635 -0.017329512 0.027595533
0.07411888 0.011158126 0.02988247 0.007447208 0.004378288 0.024548123 0.06541312 -0.15747334
-0.24114884 -0.058636952 0.055774983 0.02764713 -0.07488461 -0.003509035 0.05889751 0.010991335
-0.059813943 0.12610787 0.16220084 0.087036334 -0.057955083 -0.08378868 0.09958874 0.12755059
0.08366723 -0.017251866 0.003562543 0.024925321 0.041610222 0.098942004 0.13421041 0.09150884
0.040199973 0.078656465 0.13047585 0.16159375 0.09497413 -0.032980423 -0.028718255 0.010206754
0.074473366 0.08418413 -0.11272037 0.07856133 0.16721925 0.15088917 0.014123797 -0.03470648
0.04272613 0.09639887 0.058036402 -0.026837995 0.05080761 0.19108307 0.21414392 0.12920123
0.025175104 0.012730277 0.003153002 0.0084519535 0.10618164 0.10448826 -0.21001844 -0.05342341
0.081638895 0.20638393 0.09925756 -0.054524988 0.14784889 0.2879641 0.14001268 -0.03205051
0.046727303 0.14102633 0.09661811 -0.013521438 -0.09877897 0.073335476 -0.000203083 -0.0057265745
0.06600707 0.09215248 0.2259209 0.19962172 0.039197013 0.030719656 0.041836478 0.11270968
0.0626524 -0.1367903 0.012126934 0.039411668 -0.19931394 -0.2641487 -0.15592553 -0.0009591558
0.018199345 -0.17292751 -0.16446048 -0.105670445 0.022980373 0.08341474 0.03333062 0.033567566
0.04224968 0.011547142 0.0010962128 0.027890086 0.05084585 0.024801506 -0.05754934 -0.017107127
-0.03379604 -0.13075219 -0.10039114 -0.0016848126 0.04686339 -0.048593797 -0.18212157 -0.12155992
-0.012063541 0.014622115 -0.012954438 -0.07188458 0.0038719177 -0.019808048 -0.0017570279 -0.015725277
0.052761037 -0.035783507 0.032952607 0.016875137 0.004238566 0.0024976775 -0.049727328 0.0023647216
0.049873095 -0.045512553 -0.05599935 -0.08049045 -0.00416103 0.027299134 0.007892567 -0.064735465
-0.058539584 0.03359452 0.04721946 0.0101788 -0.04405625 -0.01453917 -0.027202414 0.062379073
-0.10678032 -0.15462875 -0.19225535 -0.09922306 0.004585027 -0.09985229 -0.13008933 -0.061186545
0.015840337 0.034129627 -0.22397369 -0.18051499 -0.036543567 0.038547877 -0.0064417697 -0.12982771
-0.063976415 0.07531318 0.09272339 0.095575795 0.033116654 0.10650126 0.11888435 0.064589605
0.013597809 -0.07231615 -0.1394261 -0.040442742 -0.07517164 -0.078329116 0.09993826 0.08821811
0.028340414 0.10552785 0.09361629 0.0020235882 0.110637076 0.106141284 0.059182186 0.009434133
-0.09070622 -0.12668738 0.048049267 0.11110108 0.062889144 -0.014494992 0.034299854 0.07351854
0.041930296 0.026506994 0.023122892 -0.084397525 -0.08315614 -0.028388347 -0.046695083 0.04415418

net.3.bias f4 [40]
00000000: 1b3a 4b3d 4a95 6d3c 3c86 583c a168 f1bc
00000010: 092d 00bd 6650 ec3c f714 3abd fc86 ae3c
00000020: 5363 1ebc f72f 30bc 22a3 9a3c 61a9 4b3d
00000030: 0e86 3abd 2611 b33b 0b8a 2dbb cab4 eabc
00000040: 826e cfbc b4a9 c13a 9363 43bd 9f4e 8fbb
00000050: 7b32 d33c 68a7 e2bc 2e3e 813b 1b37 8c3d
00000060: 3353 b3ba 0e8f cbbc 67fb 8fbc 29c2 e7bc
00000070: c247 523d 4b6b 04ba cea4 513c a392 2a3d
00000080: e902 87bc 1c52 ec3c 96f8 9e3d d504 0c3c
00000090: 1c98 353c 9d16 3ebd e6c1 e13c 694c a7bc
0.04961596 0.014500925 0.013215598 -0.029468836 -0.03129295 0.02884693 -0.04543015 0.0213046
-0.009667235 -0.010753623 0.018876616 0.04972208 -0.045538 0.0054646907 -0.0026479985 -0.02865066
-0.025321249 0.0014775307 -0.047702383 -0.004373386 0.025780907 -0.027667716 0.00394418 0.06846448
-0.0013681412 -0.024848487 -0.017575933 -0.028290825 0.051337965 -0.0005051388 0.01279564 0.04164375
-0.01648088 0.028847747 0.07762258 0.008546074 0.011083629 -0.046408284 0.027558278 -0.020422177

net.7.weight f4 [150, 360]
00000000: 0244 c2bc f56f a13d 6b2a a13d 108c 56bd
00000010: 923b 9a3c 431f 80bd d24a c23b e618 723c
00000020: c95a babd 9826 653d 4525 b13d 64d6 5a3d
00000030: 727f 1e3d 714d debc 8564 c23b 5071 a33d
00000040: a8f6 f43c 64cb 823d dc74 373d c6db 42bd
00000050: 4559 f43c badc 9dbd ddc9 20bd c909 5d3c
00000060: 57a5 213c 8bde c63d e8ca 95bc 00e0 11bc
00000070: 31b4 1d3d e3d1 c9bc 3aec 0c3c 8a66 55bd
00000080: 35db 063d c0a7 42bd d1cb 1a3d a8f0 8fbb
00000090: 869d 813c e14a ec3c bd53 1c3c bb36 bb3d
000000a0: 40ca 913c 9c0e 3a3d 3086 823d 3a91 653b
000000b0: 0131 bc3c 6d68 1f3c e905 26bd 42f7 f63c
000000c0: 386e 0fbb 81e1 163c 56e9 273d 9d0b e4bd
000000d0: 0169 17be b0b6 dbbd 7a61 853c 88e6 023c
000000e0: 079e ee3c ecb6 053c 10be 11bc 9e40 ad3c
000000f0: 6ddb 053d f9a7 7cba be5a eb3b fc5c 68bd
00000100: 9b73 37bd 85c1 3e3d 0916 4e3d f8fb c63c
00000110: 6021 713d a19e 313c 7db8 503c 8d13 ccbd
00000120: 799e 9dbc d506 bcbd 6432 c13c fae0 693c
00000130: 4c4f 1fbd cb99 8e3c 3130 a2bd 27e7 e2bd
00000140: 9ce0 f5bd 6bb3 bc3d 8d49 313d 86f0 f03c
00000150: c640 513c ffd8 a43d 1a1a 893b d4e0 303d
00000160: a50e b23d ee64 de3d 161a 68bc 9f13 84bd
00000170: 6ef4 a33c ceea bb3c d578 a8bd 655a 9ebd
00000180: c645 5ebc eb35 80bd 2eb9 99bd e39d 43bd
00000190: c957 973d f8db 8d3d 109c 843c 8968 25bc
000001a0: b2d7 ae3d 48ad c1bd bf79 a3bd d736 65bc
000001b0: cac8 5dbc 3b7f 44bb fd46 3b3d ff29 f13c
000001c0: 071a 983d e2fe 75bc b831 703d b814 fc3c
000001d0: e589 213d 8cc1 a43d f146 bcbb 8efa 673d
000001e0: 9055 ce3d 48ba e9bc 3bf8 acbc c2e3 c8bd
000001f0: 7fc0 dfbd 84f5 2abe 208f fa3a 903f 133c
00000200: 0278 dc3d d063 323d 0698 94bc 1116 593d
00000210: 8daa 073d 42eb b83d cdec 803b db7a c9bb
00000220: fe6e 8a3d 3169 003e f15b 1abc e985 abbc
00000230: e23a 5a3d 88c3 713d 9248 74bd 693c 26bd
00000240: 35f3 2fbd 65b6 18bc 5ab4 e2bb c7f3 36bc
00000250: efe5 88bc 0a30 c03d 0581 a83c 6868 a6bd
00000260: a9bd 8a3c ba93 993d 4f07 103d 3545 df3d
00000270: 9c9a 81bc 2d16 51bd 631f 4bbd 8da4 cabc
00000280: 6eab 4dbb 7b17 2d3d 7773 063b 92cf b33b
00000290: 91fd ac3c 75d6 f5bc fc06 25bc aeca ebbc
000002a0: 0317 43bc 26c8 793c fcc8 db3c 4d67 19bd
000002b0: 2d36 9abd a9ad aabd 6d11 813c b4e8 8abc
000002c0: f5ec 5d3c 5e8e da3c 5cad 89bd 94ed 07bd
000002d0: 5e72 983d bf56 29bc 09cf 2a3d 974d 953b
000002e0: 930e ea3c 4c61 a53d 74fe 433c 4e3c 183e
000002f0: 4d58 c33d be31 21bb d3dd 2dbd 24b8 00bd
00000300: fa8a 2a3d 820c 963c d6b8 22bd 6a9d 19bd
00000310: c3ff 74bd 8a7d 023d e2a1 f53c 1d07 fc3b
00000320: bee8 913d 290a 19bc a9fc 3a3d 8217 5dbd
00000330: a794 15be 9d69 2a3d 6823 a3bb e05c 313d
00000340: ed4e 973d 9876 283d 327d e53c c90f e03c
00000350: 118f 943d b31f ac3c 4ce8 0b3d 0602 82bd
00000360: 564f b4bc cd09 68bd e3ae 703d 263e f13c
00000370: 9ddd ecba 0020 22bd d53e 42bd 79cb fabc
00000380: 2fb1 d4bd 5928 f8bc 701e afbc ef41 d33d
00000390: fc76 253c 2c76 293d 0e10 373d a08d dc3d
000003a0: b964 eb3c 12a4 87bc a404 20bd 299f 8cbd
000003b0: d94a 043d 57d5 1ebd dd24 c9bc 2b22 f63d
000003c0: 45ab 0bbd 9193 00be c3ae 8f3d 95d8 45bc
000003d0: 19d0 09bd 5ef9 34bc 5d8b 513d 99a2 543c
000003e0: d4c0 2b3a 5b5f 763c 7057 95bd 276a 76bd
000003f0: dc6d 073d c399 55bd 4314 bb3c 7388 e0bc
-0.02371407 0.07882682 0.07869419 -0.052379668 0.018827233 -0.06255963 0.0059293294 0.014776444
-0.09099347 0.05594501 0.08649687 0.053427115 0.03869576 -0.027136536 0.005932393 0.07980597
0.029902771 0.0638645 0.04478918 -0.047572874 0.029827723 -0.07708116 -0.03925501 0.0134911025
0.00986608 0.097104155 -0.01828523 -0.008903503 0.038501922 -0.024636215 0.008601243 -0.052099742
0.032923896 -0.04752326 0.03779203 -0.004392702 0.015822183 0.028844299 0.009541449 0.091412984
0.017796636 0.04542409 0.063732505 0.0035029189 0.022972586 0.009729487 -0.04053298 0.030147199
-0.0021885764 0.009209038 0.04099401 -0.111350276 -0.1478615 -0.10728204 0.016281832 0.007989533
0.029128088 0.008161288 -0.008895412 0.021148976 0.032679964 -0.0009638067 0.007182448 -0.0567293
-0.044787984 0.046571273 0.050313983 0.02429007 0.05886972 0.010841043 0.012739298 -0.099646665
-0.019240605 -0.091809906 0.023583598 0.01427483 -0.038893983 0.017407319 -0.07919348 -0.11079245
-0.120057315 0.09213909 0.043283034 0.029411566 0.012771791 0.08049201 0.0041840198 0.043183163
0.086941995 0.108590946 -0.014166376 -0.06449055 0.020014014 0.022939112 -0.08226172 -0.07732085
-0.01356644 -0.06260284 -0.07506023 -0.047757994 0.073897906 0.06926721 0.016187698 -0.010095724
0.08537234 -0.09456879 -0.079822056 -0.013990126 -0.013536641 -0.0029983062 0.045721997 0.02943897
0.07426839 -0.015014382 0.058641165 0.030771598 0.039438147 0.08044729 -0.0057457616 0.056635432
0.100749135 -0.028531209 -0.02111446 -0.09809066 -0.109253876 -0.1669522 0.0019116141 0.008987322
0.10765077 0.04355222 -0.018138897 0.05299956 0.033121634 0.09029247 0.003934479 -0.0061486787
0.06759451 0.12540127 -0.009421335 -0.020937877 0.05327881 0.059024364 -0.05963952 -0.040584955
-0.04295655 -0.00932083 -0.0069184722 -0.0111665195 -0.016711203 0.09384163 0.020569334 -0.08125383
0.01693614 0.0749888 0.03516322 0.10901872 -0.015820794 -0.05104654 -0.04959048 -0.024736667
-0.0031382698 0.04225872 0.00205156 0.005487391 0.021117004 -0.030009488 -0.010072466 -0.028783169
-0.011907342 0.015245473 0.026829235 -0.03745203 -0.075298645 -0.08333904 0.01575538 -0.016956665
0.0135452645 0.026679214 -0.06722519 -0.033185557 0.07443689 -0.010335623 0.04170135 0.0045563686
0.028571403 0.080751985 0.011962522 0.14866754 0.095383264 -0.00245963 -0.042447876 -0.03142561
0.041636445 0.018316511 -0.039727055 -0.037503637 -0.059814226 0.031858005 0.029984418 0.0076912777
0.0712447 -0.009340801 0.04565111 -0.053977497 -0.14607488 0.041604627 -0.004978586 0.043301463
0.07388101 0.041128725 0.0280138 0.027351277 0.0725385 0.02101121 0.034157082 -0.06348042
-0.022010487 -0.05664997 0.058760535 0.02944858 -0.0018071417 -0.0395813 -0.047423203 -0.030614601
-0.103853576 -0.030292677 -0.021376818 0.1031531 0.010099169 0.041372463 0.044693045 0.107692
0.028734552 -0.016557727 -0.039066926 -0.06866295 0.032297943 -0.038777675 -0.02455371 0.12018236
-0.034098882 -0.12556292 0.07015755 -0.012075563 -0.033645723 -0.011045782 0.051158298 0.012978219
0.0006551866 0.015037383 -0.07292068 -0.06015983 0.033063754 -0.05214859 0.02283681 -0.027408814

net.7.bias f4 [150]
00000000: 4637 ba3d f7fa 633b 6867 2f3c 2bd1 903c
00000010: 3101 e83c 233e 64bc 25ac 9cbd 8c14 393c
00000020: e8cf bd3d 6a5c 9cbc 88c2 b13c 90b6 89bc
00000030: 007b 5e3c 88d8 6e3d 5653 d8ba d123 47bd
00000040: 4f2c 953d 4ba6 643d f080 7bbc 8538 18bc
00000050: e1cd 0b3d 1c28 7cbc 0e30 683d 18e4 5cbd
00000060: d5a3 933c a636 febc 9283 0a3d 5ec6 473d
00000070: a1d6 263d f263 cf3c 6d38 a13c 2c98 643d
00000080: 3684 3b3c b226 f93c 7bc5 183b 7a24 6fbd
00000090: d777 f83c b98f b23c d63e a0bc 2154 10bc
000000a0: 9420 973c 092f 6dbd 459e 203d bc70 c03c
000000b0: f475 23bd 0080 393a 3a1c 163d 7dc5 0bbd
000000c0: 5e95 193d 4bc3 66bd c6d7 93bd 46f4 363d
000000d0: 6ae8 223c 6410 a3bb 156f 833d 4c22 293d
000000e0: 9390 9abc 6080 99bd 08ec 3dbc 6cb4 1abd
000000f0: 4bd8 4e3d 4cff 48bc 5da8 603d a00c a73c
00000100: e188 89bd d4dc 293d f9c9 32bb e66d bdbc
00000110: 5d66 c73c c709 6abd 0db3 763d e2e3 223d
00000120: 71f8 e53c bd6a 293d 2b32 90bd 3d3b b9bc
00000130: 9095 07bc dff4 9a3d 4322 093d 13d3 69bc
00000140: edb4 a33c 3abc 6dbd ab7a f6bc 8bb1 19bd
00000150: 8b4e 68bd ef7b b53c 7602 71bd 1c7b 1e3d
00000160: 3ffb 3fbd 4e96 8e3d 8750 1c3d b948 8a3d
00000170: 1a3e 563d 992e 743b bfd4 c539 1dbb 9e3c
00000180: be8d ea3a 3498 4bbd f9b2 993c a20f 1dbb
00000190: e7b5 26bc cdcc 893c 4b31 a3b9 e923 9fbd
000001a0: 9ae7 8c3d 49cc c0bc c9cb b93c 9b99 89bd
000001b0: aa66 583d d55b 283d 1c39 a83d 0755 663d
000001c0: b2bf 393d 6f23 51bd cc6b 7f3d 37be ea3c
000001d0: 38b1 fbbc dc07 56bd 4fd9 01bd 7e65 063d
000001e0: c750 153c 4015 873d 044d 4ebc d811 da3c
000001f0: 620b 933c 3764 d1bc 3d7d 4fbc 78ac f3ba
00000200: a92f 9338 8758 2b3d a39e fd3a e93e 403d
00000210: 68ba 46bb 528d 983d b6f7 5cbc fe76 b83c
00000220: f771 a83d bb54 61bd f2bb 60ba 5b98 67bd
00000230: 9f8a 9a3c 9ab4 5ebd 0df6 a4bc 7187 4ebc
00000240: 23cc 923c a814 afbc a346 20bc c35b cd3a
00000250: 1959 b3bc b667 3bbd
0.09092574 0.0034787038 0.010705806 0.017677864 0.02832088 -0.01393083 -0.076500215 0.011296403
0.092681706 -0.019087035 0.021699205 -0.016810685 0.01357913 0.05831197 -0.0016504328 -0.04861814
0.07283842 0.05582265 -0.015350565 -0.009290819 0.03413189 -0.015390422 0.056686454 -0.053928465
0.018022457 -0.031031918 0.03381688 0.048773162 0.04073203 0.025316212 0.019680226 0.055809185
0.011445096 0.03041396 0.0023311067 -0.058384396 0.030330582 0.021797048 -0.019561213 -0.00880912
0.018448152 -0.057906184 0.039213438 0.023491256 -0.03990741 0.00070762634 0.036648013 -0.034123886
0.037495963 -0.05633859 -0.0721889 0.04466655 0.009943107 -0.004976319 0.064176716 0.041292474
-0.018867766 -0.07495189 -0.011591919 -0.03776972 0.05049924 -0.012267899 0.054848064 0.020391762
-0.06715561 0.041470364 -0.002728103 -0.023123693 0.024340803 -0.05713823 0.06022935 0.039768107
0.028072568 0.04136156 -0.07040819 -0.022611255 -0.008275405 0.07566237 0.03347994 -0.014271515
0.019983733 -0.058040835 -0.03008779 -0.037522834 -0.05671553 0.022153823 -0.058840238 0.038691625
-0.046870466 0.06962262 0.038162734 0.06752152 0.05230532 0.003725922 0.00037733276 0.019376332
0.0017895026 -0.0497057 0.018762099 -0.0023965617 -0.010175205 0.01682129 -0.0003112651 -0.07770521
0.06880112 -0.02353491 0.02268018 -0.06718751 0.052832283 0.041103203 0.08214018 0.056233432
0.04534883 -0.051059183 0.062358662 0.028655155 -0.030724153 -0.05225359 -0.031701382 0.032811634
0.009113497 0.0659585 -0.012591604 0.026619837 0.017949764 -0.025560481 -0.0126641365 -0.0018590828
7.0183836e-05 0.041832473 0.0019349646 0.046934996 -0.003032351 0.0744883 -0.013486793 0.022517677
0.08224862 -0.055012446 -0.0008572928 -0.056541782 0.018864928 -0.054371454 -0.020136857 -0.012605534
0.017919606 -0.021372154 -0.009782466 0.0015667606 -0.021893071 -0.045753203

net.9.weight f4 [10, 150]
00000000: b06d 33bd 79e0 9abd 6b63 85bd 2f17 603b
00000010: 720e 123e 60ae 17be 5009 55bd e7ba 813c
00000020: 464c 42bd 9f81 7cbd a7c5 2bbd 21f4 2c3c
00000030: 556d 7a3d c570 123e 0a52 57be f802 16bd
00000040: 3c52 36bd 5ad6 9bbd 35c6 35be daf5 02be
00000050: 2730 28be c4f1 4abc dfcd d13d f917 e4bc
00000060: 4ab9 a03d 3e9c a03d c77b ae3d 62af a63d
00000070: 57e8 cf3d a4e1 0dbd a33a bd3d 1f61 bb3d
00000080: 00af 013d 25d5 bebc 3bc9 6dbd 07be 9a3d
00000090: 878c 15be f688 5c3e cf29 a03c 410b c53c
000000a0: c18e d938 eee7 8dbc b134 3bbe 935a 753d
000000b0: bb73 913d 2ddb c83d 18e5 e4bc 341a b2bb
000000c0: c0ce a63d f3cd 48bd befb e9bc d5a2 383e
000000d0: 5753 7ebd c884 553d 0d78 efbc 95e6 49be
000000e0: 2ee2 c4bc da89 c9bb ec5e b63d bb04 45bd
000000f0: 3d94 003e c46b ab3d 58c3 1bbe a3db 8abd
00000100: bc6a 6e3b 4527 653c 7d32 2dbd d39d 45be
00000110: 3c82 00be dccf e6bc ea29 e33c 8270 72bc
00000120: 0117 aa3b 45da c8bd fbc6 373d 7450 1abe
00000130: f78f 793d 61b1 96be 3fb9 20be 1fcb 9bbc
00000140: c70a 25bd f916 853b ea7b a8bd 6972 023e
00000150: 4f3f f43d 9065 2fbe 3667 1c3c 1be8 14bd
00000160: 0096 043e a1aa 4bbd 85b6 743d 37b1 f33d
00000170: cb53 913d 7bce fc3d a1d4 25bb 2649 febc
00000180: 074a ed3d 3231 8cbd 2214 89bd e7fd b4bc
00000190: 910a 3e3c 911a 11be 9f6b 04bd ec6d 1c3e
000001a0: b784 ec3d d088 643b 51af 2e3c f276 7fbd
000001b0: 06f1 debc f214 22be d041 06be 7b36 d33d
000001c0: 3976 e5bc 3b36 8fbc fedd 3abe 6c75 033d
000001d0: 2cca 353d 15fc 3abd f057 10be 9b38 ccbd
000001e0: d97b 02bc 0cbe 683d 7311 90bc 06c4 70be
000001f0: d79c 67bc cda9 2c3d b74d 87bd 6bc7 dabd
00000200: 5f06 163e b7ad e1bd eeca 583d 1cea 25be
00000210: 3128 313e 8ff0 ac3d 7f30 77bc 8281 983d
00000220: 7278 9d3d 0ab2 19bd 64c7 9cbc e8c5 7b3c
00000230: f227 90bd ee26 7f3d c056 903d f82a 113d
00000240: 296b 7cba 3d09 fd3d e576 3e3d 719f 413d
00000250: aa1d a13b 4791 15bd 61eb ae3d c0b4 0abb
00000260: 6c68 4dbd a276 65bd 9815 273e d554 c73d
00000270: b11c 9f3d 94f3 8f3d 0c12 babd 9e11 cc3c
00000280: 2024 6dbb b52e 093e d192 043d cf3b f1bd
00000290: a1fa 9f3d 4f1a c7bb 3e66 28be 51f2 0dbe
000002a0: 1c9e 0c3e c35e 053d e2e4 abbd 612a 9abd
000002b0: ef2c 1dbe 042e 86bd c911 9a3d cbc2 88bd
000002c0: 5ec3 f7bc 4b3f 1c3e 8c6e 83bd 7761 76ba
000002d0: 19e3 293e f695 82bd 409a 17be 43f0 1bbd
000002e0: 5e85 dc3c 2f38 1dbb f72e a43d af28 013e
000002f0: f2b4 fd3c 6466 273e 9bc0 9e3d fc2c f23b
00000300: 3940 33bd 2acb d4bd 37ca 9a3d 76ab 05be
00000310: dcc1 1fbd 28ca c8bd 5eb5 bfbc ad39 163d
00000320: 5aac b2bc 6623 b93c 4fe5 7b3d fd81 913c
00000330: 6422 4cbc 8ec4 79bd c5a7 81bd 0462 cf3c
00000340: 4f75 383d 2882 60bd 120f aebd 3e85 37be
00000350: 81da 7cbd e7af b2bd 10b7 a93d 137e 56bd
00000360: 81e7 f03c 54ff 13be 7577 a73d 8e99 ac3d
00000370: c68c 3cbe 4300 cbbd 2758 8d3c bdfd 483d
00000380: 5b91 21bd 0d0e 63be 95cc ebbd 5602 a83c
00000390: f2c2 79bd 6e6b 3ebd 0031 9fbd 0b7e 0c3d
000003a0: b0dc a13d 75a1 0b3e 063e be3e bcc3 173e
000003b0: bfff 523d 95b1 573d f1d5 c5be 5523 013d
000003c0: cd46 6bbd 8d89 c53b 0941 04be 19ae 22be
000003d0: b73f 413c 986d 09bd 00b3 abbe d2ba 6c3d
000003e0: 231c d23c d30f 9a3c 43ff 8b3d adb1 123d
000003f0: 1b2f 693d 70f6 c539 bd88 ffbd 1cda b63d
-0.043805778 -0.07562346 -0.06513103 0.0034193506 0.14263323 -0.14812613 -0.052010834 0.015836192
-0.04743602 -0.061647054 -0.041936543 0.010556252 0.061139423 0.1430083 -0.21027389 -0.036623925
-0.04451202 -0.07609244 -0.17751391 -0.12789097 -0.16424619 -0.012386743 0.10244345 -0.027843462
0.07847841 0.07842301 0.085197024 0.0813892 0.10151737 -0.034639016 0.092397 0.09149384
0.031661034 -0.023294995 -0.058053236 0.07555776 -0.14604388 0.21536621 0.019551186 0.024053218
0.00010373956 -0.017322507 -0.18281819 0.05990083 0.07102152 0.098074295 -0.027941272 -0.0054352526
0.08144903 -0.049024533 -0.028562423 0.18030865 -0.062091198 0.052128583 -0.02923205 -0.19716866
-0.024033632 -0.0061504664 0.08904824 -0.048100214 0.12556548 0.08370164 -0.15211236 -0.06780174
0.0036379537 0.013986413 -0.042284478 -0.19298486 -0.1254968 -0.028175287 0.027729947 -0.014797332
0.0051907306 -0.098072566 0.044867497 -0.15069753 0.06092831 -0.29432204 -0.15695666 -0.019017754
-0.04029348 0.0040615764 -0.0822676 0.12738957 0.11926138 -0.17128587 0.009546092 -0.036354166
0.12947845 -0.04972327 0.059744377 0.118990354 0.0709606 0.123440705 -0.0025303739 -0.03104074
0.11586385 -0.06845321 -0.06693293 -0.022093726 0.011599199 -0.1417029 -0.032329198 0.15276307
0.11548751 0.0034871586 0.010661916 -0.062369294 -0.027214538 -0.15828303 -0.13111043 0.10313126
-0.028010475 -0.017481914 -0.18248746 0.032094404 0.04438226 -0.04565056 -0.14096045 -0.09971734
-0.007964098 0.056821868 -0.017586445 -0.23512277 -0.014136515 0.042154122 -0.0660662 -0.10682567
0.14650868 -0.110194616 0.052927904 -0.16202587 0.17300488 0.084443204 -0.015087246 0.07446577
0.07688989 -0.037523307 -0.019138046 0.015367009 -0.07038869 0.062292986 0.07047796 0.03544137
-0.0009629005 0.12355278 0.046500105 0.047271196 0.0049168663 -0.0365155 0.08540989 -0.0021164864
-0.050148413 -0.05602134 0.16316831 0.09732977 0.07769144 0.07028881 -0.090854734 0.024910744
-0.0036184862 0.13396724 0.032366578 -0.11778986 0.078114755 -0.0060761343 -0.16445252 -0.13861968
0.13732189 0.032561075 -0.08393265 -0.075276144 -0.15349172 -0.065517455 0.075229235 -0.06677779
-0.030244526 0.1525852 -0.064175695 -0.00093986787 0.16590537 -0.06376259 -0.14804935 -0.03807093
0.026919063 -0.0023989787 0.0801677 0.12613176 0.03097007 0.16347653 0.0775158 0.0073906165
-0.04376242 -0.10390313 0.07558101 -0.13053688 -0.039003238 -0.09804183 -0.023401912 0.036676098
-0.0218107 0.022599887 0.061497983 0.017762179 -0.012459371 -0.060978465 -0.063308276 0.025315292
0.04503375 -0.054811627 -0.08498968 -0.17921922 -0.06173182 -0.08724957 0.082868695 -0.052366327
0.029407265 -0.14452869 0.081770815 0.08427726 -0.18413076 -0.09912159 0.017253948 0.04907011
-0.039445262 -0.22173329 -0.1151363 0.020508926 -0.06097693 -0.04648917 -0.07773018 0.03429989
0.07903421 0.1363581 0.37156695 0.1482076 0.05151343 0.05265959 -0.38639787 0.031527836
-0.057440568 0.00602836 -0.12915434 -0.15886725 0.011794976 -0.033551782 -0.33535004 0.057795353
0.025648182 0.018806374 0.06835797 0.035813976 0.05692969 0.00037758378 -0.12477253 0.0892832

net.9.bias f4 [10]
00000000: 1c7e 15bd 13db 47bd 476d 263d d357 97bd
00000010: 4790 383d 6438 85bd 59b8 eabc 128f d0bd
00000020: 3838 a0bc 0416 82bb
-0.03649722 -0.04879291 0.04063156 -0.07389798 0.04505947 -0.06504896 -0.028652357 -0.101835385
-0.019558057 -0.0039699096
