result/model_13_4.pth (torch, 307183 bytes, 8 tensors)

net.0.weight f4 [20, 1, 4, 4]
000000 23 a2 69 3e 9a 31 03 3f 48 95 88 3e 7b 5a a9 3e
       0.22815756 0.5124756 0.26676393 0.33076844
000010 6d bb 8d be 73 10 c2 be e8 37 07 bf 3f b9 89 3e
       -0.27682057 -0.37903175 -0.5281968 0.26899144
000020 6c a1 02 be 06 64 a7 be 84 8b 06 3f 64 ec 8b 3e
       -0.1275689 -0.326935 0.52556634 0.2732879
000030 b7 d6 5d 3e e7 7a ef 3e 6e ac ab 3e 15 a4 96 be
       0.21663938 0.46773455 0.3352999 -0.2942206
000040 56 34 cd 3e 26 87 44 3e 98 95 62 3d d3 2e a1 3e
       0.40078992 0.1919218 0.055318445 0.31481037
000050 1e 15 d5 3c 53 f5 c0 3c 01 f1 2d 3d e6 0c bb 3e
       0.026011046 0.02355448 0.042466167 0.36533278
000060 bf f5 97 be 48 7d b1 be 42 e1 bc be 5f 29 6e be
       -0.29679677 -0.34665895 -0.36890608 -0.2325797
000070 a5 85 66 bd f7 ec 94 be 52 13 2c 3d 20 04 1f be
       -0.056279797 -0.2908704 0.042010613 -0.15528917
000080 4b 94 0c 3e 26 3b 24 be cd 09 a5 be 5e c2 de bd
       0.13728444 -0.16038188 -0.3223404 -0.10876916
000090 51 67 58 3e b2 71 1d 3f 93 1a 15 3e d3 04 c2 be
       0.21133162 0.6150161 0.14560919 -0.37894306
0000a0 00 6b 4b be b8 48 b6 3d 93 ae 02 3f dc 7f 5a 3e
       -0.19865036 0.08900589 0.5104763 0.21337837
0000b0 23 af 71 bd b6 44 23 be ff 8e 8e 3d cf e0 6d 3d
       -0.059004914 -0.1594418 0.06960868 0.058075722
0000c0 e6 9f a2 3d 6e 23 70 be c9 d3 a8 be 3e 2b fa bd
       0.079406545 -0.23451015 -0.3297408 -0.12215279
0000d0 14 07 3f be 58 71 8b 3e c6 7c 5b 3e d2 b9 8d 3e
       -0.18655044 0.27234912 0.21434316 0.27680832
0000e0 a3 9f 44 3e 1e 92 25 3e c0 11 72 3e 6f 7c d7 bd
       0.19201522 0.1616902 0.23639584 -0.10521781
0000f0 6d 96 0b 3d c7 c6 4f be ea 21 48 bd 66 13 b3 bd
       0.034079004 -0.20290671 -0.048860468 -0.08743934
000100 1d e6 ac 3d ee db b8 3b 5c dd 3c 3e ec dd 99 bd
       0.08442328 0.005641452 0.18443817 -0.07513031
000110 2e f3 49 be 56 28 29 be fd 35 26 3e 6d ee ff 3d
       -0.19721672 -0.16519293 0.16231532 0.12496648
000120 fe e5 6d 3e 35 50 69 be c2 e5 bc be 03 68 9c be
       0.23232266 -0.22784503 -0.3689404 -0.30548105
000130 22 ff 18 be 48 92 32 3e 5c 7b 32 3e 5a 6b 6c 3e
       -0.14941075 0.17438614 0.1742987 0.23087826
000140 d3 1a 60 be f0 18 20 be 00 4f 37 3e 6c ef 1e be
       -0.21885233 -0.15634513 0.1790123 -0.1552102
000150 4d 69 19 3b 64 de e9 3c c4 82 88 3e 55 4b 94 be
       0.0023408711 0.028548427 0.26662266 -0.28963724
000160 62 cb 37 be ad 6b b3 3e 9d c1 be 3d ce 0c 49 be
       -0.17948678 0.35043088 0.093142726 -0.19633791
000170 15 29 28 3e 0c 58 bd 3e 0b 21 72 be f2 42 50 be
       0.16421922 0.36981237 -0.23645417 -0.20338038
000180 38 61 81 3e ac 9f 93 bc c0 b9 35 bd 0e 2b 6b be
       0.25269485 -0.018020473 -0.044366598 -0.22965643
000190 4d 76 07 be 1a 8b 23 bc 45 f4 e5 bd c7 e5 58 be
       -0.13228722 -0.009981895 -0.11228231 -0.21181403
0001a0 e2 24 90 bc af ff 57 be ef 48 42 be e1 e3 85 bd
       -0.017595712 -0.2109363 -0.18973134 -0.06537605
0001b0 77 90 2f be 0f fe cb bd 75 3d c3 3e df 43 2c 3e
       -0.17144953 -0.09960567 0.38132825 0.16822766
0001c0 fd 92 f9 3d 68 da 4b be f5 0b 08 be 7b a0 32 bd
       0.12186239 -0.19907534 -0.13285811 -0.043610077
0001d0 21 87 32 3d 47 5a 5e be 4e 28 d4 bd 3c 29 05 be
       0.0435859 -0.21714126 -0.1035925 -0.13004011
0001e0 4b ff b8 ba 5e 10 f0 bd b2 4d 3d bc 14 6e 12 be
       -0.0014114169 -0.11721872 -0.011554169 -0.14299804
0001f0 04 c4 f1 bd 90 f6 db bd 36 c6 35 bd af 75 1e be
       -0.11804965 -0.107403874 -0.04437848 -0.1547458
000200 07 a3 a5 3e 16 77 8e 3d 3f b3 b0 3e ff 78 5a 3e
       0.32350942 0.069563076 0.34511754 0.21335219
000210 52 4e 61 be 04 ab 17 3e 81 5c ab bd 61 fa aa bd
       -0.22002533 0.14811331 -0.08367253 -0.08348537
000220 58 4f 98 be 59 7e b1 be 95 c7 5a bd c0 30 cd bd
       -0.29748034 -0.34666708 -0.053412993 -0.10019064
000230 ed ab 93 3d 28 1e 31 be 09 98 2d 3e 50 bd 29 be
       0.072105266 -0.1729666 0.16952528 -0.16576123
000240 05 ae 9f bd 2f e4 9b 3d d6 00 1d 3e 09 38 6d 3e
       -0.077968635 0.07611882 0.1533235 0.23165907
000250 49 b4 74 3e b4 fd 78 be ad 82 99 3d ad 7b 20 be
       0.23896898 -0.2431553 0.074956276 -0.15672179
000260 ea 07 ce bd 6a 3b 6e be 26 e7 8a 3e 21 9f 81 be
       -0.10060103 -0.23264852 0.27129477 -0.25316718
000270 63 86 2b 3d 68 23 6c 3d 47 11 ab 3d e6 03 3f be
       0.041876208 0.057650954 0.08352905 -0.18653831
000280 6a b4 ce 3e 07 2a b4 3d 73 75 85 bb f6 be 83 be
       0.4037202 0.087970786 -0.004072839 -0.2573163
000290 89 86 ba 3e 18 f4 36 bc 43 c4 4c be 5d 14 22 3e
       0.36430767 -0.011166595 -0.19996743 0.1582808
0002a0 11 ee 65 3e d2 fc eb bd c4 a6 5a be 35 eb e2 bd
       0.22454096 -0.11522831 -0.21352679 -0.110800184
0002b0 b6 32 4d 3e c5 5a 85 bc 59 38 1b be d0 76 0f be
       0.20038876 -0.016278634 -0.15158214 -0.14010167
0002c0 44 81 84 be 70 bf 4c 3e 49 f5 37 3e 89 40 c6 be
       -0.25879872 0.19994903 0.17964663 -0.3872111
0002d0 00 fb cf 3b 83 20 ca 3e f3 d9 61 3c ea c8 88 be
       0.00634706 0.3947793 0.013784873 -0.26715785
0002e0 cd 11 63 3e 4b 30 94 3e ce a5 9f 3c f1 76 2a be
       0.22174759 0.28943095 0.019488242 -0.16646935
0002f0 d1 02 b1 bd 05 0d ef 3d a0 15 56 3a 59 0a ef bd
       -0.08643115 0.11672405 0.00081666745 -0.116718955
000300 19 b5 5f 3e 2d dc 84 3e 85 df de bc ff cf c1 bd
       0.21846427 0.2594923 -0.027206192 -0.094635
000310 4e f4 c3 3b b0 a1 19 3d f0 c4 04 3e 29 82 19 3e
       0.005980051 0.037507713 0.1296575 0.14991058
000320 79 f0 90 be 6f 57 fd bd d3 ce 4f 3e c2 d3 04 3e
       -0.28308466 -0.12370192 0.20293741 0.12971404
000330 96 1d 16 bd da 4f 47 be 83 87 7b be 55 65 94 be
       -0.03664931 -0.19464055 -0.24563412 -0.2898356
000340 72 07 39 be d9 56 5a bd 2e 49 8d 3e 75 28 85 3e
       -0.18069246 -0.05330548 0.27594894 0.2600743
000350 ee 9a b0 be 3e 9d a6 be 53 af 16 3d 8c 42 e6 3e
       -0.34493202 -0.3254184 0.036788296 0.44972646
000360 91 43 fe bd 6d c5 39 be c0 1b 73 3e 7e 58 95 3c
       -0.12415231 -0.18141718 0.23741055 0.018230673
000370 98 09 9b be 11 29 01 3e e5 d0 a2 bc 9c e3 18 bd
       -0.30280757 0.12613322 -0.019875 -0.03732644
000380 54 c9 5c be 65 85 5e 3e eb 9f 6d 3e 5f d6 dd 3d
       -0.21561176 0.21730573 0.23205535 0.10831904
000390 df 12 25 be ab a6 67 be 48 7b 10 be 55 0b 8a 3e
       -0.1612048 -0.22622173 -0.14109528 0.2696177
0003a0 ea f8 2a 3e 5d 56 ae 3e 98 39 6d 3e 39 08 58 3d
       0.16696516 0.34050265 0.23166502 0.052742217
0003b0 6b 60 f8 bc 59 94 4d be 9f 62 86 be 5e ce 93 be
       -0.030319413 -0.20076121 -0.26247117 -0.28868383
0003c0 64 c3 35 3e 0b 0f ac bd 06 d6 b8 bc 7e d6 af bd
       0.17750317 -0.08401307 -0.022562992 -0.08585833
0003d0 90 a2 25 bc 06 85 13 be 62 52 1b be 20 b8 b4 3d
       -0.010109559 -0.14406213 -0.15168145 0.088241816
0003e0 ca 35 87 bd 2d 22 d5 3d b3 e9 dc bd 8c 73 28 be
       -0.06602056 0.10406909 -0.10786762 -0.16450328
0003f0 f3 bf 2a bc b4 f1 ad bd 01 01 7e bd dc 7c 52 be
       -0.010421741 -0.08493367 -0.062012676 -0.20555443

net.0.bias f4 [20]
000000 8a 19 88 3e 52 89 b7 bd 2e 57 d0 3e b0 7e 04 3e
       0.26581985 -0.08961739 0.40691513 0.12938952
000010 c5 00 fa bd 45 3e 20 be 65 6b cb be 18 5c bb be
       -0.12207178 -0.15648754 -0.39730373 -0.365937
000020 23 de 0f be 21 a3 0d bc 04 62 44 3e 87 e5 08 3e
       -0.14049582 -0.00864485 0.19178015 0.13368808
000030 e6 b9 06 be 83 66 bf bd ab 4f fb 3d 4b bf b7 be
       -0.13156852 -0.093457244 0.12271055 -0.35888132
000040 1a 7d 25 3a 57 69 ec 3d fe b1 d1 be 38 8c dd 3d
       0.0006312892 0.115435295 -0.4095611 0.1081776

net.3.weight f4 [40, 20, 5, 5]
000000 6f b8 54 be 77 fa 9d 3c 28 20 b6 bd ee f9 55 be
       -0.20773481 0.01928447 -0.08892852 -0.20896122
000010 4a 82 af bd be 53 b2 3a 04 e5 24 3d 79 db d8 bd
       -0.085697725 0.0013605279 0.04025747 -0.10588736
000020 83 8c f3 bd ce ea 6f bd 79 cc 2b be 2b 4d 89 bd
       -0.11892035 -0.058573537 -0.16777219 -0.06704172
000030 06 7f 9b 3d 05 e4 0a 3e 8e d0 a3 bc 1d ee 42 be
       0.07592587 0.13563545 -0.019996908 -0.19036146
000040 45 62 93 bd ca 05 3b bd 40 3c 8f bc f0 ee c2 3c
       -0.07196478 -0.045659818 -0.017484784 0.023795575
000050 a2 a7 1b be 64 c0 ff bb 22 be c2 bc 47 e7 c5 3d
       -0.15200666 -0.007804917 -0.023772303 0.09663253
000060 12 2f 9c 3d a4 43 63 3c 5b 9b bc bc 86 cb b3 bd
       0.076261654 0.013871107 -0.023023298 -0.087790534
000070 b2 89 7b bc d5 f5 21 3d a4 f3 f9 bc 57 5d 0c be
       -0.015352653 0.039541084 -0.030511685 -0.13707481
000080 9f 28 26 be d2 83 d0 3a 1c fd 57 ba 84 8f 8a bd
       -0.16226433 0.0015908426 -0.00082393154 -0.06765655
000090 0b bc eb bd a7 d4 b9 bd 82 4f 9a 3c 68 3f fb bc
       -0.11510476 -0.09073763 0.01883674 -0.030669883
0000a0 94 b4 c2 3b 84 c1 72 bd 20 54 40 bc db 11 44 3d
       0.0059419367 -0.059266582 -0.011738807 0.04786859
0000b0 8f 02 a0 3c bf d4 de 3c 19 c3 87 bd 3e d8 4e bc
       0.01953247 0.027201055 -0.06629009 -0.012624798
0000c0 ca 57 41 3d 72 56 0d bc 6e d9 af bd b1 57 11 be
       0.047202863 -0.008626567 -0.08586393 -0.14193608
0000d0 b8 fb d8 bd 74 cc 47 be 08 19 26 be 49 26 11 be
       -0.105948865 -0.19511586 -0.16220486 -0.14174761
0000e0 59 85 15 be 97 66 45 3d dc 6d 36 3d 8e 85 96 3c
       -0.1460165 0.04819354 0.044538364 0.01837423
0000f0 2f 23 33 bd 67 14 a8 3d d9 ea 0e 3e 16 9f d5 3d
       -0.043734726 0.082070164 0.13956775 0.10430734
000100 00 9e 0b 3e 9b 76 03 3d 46 8a 0e 3e 11 f3 c8 3d
       0.13634491 0.032095533 0.13919935 0.09811986
000110 52 fa ea bd 7f 62 d2 bc 96 9c 9b 3d 60 4f b2 3d
       -0.11473526 -0.025681732 0.07598226 0.08706546
000120 60 c4 9f 3c 80 f6 20 be e8 b7 f2 bd 50 82 dc bc
       0.019502819 -0.15719032 -0.118514836 -0.026917607
000130 c4 ec 54 bd cd c3 a3 3d 03 f6 95 3d e6 57 f7 3b
       -0.05198361 0.079963304 0.07322314 0.00754832
000140 a7 9f af 3b 4f 04 80 3d 92 b8 16 3e cc 0e 47 3e
       0.005359608 0.06250822 0.14718845 0.19439238
000150 06 f8 90 3d 00 81 0a bd a9 c3 c0 bc ca e0 fa 3d
       0.07078557 -0.03381443 -0.023530798 0.12249906
000160 d7 9c a9 3d 6e be 5f 3d 04 79 ce bd 4a a4 c3 3c
       0.08281868 0.054624967 -0.10081676 0.02388205
000170 6b 73 cd 3c 36 f7 41 3d 68 c7 94 bc 6a 50 83 bd
       0.02507945 0.0473549 -0.01816149 -0.06411822
000180 00 a9 a3 3c dc 87 20 3d c7 71 15 3d 4b 50 82 bb
       0.019978046 0.039192066 0.03648546 -0.003976857
000190 62 02 87 3d 05 7c 3a 3e 0f 20 42 3e ae 45 a0 3d
       0.06592251 0.18211372 0.18957542 0.0782579
0001a0 1b 4f 39 3b 54 e3 47 bd 4f f1 9b bd 8b a7 2f 3e
       0.002827591 -0.04880078 -0.07614385 0.17153756
0001b0 21 53 73 3e 5f 92 fd 3d 71 83 05 be 73 f8 0c bb
       0.2376218 0.12381434 -0.13038422 -0.0021510392
0001c0 5a b8 7f 3b 44 25 a5 3d fb 7b 0a 3e 60 d9 6f 3d
       0.0039019794 0.080637485 0.13523857 0.058556914
0001d0 14 5b 26 3e ba cd 3d 3e 6d 10 77 3d a3 c1 9f 3c
       0.16245681 0.1853551 0.0603184 0.019501513
0001e0 b5 04 b8 3c 32 c0 53 3d 9e 11 d3 3d 80 79 10 bd
       0.022463182 0.051696964 0.103060946 -0.03527212
0001f0 9a 4d 99 bd 5b 5a 21 3e 81 12 03 3e e7 18 08 3e
       -0.074855044 0.15757124 0.12800027 0.1329075
000200 bc cb 14 3e 7e 2a e9 3d 92 0d 41 3e 53 56 47 3e
       0.14530843 0.11385058 0.18852833 0.19466524
000210 fa 1a ad 3d a6 5c 41 3d bf e5 c7 bc 16 e5 4a 3c
       0.08452411 0.047207497 -0.024401544 0.01238372
000220 18 14 73 bd d4 bf 04 bd 15 95 37 3d 67 e6 76 bc
       -0.059345335 -0.032409504 0.04481991 -0.015069581
000230 32 ac ad bc a8 90 15 be 01 9b 16 3d 58 eb 65 3d
       -0.021200273 -0.14605963 0.036768917 0.056132644
000240 5d 2c 7b 3c 54 02 b2 bd 39 55 64 bc 73 1e 31 bd
       0.015330401 -0.0869185 -0.013936334 -0.04324193
000250 84 33 f8 3c bb 23 f3 3d 22 28 0f 3d e1 b0 50 3d
       0.030298002 0.118720494 0.034950383 0.050949935
000260 7b 01 a1 3d 83 54 78 3d 1e f3 0a 3d 58 eb 96 3c
       0.078616105 0.06062747 0.03392326 0.018422768
000270 55 ee 2c 3d fd b7 99 3d 71 92 6c 3b 1f 39 3a bc
       0.04221948 0.07505796 0.0036098028 -0.011366158
000280 08 d6 01 bd 2d 3d ce bd 59 eb 57 bd 09 35 7a 3c
       -0.031698257 -0.10070262 -0.05271468 0.015271434
000290 d9 df 51 3d ef ae ec bc 1f 59 02 be 4a c1 96 bd
       0.05123887 -0.028892009 -0.1272931 -0.07361086
0002a0 f0 6f e2 3b 97 d1 e4 b9 0b ac bb bc 71 cb cb bd
       0.0069103166 -0.00043643705 -0.022909185 -0.09950913
0002b0 0e 2c 0f 3c 02 0d 94 bb 10 b2 42 bc eb 12 a3 bc
       0.008738531 -0.004518152 -0.011883274 -0.019906482
0002c0 af ab 42 3d 2d 2e ac bc 8f 73 93 3d cb ee f4 3c
       0.04752701 -0.021018112 0.071997754 0.029899022
0002d0 68 34 73 ba ea 15 b7 bb 7b ea 15 bd 5f 58 35 3d
       -0.00092775235 -0.005587329 -0.03660057 0.04427373
0002e0 b6 83 4f 3d bc 6a 60 bd a7 98 35 bd fe be 52 bd
       0.05066272 -0.05478929 -0.044335034 -0.051451676
0002f0 fe 3e 04 3c e7 0f 46 3c 34 12 06 bc 47 ba 9e bd
       0.008071659 0.012088752 -0.008183051 -0.07750373
000300 6f 19 65 bd dd 5c 49 3d d4 50 29 3d ae 6e 45 bc
       -0.05593246 0.049160827 0.04133685 -0.012050314
000310 65 4b b9 bd b4 02 a6 bc c4 7c 7b bc 01 64 5e 3d
       -0.090475835 -0.02026496 -0.015349571 0.05429459
000320 fd 76 c2 bd 2e c3 12 be e2 a3 06 be 1b 78 8e 3d
       -0.094953515 -0.14332268 -0.13148454 0.06956502
000330 66 2c e2 3d 89 d2 f1 bd 42 23 62 be a3 ed 3c be
       0.110436246 -0.118077345 -0.22083762 -0.18450026
000340 19 57 e2 3d 6c ed c5 3d 5c 93 08 be a1 39 61 be
       0.11051769 0.09664425 -0.13337463 -0.2199464
000350 b6 d4 3c be 43 71 a8 bc 2f 71 8e 3d 8d 40 cc bd
       -0.18440518 -0.02056182 0.06955182 -0.099732496
000360 9f b4 85 39 3e 54 c7 3d 4e f6 c3 3d 8f b5 d9 3d
       0.0002550231 0.09732865 0.09568463 0.10630333
000370 3c 81 6e bc e4 54 87 3d 14 44 af 3d a9 5a 17 3d
       -0.014557179 0.066079885 0.08557907 0.036951695
000380 03 16 29 bd 2a 39 68 bd 7e 0c a9 3c 03 6d 79 3c
       -0.041280758 -0.05669514 0.02063584 0.015223744
000390 b5 ae 1f 3d f3 1c 4c bb cb 5d 66 3d 00 5c 9f bc
       0.038984973 -0.0031145185 0.05624179 -0.019453049
0003a0 f8 e5 99 3c 2f a5 fc 3d 79 7a 25 3d e2 62 1a 3c
       0.018786415 0.12336194 0.040400002 0.00942299
0003b0 80 81 31 bd 3d 6f 09 3e 51 5c a0 3d 24 24 30 bd
       -0.04333639 0.1342134 0.07830108 -0.043003216
0003c0 35 8a 7c bc c3 31 86 bd 1e 1a ee 3d ea 5d 18 3e
       -0.0154138105 -0.0655246 0.11626075 0.14879575
0003d0 1e 31 a1 3d 5a 91 ce bc ed f4 84 3d 09 35 66 3d
       0.078706965 -0.025215793 0.064920284 0.056202922
0003e0 30 d6 97 ba 62 fb 1f 3d bc 49 6e b9 bb 7c 9f 3c
       -0.0011584219 0.039058097 -0.00022724917 0.019468656
0003f0 7a 84 45 bc 83 b0 81 bc 7a 2e 43 bd d6 36 9c bd
       -0.012055511 -0.015831238 -0.047651745 -0.076276466

net.3.bias f4 [40]
000000 99 55 2a 3d 73 83 25 bc a1 d9 d8 3c ef a4 f5 bc
       0.04158554 -0.010102141 0.026470961 -0.029985873
000010 2f bf c8 bc ae 75 8c 3c af 07 9e bc 4c e0 66 3c
       -0.024505226 0.017145958 -0.019290773 0.0140915625
000020 90 ac d8 bc 0f 56 0d b9 6d aa 48 3c b1 ef 77 3d
       -0.026449472 -0.00013478867 0.012247664 0.060531322
000030 44 6e 36 bd 97 f8 bf b8 d2 69 7a 3c 4c 24 44 bc
       -0.04453875 -9.153893e-05 0.015284019 -0.0119715445
000040 9f 8b ea bb b3 b0 03 3c b8 27 c5 bc 36 b4 d9 bc
       -0.0071577574 0.008037734 -0.024066791 -0.02657519
000050 2b 30 13 3d 6e a8 14 bd ea 35 9a 3b e9 90 ef 3c
       0.03593461 -0.03629344 0.004706134 0.029243903
000060 15 19 04 bc 0f 96 df bc 2f c3 25 bd 8b 45 7d bd
       -0.008062621 -0.027293233 -0.040469345 -0.0618339
000070 d3 28 4f 3d c5 45 e7 bc 98 3e e6 3b 4b a2 b9 3c
       0.050576042 -0.02823151 0.0070265047 0.022660395
000080 03 69 d1 bc 2e db e8 3c 50 77 36 3d 5a fb 55 3b
       -0.025562769 0.028424826 0.04454738 0.0032651038
000090 46 b7 ab bb df 1f 10 bd da bf 48 3d e1 a7 28 bd
       -0.0052403538 -0.035186645 0.04901109 -0.041175727

net.7.weight f4 [150, 360]
000000 02 f9 16 be f0 eb 1d 3d c3 9a c7 bc e4 48 e9 bd
       -0.14743426 0.038555086 -0.024365788 -0.11390856
000010 51 1e 97 bc f6 d8 94 bd 62 cb 7b bd 81 03 09 3d
       -0.018447073 -0.072679445 -0.061473258 0.033450607
000020 98 a7 26 bd a4 6b 29 3d ac 03 e1 3d 7c 9a a6 3d
       -0.040687174 0.04136242 0.109870285 0.08134934
000030 b2 57 c7 bc e4 e7 ee bc 2b 15 2b 3c 56 4f a6 3c
       -0.024333809 -0.029163308 0.010442059 0.020301502
000040 0d 7a 97 3c 1b fb 68 3d 49 65 77 bc c8 2d 41 bd
       0.018490816 0.056880098 -0.015099832 -0.0471628
000050 71 da c5 3d 13 7c 46 bd 33 16 80 bd 4d ea 69 3c
       0.09660805 -0.04845817 -0.06254234 0.014277053
000060 c0 3d d4 3c 47 40 84 3d b4 d3 98 bd 00 e0 11 bc
       0.025908351 0.064575724 -0.07462254 -0.008903503
000070 31 b4 1d 3d e3 d1 c9 bc cb c1 44 bb 46 44 24 bd
       0.038501922 -0.024636215 -0.0030022736 -0.040104173
000080 5f 6f 1f 3d fc 59 54 bd 73 f1 d3 3c a8 f0 8f bb
       0.03892457 -0.05184363 0.025871968 -0.004392702
000090 30 f6 9e bc c6 6b a3 bc 30 a3 1a 3c b3 16 02 3d
       -0.0194045 -0.019948851 0.009438321 0.03175993
0000a0 4e 2b cc 3c 3f 38 52 3d bb 68 6f 3d 40 6a 84 3a
       0.024922993 0.05132317 0.058449488 0.0010102466
0000b0 d6 2a 03 bc 71 4a 43 3c cf f7 70 bd 14 da 63 bd
       -0.008005818 0.011919604 -0.05883008 -0.055627897
0000c0 e4 47 5e bd dd 5c 31 3d 0f 42 71 3c f1 fc 0c bd
       -0.05426778 0.043301452 0.014725222 -0.03442091
0000d0 c8 56 ae bc 56 35 aa 3a 83 1a 06 3d 41 86 04 bd
       -0.021281615 0.0012985866 0.032740127 -0.032354597
0000e0 ff 1d 02 3d 35 3b bf 3d 7b 7b 27 3d 35 f3 1f 3d
       0.031766888 0.09337465 0.040889245 0.0390503
0000f0 66 10 21 3d a2 e5 06 bd 79 8a 21 bc df 1e 07 be
       0.03932228 -0.03293384 -0.009859675 -0.1319537
000100 fe 92 aa bd 79 ff ae bd 4f 79 92 3b 08 7f 7a bd
       -0.08328818 -0.08544821 0.0044700275 -0.061156303
000110 42 1b a4 3d 34 ab 15 bd 2f d6 21 bc 01 f3 d1 3c
       0.080130115 -0.036540225 -0.0098777255 0.025628569
000120 fd 6e b1 3d 0a 75 b8 bd 2f fb ca bd 92 4e 1d 39
       0.086637475 -0.090066984 -0.09911191 0.00015001956
000130 84 9b 03 3c cc 6e ba bc 68 e9 ff bd 2b 98 df bd
       0.008032683 -0.02275791 -0.124956906 -0.109176956
000140 70 e9 be bd d9 75 b1 3d c2 9e 28 3d f0 bd 87 3d
       -0.093218684 0.08665056 0.04116703 0.066280246
000150 5f 8a 30 b8 d1 00 a0 3d 1d 59 df 3c 74 3c 86 3c
       -4.2090538e-05 0.07812656 0.027264172 0.016386248
000160 a9 d7 68 3d 39 16 bc 3d 7f 3f 6f bc 2c 16 38 bd
       0.056846295 0.09183926 -0.014602541 -0.04494302
000170 49 cb 1d 3d 20 b4 0a bc 3a 92 12 be 65 7e 0f bd
       0.038523946 -0.008465797 -0.14313594 -0.03503265
000180 9a 12 63 bc 8b 86 a7 bd d1 c8 e9 bd ba 2f 09 bd
       -0.013859415 -0.08179959 -0.11415256 -0.03349278
000190 43 d2 0b 3e b5 7c 40 3d 6b 57 37 bc a7 1f db 3c
       0.13654427 0.04699393 -0.011190276 0.026748491
0001a0 cc 52 ad 3d 45 9c b0 bd 2a 5b 12 bd bf 2b fc 3c
       0.08463058 -0.08623556 -0.035731472 0.030782579
0001b0 94 c4 86 bd 9b db 8e bd 3f 1d c4 3c a6 d9 60 3d
       -0.06580463 -0.0697548 0.023939727 0.054895066
0001c0 65 d1 e8 3d 35 c9 0d bb c9 fe a4 3d 19 17 36 3d
       0.11368064 -0.0021634821 0.08056409 0.04445562
0001d0 f2 aa a5 3d 47 48 a9 bd ca 31 4d bd b8 8c 39 3d
       0.08089246 -0.08265739 -0.05009631 0.045300215
0001e0 d5 ac 20 3d 8a e7 70 bc 1f 4f 68 3d 80 f4 2b bd
       0.039227325 -0.014703641 0.05671608 -0.04198122
0001f0 e1 2b 30 bd 5f 51 d5 bd 19 df d4 bd 77 0a 8e bd
       -0.043010596 -0.10415911 -0.10394115 -0.0693559
000200 16 70 23 bc aa 0f 14 3d 3f b4 03 bd 9c 2e 3d ba
       -0.009975454 0.03614775 -0.032154318 -0.0007216723
000210 ca ae d4 3c 30 0d c9 3d 4b e1 8d 3c 65 5c 04 be
       0.025962252 0.098169684 0.017319342 -0.1292587
000220 e0 bd c5 bd ed 06 50 3d fc d8 8d bc b8 6d be bc
       -0.096553564 0.050787855 -0.01731538 -0.023245677
000230 54 2b 01 3d 74 8a fc 3c 5d 40 3f bd 8e c9 07 3d
       0.03153546 0.030827738 -0.04669224 0.033151202
000240 44 81 58 3c fc cf 80 3c 35 98 e1 39 22 b6 09 ba
       0.013214413 0.015724175 0.00043028747 -0.0005253275
000250 0a 3e 82 3d 07 6c 36 3d 03 c3 8e 3d e9 e1 72 3c
       0.06359489 0.044536617 0.06970789 0.014824369
000260 03 df 74 3d 2e 87 30 3b 3c a2 25 3d 3b 97 cb 3d
       0.059782993 0.0026936042 0.040437922 0.09940954
000270 23 a2 a7 bd e5 98 21 bd 72 b4 27 3d 18 1a 7b bd
       -0.08185222 -0.039452452 0.04094357 -0.06130418
000280 a8 11 a7 3c ad 54 a5 bd 85 85 75 3d a0 31 34 3d
       0.020394161 -0.08072791 0.059941787 0.04399264
000290 86 5c 0a 3d de 52 52 3b 63 cd a4 3c 4c 7d 5b bc
       0.033779643 0.003209285 0.020117467 -0.013396572
0002a0 72 51 76 bc af d6 1b 3d d2 52 5f 3d 4a 1e 95 3b
       -0.0150340665 0.038046535 0.054522343 0.00455073
0002b0 8b e0 8e bd 8e e3 f2 3d de 01 63 3d 75 4d e8 bb
       -0.06976422 0.11859809 0.055421703 -0.0070893117
0002c0 06 18 e8 3c 06 9e 4a 3d 7d f8 87 bd 4e 58 63 bd
       0.028331768 0.04946711 -0.06639192 -0.055504136
0002d0 17 58 72 3b 44 b9 03 3d 17 ce a6 3d a5 44 88 bc
       0.0036978775 0.032159105 0.08144777 -0.016634295
0002e0 b7 bd 74 3d 39 3d 4a 3d ef 30 94 bd 6b 75 fb 3c
       0.05975124 0.049374793 -0.07235896 0.030695638
0002f0 64 f5 a5 3d be dc db 3c fa 79 2b 3c 34 53 3a 3a
       0.08103445 0.026838657 0.010466093 0.0007107735
000300 a8 2f 08 bb 10 d9 47 3d 36 3e 05 bd bf 5d ad 3b
       -0.0020780358 0.04879099 -0.032530032 0.0052907164
000310 90 9b 8c bb 91 db 21 3d 79 68 87 3c 8a a4 76 bb
       -0.0042910054 0.039516035 0.016529309 -0.0037634694
000320 ba f6 5d 3d 7f 2c 6f bd b9 56 e8 3c 1b 1f f6 bc
       0.054190375 -0.058392044 0.028361665 -0.03004413
000330 90 41 ad bd 55 81 98 3c d5 20 d9 bb a5 91 32 3d
       -0.08459771 0.018616358 -0.0066262283 0.04359593
000340 68 c9 a3 3d 61 00 87 bd e6 77 52 3d 1f 51 40 3d
       0.079973996 -0.06591869 0.051383875 0.046952363
000350 a1 22 0e bb 5b e0 05 3d 81 df 19 3d dc 08 81 bd
       -0.002168812 0.032684665 0.037566666 -0.06300518
000360 26 ef d9 bd 70 62 f8 bd 1f c9 c4 ba da aa 8b bd
       -0.10641317 -0.121281505 -0.0015013552 -0.06819697
000370 c0 c5 67 bd 03 44 4a bd 2d f2 a5 bd ae b8 fd b9
       -0.056585073 -0.049381267 -0.08102832 -0.00048393517
000380 e9 c3 a2 bc 17 33 d6 3c 42 4c b1 3d 9b 37 f5 3d
       -0.019868808 0.026147408 0.08657123 0.119734965
000390 eb 51 9d 3d 2a 50 0d 3d 6f 67 1a 3d ef c9 24 3d
       0.0768164 0.03450028 0.0376963 0.04023164
0003a0 3d 08 6c bd 10 65 10 bd 56 9b 1b be 2d a4 95 bd
       -0.057625044 -0.03525263 -0.15195975 -0.07306705
0003b0 5c 14 7d 3d d2 34 1c bd bb 67 0e bc ff 51 f5 3d
       0.061786994 -0.03813631 -0.008691723 0.1197853
0003c0 a0 86 b3 3b 1c f5 90 bc 85 e6 a8 3d 9a 5e 51 3c
       0.005478695 -0.017695002 0.08247093 0.012778902
0003d0 10 dd 78 bd c7 3e b0 bc ec e3 4b 3d f7 dc 38 3d
       -0.060757697 -0.02151431 0.04977791 0.045132603
0003e0 f4 64 2c bc 66 5f a5 3b 5b 65 01 bd 0c 23 61 bc
       -0.010522116 0.005046773 -0.0315908 -0.013741266
0003f0 70 34 10 3b 9c 17 06 bd de 0d 76 3d 23 c9 f2 3b
       0.0022003911 -0.03273736 0.06007182 0.0074092313

net.7.bias f4 [150]
000000 4f bd bd 3d 1d d2 1d 3b 23 f6 68 3c 2b c1 f1 3c
       0.092646234 0.0024081536 0.01421884 0.029511055
000010 6e 0c 8a bc 4f 3b 57 bc 03 57 68 bd 40 1e 23 3c
       -0.01685163 -0.013136699 -0.056723606 0.009955943
000020 a7 a0 b7 3d 3e 22 ba bc 58 da bc 3c 24 ae 48 bc
       0.08966189 -0.022721406 0.023053333 -0.01224855
000030 c6 e9 71 bb 0a b4 83 3d 6b 3e 83 3b bb 8b 12 bd
       -0.0036913021 0.06430824 0.0040052435 -0.03577779
000040 5f 7a 17 3d 9f e1 86 3d db 12 12 bd 93 5f 00 3c
       0.036981937 0.065860026 -0.035662513 0.007835287
000050 fd da 8b 3d 8c 09 c4 ba 65 ad f9 3c ce fa 4a bc
       0.06828878 -0.0014956458 0.030478189 -0.012388898
000060 84 ee 04 3d af 89 e3 bc 2b 9b 6f 3d 42 77 30 3d
       0.03245403 -0.027775614 0.05849759 0.043082483
000070 a2 f8 14 3d 4d e0 cb 3c 4b 36 3c 3c c3 07 27 3d
       0.036369927 0.024887228 0.011487554 0.040778887
000080 8b d1 8e 3b 62 67 b0 3d ba 05 39 3b fa d2 76 bd
       0.0043584756 0.08613469 0.0028232173 -0.060259797
000090 da 18 37 bc 53 19 14 3b 9d 18 e0 bc fc d3 91 bb
       -0.011175359 0.0022598102 -0.027355487 -0.0044503193
0000a0 84 fd d8 3b a3 21 43 bd 16 e0 99 3c 0f 9e 4e bc
       0.0066220183 -0.0476395 0.01878361 -0.012610926
0000b0 51 15 34 bc 14 64 2c bd e3 19 30 3d d8 5a 06 bd
       -0.01099141 -0.04208763 0.042993437 -0.03280148
0000c0 80 cd 29 3d 20 dd 67 bd 2f 2d 57 bd 70 15 10 3d
       0.041455746 -0.056607366 -0.052533325 0.035176694
0000d0 4d b7 86 bc 76 c3 7f 3a 1f 0c 8c 3d 91 1e 3f 3d
       -0.016444826 0.0009756604 0.068382494 0.04666001
0000e0 13 bd f9 3a 62 74 41 bc 39 fe 8e bc 08 7b 12 bd
       0.0019053541 -0.011807533 -0.017455207 -0.035761863
0000f0 61 fa aa 3c 1a df 90 bc 72 67 87 3d b4 cb bd 3c
       0.020871343 -0.017684508 0.066115275 0.023168422
000100 b8 eb 9b bd 79 54 2a 3d da c9 32 bb 85 07 42 bc
       -0.07613319 0.041584466 -0.0027280957 -0.011842613
000110 96 10 92 3c b9 63 0b bc 59 dd 48 3d 87 c2 86 3d
       0.017830174 -0.008507662 0.04903922 0.06580072
000120 9e a9 e3 3c c0 b1 40 bc ac 2b 7e bd c1 52 3d bd
       0.02779084 -0.011761129 -0.062053367 -0.0462215
000130 54 71 13 bc 0f f0 a8 3d 46 d3 f4 3c 58 d4 69 bc
       -0.0089991875 0.082489125 0.0298859 -0.014271818
000140 f5 c6 e4 3c 3f f5 66 bd b4 39 94 bc 32 9d 1c bd
       0.027926901 -0.05638623 -0.018093921 -0.03823585
000150 d8 5d 35 bd b2 76 09 3d 8b 01 6b bd a5 d1 66 3d
       -0.04427895 0.033560462 -0.05737452 0.056352276
000160 04 ff 5e bd d1 0e 95 3d 48 43 11 3d 25 b7 73 3d
       -0.05444242 0.07278217 0.035464555 0.059500832
000170 a4 48 ef bb d7 d1 ad 3a 42 0e db ba 88 7d 8c bc
       -0.0073023606 0.001326139 -0.0016712623 -0.017149702
000180 75 b3 62 bc d0 02 8b bd ec 52 70 bc e8 0f 1d bb
       -0.013836731 -0.06787646 -0.014668208 -0.002396578
000190 7b 50 40 bc fb ec b7 bc 57 4a 46 bc c2 36 6a bd
       -0.011737938 -0.022451868 -0.012102685 -0.057181127
0001a0 37 46 6d 3d 15 b0 63 3c 3b e5 bd 3c c6 42 60 bd
       0.05792829 0.013896962 0.023180595 -0.05475118
0001b0 1f 55 14 3d dc 84 5d 3d 22 91 52 3d 40 27 63 3d
       0.03621399 0.054081783 0.05140794 0.055457354
0001c0 df 12 57 3d 41 b7 49 bd 3f 75 9e 3d 56 6a e7 3c
       0.05250823 -0.04924703 0.07737207 0.028248947
0001d0 18 c5 19 bd 7b 08 f8 bc 99 e7 0a bd 5d 43 e2 3c
       -0.03754148 -0.030277481 -0.033912275 0.027620012
0001e0 29 d6 08 3c 43 e8 8b 3d a8 71 23 bc 1a fe c6 3c
       0.008351841 0.0683141 -0.009975828 0.024291087
0001f0 02 2d 29 bb bd 69 9e bc 7b 6f 7c 3d 6c ca f3 3c
       -0.002581418 -0.01933753 0.061629754 0.029759608
000200 1b 92 d7 bc 36 8c 21 3d 22 63 15 3c 70 91 75 3d
       -0.026314786 0.039440356 0.009117873 0.059953153
000210 22 c1 f0 bc 19 f7 94 3d bd ef 51 bc 8d ad a1 3c
       -0.029388968 0.07273693 -0.012813506 0.019736076
000220 db 75 72 3d 16 6a 30 bd 4f c0 12 3b b5 12 3a 3c
       0.059194427 -0.04306992 0.0022392457 0.011356999
000230 b6 09 6f 3d a7 f1 50 bd f3 11 96 bc 0f 06 05 bc
       0.05835887 -0.051011708 -0.018319106 -0.00811912
000240 74 34 b2 3c 8d ad 71 bd bc 57 c1 bc 6a 19 fc bc
       0.021753527 -0.0590034 -0.023601405 -0.030773837
000250 30 78 8e bb f3 1b 97 bc
       -0.0043478236 -0.018445944

net.9.weight f4 [10, 150]
000000 af 32 91 bc c2 a7 8a bd 83 59 87 bd e9 25 87 3d
       -0.017724363 -0.067702785 -0.0660887 0.06599028
000010 cc 95 1c 3e 85 6b 46 be bb 62 47 bd 13 b4 07 3c
       0.15291518 -0.19376953 -0.04867814 0.008282679
000020 43 04 8a bd bb ba 88 bd 88 02 2d bd b5 ee f2 bb
       -0.06739094 -0.06676241 -0.042238742 -0.00741371
000030 e9 c7 b5 bb 97 c3 fc 3d 6f 0e f9 bd a2 bf 5d bd
       -0.005547513 0.12341993 -0.12160956 -0.054137833
000040 06 1f b7 3c 4b d4 cf 3a 4f 40 00 be 73 1a 37 be
       0.02235366 0.0015856115 -0.12524532 -0.17881183
000050 e6 46 5b be 0e 09 8a bc 9a ab 0d 3d fb 5a de 3a
       -0.21413764 -0.01685002 0.03458748 0.001696437
000060 d7 8e 20 3e 5d 5e b6 3d 9c b4 78 3d ea d1 a8 3d
       0.15679489 0.08904717 0.060719118 0.08243163
000070 2b d5 e6 3d b3 fd 08 bd fc 6f ce 3d f5 eb b5 3d
       0.11271127 -0.03344507 0.10079953 0.08882896
000080 33 7d 35 3d 2a 0a 09 be 18 31 6a bd 8e d8 7c 3d
       0.044308852 -0.13382784 -0.057175726 0.06172996
000090 1e f1 3e bd fd 89 56 3e 22 9e cd 3d 85 91 87 bc
       -0.046616666 0.20951076 0.10039927 -0.016548881
0000a0 af 31 1d 3b b9 af 2b bc df 59 8a bd 70 81 c1 3c
       0.0023985913 -0.010478907 -0.06755423 0.02362129
0000b0 e5 a1 10 3d c6 e8 5a 3d c7 db 7d bc b5 08 b4 bb
       0.035310645 0.053444646 -0.0154942935 -0.005494202
0000c0 57 53 ba 3d 03 6a 23 bd b1 1a 34 3b 0f c7 44 3e
       0.09097927 -0.039896023 0.002748173 0.1921656
0000d0 65 94 f3 bc ec ae 1e 3d 4f d8 66 bc 93 02 84 be
       -0.029733846 0.038741037 -0.014089658 -0.25783214
0000e0 e3 c0 66 bb 05 81 92 bc 48 a0 15 3e df 4a 3d bd
       -0.0035210184 -0.017883787 0.14611924 -0.04621398
0000f0 ba 03 ff 3d 0b b8 ad 3d b4 50 48 be 3d c1 90 bd
       0.12451883 0.08482369 -0.19562036 -0.07068107
000100 66 9f ee bb c2 51 63 3c 96 32 2d bd e2 d0 58 be
       -0.0072821854 0.013874473 -0.04228457 -0.21173432
000110 c2 be 2f be 9a 4c c3 bd 4e ea 8e 3d 0a e2 82 3d
       -0.17162612 -0.09536095 0.06978284 0.0639077
000120 45 42 d2 ba 8f d1 63 bd cb 7c 86 3d 42 28 54 bd
       -0.0016041478 -0.055619773 0.06566771 -0.051796205
000130 29 bf 0f 3e ba 29 af be 8e ff 53 be 8b 83 9d bc
       0.14037766 -0.34211522 -0.20702955 -0.019227764
000140 32 91 3c bd 92 1d 16 bc 61 f4 20 be bd 6a 60 3d
       -0.046036907 -0.009162324 -0.15718223 0.054789294
000150 fb 3f 32 3e b3 d2 a8 bd ef 1a 17 3c 8b ba 54 bd
       0.17407219 -0.08243313 0.00922273 -0.051935714
000160 97 db 28 3d 6c 00 ee bc 67 b9 b8 3d f0 11 61 3e
       0.041225042 -0.029052936 0.09019738 0.21979499
000170 3c c8 82 3c d5 f1 08 3e 53 92 28 bb fc d2 8d bd
       0.01596462 0.13373502 -0.0025721982 -0.06925008
000180 7e 49 e2 3b 69 b8 8d bd 97 4f 1b bd de 12 b5 bc
       0.0069057336 -0.06919939 -0.0379177 -0.022103723
000190 78 ca d3 ba f0 31 4b bd 15 82 5e bd f8 e0 8f 3d
       -0.0016158363 -0.04960817 -0.054323275 0.07025331
0001a0 ee 86 e5 3d 31 b3 77 3c 13 05 58 3d 55 04 b1 bd
       0.112073764 0.015118406 0.052739214 -0.086434044
0001b0 7a 6c 91 bc 2a 03 09 be 66 98 8b bd 58 4b 18 3e
       -0.017751921 -0.13380113 -0.06816177 0.14872491
0001c0 5b d5 ed 3c 80 ac f3 3b 6f c1 73 be c9 a1 01 3d
       0.0290324 0.007436335 -0.23804258 0.03164843
0001d0 be 49 3b 3d ba 0b 7c bd 33 69 5e be b2 4d 74 bd
       0.045724623 -0.06153462 -0.21719818 -0.05964441
0001e0 90 c6 fc 3c 8a d5 a0 3d 56 46 95 bc 03 7c 92 be
       0.0308564 0.07853229 -0.018222015 -0.28610238
0001f0 12 33 9f bc ef 0b 0b 3e d0 6c 23 be 89 46 50 be
       -0.019433532 0.13578771 -0.15959477 -0.20339407
000200 f0 22 aa 3d 63 51 78 bd e5 fa e4 3d 7e fb 4a be
       0.08307445 -0.06062449 0.11180667 -0.19822499
000210 20 5e 94 3d 73 5d 33 be c3 2c 75 bc 19 aa b1 bd
       0.072445154 -0.17516117 -0.014964285 -0.08675022
000220 e0 0b ac 3d e4 8b 6f bc 6c b4 da bd 17 f3 3c 3e
       0.084007025 -0.014620755 -0.10678944 0.18452106
000230 4a f7 37 be 0a 08 89 3d f4 a4 8a 3d 15 27 26 3d
       -0.17965427 0.066909865 0.067697436 0.040564615
000240 ed 33 e6 3b dd 72 50 3d fe e4 0d 3d 29 51 ef 3a
       0.007025233 0.050890792 0.034642212 0.001825844
000250 01 54 9c bd 42 65 e2 bd 00 d5 c3 3d 2c 18 df 3a
       -0.0763321 -0.1105447 0.09562111 0.0017020754
000260 13 25 52 bd 46 80 cf bd 08 94 21 3e 99 db de 3d
       -0.051304888 -0.10131888 0.15779126 0.10881729
000270 f8 64 51 3d dc 9b 92 3d a8 51 36 bc fe 43 03 3d
       0.051121682 0.07158634 -0.011127867 0.032047264
000280 30 21 20 bb 1d c0 4a 3e 4d cb 9a 3d 42 3f ef bd
       -0.0024433844 0.19799848 0.07558308 -0.11681987
000290 62 49 0d 3e 23 45 ee bc 39 33 02 bd 09 45 4b be
       0.13797525 -0.029085701 -0.03178713 -0.19850554
0002a0 48 18 0e 3e 25 f7 3d 3c d0 6a bc bd 74 8b 8f bd
       0.1387645 0.011594568 -0.0920006 -0.070090204
0002b0 1c d6 87 bb f4 f9 33 bd 97 f7 38 bc 4e 4f dd bd
       -0.004145397 -0.043939546 -0.011289499 -0.10806142
0002c0 5e 72 fc bd 85 13 36 3e bc 05 ab bd 7d 28 19 3c
       -0.12326501 0.17780884 -0.08350703 0.009348032
0002d0 c3 7a 4e 3e 7a f9 00 be 80 3e 34 be 14 fd e5 bd
       0.20164017 -0.12595168 -0.17601967 -0.112299114
0002e0 0c fb c0 3c 8b fc ed b9 1c 67 58 3d d7 72 15 3e
       0.023557208 -0.00045392322 0.052832708 0.14594589
0002f0 5e 0e 65 3d 7e 86 41 3e 4e 41 3d 3d a9 16 b6 3c
       0.055921905 0.18898961 0.046204858 0.022227602
000300 8f 8f 24 bc 8b e1 26 bd 9e de 8f 3d de 7a 86 bd
       -0.010043993 -0.04074244 0.07024883 -0.06566404
000310 fa bb e1 bd 45 3a 4a bd c6 d8 85 3b 69 a5 df 3c
       -0.11022182 -0.049371976 0.0040846793 0.027300553
000320 4f 2e a5 bc a5 76 00 bc 1f 08 fa bb 8b 65 26 3d
       -0.020163683 -0.007840787 -0.0076303626 0.040624183
000330 ed 51 2f 3c 7c 6c 76 bd 32 cf 0d be a0 fd e5 3d
       0.010700685 -0.060162053 -0.1384857 0.11230016
000340 05 2d fa 3c 8a 26 1f bd c0 7d b2 bd ab ee 46 be
       0.030539045 -0.038855113 -0.08715391 -0.19426982
000350 79 cb bf bd 4f e2 ac bd 48 f6 a2 3d 66 72 53 bd
       -0.09364981 -0.084416024 0.07957131 -0.05162277
000360 81 e7 f0 3c fb 27 2e be d5 9e b9 3d 22 63 6d 3d
       0.029407265 -0.17007439 0.09063498 0.05795587
000370 34 2c 35 be 30 27 6a be 25 f5 67 3c a8 92 ca 3c
       -0.17692643 -0.22866511 0.014157568 0.024728134
000380 6a 2e 8f bd 58 d4 72 bd 80 03 6d bd 18 40 93 bb
       -0.06991275 -0.059284538 -0.057864666 -0.0044937246
000390 31 ee ae bd e2 33 0e bd 7d 96 b1 bd dc d9 d6 3c
       -0.08541525 -0.034717448 -0.086712815 0.02622693
0003a0 78 21 a0 3d aa 4c 83 3d 3d d4 b2 3e c2 4c eb 3c
       0.07818884 0.06411107 0.3492755 0.028723124
0003b0 ca 5a 56 3d 39 01 f4 3d 8d a4 49 bd 9f f9 32 3d
       0.052332677 0.11914296 -0.049229193 0.04369509
0003c0 51 6e a4 bd 14 2a 34 3d c6 88 ab bd 7b 31 36 be
       -0.08028854 0.04398544 -0.08375697 -0.17792313
0003d0 32 04 4b 3c 99 da 36 bd 06 c2 00 bd 80 d0 73 3d
       0.012391137 -0.044642065 -0.031435035 0.059525013
0003e0 6d e0 23 3c ff 04 df 3b 58 da 89 3d df f6 0e 3d
       0.010002238 0.0068060155 0.06731099 0.034903403
0003f0 8f 74 3a 3d 6f 1c 1f bc e3 1f 5b be 67 78 c6 3d
       0.045521315 -0.009711369 -0.21398883 0.09690934

net.9.bias f4 [10]
000000 0e e6 1e bd 7c 25 2e bd 62 f8 0d 3d 87 43 83 bd
       -0.038793616 -0.042516217 0.034660704 -0.06409364
000010 12 ee 24 3d 72 5e 75 bd 55 02 09 bd 46 f7 bc bd
       0.040266104 -0.059904523 -0.03344949 -0.09226851
000020 b0 3e 11 bd a9 90 80 3b
       -0.035460174 0.003923495
