result/model_15_4.pth (torch, 307183 bytes, 8 tensors)

net.0.weight f4 [20, 1, 4, 4]
0	0x3eb92a4d	0.36165085
1	0x3f12b8bf	0.5731315
2	0x3e766cbe	0.2406492
3	0x3ec66201	0.38746646
4	0xbe63b745	-0.2223788
5	0xbea8062c	-0.3281721
6	0xbf0c6920	-0.5484791
7	0x3e5028f2	0.2032812
8	0xbdecf087	-0.115693145
9	0xbedba0c0	-0.4289608
10	0x3eb6121c	0.3556069
11	0x3e8a750b	0.27042422
12	0x3e637c00	0.22215271
13	0x3ece7c0b	0.40329012
14	0x3ec47826	0.38372916
15	0xbe09485c	-0.13406509
16	0x3ed14983	0.40876397
17	0x3e63c172	0.22241762
18	0x3d8ac82f	0.06776463
19	0x3e867088	0.2625773
20	0xbd88766a	-0.06663211
21	0x3b3968f8	0.0028291326
22	0xbc3f93f5	-0.011692991
23	0x3e9c9c81	0.30588153
24	0xbe8dae28	-0.27671933
25	0xbe7e26a8	-0.24819434
26	0xbe84f472	-0.25967747
27	0xbe436643	-0.19081978
28	0xbc976b17	-0.018483682
29	0xbe92f2e3	-0.28700933
30	0x3d81943c	0.063271016
31	0xbe3cb57e	-0.18428609
32	0x3e51fec3	0.2050734
33	0xbd655c6a	-0.055996336
34	0xbebff071	-0.3748813
35	0xbe49cfa4	-0.19708115
36	0x3e173fd7	0.14770447
37	0x3f379908	0.7171788
38	0x3e87886d	0.26471272
39	0xbeddc731	-0.43316033
40	0xbe65301e	-0.22381637
41	0x3e35120d	0.17682667
42	0x3f20a5f0	0.627532
43	0x3e1add33	0.15123443
44	0xbdffbe43	-0.124874614
45	0xbe7582c9	-0.23975672
46	0x3e55621e	0.2083821
47	0x3dd215ce	0.10258065
48	0x3db87bb5	0.0900797
49	0xbe669c73	-0.22520618
50	0xbeab7715	-0.3348929
51	0xbded1b69	-0.11577494
52	0xbe339b84	-0.17539793
53	0x3e91bfc9	0.28466633
54	0x3e4bd1bf	0.1990423
55	0x3e8972dd	0.26845446
56	0x3e381f71	0.17980744
57	0x3e173a7d	0.14768405
58	0x3e832989	0.25617626
59	0xbdbd7ac5	-0.09251932
60	0x3c47d672	0.012197124
61	0xbe5f831a	-0.21827355
62	0xbd2dde26	-0.042448185
63	0xbda477b7	-0.08030646
64	0x3d80e880	0.06294346
65	0xbb83c4ae	-0.004021249
66	0x3e51a536	0.20473179
67	0xbdfd72fb	-0.123754464
68	0xbe4953c6	-0.19660863
69	0xbe306172	-0.17224672
70	0x3e2a140b	0.16609208
71	0x3db30824	0.08741787
72	0x3e83813b	0.25684533
73	0xbe5fde8a	-0.21862236
74	0xbeb4a4e7	-0.3528206
75	0xbe927bbd	-0.2861003
76	0xbe04f06a	-0.12982336
77	0x3e4a06a9	0.19729103
78	0x3e3546b0	0.17702746
79	0x3e6cd445	0.2312785
80	0xbe64ae9d	-0.22332235
81	0xbe1708e4	-0.14749485
82	0x3e315dcd	0.17320938
83	0xbe2f776e	-0.17135403
84	0x3cc8ba9e	0.024503049
85	0x3d4b333f	0.04960942
86	0x3e7ea570	0.24867797
87	0xbe8dc035	-0.27685705
88	0xbe080783	-0.13284115
89	0x3eb4c439	0.35305956
90	0x3d4e2977	0.050332513
91	0xbe4e1045	-0.20123394
92	0x3e84436e	0.25832695
93	0x3ebb47f4	0.36578333
94	0xbe8d7933	-0.2763153
95	0xbe72b4e0	-0.23701811
96	0x3e8e305a	0.27771264
97	0xbbe7e866	-0.0070772646
98	0xbd09524e	-0.033525757
99	0xbe563f15	-0.20922501
100	0xbe003165	-0.12518843
101	0xbd3daad5	-0.046305496
102	0xbe168994	-0.1470092
103	0xbe533d23	-0.2062879
104	0xbcfdaed4	-0.030967154
105	0xbe8cf730	-0.2753234
106	0xbe682676	-0.22670922
107	0xbcc1ea65	-0.023671338
108	0xbe33ec8e	-0.17570707
109	0xbdf2cf4c	-0.11855945
110	0x3eb79aca	0.35860282
111	0x3e54b420	0.20771837
112	0x3de9b240	0.114109516
113	0xbe4c474d	-0.19949074
114	0xbe061384	-0.13093382
115	0xbd414641	-0.04718614
116	0x3d2f0d4c	0.04273729
117	0xbe5a2c64	-0.21305996
118	0xbde0c9f9	-0.10976023
119	0xbe0f6426	-0.14003047
120	0xbc54cf87	-0.0129889315
121	0xbe046326	-0.12928447
122	0xbd1e4c15	-0.038646776
123	0xbe274e36	-0.16338429
124	0xbe118ce4	-0.14213902
125	0xbe00fc85	-0.12596329
126	0xbd8262af	-0.06366479
127	0xbe2cfade	-0.16892573
128	0x3ea7c7e2	0.32769686
129	0x3d824555	0.0636088
130	0x3ea8c3ea	0.3296197
131	0x3e53a540	0.20668507
132	0xbe5540cc	-0.208255
133	0x3e3462f0	0.17615867
134	0xbd90c41a	-0.070686534
135	0xbd6c8ffc	-0.0577545
136	0xbe92f60e	-0.2870335
137	0xbea815ce	-0.32829136
138	0xbd5a4db9	-0.05329678
139	0xbdb8a035	-0.09014932
140	0x3d9c9231	0.07645071
141	0xbe5084e7	-0.20363198
142	0x3e00dad8	0.12583482
143	0xbe3942d6	-0.18091902
144	0xbd952994	-0.07283321
145	0x3cfbea51	0.03075138
146	0x3e0b6c3b	0.13615505
147	0x3e58f6df	0.21187924
148	0x3e6f0d4d	0.23344918
149	0xbe89bfd4	-0.26904166
150	0x3db156c9	0.08659131
151	0xbe1648d1	-0.14676215
152	0xbdd60300	-0.10449791
153	0xbe63f3da	-0.2226099
154	0x3ea3d1e1	0.31996062
155	0xbe6b458f	-0.22975753
156	0x3d3ebec1	0.046568636
157	0x3d9c649b	0.076363765
158	0x3db3d5b3	0.08780994
159	0xbe3c4d72	-0.18388918
160	0x3eda5564	0.42643273
161	0x3ded80e5	0.1159685
162	0x3b570845	0.0032811326
163	0xbe796fd1	-0.24359061
164	0x3ecda4bd	0.40164748
165	0xbcad1740	-0.02112925
166	0xbe4a9b09	-0.19785704
167	0x3e2e2bd1	0.17008902
168	0x3e8f9d0b	0.28049502
169	0xbe177e88	-0.14794362
170	0xbe68f464	-0.22749478
171	0xbdf3e321	-0.11908556
172	0x3e476f3b	0.19476025
173	0xbd539674	-0.051657155
174	0xbe31a26f	-0.1734712
175	0xbe029b10	-0.12754464
176	0xbe9747e8	-0.29547048
177	0x3e579338	0.21052253
178	0x3e899089	0.26868084
179	0xbeb45eb6	-0.3522851
180	0xbcf9e292	-0.030503545
181	0x3eb34d86	0.35020083
182	0x3da96181	0.082705505
183	0xbe8146c0	-0.2524929
184	0x3e467d3a	0.19383708
185	0x3e8d4193	0.27589092
186	0x3d82a6b9	0.06379456
187	0xbe2e027c	-0.16993135
188	0xbdbba9e8	-0.091632664
189	0x3dd7b65a	0.10532828
190	0xbd15c392	-0.036563464
191	0xbe19551b	-0.14973871
192	0x3e600437	0.21876608
193	0x3e8cd7d9	0.2750843
194	0xbc622015	-0.013801594
195	0xbd9c8339	-0.07642216
196	0x3a81e01f	0.0009908712
197	0x3d0d23e0	0.03445804
198	0x3e0a677d	0.1351604
199	0x3e218e8c	0.15777034
200	0xbe937c36	-0.28805703
201	0xbe056ce4	-0.1302982
202	0x3e3f1d07	0.18663417
203	0x3e028a13	0.12747984
204	0xbd525664	-0.05135192
205	0xbe4fdf0d	-0.20299931
206	0xbe7886c1	-0.24270155
207	0xbe8e762c	-0.27824533
208	0xbe5177df	-0.20455883
209	0xbd368993	-0.044564795
210	0x3e7a79da	0.24460545
211	0x3e8dc613	0.2769018
212	0xbeb73b9b	-0.35787663
213	0xbe98477f	-0.29742047
214	0x3cd40753	0.025882399
215	0x3ee7b41a	0.45254594
216	0xbde0e2aa	-0.10980733
217	0xbe4289f6	-0.1899794
218	0x3e5e0c7f	0.21684454
219	0x3cf51131	0.029915424
220	0xbe952cef	-0.29135844
221	0x3dc3b9e6	0.09556942
222	0xbc442df0	-0.011973843
223	0xbb6b9258	-0.0035945382
224	0xbe591235	-0.21198352
225	0x3e77fe7f	0.24218176
226	0x3e882b3d	0.26595488
227	0x3e0e149a	0.13875046
228	0xbe1f278b	-0.15542428
229	0xbe61e32d	-0.22059317
230	0xbdf6ed1c	-0.12056944
231	0x3ea03476	0.31290025
232	0x3e2a81c2	0.16651061
233	0x3e995a81	0.29951862
234	0x3e3464f1	0.17616631
235	0x3d2b842c	0.041874096
236	0xbcf23727	-0.029567314
237	0xbe5e894e	-0.21732065
238	0xbe8e3ccc	-0.2778076
239	0xbe963c25	-0.29342762
240	0x3e34d1ec	0.17658204
241	0xbda9202b	-0.08258089
242	0xbbdf75ab	-0.006819447
243	0xbda33f4a	-0.07971056
244	0xbc47bfb8	-0.012191705
245	0xbe10bdee	-0.14134952
246	0xbe21caad	-0.15799971
247	0x3da9c76f	0.08289992
248	0xbd5c44e4	-0.053776637
249	0x3dd3c94f	0.10341131
250	0xbdfd571d	-0.12370131
251	0xbe328132	-0.17432097
252	0x3c52de19	0.012870335
253	0xbda3f963	-0.08006551
254	0xbd8902e9	-0.06690008
255	0xbe6d676e	-0.23183987

net.0.bias f4 [20]
0	0x3e4c1d89	0.19933142
1	0xbd9e2651	-0.07722152
2	0x3edc58b7	0.43036434
3	0x3e02e7d4	0.12783748
4	0xbde26a12	-0.110553876
5	0xbe097303	-0.1342278
6	0xbed7de59	-0.42161825
7	0xbeb1bb56	-0.34713238
8	0xbe1e88a2	-0.15481809
9	0x3b980f8d	0.0046405257
10	0x3e5f2fae	0.21795532
11	0x3e078c24	0.13237053
12	0xbe0545fe	-0.13014981
13	0xbdce71ab	-0.10080274
14	0x3dfef546	0.12449126
15	0xbeabd7bd	-0.33563033
16	0x3b73ebaa	0.0037219324
17	0x3df4ca28	0.11952621
18	0xbedb7f01	-0.42870334
19	0x3dc6165e	0.09672235

net.3.weight f4 [40, 20, 5, 5]
0	0xbd4b7a2e	-0.049677067
1	0xbd3bfef3	-0.045897435
2	0x3c67dda2	0.0141519625
3	0x3dd2989e	0.10283016
4	0xbe39a817	-0.18130527
5	0x3bf2fe60	0.007415578
6	0xbc90ef75	-0.017692307
7	0xbe3cae78	-0.1842593
8	0xbdfaf4e1	-0.12253738
9	0xbc304959	-0.010759675
10	0x3d4b2f7b	0.049605828
11	0x3a9c7793	0.0011937491
12	0xb8160492	-3.5767043e-05
13	0x3dbb09e8	0.09132749
14	0x3cea1be8	0.02857776
15	0xbc8ccd07	-0.017187608
16	0xbdb20674	-0.08692637
17	0x3dde8562	0.108652845
18	0x3d704d47	0.058667447
19	0x3d84f92a	0.06492837
20	0xbdd14941	-0.1021905
21	0x3b0a0451	0.0021059702
22	0xbc303aa5	-0.010756169
23	0x3cf65cf3	0.030073619
24	0x3d8a6894	0.06758228
25	0xbd3880a9	-0.045044575
26	0xbd32a2da	-0.04361234
27	0xbda13b17	-0.078725986
28	0xbdb471e8	-0.088107884
29	0xbb8057d9	-0.0039167223
30	0x3d8e5cdd	0.06951306
31	0x3d82e6b3	0.06391659
32	0x3ca00f6f	0.01953861
33	0x3d36b28e	0.044603877
34	0x3b8e167a	0.0043361755
35	0xbdd15c25	-0.10222653
36	0xbd075511	-0.03304011
37	0x3cf8aa3b	0.03035461
38	0x3d945cf6	0.072442934
39	0xbd5bf1a2	-0.053697236
40	0xbd8837c5	-0.06651262
41	0xbe1ed8ac	-0.15512341
42	0xbe02382c	-0.1271674
43	0xbcaed139	-0.02134
44	0xbcc0d19b	-0.023537448
45	0xbd2d4b02	-0.04230786
46	0xbd64f296	-0.05589541
47	0xbd0a0f3c	-0.033705935
48	0x3c8336c8	0.016017333
49	0xbd1a0c89	-0.03760961
50	0x3d95afaa	0.07308896
51	0x3c1e43fd	0.009659764
52	0x3c5ef41c	0.013608005
53	0xbca87512	-0.020563636
54	0xbd1ef060	-0.03880346
55	0x3c93a927	0.018024994
56	0x3d2d669c	0.042334184
57	0xbc8bd6fd	-0.017070288
58	0xbd80c63e	-0.06287812
59	0xbc8d0042	-0.017212037
60	0xbd97d9c1	-0.0741458
61	0xbd4d3a01	-0.050104145
62	0x3d329f9c	0.043609247
63	0x3c21dce3	0.009879324
64	0x3d9615e2	0.073283926
65	0xbdddd54f	-0.10831701
66	0xbc9ec46c	-0.01938077
67	0x3d9be01e	0.07611106
68	0x3d956eb1	0.07296503
69	0x3e1cd511	0.15315653
70	0x3d811cec	0.063043445
71	0x3d805938	0.06267017
72	0x3d300564	0.04297389
73	0x3d04e4a3	0.032444607
74	0x3d9be91c	0.076128215
75	0x3b4f510a	0.0031633996
76	0xbcbb105c	-0.02283495
77	0x3d049d3d	0.032376517
78	0x3cd2fa6a	0.025754172
79	0xbd386496	-0.0450178
80	0xbb96ced0	-0.0046022907
81	0x3c19790a	0.009367237
82	0x3e0d0471	0.13771226
83	0x3e3685ee	0.17824528
84	0x3d6053e9	0.054767523
85	0xbc76a8ae	-0.015054865
86	0x3b490580	0.0030673444
87	0x3ddfd9cb	0.109302126
88	0x3d88216f	0.06647002
89	0x3c2f3513	0.010693806
90	0x3defbdb9	0.117061086
91	0x3e20985c	0.1568312
92	0x3dcca87c	0.09993073
93	0x3b17d07a	0.0023165033
94	0xbde41caf	-0.111382835
95	0x3cee9493	0.02912358
96	0x3d8eacf1	0.0696658
97	0x3dd504fe	0.10401343
98	0x3dbc6c36	0.09200327
99	0x3d8723df	0.06598639
100	0xbc496d7c	-0.0122941695
101	0x3d9a00e0	0.07519698
102	0x3dea1687	0.11430078
103	0x3e05d881	0.13070871
104	0x3ccb2dec	0.02480217
105	0xbb539de8	-0.0032290164
106	0x3d94037b	0.07227226
107	0x3e1fea92	0.15616825
108	0x3dfaec6b	0.122521244
109	0xbd081f65	-0.033233065
110	0x3df403f5	0.11914817
111	0x3e1509fe	0.14554593
112	0x3dd35344	0.10318616
113	0x3d51a706	0.051184677
114	0xbc5ab1fb	-0.013348098
115	0x3d369c58	0.044582695
116	0x3db258d7	0.08708351
117	0x3dfc156a	0.12308772
118	0x3d52e8f0	0.051491678
119	0xbd2220e4	-0.03958215
120	0xbc22eed1	-0.009944634
121	0x3e377e9f	0.17919396
122	0x3e1826c7	0.14858542
123	0x3cbc5a14	0.022992171
124	0xbcdad3df	-0.026712356
125	0x3d21d217	0.039506998
126	0xbd668b40	-0.056285143
127	0x3b5efd32	0.0034025428
128	0x3e2b8e80	0.16753578
129	0x3e4fefef	0.20306371
130	0x3cab6b55	0.020925203
131	0x3abce811	0.0014412423
132	0xbd7ce62f	-0.061742958
133	0xbca41238	-0.020028219
134	0x3cd31d47	0.025770796
135	0xbd875c5e	-0.066094145
136	0xbd4b3159	-0.04960761
137	0xbdc64e5d	-0.09682915
138	0x3caa648d	0.0207999
139	0xbc916849	-0.017749922
140	0x3d19473a	0.037421443
141	0xbd25a8df	-0.04044425
142	0x3c6e8ab8	0.01455944
143	0x3dd0d49d	0.10196803
144	0xbcc01ff8	-0.023452744
145	0x3d9c995f	0.07646441
146	0x3d5471fc	0.051866516
147	0x3db0663d	0.086132504
148	0x3de8461b	0.113414966
149	0x3dd77cd3	0.10521855
150	0x3ca63ad2	0.02029172
151	0x3cc143a9	0.023591833
152	0x3d0a823d	0.03381561
153	0x3d846f0e	0.064664945
154	0x3d97c400	0.07410431
155	0xbbe4b2d8	-0.0069793276
156	0x3ccf1b08	0.025281444
157	0x3dbb730c	0.09152803
158	0x3d96186f	0.07328879
159	0x3d58a986	0.052896045
160	0x3c6cd714	0.0144555755
161	0x3c1237cf	0.008924439
162	0x3d0b799c	0.034051523
163	0x3d35586b	0.044273775
164	0x3d456b7f	0.04819822
165	0x3ba730e3	0.0051022633
166	0xbdeab0a4	-0.11459473
167	0xbddabe00	-0.10680771
168	0xbd1a218c	-0.03762965
169	0xbc417ac2	-0.011809053
170	0xbd88a995	-0.0667297
171	0xbdf0763c	-0.117413014
172	0xbcdf59cb	-0.027264496
173	0xbd10db88	-0.03536561
174	0xbd20c561	-0.039250735
175	0xbcfa4f04	-0.030555256
176	0x3d429e7c	0.047514424
177	0xbcd0a688	-0.025470033
178	0x3da2a89c	0.07942316
179	0x3d7e3967	0.062066462
180	0x3b794daf	0.0038040688
181	0x3ceb8a22	0.02875239
182	0x3c767a9c	0.015043881
183	0x3d989763	0.0745075
184	0x3d9ea6b6	0.07746641
185	0xbd190709	-0.037360225
186	0x3b528b03	0.0032126314
187	0x3bacd19f	0.005274012
188	0x3cb54ff4	0.022132851
189	0x3cd18219	0.02557473
190	0xbcc646c8	-0.024203673
191	0xbdc5c4f6	-0.09656708
192	0xbd85a38a	-0.06525333
193	0x3d1356a4	0.0359713
194	0x3d0de102	0.034638412
195	0xbd708e9c	-0.058729753
196	0xbe0a120a	-0.13483444
197	0xbd6c3fce	-0.057678036
198	0xbd2b968c	-0.04189162
199	0x3d0a5b1c	0.033778295
200	0xbe0186f8	-0.12649143
201	0xbdc666ea	-0.09687598
202	0xbd9cacfb	-0.07650181
203	0xbd9779c6	-0.07396273
204	0xbd00317f	-0.031297203
205	0xbcf818f3	-0.030285334
206	0x3b38ae8a	0.0028180205
207	0x3dd232ce	0.102635965
208	0x3e213ab0	0.15745044
209	0x3ccdf73f	0.02514231
210	0xbe565570	-0.2093103
211	0xbd891cee	-0.06694971
212	0x3d8109f1	0.06300724
213	0x3e0ae5e8	0.13564265
214	0xbd24c0dc	-0.040222988
215	0xbe1db868	-0.15402377
216	0xbe2271a6	-0.15863666
217	0xbe416d55	-0.18889363
218	0xbe15e6a0	-0.14638758
219	0xbd402407	-0.04690936
220	0xbda08ba7	-0.078391366
221	0x3cddf2c6	0.027093302
222	0x3cedcac9	0.02902736
223	0xbd0a5be7	-0.03377905
224	0xbd72d075	-0.05928083
225	0xbcddbe55	-0.027068296
226	0x3d038fab	0.032119434
227	0xbd976d50	-0.073938966
228	0x3d1ff171	0.039048616
229	0xbdc80d2f	-0.097681396
230	0x3cc64d94	0.024206914
231	0xbc46b170	-0.012127265
232	0xbc9c211b	-0.019058755
233	0x3c2b8f8f	0.010471239
234	0x3ba6746d	0.005079797
235	0xbd76ee43	-0.060285818
236	0x3d23f666	0.040029906
237	0x3db79966	0.08964805
238	0xbb626bb6	-0.0034549064
239	0xbd9a7d57	-0.07543438
240	0xbccb3101	-0.02480364
241	0xbda4d0b3	-0.08047619
242	0x3d80e0f6	0.06292908
243	0x3d361253	0.04445107
244	0xbda4e2bf	-0.08051061
245	0x3d63967f	0.055563446
246	0x3d3eb1c7	0.04655626
247	0x3d9e4845	0.07728628
248	0xbb279664	-0.0025571818
249	0x3c97b137	0.01851712
250	0xbc82887a	-0.015934218
251	0x3cb9b8fa	0.022671212
252	0x3bbf08f5	0.005829925
253	0xbc993567	-0.018702222
254	0x3d2f99d4	0.04287131
255	0x3b909e88	0.0044134296

net.3.bias f4 [40]
0	0x3d46919c	0.048478708
1	0xbb228976	-0.0024801171
2	0x3cb36ee5	0.021903465
3	0xbcd8d279	-0.026467549
4	0xbd120d27	-0.035657074
5	0x3ce7303d	0.028221244
6	0xbd428be0	-0.047496676
7	0x3c97e2d8	0.018540785
8	0xbc58e0ce	-0.013237191
9	0xbbfbb978	-0.0076820217
10	0x3c96ba17	0.018399281
11	0x3d569a15	0.052393038
12	0xbcdbf6fc	-0.02685117
13	0x3c2b302e	0.010448499
14	0x3ad8f9da	0.0016553954
15	0xbc3ea4b8	-0.011635952
16	0xbcd3f615	-0.025874177
17	0x3c3a1980	0.011358619
18	0xbcecbf0a	-0.028899688
19	0xbc5b872b	-0.013398926
20	0x3ce883ea	0.028383214
21	0xbcbc0b7c	-0.022954695
22	0x3ba7c529	0.005119939
23	0x3d61c242	0.0551169
24	0xbb9bf8e7	-0.004759896
25	0xbc9ca785	-0.019122848
26	0xbd1ca439	-0.038242552
27	0xbd330672	-0.04370732
28	0x3d491235	0.04908963
29	0xbc4c0a33	-0.012453604
30	0x3bf8b006	0.007589343
31	0x3c83592e	0.016033735
32	0xbca9c9b1	-0.020726057
33	0x3cf5a087	0.029983772
34	0x3d3f7fb6	0.046752654
35	0x3b0ada99	0.0021187423
36	0x3c265685	0.010152464
37	0xbd3ad873	-0.04561658
38	0x3cb949b9	0.022618162
39	0xbcf55251	-0.029946478

net.7.weight f4 [150, 360]
0	0x3ad3b156	0.0016150873
1	0x3a0a6418	0.00052791974
2	0xbd21c09b	-0.039490324
3	0xbddc6b1b	-0.10762616
4	0xbc82b26a	-0.015954215
5	0xbd789e58	-0.060697883
6	0xbd2cb5a8	-0.04216543
7	0xbd3d3767	-0.046195414
8	0x3b216cd1	0.002463151
9	0x3d451750	0.048117936
10	0x3d66c5ec	0.056341097
11	0x3c26115a	0.010135973
12	0x3cadca9e	0.02121478
13	0x3c408a47	0.011751718
14	0x3d9df255	0.07712237
15	0x3e0d4d4a	0.13799015
16	0x3d38ecb0	0.045147598
17	0x3d94798b	0.07249745
18	0x3d521525	0.051289696
19	0x3cde7221	0.02715403
20	0x3d6ab870	0.0573048
21	0xbd718079	-0.05896041
22	0xbd495f3b	-0.049163084
23	0xbc16dbb0	-0.009207651
24	0xbc7705c6	-0.01507706
25	0x3d62130b	0.055193942
26	0x3c0bab9c	0.008524802
27	0xbc69368c	-0.014234196
28	0x3d294b6a	0.041331686
29	0xbcf3b0b6	-0.029747348
30	0xbbaefce3	-0.005340205
31	0xbd5ce85d	-0.053932536
32	0x3d191065	0.03736915
33	0xbd44e339	-0.04806826
34	0x3d04d8e9	0.032433424
35	0xbb8ff0a8	-0.004392702
36	0xbc66509a	-0.014057303
37	0xbc99c56c	-0.018770896
38	0xbb266769	-0.0025391227
39	0x3c2673f8	0.010159485
40	0x3d26d45e	0.040729873
41	0x3d8716d0	0.06596148
42	0x3dbbba7d	0.09166429
43	0xbb716054	-0.0036831098
44	0x3be52528	0.0069929548
45	0x3ceef4c5	0.02916945
46	0xbd4c89fc	-0.04993628
47	0xbdd29b0d	-0.1028348
48	0xbbd7faad	-0.006591162
49	0x3d8bed35	0.06832353
50	0x3e141866	0.14462432
51	0xbd82f1ec	-0.06393799
52	0xbddcfae0	-0.10790038
53	0xbcbee2f5	-0.02330158
54	0x3cb60c5c	0.02222269
55	0x3c02e688	0.007989533
56	0x3cbf1d7e	0.023329493
57	0x3c5c42fe	0.013443707
58	0xbc11d3fb	-0.008900638
59	0x3c7882a4	0.015167866
60	0x3d05db6d	0.032679964
61	0xbbe1f9d0	-0.006896235
62	0x3c572754	0.013131935
63	0xbe0120d2	-0.12610176
64	0xbe010a79	-0.12601651
65	0xbdcb4763	-0.09925725
66	0xbc812aea	-0.015767533
67	0xbd872918	-0.06599635
68	0x3d994293	0.07483401
69	0x3cebacd8	0.028768942
70	0x3cd79d4b	0.02632012
71	0xbb5e6cd7	-0.0033939385
72	0x3d852162	0.06500508
73	0xbd825809	-0.063644476
74	0xbd7f6f51	-0.06236202
75	0x3d4d0205	0.050050754
76	0xbabc3c02	-0.0014361145
77	0xbcb4a15e	-0.022049602
78	0xbd5f269f	-0.05448019
79	0xbd963bf9	-0.073356576
80	0xbd623511	-0.05522639
81	0x3d9d3986	0.07676987
82	0x3aee86bc	0.0018198113
83	0x3cd343c1	0.025789144
84	0x3cbf4c03	0.023351675
85	0x3d9ada5f	0.07561182
86	0xbd2f7f1b	-0.042845827
87	0x3d1c6948	0.03818634
88	0x3d2b1ab6	0.04177352
89	0x3d8fff15	0.07031075
90	0xbd77648d	-0.060398627
91	0xbc205d9f	-0.009787946
92	0x3d5fc894	0.054634646
93	0x3d394e9c	0.045240983
94	0xbd876b04	-0.066122085
95	0xbc6fd744	-0.014638726
96	0xbb4fd4a6	-0.0031712442
97	0xbd820656	-0.06348865
98	0xbda53059	-0.08065862
99	0xbd63e3d8	-0.05563721
100	0x3e000311	0.1250117
101	0x3d7442dc	0.059634075
102	0xbbdee486	-0.0068021445
103	0x3cc14a9e	0.02359515
104	0x3d82493f	0.06361627
105	0xbd874905	-0.06605724
106	0xbcc16af8	-0.023610577
107	0x3d29c065	0.041443247
108	0xbd1e9afa	-0.038722016
109	0xbc1fc83f	-0.009752332
110	0x3c9bd8d1	0.019024285
111	0x3c6ffd05	0.014647727
112	0x3dc1dbe1	0.09465767
113	0xbbf29f5b	-0.0074042506
114	0x3d25f47a	0.040516354
115	0x3cad50d6	0.02115671
116	0x3d6ff77f	0.05858564
117	0xbd2b682a	-0.041847385
118	0x3c4a4691	0.012345926
119	0x3d665114	0.056229666
120	0x3d959d98	0.07305449
121	0xbcf62ba6	-0.03005011
122	0x3d98ed97	0.07467192
123	0xbcd91b0f	-0.02650216
124	0xbd64c021	-0.05584729
125	0xbe24c112	-0.16089275
126	0xbd29f4a8	-0.041493088
127	0xbdb4508b	-0.08804425
128	0x3cfadac9	0.030621903
129	0x3d40c8f9	0.047066662
130	0x3c2ce41e	0.010552434
131	0x3dad17fc	0.0845184
132	0x3d5db82d	0.05413072
133	0x3e09a297	0.1344093
134	0x3d28c856	0.04120668
135	0xbdca6d9f	-0.0988419
136	0xbd661adf	-0.05617797
137	0x3d002727	0.03128734
138	0x3d3673d3	0.044544052
139	0xba68880f	-0.0008870372
140	0x3bff6692	0.0077942098
141	0x3dab4e9c	0.08364603
142	0xbc751fb8	-0.014961176
143	0x3d740d2f	0.059582885
144	0x3cade756	0.021228474
145	0x3bf1865e	0.007370754
146	0xbd526f99	-0.05137596
147	0x3d39ee7f	0.045393463
148	0x3d963996	0.073352024
149	0x3d3a7d0b	0.045529407
150	0xbd3c2798	-0.045936197
151	0xbd5ee6a3	-0.05441917
152	0xbd27f37d	-0.041003693
153	0x3c606c16	0.013697645
154	0x3d019d90	0.031644404
155	0x3d8c8d34	0.0686287
156	0x3d44a20d	0.048006106
157	0xbbcbdab0	-0.006221138
158	0x3d372ad6	0.044718586
159	0x3bc571ce	0.0060255295
160	0x3d0aa9fc	0.033853516
161	0x3d84ebde	0.064903006
162	0x3d0e05cc	0.034673497
163	0xbb04b24d	-0.0020247877
164	0x3cd3f563	0.025873845
165	0xbd0e006b	-0.034668367
166	0x3ca95513	0.02067045
167	0xbd284029	-0.041076813
168	0x3c223ae1	0.009901733
169	0x3d4175a6	0.04723134
170	0x3d44225b	0.047884326
171	0xbd93efb0	-0.07223451
172	0xb9e82d99	-0.0004428446
173	0x3d22b27b	0.039720993
174	0x3d0cb956	0.034356438
175	0xbca38bf8	-0.019964203
176	0xbcd9b841	-0.026577117
177	0x3d3764b1	0.04477376
178	0xbdbfc129	-0.09363014
179	0xbcf06c94	-0.02934865
180	0x3dda8e4e	0.10671674
181	0xbc411dd8	-0.0117869
182	0x3d4d574e	0.05013209
183	0x3dabaf91	0.08383096
184	0x3d97330c	0.07382783
185	0x3de71409	0.11283118
186	0xba81e070	-0.0009908807
187	0x3d9f77bb	0.07786509
188	0x3d636a19	0.055521104
189	0x3ce0bea4	0.027434655
190	0xbd2227b5	-0.03958865
191	0xbd8bebb0	-0.06832063
192	0x3d2e4534	0.042546466
193	0x3d1837ab	0.037162464
194	0xbdc78e55	-0.097439446
195	0x3ccb6da4	0.024832554
196	0x3cce7085	0.025200138
197	0x3dfaa190	0.12237847
198	0x3ce1de4f	0.027571825
199	0x3d325c41	0.04354501
200	0x3d86e40d	0.06586466
201	0xbd0eb6e8	-0.0348424
202	0x3d1ce5e8	0.038305193
203	0xbd1de565	-0.038548846
204	0xbdb06690	-0.08613312
205	0x3d674422	0.05646146
206	0x3ca55cea	0.020185906
207	0x3d279e76	0.040922605
208	0xbbc6fd63	-0.0060726865
209	0xbdb993ed	-0.09061418
210	0x3d2242e6	0.03961458
211	0x3ba44091	0.0050125797
212	0x3c9289d7	0.017887993
213	0x3b8eacaa	0.0043540793
214	0x3cc145f7	0.023592932
215	0xbd1e1825	-0.038597245
216	0xbdd6765b	-0.10471793
217	0xbdaebe6a	-0.08532412
218	0xbd01bb59	-0.03167281
219	0xbd91c560	-0.071177244
220	0xbd36c501	-0.04462147
221	0xbbb4232d	-0.0054973573
222	0xbd650227	-0.055910256
223	0xbbe5f436	-0.0070176376
224	0x3c47caa6	0.012194311
225	0x3d2c7a63	0.042108905
226	0x3cd0ca96	0.025487226
227	0x3e0932b3	0.13398246
228	0x3dbfe3c4	0.09369615
229	0x3c9000b1	0.017578455
230	0x3c7e27d2	0.015512424
231	0x3de443a2	0.111457124
232	0xbc960339	-0.018312084
233	0xbd1dd0ad	-0.038529087
234	0xbdc0cc1b	-0.0941393
235	0xbd79975f	-0.060935374
236	0x3cb8ecf6	0.02257393
237	0x3d200ce2	0.039074786
238	0x3caa9580	0.02082324
239	0x3e151394	0.1455825
240	0x3d22a6e7	0.03970995
241	0xbc4ce21a	-0.012505079
242	0x3d1b55cb	0.037923615
243	0x3c0fcc88	0.008776791
244	0xbd580056	-0.052734695
245	0xbca833e5	-0.020532558
246	0x3c694cb7	0.014239482
247	0x3c2d08fd	0.010561225
248	0xba09cd45	-0.0005256723
249	0x3c722b37	0.014780811
250	0xbd1b40ae	-0.03790348
251	0xbccc8a03	-0.024968153
252	0x3d77bae3	0.060480963
253	0xbb9989fe	-0.0046856394
254	0x3d05b090	0.032639086
255	0x3d0c9927	0.034325745

net.7.bias f4 [150]
0	0x3d812909	0.06306655
1	0x3b7bf21c	0.003844387
2	0x3c7f2365	0.015572404
3	0x3cd8fbe6	0.026487302
4	0xbbb539a4	-0.005530553
5	0xbca309ef	-0.019902198
6	0xbd6da4e1	-0.05801857
7	0x3c302437	0.010750822
8	0x3d051e5a	0.03249965
9	0xbc282a23	-0.010263952
10	0x3cba793b	0.022762885
11	0xbc390736	-0.011293223
12	0xba92a51c	-0.0011188122
13	0x3d80b2f5	0.06284133
14	0xbc224ea0	-0.009906441
15	0xbd291bb8	-0.0412862
16	0x3d0f5c3e	0.03500008
17	0x3d76ad05	0.060223598
18	0xbce4acc8	-0.02791442
19	0xba1fe1eb	-0.0006099033
20	0x3d7bd4d6	0.061482273
21	0xbc0c15f6	-0.008550158
22	0x3ceb7021	0.02873999
23	0xbccc6e67	-0.024954988
24	0x3c8dc98d	0.017308021
25	0xbd290999	-0.04126892
26	0x3c4c2fab	0.012462537
27	0x3d792d78	0.060834378
28	0x3d1d279d	0.038367856
29	0x3cbb8a0f	0.02289298
30	0x3ca7cae4	0.020482488
31	0x3d41b29a	0.04728947
32	0x3b8f0507	0.004364613
33	0x3d7ba73b	0.06143878
34	0x3aed25d3	0.0018092938
35	0xbd81edd5	-0.06344191
36	0x3b782825	0.0037865725
37	0x3c664145	0.014053647
38	0xbcbe833e	-0.02325594
39	0x3b91b3d7	0.0044464874
40	0x3b88d870	0.004176192
41	0xbce9c839	-0.028537856
42	0x3d847e50	0.06469405
43	0x3cdb62d7	0.026780529
44	0x3ce0703e	0.027397271
45	0xbd21b6d3	-0.039480995
46	0x3cf4a017	0.029861493
47	0xbcf91cb0	-0.030409187
48	0x3d257646	0.040395997
49	0xbd671cfd	-0.05642413
50	0xbd52aa26	-0.051431797
51	0x3cad610c	0.02116444
52	0x3b024f25	0.00198836
53	0xbb8c5525	-0.004282611
54	0x3da132a4	0.07870987
55	0x3d2c11e6	0.042009257
56	0x3c69df6e	0.014274461
57	0xbc9e00d6	-0.019287508
58	0xbca0566e	-0.019572463
59	0xbd11cecb	-0.035597604
60	0x3cc9d09f	0.024635611
61	0xbc8e7e45	-0.017394194
62	0x3d873e35	0.06603662
63	0x3ca651f5	0.020302752
64	0xbd9dd99d	-0.07707522
65	0x3d2a7138	0.04161188
66	0xbb32c9e9	-0.0027280992
67	0xbcd74931	-0.026280018
68	0x3cab586d	0.020916188
69	0xbd4d652d	-0.050145317
70	0x3d7c8727	0.06165233
71	0x3d77ee60	0.060530066
72	0x3ce7c10f	0.0282903
73	0xbc49411f	-0.0122835925
74	0xbd9e817b	-0.0773954
75	0xbd3f25a4	-0.046666756
76	0xbd082b5c	-0.033244476
77	0x3cc650b6	0.024208408
78	0x3cf95209	0.030434625
79	0xbc8990e3	-0.01679272
80	0x3d1530c5	0.036423463
81	0xbcc007bd	-0.02344119
82	0xbcbfdbcd	-0.023420239
83	0xbcc81536	-0.024424177
84	0xbd345125	-0.044022698
85	0x3d048165	0.032349963
86	0xbccf46f1	-0.025302382
87	0x3d2ddbdd	0.042446006
88	0xbd6fff12	-0.058592863
89	0x3ce3b7c2	0.027797583
90	0x3cd35346	0.025796544
91	0x3bb36177	0.005474265
92	0x3d45820c	0.048219725
93	0xbc71075c	-0.014711227
94	0x39d4c978	0.00040585897
95	0x39b34748	0.0003419465
96	0xbc62e4dd	-0.013848511
97	0xbd4b9d6e	-0.049710684
98	0xbc3eccaf	-0.01164548
99	0xbb1d1012	-0.0023965877
100	0xbc2c9b32	-0.010535048
101	0xbca45417	-0.020059628
102	0xbc567b57	-0.01309093
103	0xbd642283	-0.055696975
104	0x3d629bb3	0.055324268
105	0xba0e8e4a	-0.0005438073
106	0x3cdd19d3	0.026989853
107	0xbd052c4f	-0.03251296
108	0x3cebedbf	0.02879989
109	0x3d5086ab	0.05090968
110	0x3d88bd44	0.066767246
111	0x3d8931c4	0.06698945
112	0x3c8217ef	0.015880553
113	0xbd71cb88	-0.059031993
114	0x3d823658	0.063580215
115	0x3ce98a09	0.028508203
116	0xbce542bd	-0.027985925
117	0xbd4c1005	-0.049819965
118	0xbd2a29bb	-0.041543704
119	0x3d354a64	0.044260398
120	0x3bdb949c	0.006701065
121	0x3d69b01d	0.05705272
122	0xbc033ced	-0.008010131
123	0x3c8f8ef5	0.017524222
124	0x3c8dd7d5	0.01731483
125	0xbc1f2e83	-0.009715679
126	0x3d55596d	0.052087236
127	0x3bd13108	0.006384019
128	0xbcf44b01	-0.02982092
129	0xbadcc715	-0.0016843999
130	0x3aed655a	0.001811187
131	0x3c5e424d	0.013565612
132	0xbcd434ce	-0.025904085
133	0x3ddbf5ed	0.10740266
134	0xbc7bf187	-0.015377409
135	0x3da0f6cb	0.07859572
136	0x3d83e399	0.06439895
137	0xbd2ef355	-0.04271253
138	0x3b10fa6a	0.0022121915
139	0xbcf899f1	-0.030346842
140	0x3c17049b	0.009217407
141	0xbd534898	-0.051582903
142	0xbc9af77b	-0.018916836
143	0xbc4f7b43	-0.012663665
144	0x3cbc1026	0.022956919
145	0xbd69e5fb	-0.057104092
146	0xbc123981	-0.008924843
147	0x39e9c1eb	0.00044585703
148	0xbcbd8d83	-0.023138767
149	0xbd4f30d4	-0.050583676

net.9.weight f4 [10, 150]
0	0xbc853c32	-0.016264055
1	0xbd8e74d5	-0.06955878
2	0xbda3527d	-0.07974718
3	0x3cf94160	0.030426681
4	0x3e143721	0.14474155
5	0xbe68ad82	-0.22722438
6	0xbd73f7df	-0.05956256
7	0x3c052b82	0.008128049
8	0xbd74b2d8	-0.05974087
9	0xbd58e8eb	-0.052956503
10	0xbd2a3df7	-0.041563
11	0xbc338c48	-0.010958739
12	0x3c91350c	0.01772549
13	0x3e186dd6	0.14885649
14	0xbe1d7659	-0.15377177
15	0xbd871ab8	-0.06596893
16	0x3cb0bcd7	0.02157442
17	0x3c89a1e7	0.016800834
18	0xbe4560d1	-0.19275214
19	0xbe038e5a	-0.12847272
20	0xbe5dbb60	-0.21653509
21	0xbc4d5ac8	-0.012533851
22	0x3d0d7492	0.034535
23	0xbbf658ec	-0.0075179245
24	0x3dea5179	0.11441321
25	0x3dcd92e7	0.10037785
26	0x3cfdcb45	0.030980716
27	0x3de56b03	0.112020515
28	0x3dc5a3ea	0.09650405
29	0xbd05e4ac	-0.03268878
30	0x3dcffbfb	0.10155483
31	0x3d8f377d	0.069930054
32	0x3cf2ff33	0.029662704
33	0xbe24561b	-0.16048472
34	0xbd6bab3a	-0.05753634
35	0x3d5ed3df	0.054401275
36	0xbd7cc6dd	-0.06171309
37	0x3e3fdd36	0.18736729
38	0x3d8e99fd	0.06962965
39	0x3cb8f8d5	0.02257959
40	0x3b9689ad	0.004594049
41	0x3cead3e0	0.028665483
42	0xbe23f5bf	-0.16011713
43	0x3d994e71	0.07485665
44	0x3e61a089	0.22033896
45	0x3da11973	0.07866182
46	0xbd1db7a6	-0.03850522
47	0xbd2a62ba	-0.04159806
48	0x3dacff0e	0.08447085
49	0xbd434e01	-0.047681812
50	0xbd31537b	-0.043292504
51	0x3e532a4e	0.20621607
52	0xbcb84dbf	-0.02249801
53	0x3d50b58e	0.050954394
54	0xbcf44f9f	-0.029823123
55	0xbe69744b	-0.22798268
56	0xbd08d33c	-0.033404574
57	0xbcf17c5f	-0.02947825
58	0x3dd07cc2	0.10180046
59	0xbd4b59c6	-0.04964616
60	0x3e038ba9	0.12846245
61	0x3dbb2b15	0.091390766
62	0xbe608676	-0.21926293
63	0xbd91b75a	-0.0711505
64	0xbc81625f	-0.015793977
65	0x3c6517b2	0.0139827
66	0xbd2d327d	-0.042284478
67	0xbe4deaea	-0.20109144
68	0xbe2eb177	-0.17059885
69	0xbd38038d	-0.04492526
70	0x3d3ccf3c	0.04609607
71	0x3d5c5064	0.053787604
72	0x3b4582bf	0.0030137745
73	0xbd4c136e	-0.049823217
74	0x3d0ac937	0.0338833
75	0xbd55e74f	-0.052222546
76	0x3dc59b69	0.09648783
77	0xbd46d81a	-0.048545934
78	0xbe5cf4e1	-0.21577789
79	0xbcb23cf4	-0.02175758
80	0xbd7eeb69	-0.062236223
81	0xbdcd2cbc	-0.10018298
82	0xbdef012a	-0.11670144
83	0x3de90c37	0.11379283
84	0x3e12b31b	0.14326136
85	0xbe20ed86	-0.15715608
86	0x3d232713	0.039832186
87	0xbd06a071	-0.032867853
88	0x3d38a6d4	0.045080975
89	0x3d04ee6c	0.03245394
90	0x3d6a2466	0.05716362
91	0x3d54b6d4	0.05193217
92	0x3d8398e3	0.06425645
93	0x3e09d4e2	0.13460115
94	0xbb084ec8	-0.002079891
95	0xbd5da820	-0.054115415
96	0x3be2453e	0.006905227
97	0xbd61d482	-0.055134304
98	0xbd1915e9	-0.03737441
99	0xbcb4fe6e	-0.022093978
100	0x39712fe1	0.00023001387
101	0xbd42568d	-0.047445823
102	0xbd7957d1	-0.060874764
103	0x3da27e46	0.07934241
104	0x3dc43fb1	0.09582461
105	0xba9bceef	-0.0011887233
106	0x3c478672	0.01217805
107	0xbe3759f0	-0.17905402
108	0xbc6f049a	-0.014588499
109	0xbe2f4303	-0.17115407
110	0xbe34852b	-0.17628925
111	0x3e26c366	0.16285476
112	0xbb706a44	-0.0036684433
113	0xbcaca3c8	-0.02107419
114	0xbe58d16b	-0.21173637
115	0x3cef38d2	0.029201899
116	0x3d1de77a	0.03855083
117	0xbd2af25a	-0.04173503
118	0xbe3f0c74	-0.18657094
119	0xbda7e360	-0.08197665
120	0xbcf52d5e	-0.02992886
121	0x3e0ab736	0.13546452
122	0xbc81c4ef	-0.015840976
123	0xbd95fa35	-0.07323114
124	0xbcf44e46	-0.02982248
125	0x3dcaf4d7	0.09909981
126	0xbe0ad268	-0.13556826
127	0xbe2ef2b5	-0.17084773
128	0x3d99424b	0.074833475
129	0xbd8eca5e	-0.06972192
130	0x3d9e0a3c	0.07716796
131	0xbd6c4d22	-0.057690747
132	0x3d9b451b	0.0758154
133	0xbe1f5b08	-0.1556207
134	0xbd2d351a	-0.04228697
135	0x3bc289eb	0.0059368513
136	0x3dbd67e0	0.09248328
137	0xbc6070c8	-0.013698764
138	0xbd4c548c	-0.049885318
139	0x3d253a00	0.040338516
140	0xbda131fc	-0.07870862
141	0x3d855e91	0.06512178
142	0x3d9113f0	0.07083881
143	0x3cfa82b4	0.030579902
144	0xbd5106a5	-0.051031727
145	0x3d531bf3	0.051540326
146	0x3d41bd5e	0.047299735
147	0x3ccd5516	0.025064986
148	0xbb63739e	-0.0034706364
149	0xbd3a594b	-0.045495313
150	0x3d4bd2c0	0.049761534
151	0x3cc24eed	0.023719275
152	0xbd45b03f	-0.048263784
153	0xbdc12f7c	-0.09432885
154	0x3e1b6e91	0.15178896
155	0x3dadc689	0.08485133
156	0x3d144adc	0.036204204
157	0x3da434d6	0.0801789
158	0xbd2538ca	-0.04033736
159	0x3cddaf07	0.027060999
160	0xbb104fdd	-0.0022020258
161	0x3e2c9a30	0.16855693
162	0x3d99801a	0.074951366
163	0xbe1bc2b9	-0.15211
164	0x3dce5194	0.100741535
165	0xbcdb214f	-0.026749281
166	0xbd039d05	-0.032132167
167	0xbe321aad	-0.17392989
168	0x3deac0d6	0.11462562
169	0x3ca06b30	0.019582361
170	0xbdcf80fd	-0.101320244
171	0xbd9a4400	-0.07532501
172	0xbb876609	-0.0041320366
173	0xbd944aa0	-0.07240796
174	0xbd2e10a2	-0.04249633
175	0xbdcbf043	-0.09957936
176	0xbc72ffa6	-0.014831459
177	0x3e24e750	0.16103864
178	0xbdbdcc67	-0.09267502
179	0x3c2c83eb	0.010529499
180	0x3e5ae099	0.2137474
181	0xbde72e15	-0.11288086
182	0xbe3ab62f	-0.1823356
183	0xbdbb0aa6	-0.091328904
184	0x3cd0c601	0.02548504
185	0xbb529fc0	-0.0032138675
186	0x3d58ca0d	0.052927066
187	0x3deed459	0.11661596
188	0x3cc1ab9a	0.023641396
189	0x3e275373	0.16340427
190	0x3d8a06fe	0.06739615
191	0x3e09ab77	0.13444315
192	0xbd9cb0aa	-0.076508835
193	0xbd9f1b5e	-0.07768892
194	0x3e2dd91a	0.16977349
195	0xbd85636b	-0.06513103
196	0xbdde335c	-0.1084964
197	0xbd9029d4	-0.07039228
198	0xbaa7a548	-0.0012790347
199	0x3cdc8c4e	0.026922371
200	0x3c2caf23	0.010539803
201	0xbcbfdddb	-0.023421219
202	0x3d40c18c	0.04705958
203	0x3d0ace2b	0.033888023
204	0xbc70c966	-0.014696455
205	0xbda463ef	-0.08026873
206	0xbe0a8995	-0.13529046
207	0x3e06f929	0.13180985
208	0x3bd134f7	0.0063844877
209	0xbd244b25	-0.040110726
210	0xbde632bd	-0.11240146
211	0xbe466394	-0.19373924
212	0xbdd88959	-0.10573072
213	0xbd8e9611	-0.06962217
214	0x3d708cff	0.058728214
215	0xbd5660a1	-0.052338246
216	0x3cf0e77a	0.029407252
217	0xbdfb9f52	-0.12286247
218	0x3da18d72	0.07888307
219	0x3d9a2a55	0.075276054
220	0xbe327314	-0.17426711
221	0xbe7519a8	-0.23935568
222	0x3cc898c8	0.024486914
223	0x3cbf6800	0.02336502
224	0xbd78166c	-0.06056826
225	0xbd91014f	-0.07080328
226	0xbe2451d5	-0.16046841
227	0xbcc80728	-0.024417475
228	0xbd9a7755	-0.07542292
229	0xbd478440	-0.048710108
230	0xbdd30d61	-0.10305286
231	0x3d84eddc	0.064906806
232	0x3d6b69aa	0.057473816
233	0x3ded7788	0.115950644
234	0x3de08b2b	0.10964044
235	0x3e1c26f7	0.15249239
236	0xbd8e0e23	-0.0693629
237	0x3d889fcb	0.06671103
238	0xbd7a7c47	-0.061153676
239	0x3d3f6ff7	0.046737637
240	0xbd685117	-0.05671796
241	0x3c684feb	0.01417921
242	0xbe186afb	-0.1488456
243	0xbe403e8d	-0.18773861
244	0x3c417eb6	0.011809995
245	0xbcd668fb	-0.026173105
246	0xbd0105c4	-0.03149964
247	0x3d7a1699	0.061056707
248	0x3c1703db	0.009217228
249	0x3bdef3c8	0.0068039633
250	0x3d8ddcea	0.06926902
251	0x3d122742	0.03568197
252	0x3da00178	0.0781278
253	0xbcf737ed	-0.030178035
254	0xbe265ffc	-0.16247553
255	0x3db04e91	0.08608735

net.9.bias f4 [10]
0	0xbd1d8f87	-0.038466956
1	0xbd444483	-0.0479169
2	0x3d008a45	0.031381864
3	0xbd9d4dd7	-0.076808624
4	0x3d2c384b	0.042045873
5	0xbd44bdbf	-0.04803252
6	0xbd45b762	-0.04827059
7	0xbdb6fbfc	-0.08934781
8	0xbcc187f7	-0.023624403
9	0x3bd3f794	0.0064687226
