result/model_19_4.pth (torch, 307183 bytes, 8 tensors)

net.0.weight f4 [20, 1, 4, 4]
000000 3a a9 dd 3e ce 08 0d 3f 25 44 47 3e 9e 9d eb 3e
       0.43293172 0.5509156 0.19459589 0.4601869
000010 4d 50 78 3d 7b c5 32 be 44 58 e2 be 77 83 80 3e
       0.060623456 -0.17458145 -0.44207966 0.251003
000020 48 af ab 3d 3e 80 a7 be ce 98 bf 3e 40 00 80 3e
       0.083830416 -0.3271503 0.37421268 0.2500019
000030 f9 54 9b 3e f0 d6 a9 3e 68 9b b0 3e c3 ff 17 be
       0.30338266 0.33171797 0.34493566 -0.14843659
000040 7f a4 d9 3e f5 2c 90 3e fc 84 cd 3d ea 6e 86 3e
       0.42508313 0.281593 0.100351304 0.26256496
000050 92 dd e5 bd c1 12 85 3c 39 ab 49 bd 10 8f 48 3e
       -0.11223902 0.016244294 -0.049235556 0.19585824
000060 b1 9d 8f be 56 f6 63 be bc 9c 71 be ae 5a 58 be
       -0.28049996 -0.22261938 -0.23594946 -0.21128342
000070 c1 01 ac bc bb fb 94 be 06 7c 8d 3d 8b 28 50 be
       -0.02099693 -0.29098305 0.06908421 -0.20327966
000080 1d fc 62 3e 1c 3a 6f bc 34 38 df be fb e5 93 be
       0.22166486 -0.014601257 -0.43597567 -0.288864
000090 e7 8f 25 3e 38 a3 43 3f cb ac b6 3e 28 00 d8 be
       0.16168176 0.7642093 0.35678706 -0.4218762
0000a0 df 18 67 be ac 77 5d 3e eb 2e 25 3f 80 7d 49 3e
       -0.22568081 0.21627682 0.64524716 0.1967678
0000b0 2c 9e 56 be b4 c2 8e be 00 d1 5c 3e fc f9 80 3e
       -0.20958775 -0.27882922 0.21564102 0.25190723
0000c0 fb e1 e6 3d b9 d8 6c be fb b0 cb be 4b 23 07 be
       0.11273571 -0.23129548 -0.39783463 -0.13197057
0000d0 f1 98 20 be bc ad 96 3e ab ad 4c 3e 13 d5 97 3e
       -0.15683343 0.29429424 0.19988124 0.2965475
0000e0 8f ce 0e 3e 20 8d 18 3e 9b 7a 97 3e 21 f9 bf bd
       0.13945983 0.14897585 0.29585728 -0.093736894
0000f0 3e 65 06 3c 1d 7f 6d be 5a 9f 3b bd 8c 1c a2 bd
       0.008202849 -0.23193021 -0.045806266 -0.07915601
000100 93 40 6e 3d 0c 10 a1 3c d3 2f 8f 3e ce 15 d1 bd
       0.05816705 0.019660972 0.27966174 -0.10209237
000110 62 ac 48 be 4a 14 32 be d9 db 3e 3e 92 c7 9a 3d
       -0.19597009 -0.17390552 0.18638553 0.07557596
000120 34 e9 6f 3e 20 31 7a be e3 0b b8 be 08 02 93 be
       0.23428804 -0.24432802 -0.3594657 -0.28712487
000130 f3 ea 0e be 17 5c 18 3e 7c 7e 15 3e f6 2a 85 3e
       -0.13956814 0.1487888 0.14599031 0.2600934
000140 09 75 37 be ae ef 9a bd a6 e9 50 3e 98 3b 3a be
       -0.17915739 -0.075652465 0.2040163 -0.18186796
000150 8b 6b d9 3d 36 4f dd 3d 13 09 5b 3e 9b 77 9f be
       0.10616215 0.10806124 0.2139018 -0.3114594
000160 da 7c 52 bd b1 b0 a0 3e 7a c6 b3 bc b1 97 6a be
       -0.0513886 0.31384805 -0.021945227 -0.22909428
000170 83 87 94 3e 19 b7 aa 3e f1 21 9d be d6 6c 91 be
       0.29009637 0.33342817 -0.30689958 -0.28403348
000180 c0 6d a4 3e 59 c1 96 3c ed c0 0b bd f8 4d 6b be
       0.32114983 0.018402742 -0.034119535 -0.22978961
000190 d9 1d ec bd 05 8e 4e bd 19 2f 23 be 10 12 33 be
       -0.115291305 -0.05042841 -0.15935935 -0.17487359
0001a0 ca 57 9d bd 1a 27 9e be d0 b1 9b be 6a 3d a6 3b
       -0.0768276 -0.30889207 -0.30409098 0.005073239
0001b0 2d 80 42 be 2f 58 0f be 72 c9 9f 3e ec ee 88 3e
       -0.18994208 -0.13998483 0.31208378 0.26744783
0001c0 1e 13 cf 3d 48 f7 4d be e4 0b 0e be 9e fd 7b bd
       0.10111068 -0.20113862 -0.13871723 -0.061521165
0001d0 29 a5 1d 3d 33 ca 53 be dd 43 f7 bd c5 af 2c be
       0.038487587 -0.20682602 -0.12073491 -0.16863926
0001e0 eb e4 2d bc 17 39 04 be a7 03 a0 bd ac 8b 50 be
       -0.01061366 -0.12912403 -0.07813197 -0.2036578
0001f0 e6 9a 09 be fb 18 06 be 4e ae c8 bd 72 90 3c be
       -0.13437995 -0.13095467 -0.09798871 -0.18414477
000200 1a 36 ab 3e 1b d5 b0 3d d7 e9 a7 3e 10 33 4e 3e
       0.33439714 0.08634397 0.32795593 0.20136666
000210 b7 8c 47 be af da 47 3e 26 95 88 bd 68 e4 69 bd
       -0.19487272 0.19517015 -0.06669073 -0.05710259
000220 0a 4f 92 be 0b 6b ac be b8 c4 7b bd 41 64 cc bd
       -0.28575927 -0.33675417 -0.061466902 -0.099800594
000230 d3 d5 7a 3d 13 5c 6c be 58 6d c7 3d 78 a9 44 be
       0.061239075 -0.23081999 0.097376525 -0.19205272
000240 80 26 aa bd f6 1a 83 3d 50 74 55 3e 2c 2b a9 3e
       -0.083081245 0.06401627 0.20845151 0.3304075
000250 e7 14 82 3e f6 38 86 be 1f 99 24 3e 89 92 35 be
       0.25406572 -0.26215333 0.16074036 -0.1773168
000260 3d bf f1 bd 4e b5 58 be 44 2c ad 3e 0f 05 a1 be
       -0.11804054 -0.21162912 0.33822834 -0.31449172
000270 87 a1 75 bc ad 84 63 3d 2e a0 9e 3d c1 cf 5f be
       -0.014992124 0.05554645 0.077453956 -0.21856596
000280 bb 87 e1 3e 6a e1 c0 3d 4d d6 81 3c bf aa 48 be
       0.44048867 0.09417994 0.015849257 -0.19596384
000290 eb 28 c8 3e 61 aa d2 bc 6f fb 38 be 87 f4 58 3e
       0.39093718 -0.025716009 -0.18064664 0.2118703
0002a0 13 68 98 3e 74 42 1e be b5 a9 7e be 09 09 e7 bd
       0.29766902 -0.15455037 -0.24869426 -0.1128102
0002b0 eb ff 81 3e 1f 74 8e bd 0e f9 7a be 1a 4a 41 be
       0.25390562 -0.06955742 -0.2450907 -0.18875924
0002c0 88 92 81 be 0d 48 92 3e ea 6a 76 3e a5 0f bb be
       -0.25307107 0.28570595 0.24064222 -0.36535373
0002d0 cf 29 df 3c 2f b2 bf 3e 33 22 89 3c 4a 76 8c be
       0.027241616 0.3744063 0.01673994 -0.27433997
0002e0 52 b4 58 3e 79 21 a0 3e cd 09 12 3c fd d5 66 be
       0.21162537 0.31275538 0.0089134695 -0.22542568
0002f0 2f 8f 95 bd e4 a8 21 3e da fb 8e bd ff bd 46 be
       -0.07302701 0.15787083 -0.069816306 -0.19408415
000300 c6 bd 57 3e d2 91 8f 3e a0 37 c2 3b 0f 0d 50 bd
       0.21068487 0.2804094 0.005927041 -0.050793704
000310 60 62 b9 3a ee a1 5a 3d 2a b7 28 3e 9f 28 37 3e
       0.0014143698 0.053377084 0.16476122 0.1788659
000320 b2 f3 9b be 60 de 10 be 65 bd 3c 3e 3d c9 09 3e
       -0.30459362 -0.1414733 0.18431623 0.13455673
000330 af be a1 bd 43 dd 68 be 3d 6b 7f be 2f f8 93 be
       -0.07897698 -0.22740655 -0.24943252 -0.28900287
000340 ee a3 4b be 78 01 5c b7 16 2c 87 3e 0a 90 94 3e
       -0.19886753 -1.3113364e-05 0.26400822 0.29016143
000350 12 2e c1 be 5e 61 9c be ae e0 2b bb 9c 72 f8 3e
       -0.3773046 -0.30543035 -0.0026226449 0.4852494
000360 17 73 ec bd 6e 38 68 be 81 8b 0c 3e c5 f8 d6 3d
       -0.11545389 -0.22677776 0.13725092 0.10496668
000370 fa 3e 8b be 4d d0 85 3d 0b 8d 87 bd e9 e1 b6 3d
       -0.27196485 0.06533871 -0.06618699 0.08929808
000380 29 c9 5f be 48 3e 70 3e ef e7 88 3e 43 18 1b 3e
       -0.2185408 0.23461258 0.2673945 0.15145974
000390 f1 d6 27 be a9 0f 4c be 5e 19 cd bd 61 59 aa 3e
       -0.16390587 -0.19927849 -0.10014604 0.33271316
0003a0 18 3e 13 3e d5 e8 8a 3e 27 bb f3 3d de 7c 39 3d
       0.14379156 0.27130762 0.11900931 0.0452851
0003b0 e1 b3 2e bc a5 76 6b be 15 4e 9b be 90 72 95 be
       -0.010663004 -0.22994478 -0.3033301 -0.29188967
0003c0 15 0f 21 3e 21 13 a9 bd 98 d9 f6 bb 52 ea be bd
       0.1572841 -0.08255602 -0.0075332634 -0.09322037
0003d0 6f be 88 bc fc e8 17 be 14 c9 37 be f1 c7 0d 3d
       -0.016692368 -0.1483497 -0.17947799 0.034614507
0003e0 7c 64 6a bd ea bf 8f 3d 9d 2c 28 be 71 ab 4d be
       -0.057224736 0.070190266 -0.16423269 -0.20084931
0003f0 35 92 95 3c 14 18 b7 bd 0b 37 8a bd 01 81 4f be
       0.018258194 -0.089401394 -0.0674878 -0.20264055

net.0.bias f4 [20]
000000 38 bc 65 3e a2 28 de bd ea 18 e3 3e 20 69 10 3e
       0.22435081 -0.10847594 0.44354945 0.14102602
000010 ed 75 c9 bd 3c 55 d6 bd b2 4b d4 be 42 40 b3 be
       -0.09836946 -0.10465476 -0.41464 -0.35009962
000020 0a e3 19 be af 28 a2 3d 32 4f 7d 3e d2 51 17 3e
       -0.15028015 0.07917916 0.24737242 0.14777306
000030 b5 cd f7 bd 17 15 f0 bd 95 36 04 3e 3d 8a bf be
       -0.120997824 -0.117227726 0.12911446 -0.37410155
000040 83 ba 0a 3d 2d 25 f8 3d df 77 d0 be 8f 2a 0a 3e
       0.033869278 0.12116466 -0.40716454 0.13492797

net.3.weight f4 [40, 20, 5, 5]
000000 e2 55 18 3b 7e 87 20 bd 47 db 3c be 31 c9 55 be
       0.002324455 -0.039191715 -0.18443023 -0.2087753
000010 1f a8 1f be 9f 29 97 3d e4 dd e5 bc 33 c1 09 be
       -0.15591477 0.073809855 -0.028059907 -0.13452606
000020 12 1d 7b bd f5 dd 88 bc 61 9c 7f 3d 8f c0 d3 3c
       -0.06130702 -0.0167074 0.062404994 0.025848655
000030 8b f1 18 3e bf 64 2f bb 71 60 0b be be c4 3a bd
       0.14935891 -0.002676293 -0.13611008 -0.045597784
000040 dc d5 0b 3d f3 1f ec 3c 74 bd 4d bd 7a ea b9 bc
       0.0341395 0.028823828 -0.050229505 -0.022694815
000050 66 89 7d 3c ed 40 13 bc ad a0 bf bb 5d b7 c9 bc
       0.015474653 -0.0089876475 -0.0058480115 -0.024623567
000060 c8 12 e7 bd 99 0a 60 3c 64 ca 4b ba b3 54 aa bd
       -0.11282879 0.013674402 -0.0007773994 -0.08316936
000070 32 1d c2 bd d4 f0 e7 bc 88 ac ae 3b d5 b1 4f bd
       -0.09478225 -0.028313078 0.005330626 -0.050706703
000080 ce f8 fd bd 2a fe 46 bd 34 0e 2b bd 60 c2 d1 bd
       -0.12400971 -0.048582233 -0.041761592 -0.10242152
000090 a4 09 e1 bd 23 a1 4b bb 37 6c 85 3c ca 29 6a bd
       -0.10988167 -0.0031071387 0.016286952 -0.05716876
0000a0 c4 f3 ba 3c f7 5f aa bd b2 d8 5a bc b6 7b 4d 3d
       0.022821315 -0.08319085 -0.013357328 0.050166808
0000b0 9d 83 c2 3c 34 29 70 3d d1 d3 59 bc c9 7b 08 3d
       0.023744399 0.058633044 -0.01329513 0.033321176
0000c0 33 50 9a 3d ba 18 5b 3b 15 06 3f 3d 6f 76 f6 3b
       0.07534828 0.0033431486 0.04663666 0.0075214426
0000d0 a8 27 c7 bb 24 c3 d0 3c 5c 83 a4 3d e3 e9 0c be
       -0.0060777254 0.025483675 0.08032867 -0.13761096
0000e0 5b df 68 be 57 4e 53 bd 1d ee 32 3d 7f 71 20 3d
       -0.22741453 -0.051588383 0.043684114 0.03917074
0000f0 80 96 48 bd 27 01 71 3b 87 2f 7f 3d 09 85 5d 3c
       -0.048971653 0.0036774368 0.062301185 0.013520488
000100 14 22 4c bd ef 73 10 3e cb 5c 2b 3e 49 29 a3 3d
       -0.049837187 0.14106725 0.16734616 0.07966859
000110 46 ad 6b bd 0e 34 bb bd 24 5e d7 3d da 0b 05 3e
       -0.057538293 -0.09140788 0.10516003 0.12992802
000120 13 3b 9a 3d 4d 5a 02 bc f5 c6 10 3c c4 ec 10 3d
       0.07530799 -0.0079561 0.008836498 0.035382047
000130 9f 91 13 3d ea f9 cb 3d 73 5f 0c 3e 9c 85 d4 3d
       0.036027547 0.09959777 0.13708286 0.103770465
000140 b9 1d 48 3d 93 a3 aa 3d c6 fb 05 3e b2 96 1a 3e
       0.04885647 0.083319806 0.13084325 0.15096548
000150 b7 d4 c8 3d 67 cd 20 bd c3 46 1a bd 7e c7 61 3c
       0.09806197 -0.039258387 -0.03766514 0.013780473
000160 9a d4 a4 3d 35 db a0 3d 28 ce e6 bd 78 e7 b3 3d
       0.08048363 0.078543104 -0.1126979 0.087843835
000170 8c bc 2c 3e 54 8e 16 3e 1c 46 1f 3b 03 47 3a bd
       0.168688 0.14702731 0.0024303263 -0.04547788
000180 5d 02 69 3d 4a 0b cd 3d 4f 63 5b 3d b8 74 17 bd
       0.05688702 0.10011919 0.053561505 -0.036976546
000190 b8 55 4f 3d 56 4c 40 3e b5 c3 5a 3e bc f3 fa 3d
       0.050618857 0.1877912 0.21363719 0.1225352
0001a0 88 62 c8 3c 8d c3 e4 3b ca 6b 4f bc b5 e6 a3 3c
       0.024461046 0.0069813193 -0.012659976 0.02000747
0001b0 88 79 dd 3d d8 dd c9 3d 78 c3 5c be 72 49 3c bd
       0.10814196 0.098567665 -0.2155894 -0.04596848
0001c0 36 46 b1 3d 46 b0 51 3e 70 20 b4 3d c9 55 43 bd
       0.0865597 0.20477399 0.087952495 -0.047689233
0001d0 96 c4 15 3e 77 5a 92 3e f9 9c 08 3e 66 c2 0e bd
       0.14625773 0.28584644 0.1334113 -0.03485336
0001e0 4c d0 5b 3d 4f b3 07 3e 42 c3 ba 3d 6b c2 bc bc
       0.053665444 0.13251995 0.09119274 -0.023041924
0001f0 23 3a d1 bd 41 4a 9b 3d ec 56 8a 3b ae 27 99 b9
       -0.10216167 0.07582522 0.0042217877 -0.00029211998
000200 e2 80 6e 3d ff 44 b0 3d 27 e9 64 3e bc 16 4d 3e
       0.05822838 0.0860691 0.22354566 0.20028204
000210 6c 02 05 3d e7 cd ca 3c c2 df 16 3d 70 b0 da 3d
       0.032473013 0.024756385 0.036834486 0.10678184
000220 42 a2 7e 3d a3 f9 11 be d8 7e 56 3c 4f d8 14 3d
       0.06216646 -0.14255385 0.013091765 0.0363391
000230 76 16 68 be b3 45 88 be 94 7b 18 be 71 0d a6 3a
       -0.22664818 -0.26615676 -0.14890891 0.0012668801
000240 63 41 7d 3c 8a 8c 42 be d5 7b 16 be 0a 66 e8 bd
       0.015457484 -0.18998924 -0.14695676 -0.113475874
000250 2f 54 91 3c 10 d1 a6 3d 1a ef 02 3d f5 be fe 3c
       0.017740337 0.08145344 0.031966306 0.031096915
000260 9e 5a 31 3d 1a f8 55 3c 80 d1 2a bb ef 1a bd 3c
       0.04329931 0.01305964 -0.0026064813 0.023084132
000270 95 ac 40 3d a5 0d e3 3c be 80 6d bd e4 ce a7 bc
       0.047039587 0.027716467 -0.057984106 -0.020484395
000280 d7 a0 15 bd 4d 40 0a be 7f e3 cf bd 68 7a b0 bb
       -0.036530342 -0.13501091 -0.10150813 -0.0053856857
000290 09 12 3a 3d c0 79 54 bd 3f 29 39 be 7d 21 f1 bd
       0.045427356 -0.051873922 -0.1808214 -0.117739655
0002a0 9e 04 2b bc 82 e2 70 3c b6 ee 5e bc 0e e6 98 bd
       -0.010438113 0.014702441 -0.013606718 -0.074657544
0002b0 ba 39 f0 3b 6a de 8f bc 31 0c 61 bb d1 e3 8c bc
       0.0073311003 -0.01756211 -0.0034339542 -0.017198475
0002c0 ad 09 56 3d 59 e0 14 bd a2 b1 fc 3c 47 bb 60 3c
       0.05225532 -0.036346767 0.03084642 0.013716525
0002d0 53 f0 b1 3a df 80 c7 3a 0a f2 40 bd 34 6e cb 3a
       0.001357565 0.0015220902 -0.047105826 0.0015520514
0002e0 bc 68 37 3d f3 68 48 bd 4f f2 6b bd cf ef 9c bd
       0.044777617 -0.048928212 -0.05760413 -0.07662927
0002f0 88 19 11 bb 83 8a d5 3c 82 c0 d7 3b b7 da 8a bd
       -0.0022140462 0.026067024 0.006584228 -0.06779998
000300 9d 9f 64 bd c6 9d 18 3d 25 7f 4a 3d 55 95 1d 3c
       -0.05581628 0.03725984 0.04943766 0.009618123
000310 78 80 37 bd 92 4a 3b bc 06 27 cb bc 9f b4 83 3d
       -0.04480025 -0.011431353 -0.024798881 0.06430935
000320 a2 db e4 bd 65 7d 18 be 25 ef 38 be 9f 07 b8 bd
       -0.11174704 -0.14891584 -0.18059976 -0.089858286
000330 ba 25 33 3c 05 4e d4 bd ec 45 ee bd 08 64 60 bd
       0.010934288 -0.103664435 -0.1163443 -0.054782897
000340 b8 cc a1 3c 60 19 0d 3d 36 df 63 be 18 aa 3e be
       0.019750938 0.034448028 -0.22253117 -0.18619573
000350 b4 13 21 bd f3 47 1e 3d 98 1c 8b 3a 18 a3 01 be
       -0.03932543 0.038642835 0.001061338 -0.12659872
000360 13 77 83 bd a4 2b 9c 3d e1 3d c4 3d 79 c1 d2 3d
       -0.06419196 0.07625511 0.09582115 0.10290808
000370 d7 7a 11 3d 67 98 e6 3d 7f 0a 00 3e b9 2a 84 3d
       0.03551754 0.11259537 0.12504004 0.06453461
000380 ce ef 38 3b d9 a6 a6 bd d4 c1 05 be 79 14 de bc
       0.0028219107 -0.081372924 -0.13062221 -0.027109371
000390 9b ec 90 bd c0 ab 81 bd 3e 63 c5 3d 13 71 ae 3d
       -0.07076379 -0.06331587 0.096380696 0.08517661
0003a0 64 86 0c 3d 26 ee cd 3d 6c 57 dc 3d e7 c5 49 3c
       0.034307852 0.10055189 0.10758862 0.01231525
0003b0 8e be cc 3d e0 13 d7 3d e5 cd 61 3d 97 fa 9f 3c
       0.09997283 0.10501838 0.055127997 0.01952867
0003c0 46 f8 b1 bd 17 db 03 be f7 95 56 3d ff 15 e3 3d
       -0.086899325 -0.12876545 0.05238911 0.1108818
0003d0 71 b2 88 3d 99 78 35 bc 93 6e 2a 3d 26 01 90 3d
       0.0667466 -0.011076116 0.041609358 0.07031469
0003e0 bd 55 1a 3d 0b 8c 94 3c 25 55 9d 3c 29 04 a5 bd
       0.037679423 0.018133184 0.01920564 -0.08057434
0003f0 dd c8 8f bd 3f f1 d7 bc 84 00 36 bd ab d8 56 3d
       -0.070207335 -0.026360152 -0.044434085 0.052452724

net.3.bias f4 [40]
000000 1a 68 4f 3d ad 8e 72 3c f9 e9 46 3c a1 68 f1 bc
       0.05063639 0.014804524 0.012140744 -0.029468836
000010 b5 46 04 bd 9a 75 e7 3c f7 14 3a bd ac c6 9c 3c
       -0.032293994 0.028254319 -0.04543015 0.019137703
000020 bd 49 26 bc 00 77 47 bc a5 20 a0 3c 94 1a 4f 3d
       -0.0101494165 -0.012174368 0.019546816 0.050562456
000030 ed ff 17 bd 90 a3 a7 3b 5a e8 29 bb df 93 df bc
       -0.037109304 0.0051159337 -0.0025925846 -0.02729219
000040 94 58 d1 bc 9f c5 b8 3a 94 70 46 bd 74 70 73 bb
       -0.025554933 0.0014096982 -0.048447207 -0.0037145885
000050 fa 9e db 3c 62 32 e9 bc 56 a4 c7 3b f6 42 8c 3d
       0.026809204 -0.028466407 0.0060925884 0.06848709
000060 14 b5 63 ba a2 e7 c9 bc 44 be 94 bc 8d be dc bc
       -0.00086863455 -0.024646584 -0.018157132 -0.02694633
000070 c6 f4 51 3d 47 7f 20 ba 81 91 86 3c 21 fe 20 3d
       0.051258825 -0.00061224814 0.016426804 0.039304856
000080 c7 b6 92 bc bc 0e e7 3c 61 e9 9e 3d 80 6f 15 3c
       -0.01790942 0.028205268 0.07759357 0.009120822
000090 6c 97 35 3c ec fc 41 bd e6 c1 e1 3c bf 97 b4 bc
       0.011083465 -0.047360346 0.027558278 -0.022045014

net.7.weight f4 [150, 360]
000000 ad 69 13 bd a2 61 94 3d ee 7c a7 3d 11 ed 60 bd
       -0.035989452 0.072451845 0.08178125 -0.054913584
000010 7c c3 9e 3c b7 d4 6a bd 97 69 22 3c 39 18 68 3c
       0.019380324 -0.057331767 0.00991287 0.014165931
000020 28 da c2 bd 9f 2d 2c 3d 62 43 8f 3d 47 aa 07 3d
       -0.09514266 0.042035695 0.06995274 0.033121374
000030 96 b3 fe 3c a6 0c ed bc b3 f5 0c 3c 73 ec 8e 3d
       0.031091493 -0.028936695 0.008603501 0.06978693
000040 62 40 c6 3c f4 50 96 3d c0 9d 0c 3d b3 49 73 bd
       0.024200622 0.07339659 0.03433013 -0.059396457
000050 9d 7b 0b 3d 92 ac a3 bd 53 ea 23 bd 96 f6 d1 3c
       0.034053434 -0.079918995 -0.04001839 0.025630277
000060 47 0d e0 39 68 55 bd 3d b3 1b 83 bc 00 e0 11 bc
       0.00042734502 0.092448056 -0.016004419 -0.008903503
000070 31 b4 1d 3d e3 d1 c9 bc 3a ec 0c 3c 8a 66 55 bd
       0.038501922 -0.024636215 0.008601243 -0.052099742
000080 35 db 06 3d c0 a7 42 bd d1 cb 1a 3d a8 f0 8f bb
       0.032923896 -0.04752326 0.03779203 -0.004392702
000090 b3 70 5e 3c f0 4c b3 3c f7 aa 0d 3a 6f 0f 94 3d
       0.013576674 0.021887273 0.0005404199 0.07229506
0000a0 e9 84 e8 3c 9a 38 24 3d 96 8c 72 3d 06 7f 49 3b
       0.028383689 0.040093042 0.059216104 0.0030745878
0000b0 48 f6 63 3c 91 8c 72 3c 57 91 3c bd e8 c9 96 3c
       0.0139136985 0.014804021 -0.046037044 0.018406823
0000c0 a4 ce 5a ba 65 2e 48 3c 2c ea 38 3d 7a e2 cf bd
       -0.0008346832 0.012218093 0.0451452 -0.10150619
0000d0 f2 ab 10 be 2f ec cc bd 7a 61 85 3c 88 e6 02 3c
       -0.14128092 -0.10005986 0.016281832 0.007989533
0000e0 07 9e ee 3c ec b6 05 3c 10 be 11 bc 9e 40 ad 3c
       0.029128088 0.008161288 -0.008895412 0.021148976
0000f0 6d db 05 3d f9 a7 7c ba be 5a eb 3b d5 eb 73 bd
       0.032679964 -0.0009638067 0.007182448 -0.05955108
000100 ea 44 4c bd d5 31 95 3c 0f e6 42 3d 7e 0d a2 3c
       -0.04987041 0.018212238 0.047582682 0.019781824
000110 44 90 43 3d 79 c5 42 3c a2 31 8f 3c 94 8e bd bd
       0.047745004 0.011887901 0.017479721 -0.0925571
000120 01 0e 3f bc 9a 5e b4 bd 92 56 3a 3c 88 9a 25 3c
       -0.011661054 -0.08807106 0.011373179 0.010107644
000130 68 34 15 bd 7b 74 31 3c 81 9c 8a bd ec 9e e0 bd
       -0.03642693 0.010830994 -0.06768132 -0.10967812
000140 84 68 ea bd 5c e1 b1 3d 47 39 0d 3d 67 07 d7 3c
       -0.11445716 0.08685562 0.034478452 0.026248647
000150 b4 d6 46 3c b3 0c a5 3d ec 2f 93 bb 47 2d 23 3d
       0.01213615 0.08059063 -0.0044917967 0.0398381
000160 17 b6 a9 3d 1c ed db 3d 36 fd 96 bc a4 8f 4d bd
       0.08286684 0.107385844 -0.018431287 -0.050185814
000170 e9 a4 ff 3c 7f bb ae 3c 66 db b5 bd 1f d3 9f bd
       0.031206565 0.02132964 -0.088797376 -0.0780394
000180 8b 63 bc bc a2 a8 8f bd 74 49 95 bd 7b 9f f7 bc
       -0.022996685 -0.07014586 -0.07289401 -0.030227413
000190 8c 6b 7d 3d 9b ef 31 3d 73 e9 55 ba 4a 87 1e bc
       0.061870143 0.043441396 -0.0008160092 -0.00967581
0001a0 12 bb a9 3d 42 4b c9 bd 65 57 a0 bd 38 3f 62 bc
       0.08287634 -0.098288074 -0.07829169 -0.013809018
0001b0 91 65 2b bc 2a 50 03 bc 0d 28 36 3d 0d 41 00 3d
       -0.010461227 -0.008014718 0.04447179 0.031312037
0001c0 28 fe 97 3d 74 88 a0 bc 77 83 82 3d 24 2f 08 3d
       0.07421523 -0.019596316 0.06372731 0.03324808
0001d0 9b f7 59 3d 21 2b 94 3d 16 81 42 bc c9 c9 35 3d
       0.05321465 0.07234789 -0.011871597 0.04438189
0001e0 94 0e de 3d 7e b2 8c bc fe c7 6d bc 7e ba b8 bd
       0.10842624 -0.017174955 -0.014513014 -0.090199456
0001f0 ff 84 e6 bd 9e 0f 2a be b4 e5 8a bc 55 20 43 bc
       -0.11255836 -0.1660752 -0.016955234 -0.011909564
000200 ca e9 ad 3d fe 42 14 3d 99 41 f2 bc 01 68 67 3d
       0.08491857 0.0361967 -0.029572295 0.05649567
000210 ac 16 f7 3c 00 e4 b5 3d 93 dc 64 3b 11 fb 48 bc
       0.030162178 0.08881378 0.0034921512 -0.01226689
000220 19 56 58 3d 8b 08 c8 3d d3 f2 30 bc 98 e3 f6 bc
       0.052816484 0.097672544 -0.010800081 -0.030137822
000230 25 fd 38 3d 90 1e 7f 3d c8 f6 77 bd 14 9d 0c bd
       0.045163292 0.062285006 -0.060538083 -0.03432949
000240 0d 5f 11 bd 6d 36 13 bc 01 7d 68 bc c1 3c bf bc
       -0.035491038 -0.008985144 -0.0141899595 -0.0233444
000250 75 bf dc bc ad 7c a5 3d a3 d4 d3 3b 90 f4 a8 bd
       -0.026946763 0.08080421 0.0064645573 -0.082497716
000260 07 2f a2 3c 13 4e 8a 3d 4c 98 13 3d 17 26 cb 3d
       0.019797815 0.06753173 0.036033913 0.099193744
000270 f5 df 0f bc ae d0 2b bd 4a 5b 05 bd 35 84 46 bc
       -0.008781423 -0.04194706 -0.032557763 -0.012116482
000280 8b 61 09 bc ac 90 56 3d 35 4f 3c 3c 2b 39 82 bb
       -0.008385072 0.052384064 0.011493494 -0.0039741
000290 46 92 b3 3c 17 5f 21 bd 25 3d 30 bc 75 f7 a2 bc
       0.021920335 -0.039397325 -0.0107567655 -0.019893387
0002a0 01 f1 b9 bc 59 b7 03 3c 53 79 14 3d 0b 1a 33 bd
       -0.022697927 0.008039319 0.036248516 -0.04372601
0002b0 7c 49 94 bd cd d8 8c bd 16 f0 5a 3c f8 df 88 bc
       -0.072405785 -0.06877289 0.013362905 -0.01670836
0002c0 d0 7c c5 3b fe 12 db 3c 44 77 8c bd 43 bb e4 bc
       0.0060268417 0.026742455 -0.068586856 -0.027921325
0002d0 6c 9a 8f 3d ce 33 71 bc 39 27 38 3d 4b 7d 6e 3c
       0.070118755 -0.014721824 0.04495928 0.014556239
0002e0 75 bd 0c 3d 92 f7 87 3d 07 f3 2e 3c 1b 32 0e 3e
       0.034360368 0.06639017 0.010678059 0.13886301
0002f0 70 0a be 3d 41 a9 29 3c 4f 86 bf bc bc 97 8e bc
       0.092793345 0.010355295 -0.023379473 -0.017406337
000300 ab 0f 06 3d 56 ea 97 3c 62 bf 31 bd 62 ef 0e bd
       0.032729786 0.018544357 -0.043395407 -0.034896262
000310 31 c5 74 bd 27 dd ed 3c 9d 42 b4 3c 11 53 b2 bb
       -0.05975837 0.029036118 0.02200442 -0.005442031
000320 d7 37 73 3d 15 eb 02 bd 93 00 f6 3c 47 4e 74 bd
       0.059379425 -0.031962473 0.03002957 -0.059644964
000330 f8 7d 0d be 23 b4 2a 3d 08 8a 93 bb 1d 3b 06 3d
       -0.13817585 0.041675698 -0.0045025386 0.03277122
000340 e5 e6 6c 3d 27 e1 d0 3c f0 7b c8 3c f3 d5 cb 3c
       0.057837386 0.025497986 0.02447316 0.024882292
000350 7f 34 8c 3d 42 71 a6 3c 73 46 0c 3d ca f3 78 bd
       0.0684595 0.020317677 0.034246873 -0.06077937
000360 86 7a d4 bc 18 7c 75 bd 5f 9a 1e 3d 97 d1 aa 3c
       -0.02593733 -0.0599328 0.03872144 0.020851893
000370 7e 9a 7b bc 87 7e 28 bd ca f3 32 bd 14 64 c3 bc
       -0.015356658 -0.04113629 -0.043689527 -0.023851432
000380 cc 21 d1 bd 28 99 2e bd 73 68 03 bd 83 ef af 3d
       -0.10211524 -0.04262653 -0.032082032 0.08590605
000390 96 f2 89 3b 16 0d 0b 3d bf 06 18 3d 79 10 cc 3d
       0.0042098267 0.033948027 0.03711581 0.099640794
0003a0 0f d9 f6 3c 90 8e ec bc 45 6e 17 bd 15 4f 80 bd
       0.030132798 -0.028876573 -0.036970396 -0.06265084
0003b0 53 40 22 3d 5a ee f2 bc 91 18 f6 bc 43 85 cb 3d
       0.039612126 -0.02965467 -0.030041011 0.09937527
0003c0 cc 4e e9 bc eb 52 f6 bd 0d 86 84 3d b3 22 19 bc
       -0.028479956 -0.12027534 0.06470881 -0.009346652
0003d0 55 87 3e bd aa 5f e0 bc 1d af 6d 3d 33 ac a2 3c
       -0.04651578 -0.027389366 0.05802833 0.019857502
0003e0 3c 58 87 3c 39 ca 8d 3c 70 70 8c bd cb a6 59 bd
       0.016521566 0.017308341 -0.06857383 -0.05313758
0003f0 bd 85 04 3d ce 70 50 bd 08 65 82 3c f6 48 32 bc
       0.032354105 -0.05088883 0.015917316 -0.010881653

net.7.bias f4 [150]
000000 c2 6e bc 3d ed 21 3a 3b 7c f5 28 3c e3 80 73 3c
       0.09200813 0.002840157 0.010312434 0.014862272
000010 12 f9 d7 3c c3 d7 75 bc 21 62 9d bd 8c 14 39 3c
       0.026363883 -0.015005055 -0.07684732 0.011296403
000020 bf 6a c9 3d d1 e0 9f bc d5 3d aa 3c 88 25 9d bc
       0.09834813 -0.01951638 0.020781437 -0.019182935
000030 2b c6 55 3c 1b 9c 4d 3d 49 83 dd 3a af 4c 27 bd
       0.013047735 0.050197702 0.0016900088 -0.040844616
000040 fe 0e 9a 3d 9d 86 64 3d e1 db 92 bc d1 15 8e bb
       0.07522391 0.05579244 -0.017927112 -0.004336097
000050 fe e9 09 3d e5 b6 4b bc e8 dd 58 3d 18 e4 5c bd
       0.033670418 -0.012433742 0.052946 -0.053928465
000060 98 cc 8f 3c bb 1a ef bc 35 5a 17 3d 96 ad 49 3d
       0.017553613 -0.02918755 0.036951263 0.04923781
000070 c0 b0 28 3d d9 1a d3 3c 78 9c 5f 3c fc 42 72 3d
       0.041184187 0.025769638 0.013648145 0.059145913
000080 5c 08 35 3c a1 40 fd 3c 6d 39 b1 3a e2 17 6f bd
       0.011049356 0.030914607 0.0013521143 -0.058372386
000090 fd e0 0c 3d 6b 73 a5 3c cf 0f a9 bc a2 93 0f bc
       0.034394253 0.020196637 -0.020637421 -0.008763226
0000a0 23 01 87 3c 0e 2f 7e bd 68 c5 38 3d 95 ac ad 3c
       0.016480034 -0.062056594 0.045110136 0.021200458
0000b0 7d 34 47 ba 15 3b bf 3a 22 65 2d 3d e6 c1 1c bd
       -0.0007599069 0.0014589751 0.042332776 -0.038270853
0000c0 89 3a 10 3d 4b c3 66 bd 2d 7c 80 bd 58 80 36 3d
       0.035212073 -0.05633859 -0.06273685 0.044555992
0000d0 4b 80 69 3c 11 0f a3 bb c0 d1 82 3d e3 9b 22 3d
       0.014251779 -0.0049761613 0.06387663 0.039699446
0000e0 8f 67 79 bc 3c 09 99 bd 15 9c 4a bc b6 2f 1d bd
       -0.015222444 -0.074724644 -0.012366314 -0.03837558
0000f0 a1 25 53 3d 00 7f 0d bc 12 78 56 3d a0 0c a7 3c
       0.051549558 -0.008636236 0.0523606 0.020391762
000100 14 24 8b bd c8 f1 29 3d f9 c9 32 bb b4 0f 9a bc
       -0.06793991 0.041490346 -0.002728103 -0.018806316
000110 c2 df bc 3c 88 ab 76 bd fa a4 82 3d b1 e3 22 3d
       0.023055915 -0.06022218 0.06379123 0.039767925
000120 84 cd cb 3c 76 fb 27 3d 78 59 8e bd ce 17 d3 bc
       0.02487827 0.041011296 -0.069506586 -0.025768187
000130 96 b2 b4 bb ab 59 97 3d 10 8b 0b 3d b1 6f 07 bd
       -0.005514453 0.0739015 0.034068167 -0.0330655
000140 aa 9f 43 3c 3a bc 6d bd c1 57 12 bd 1f 5a 38 bd
       0.011939922 -0.058040835 -0.03572822 -0.04500782
000150 c1 57 69 bd 87 fd 9a 3c 76 02 71 bd 8c 39 29 3d
       -0.056968454 0.01891972 -0.058840238 0.041314647
000160 f9 41 44 bd cd bd 90 3d d4 8b 30 3d f0 2c 92 3d
       -0.04791448 0.070674516 0.0431021 0.071374774
000170 60 40 66 3d 04 46 9f 3b 0e 2a d7 39 92 7a cc 3c
       0.056213737 0.0048606414 0.0004103933 0.02496079
000180 f2 fa a2 3c e5 6f 4b bd 7a a8 74 3c a2 0f 1d bb
       0.01989505 -0.049667258 0.014932746 -0.0023965617
000190 43 bc 26 bc 49 af 8f 3c 7f a5 ac 3b d5 79 48 bd
       -0.010176721 0.017539637 0.005268752 -0.048944313
0001a0 c7 55 86 3d 8f 76 be bc 6a c3 cf 3c a6 f0 8b bd
       0.065593295 -0.023249893 0.025361735 -0.068330094
0001b0 9e dd 75 3d 86 fb 27 3d f3 9c 9e 3d 87 ad 57 3d
       0.060025804 0.041011356 0.077447794 0.052655723
0001c0 5f d8 2a 3d 8a 2b 51 bd f8 92 87 3d 37 be ea 3c
       0.041710254 -0.051066913 0.06619829 0.028655155
0001d0 18 7e fa bc a5 36 47 bd c5 55 f5 bc 4c 1a 16 3d
       -0.030577704 -0.048636097 -0.029948125 0.036646172
0001e0 ae 54 1c 3c 6e d7 67 3d 05 4d 4e bc 34 22 03 3d
       0.009541674 0.056601934 -0.012591605 0.03201504
0001f0 c5 d3 a4 bb 18 d4 d4 bc f4 ad 84 bb 34 c1 37 ba
       -0.0050301277 -0.02598004 -0.004049057 -0.00070096855
000200 05 53 4a bb 46 9e 3d 3d 86 9d 1b 3b ec 21 34 3d
       -0.0030872237 0.04629352 0.0023745014 0.043977663
000210 54 c9 3e bc ec 6d 9f 3d 22 03 5a bc 70 c9 d3 3c
       -0.01164468 0.07784638 -0.013306411 0.025852889
000220 2a 35 b0 3d 8e 54 61 bd 11 7c ac ba 62 b7 41 bd
       0.0860389 -0.05501228 -0.0013159533 -0.047294028
000230 3e 88 9a 3c 9a b4 5e bd cb 9b a5 bc 71 87 4e bc
       0.018863793 -0.054371454 -0.02021589 -0.012605534
000240 a7 f2 92 3c ad d2 db bc 5c ef 61 bd 17 40 f1 3a
       0.017937971 -0.026833856 -0.05515991 0.0018405941
000250 c5 f6 b4 bc 51 60 a5 bc
       -0.022090325 -0.020187529

net.9.weight f4 [10, 150]
000000 45 37 67 bd 05 ea 4b be fa c8 85 bd c9 94 79 3b
       -0.056449194 -0.1991349 -0.06532474 0.0038083068
000010 6e 9c 0a 3e 1d 65 18 be c3 6b 5d bd e7 ba 81 3c
       0.13536236 -0.14882322 -0.054057848 0.015836192
000020 73 39 28 bd ba 3e 8d bd 4d 8a 32 bd 81 26 75 3c
       -0.041070413 -0.0689673 -0.043588925 0.014962793
000030 6b 84 68 3d 60 02 fa 3d 3b 93 6e be 1d df 36 bd
       0.05676691 0.12207484 -0.23298351 -0.04464637
000040 5c a8 31 bd ec e2 9b bd 5a 5d 39 be f5 32 0c be
       -0.04337345 -0.07611641 -0.18102017 -0.13691314
000050 e5 a2 25 be aa 22 14 bd fe 62 d5 3d f9 17 e4 bc
       -0.1617542 -0.03616587 0.10419272 -0.027843462
000060 37 2f a6 3d d9 b5 99 3d b5 89 ab 3d f9 9f a9 3d
       0.08114474 0.07505388 0.08375875 0.082824655
000070 36 d0 cd 3d 42 ec 0f bd 19 1a c1 3d d4 47 c0 3d
       0.10049479 -0.035137422 0.09428806 0.093887
000080 7b 52 01 3d 90 37 de bc 02 73 4e bd 72 bd 9a 3d
       0.0315728 -0.027126104 -0.05040265 0.07555665
000090 f1 2b 12 be c2 d2 5c 3e 66 0b c2 3c c0 38 88 3c
       -0.14274575 0.21564773 0.023687076 0.016628623
0000a0 6a 82 30 bb 11 3e 1c 3c d4 d5 34 be 9f 45 75 3d
       -0.0026933202 0.009536282 -0.17659694 0.05988085
0000b0 00 9a 4e 3d cb 75 cb 3d b0 12 b8 bc 81 f6 75 bb
       0.050439835 0.099345766 -0.022469848 -0.003753096
0000c0 19 cf a7 3d f4 cd 48 bd f8 ff 8c 3c f0 1b 3a 3e
       0.081937976 -0.049024537 0.0172119 0.1817472
0000d0 2c b7 73 bd 1c 85 55 3d 26 87 e0 bc 12 36 3f be
       -0.05950086 0.052128896 -0.027408194 -0.1867297
0000e0 1d 7b c3 bc 41 f3 90 bb b1 a6 c5 3d 27 05 45 bd
       -0.023862416 -0.0044235294 0.096509345 -0.048100617
0000f0 3c 3b fe 3d fa a8 ad 3d af 54 1b be a3 db 8a bd
       0.12413642 0.08479495 -0.15169023 -0.06780174
000100 d0 a9 23 3b e0 26 65 3c 7d 32 2d bd 8a 15 43 be
       0.0024973042 0.013986319 -0.042284478 -0.19051185
000110 41 04 ff bd fa d3 f5 bc 29 d8 be 3c ab 80 72 bc
       -0.12451983 -0.030008305 0.023296433 -0.014801185
000120 13 77 59 bb 7d 8a cc bd 5d cf 29 3d 3b c2 20 be
       -0.0033182546 -0.09987352 0.041457523 -0.15699093
000130 7e 93 81 3d 39 a2 99 be c8 d1 1e be 3c ae 7b bd
       0.0632696 -0.3000658 -0.15509713 -0.06144546
000140 08 5f 25 bd fc 16 85 3b 48 d1 a4 bd 96 0a 03 3e
       -0.040373832 0.004061578 -0.0804773 0.12797007
000150 c1 17 fb 3d 1d b8 1f be 35 67 1c 3c 57 0f 02 bd
       0.1226039 -0.15597577 0.009546091 -0.03175291
000160 02 b4 f6 3d 00 b0 38 bd ac b8 72 3d 56 f1 f9 3d
       0.120460525 -0.04508972 0.059258148 0.12204234
000170 34 43 97 3d 28 6d fd 3d 87 eb 22 bb 78 a3 e8 bc
       0.07385865 0.123743355 -0.0024859624 -0.02839826
000180 ea 73 2d 3e e9 f9 8c bd ba 98 89 bd e7 fd b4 bc
       0.16938749 -0.06883604 -0.067185834 -0.022093726
000190 91 0a 3e 3c 5a c7 fa bd 22 a8 0d bd 37 16 08 3e
       0.011599199 -0.122450545 -0.034584172 0.13289724
0001a0 5c 37 e1 3d 1c d6 f6 3b 9f 28 31 3c f7 eb 76 bd
       0.10996887 0.007532848 0.0108129075 -0.060283627
0001b0 80 f3 d4 bc 94 bf 1c be 8b 06 04 be d6 ac c8 3d
       -0.025995016 -0.15307456 -0.12893121 0.09798591
0001c0 b6 4c b5 bc 6e df 8e bc 5a 18 3d be 6c 75 03 3d
       -0.022131305 -0.017440524 -0.1846632 0.032094404
0001d0 61 e1 39 3d 6d f7 22 bd 22 d2 0a be 26 f8 c1 bd
       0.045380954 -0.039786745 -0.13556722 -0.09471159
0001e0 a6 1d ef bb f6 c6 8d 3d 03 11 90 bc 6a 33 62 be
       -0.0072972355 0.069227144 -0.017586237 -0.22089925
0001f0 a1 63 85 bc 93 e0 33 3d 38 7f 99 bd 10 c8 e0 bd
       -0.016282858 0.043915343 -0.07494968 -0.10975659
000200 98 fe 16 3e 31 d1 df bd 4a 3e 50 3d 3c ed 1e be
       0.14745557 -0.10928572 0.050840653 -0.15520185
000210 b4 18 2e 3e ce 2c bf 3d be 10 77 bc 24 31 e6 3d
       0.17001611 0.09334718 -0.015079675 0.112398416
000220 12 ec a4 3d 5e b9 19 bd bc fb 96 bd 62 31 08 3d
       0.08052839 -0.037530296 -0.07372233 0.03325022
000230 40 55 90 bd ee 26 7f 3d a7 e9 93 3d 5b 07 11 3d
       -0.0704751 0.062292986 0.072223 0.035407405
000240 e0 48 82 3b 9f 29 00 3e ac cb b5 3c 75 b4 43 3d
       0.0039759725 0.12515877 0.022191845 0.04777952
000250 c4 63 78 3b 55 df 5f bd 4b 93 ae 3d 7c 94 92 3e
       0.0037901262 -0.054656345 0.08524188 0.2862891
000260 bb b4 47 bd ec 8b 7b bd ea b0 28 3e 49 cd cb 3d
       -0.048756342 -0.061412737 0.16473737 0.099512644
000270 35 ea bc 3d 94 f3 8f 3d 7f a0 b0 bd 30 05 c8 3c
       0.09224359 0.07028881 -0.08624362 0.024416536
000280 06 a3 6d bb 1f 4d 08 3e df da 1a 3d 74 a4 fa bd
       -0.00362605 0.1331067 0.037806388 -0.12238398
000290 7d d5 b1 3d 97 11 fa bc 8a aa 2c be 78 40 11 be
       0.08683298 -0.030525966 -0.1686193 -0.14184749
0002a0 d1 4c ee 3d 04 8b 29 3d 4a 1e b7 bd 0c b9 7f bd
       0.11635745 0.04139234 -0.08941324 -0.062432334
0002b0 41 84 21 be 04 2e 86 bd 27 04 62 3d a7 35 92 bd
       -0.15773107 -0.065517455 0.05517974 -0.071391396
0002c0 ee 26 ef bc cf d0 13 3e bd 54 7f bd 89 cf 82 ba
       -0.029193368 0.14435123 -0.062336672 -0.0009980063
0002d0 ec 4c 2b 3e 38 4f 77 bd d1 c0 11 be 1e df 1b bd
       0.16728562 -0.060378283 -0.1423371 -0.038054578
0002e0 24 71 05 3d f8 86 1d bb 39 26 9e 3d 64 93 fd 3d
       0.032578602 -0.0024036746 0.07722134 0.12381628
0002f0 2b b2 0a 3d de 9b 20 3e 9f 35 9e 3d d0 0d 38 3c
       0.03386132 0.15684459 0.07725071 0.011233762
000300 b8 f8 2c bd 30 09 c3 bd 02 db a2 3d 46 aa 04 be
       -0.042229384 -0.09523237 0.07951929 -0.12955579
000310 9d f2 39 bd 1a c9 b5 bd 49 68 af bc ad 39 16 3d
       -0.04539739 -0.08876248 -0.021412032 0.036676098
000320 1e 9f 5c bd cd c4 ea 3b e2 d1 71 3d f8 7e 91 3c
       -0.053862683 0.0071645738 0.05903805 0.017760739
000330 36 2c 0c bc 33 3b 66 bd 57 80 89 bd 92 d9 cd 3c
       -0.008555463 -0.0562088 -0.06713932 0.02512816
000340 97 8a 0b 3d 04 88 60 bd b7 2d a4 bd e6 00 38 be
       0.034067716 -0.054817215 -0.08016532 -0.17969093
000350 3b 07 4f bd e7 af b2 bd a4 06 a2 3d 31 7f 56 bd
       -0.050544005 -0.08724957 0.07911423 -0.052367393
000360 81 e7 f0 3c fc ab 0c be 3e 26 b4 3d b0 0a ae 3d
       0.029407265 -0.13737482 0.087963566 0.08498132
000370 d9 f9 33 be 06 fe ca bd 39 23 c7 bb 0d 93 22 3d
       -0.17575778 -0.099117324 -0.006077197 0.03969102
000380 1e 6a 25 bd 1d f8 53 be a7 d3 f2 bd 95 39 c7 3c
       -0.040384404 -0.20700116 -0.11856776 0.02431945
000390 b0 0f 9b bd 1d 55 a0 bc 54 a5 a6 bd 0b 7e 0c 3d
       -0.075713515 -0.019571835 -0.081370026 0.03429989
0003a0 b9 ef a5 3d 2f 6f 0f 3e 56 0e b8 3e 9a 70 13 3e
       0.08102364 0.14007257 0.35948437 0.14398423
0003b0 c0 ff 52 3d d6 2b 8d 3d 52 37 c5 be 49 91 fb 3c
       0.051513433 0.06893127 -0.3851877 0.030708926
0003c0 e4 bf 7e bd b3 8d 8a 3b bd a2 05 be 57 5d 1b be
       -0.06219472 0.0042283176 -0.13050361 -0.15172325
0003d0 ab 3f 41 3c 7f 40 1a bd f3 7b 74 be 36 a1 6c 3d
       0.011794965 -0.037659165 -0.23875408 0.05777093
0003e0 2f 78 ed 3c d3 0f 9a 3c eb fb 8b 3d 15 28 c6 3c
       0.028987972 0.018806374 0.06835159 0.024189034
0003f0 16 6f 72 3d ff 61 4a be b6 a4 f8 bd ba 53 af 3d
       0.05918797 -0.19763945 -0.12140791 0.085608914

net.9.bias f4 [10]
000000 a7 6a 1b bd 5d 3f 51 bd ef fc 3b 3d 45 13 9c bd
       -0.03794351 -0.05108582 0.045895513 -0.07620863
000010 7b db 40 3d d4 3b 8c bd fc bc ee bc c9 9d ce bd
       0.047084313 -0.06847349 -0.02914285 -0.10088689
000020 06 cd 8f bc 75 fd aa bb
       -0.017553817 -0.0052182027
