result/model_11_4.pth (torch, 307183 bytes, 8 tensors)

net.0.weight f4 [20, 1, 4, 4]
0	0x3dcfc471	0.1014489
1	0x3ee2ada4	0.44273102
2	0x3ea4a541	0.3215733
3	0x3ebba43a	0.36648732
4	0xbe8081cb	-0.25099024
5	0xbebafa6f	-0.3651919
6	0xbf1a859a	-0.6036011
7	0x3ea72994	0.3264891
8	0xbdf8f44e	-0.121559724
9	0xbebb9d55	-0.36643472
10	0x3f0b5023	0.54419154
11	0x3eb95162	0.36194903
12	0x3d164567	0.03668728
13	0x3ebb406d	0.3657259
14	0x3e62228a	0.22083488
15	0xbe83b163	-0.25721273
16	0x3eb9e6f4	0.36309016
17	0x3e33b56a	0.17549673
18	0x3cfec6ec	0.031100713
19	0x3e96b7f1	0.2943721
20	0x3b8fd4de	0.0043893894
21	0xbe0522e3	-0.1300159
22	0xbd99dc17	-0.07512682
23	0x3eb8ab68	0.36068273
24	0xbe89091d	-0.26764765
25	0xbeb67a1a	-0.3564003
26	0xbe7da613	-0.24770384
27	0xbdf14ae7	-0.117818646
28	0xbd81e522	-0.06342532
29	0xbe849727	-0.2589657
30	0x3e6d2b12	0.23160961
31	0xbe3c4cca	-0.18388668
32	0x3db6ce56	0.08926074
33	0xbe2998d7	-0.1656221
34	0xbe9f892b	-0.31159338
35	0xbda74048	-0.081665576
36	0x3e47d8d0	0.19516301
37	0x3f141543	0.5784494
38	0x3e7d559f	0.24739693
39	0xbe8909e3	-0.26765355
40	0xbe495e24	-0.19664818
41	0xbd44e405	-0.04806902
42	0x3ec68ff7	0.3878171
43	0x3eadf562	0.33976275
44	0xbcd946a9	-0.026522951
45	0xbe2f28dd	-0.17105432
46	0xbd9ce2ff	-0.076604836
47	0xbc18f7b8	-0.0093364045
48	0x3da3dfbe	0.0800166
49	0xbe745f11	-0.2386439
50	0xbeb0bdee	-0.34519905
51	0xbe166abf	-0.14689158
52	0xbe4a78ba	-0.19772616
53	0x3e7c9e2d	0.24669714
54	0x3e2f1f00	0.1710167
55	0x3e87f882	0.26556784
56	0x3e41748e	0.18892118
57	0x3e23318a	0.15936866
58	0x3e8493bd	0.25893965
59	0xbdac5450	-0.08414519
60	0x3d02d141	0.03193784
61	0xbe3b7c1a	-0.1830906
62	0xbb0331a4	-0.0020018602
63	0xbd8e751b	-0.0695593
64	0x3d997f9a	0.07495041
65	0xbc1b78e4	-0.009489272
66	0x3e309353	0.172437
67	0xbd7dbd6c	-0.061948225
68	0xbe3fa7d1	-0.1871636
69	0xbe214351	-0.15748335
70	0x3e3f8e8e	0.18706724
71	0x3e2c5814	0.16830474
72	0x3e659e11	0.22423579
73	0xbe763a75	-0.24045737
74	0xbec3c1f3	-0.3823391
75	0xbe99a87e	-0.30011362
76	0xbe2462fb	-0.16053383
77	0x3e226a30	0.1586082
78	0x3e358578	0.17726696
79	0x3e53c307	0.20679866
80	0xbe596d27	-0.21233045
81	0xbe3d9f03	-0.1851769
82	0x3e601d82	0.21886256
83	0xbe13eab5	-0.14445002
84	0x3c5b6cec	0.013392668
85	0x386d7fb4	5.6624136e-05
86	0x3e964371	0.2934833
87	0xbe97c6d5	-0.29643884
88	0xbe470321	-0.19434787
89	0x3eab7392	0.3348661
90	0x3d9e9389	0.07742984
91	0xbe371888	-0.17880452
92	0x3e03f973	0.12888126
93	0x3eb6aec4	0.3568021
94	0xbe592f0e	-0.21209356
95	0xbe25368a	-0.16134086
96	0x3ea5f656	0.32414502
97	0x3cce3c82	0.025175337
98	0xba848ef8	-0.0010113409
99	0xbe7e058e	-0.24806806
100	0xbe1d693b	-0.15372173
101	0xbd18651d	-0.037205804
102	0xbdfa5097	-0.122224025
103	0xbe88e5c4	-0.26737797
104	0xbce8b0e1	-0.028404655
105	0xbe5a3a1d	-0.21311231
106	0xbe340e89	-0.1758367
107	0xbdefa2f0	-0.11701
108	0xbdf8096c	-0.12111172
109	0xbd2d6acf	-0.04233819
110	0x3ee27210	0.44227648
111	0x3e6de08e	0.23230192
112	0x3e127010	0.14300561
113	0xbe417f9e	-0.18896338
114	0xbe04a6d0	-0.12954259
115	0xbcb5f8a3	-0.022213286
116	0x3db8745f	0.09006571
117	0xbe416562	-0.1888633
118	0xbda2f837	-0.079574995
119	0xbde2d0d0	-0.11074984
120	0x3d10d771	0.03536171
121	0xbda7a424	-0.08185604
122	0x3d3aa481	0.04556704
123	0xbdd9f2ef	-0.10642039
124	0xbded774a	-0.11595018
125	0xbdd34816	-0.10316484
126	0xbd2a2f22	-0.041548856
127	0xbe24a02f	-0.1607673
128	0x3ea5ca9e	0.32381147
129	0x3dcc24da	0.099679664
130	0x3eafadb1	0.34312204
131	0x3e24c075	0.16089042
132	0xbe5220e0	-0.20520353
133	0x3e1a61f9	0.15076436
134	0xbd829d12	-0.06377615
135	0xbe074b52	-0.13212326
136	0xbe97f14a	-0.29676276
137	0xbeb1f747	-0.3475897
138	0xbd3aca37	-0.045603003
139	0xbe04fc4b	-0.12986867
140	0x3dbf8ef9	0.09353442
141	0xbe25f38a	-0.16206184
142	0x3e469c24	0.193955
143	0xbe2a3efc	-0.16625589
144	0xbd9109ce	-0.07081948
145	0x3e061b15	0.13096268
146	0x3e30f5be	0.17281243
147	0x3e689b16	0.2271541
148	0x3e6a6bf4	0.22892743
149	0xbe708fa0	-0.23492289
150	0x3d83ef82	0.06442167
151	0xbe1f1825	-0.15536554
152	0xbe0ada84	-0.1355992
153	0xbe808acf	-0.25105903
154	0x3e79a375	0.2437876
155	0xbe8bc0e9	-0.27295616
156	0x3d13c4c8	0.036076337
157	0x3d4a0853	0.049324345
158	0x3de57719	0.11204357
159	0xbe3c6f39	-0.18401803
160	0x3ee00504	0.43753827
161	0x3da5ea65	0.08101348
162	0xbc9a007d	-0.018799061
163	0xbe9b5696	-0.30339497
164	0x3ec1512d	0.37757245
165	0x3c844267	0.016144944
166	0xbe258a72	-0.16166094
167	0x3e303e78	0.1721133
168	0x3e520155	0.2050832
169	0xbda245d7	-0.07923477
170	0xbe4f69e0	-0.20255232
171	0xbdcd0c68	-0.10012132
172	0x3e41dcc8	0.18931878
173	0xbcfcc146	-0.030853879
174	0xbe27ef49	-0.16399874
175	0xbe038e69	-0.12847294
176	0xbe8154a6	-0.25259894
177	0x3e4014bc	0.1875791
178	0x3e42295a	0.18961087
179	0xbec8c11c	-0.3920983
180	0xbc033d17	-0.00801017
181	0x3ec52acd	0.38509217
182	0x3d1fc294	0.039003924
183	0xbe8050a6	-0.2506153
184	0x3e4db185	0.2008725
185	0x3e71d4cc	0.23616332
186	0x3d403d1a	0.04693327
187	0xbe186df9	-0.14885701
188	0xbda67fee	-0.081298694
189	0x3d6c8f01	0.057753567
190	0x3cd861ab	0.02641376
191	0xbdae47a9	-0.08509762
192	0x3e5770cd	0.21039124
193	0x3e84c27b	0.25929627
194	0xbca1f89f	-0.019771872
195	0xbdb1aec0	-0.08675909
196	0x3c7472cc	0.014919948
197	0x3d131ee7	0.035918143
198	0x3df2f692	0.11863436
199	0x3e06e78c	0.13174266
200	0xbe8e723b	-0.27821526
201	0xbde487ff	-0.11158752
202	0x3e52f84f	0.20602535
203	0x3dcba7d9	0.09944124
204	0xbccb90ae	-0.024849262
205	0xbe4364ff	-0.19081496
206	0xbe812fff	-0.2523193
207	0xbe989d41	-0.29807475
208	0xbe439969	-0.1910149
209	0xbd58f3f2	-0.05296702
210	0x3e882431	0.26590112
211	0x3e7f5aa5	0.24936922
212	0xbeace7d0	-0.3377061
213	0xbe8ee000	-0.27905273
214	0x3d8ec52d	0.06971202
215	0x3ecb40f3	0.3969799
216	0xbdf2e914	-0.118608624
217	0xbe141f22	-0.14465001
218	0x3e7aff12	0.24511364
219	0xbd35067c	-0.044195637
220	0xbe9b5c0d	-0.30343667
221	0x3e1bc979	0.15213574
222	0xbd9162cb	-0.070989214
223	0xbda2eb4f	-0.07955038
224	0xbe5dff0a	-0.21679321
225	0x3e4d4c7d	0.20048709
226	0x3e5f340a	0.21797195
227	0x3dc59970	0.096484065
228	0xbe351400	-0.1768341
229	0xbe7bf3a2	-0.24604657
230	0xbe1eb9fb	-0.15500633
231	0x3e5c805a	0.21533337
232	0x3e2e5fb0	0.1702869
233	0x3ebdc593	0.370648
234	0x3e9c5cff	0.305397
235	0x3d9d5616	0.07682435
236	0xbd157f6a	-0.036498465
237	0xbe4f0d7e	-0.2021999
238	0xbe824eb9	-0.25450686
239	0xbe894acc	-0.26814878
240	0x3e39da37	0.18149649
241	0xbdadae46	-0.08480506
242	0xbd722f95	-0.05912741
243	0xbdc3f2a7	-0.09567767
244	0x3d1a648c	0.037693545
245	0xbde44f6d	-0.11147962
246	0xbe165954	-0.14682513
247	0x3dfbc851	0.12294067
248	0xbd73772f	-0.059439834
249	0x3e0fd24e	0.14045069
250	0xbdc9b7b5	-0.098494925
251	0xbe2ebd6a	-0.17064443
252	0x3abd6e07	0.0014452346
253	0xbd40436d	-0.046939302
254	0xbd2622ac	-0.04056041
255	0xbe534d6b	-0.20635001

net.0.bias f4 [20]
0	0x3e8bc9b4	0.27302325
1	0xbe187c0f	-0.14891075
2	0x3ec401b5	0.38282552
3	0x3e0bb92c	0.13644856
4	0xbdfe0378	-0.12403005
5	0xbe30dc1c	-0.17271465
6	0xbec8cb73	-0.3921772
7	0xbec7eb51	-0.3904672
8	0xbe2cdf9a	-0.16882172
9	0xbc32e15b	-0.010917987
10	0x3e5c34cb	0.21504514
11	0x3e0c4063	0.13696437
12	0xbe0f9e41	-0.14025213
13	0xbdfc01cd	-0.12305031
14	0x3dde49eb	0.108539425
15	0xbebc4dfc	-0.36778247
16	0x3c1f6781	0.009729267
17	0x3dee2e96	0.11629979
18	0xbebb88b1	-0.36627725
19	0x3df17cf4	0.11791411

net.3.weight f4 [40, 20, 5, 5]
0	0xbe33d6ad	-0.17562361
1	0xbd8fe7da	-0.07026644
2	0xbd482f85	-0.048873443
3	0xbe0e09ea	-0.1387097
4	0xbe2355f9	-0.15950765
5	0xbcbff072	-0.023430083
6	0xbcbeccb9	-0.023290979
7	0xbe1ee232	-0.15515974
8	0xbdc869f8	-0.09785837
9	0xbe8b5572	-0.27213627
10	0xbd1940f5	-0.037415463
11	0xbe033593	-0.12813406
12	0xbcfec91d	-0.031101758
13	0x3d7ac7de	0.061225764
14	0xbd76a11a	-0.060212232
15	0xbd3dc073	-0.046326112
16	0x3d303432	0.043018527
17	0x3ddd3f94	0.10803142
18	0x3e10c97d	0.14139362
19	0x3e0c00c2	0.13672164
20	0xbe33997d	-0.1753902
21	0xbe2703ff	-0.16310118
22	0xbd8e3bf8	-0.06945032
23	0x3d9ef72e	0.077619895
24	0x3e45d03f	0.19317721
25	0x3cdbc357	0.026826544
26	0x3c8b8167	0.017029477
27	0xbd55cf43	-0.052199613
28	0xbc5116d2	-0.012761788
29	0x3d8d2762	0.06892277
30	0x3c6d93c8	0.014500566
31	0xbdcd5e0e	-0.10027705
32	0xbe3d4597	-0.18483578
33	0xbd4a6e91	-0.04942185
34	0xbcaf59f1	-0.021405192
35	0x3d2f683b	0.04282401
36	0xbd7638e1	-0.060112838
37	0xbd81fb85	-0.06346802
38	0x3d777aaa	0.060419716
39	0xbc426d8e	-0.01186694
40	0x3c0a6e70	0.008449182
41	0xbde29dd7	-0.11065262
42	0xbd3db74f	-0.046317395
43	0xbbf29501	-0.0074030166
44	0x3c981613	0.018565213
45	0x3d8ad2b7	0.06778472
46	0xbd91a4cf	-0.07111513
47	0xbd4bd8b5	-0.049767215
48	0x3d3d5cd7	0.046231117
49	0xbd13eb22	-0.036112912
50	0xbd5bd3e2	-0.053668864
51	0xbe33f777	-0.17574869
52	0xbe20aade	-0.1569018
53	0xbe32f590	-0.17476487
54	0xbe85a89c	-0.261052
55	0xbd98eb17	-0.07466715
56	0xbe2814c3	-0.1641417
57	0xbd706127	-0.0586864
58	0x3bf01c44	0.0073275883
59	0xbe139474	-0.14412099
60	0x3b85445f	0.0040669884
61	0x3e5696df	0.2095599
62	0x3e2d1f45	0.1690646
63	0x3e0bc732	0.13650206
64	0x3e2bc09f	0.16772698
65	0xbdf8025c	-0.12109825
66	0x3d6b6261	0.05746687
67	0x3dc6bd26	0.09704046
68	0xbe30d3ce	-0.17268297
69	0xbd2ef812	-0.042717047
70	0x3dd59946	0.10429625
71	0x3e19400a	0.14965835
72	0x3c410a90	0.011782303
73	0xbe35b051	-0.1774304
74	0xbe022bc2	-0.12712005
75	0xbcf4d91d	-0.029888684
76	0xbce3b0c1	-0.027794244
77	0x3daf746a	0.08567126
78	0x3d175833	0.036949348
79	0xbddc345f	-0.107521765
80	0xbc38e825	-0.011285816
81	0xbadf91d5	-0.0017057011
82	0x3d64de67	0.055876162
83	0x3e1cc45e	0.15309283
84	0x3d4c6199	0.049897764
85	0xbdeaf813	-0.11473098
86	0xbcff727a	-0.031182516
87	0x3d8d677c	0.06904504
88	0x3c272439	0.010201507
89	0x3c3d84ae	0.011567278
90	0xbd9a89f8	-0.07545847
91	0xbce72b8b	-0.028219005
92	0x3c797bb1	0.015227244
93	0x3c219d33	0.009864139
94	0xba5b9ca7	-0.000837753
95	0xbdeb8728	-0.115003884
96	0x3d08b5f0	0.033376634
97	0x3d1e1ccf	0.038601693
98	0x3dbfef1b	0.093717776
99	0x3d23a644	0.039953485
100	0x3d8136e7	0.063093
101	0x3dd03ebb	0.10168215
102	0x3e110b65	0.14164503
103	0x3daee81d	0.08540366
104	0x3d041390	0.03224522
105	0xbe411cd7	-0.18858658
106	0xbe4e93f0	-0.20173621
107	0x3dd62d7e	0.10457896
108	0x3df799eb	0.120899044
109	0x3d9a6879	0.07539458
110	0x3ccb4224	0.024811812
111	0x3cc8947b	0.024484864
112	0x3d1786b7	0.03699371
113	0x3e435c00	0.19078064
114	0x3e1ac478	0.1511401
115	0xbdbb80aa	-0.091554
116	0x3d62dd68	0.05538693
117	0x3e1828fa	0.14859381
118	0x3e37e474	0.17958242
119	0x3cead55d	0.028666193
120	0x3e089af0	0.13340354
121	0x3d804220	0.06262612
122	0x3dbc7590	0.09202111
123	0x3d385b5a	0.045008995
124	0xbd097c83	-0.03356601
125	0x3d52ce08	0.051466018
126	0x3e2a16c1	0.16610242
127	0x3db6e5b4	0.08930531
128	0x3e234e3b	0.15947811
129	0x3de3a299	0.111149974
130	0x3dc5650a	0.09638412
131	0x3e35d0ce	0.17755434
132	0x3d3ceb6e	0.04612296
133	0x3c1d6641	0.009606899
134	0xbd72544b	-0.05916242
135	0x3cd3b396	0.02584247
136	0x3cc11ad0	0.023572356
137	0x3c4070a4	0.011745606
138	0x3cc97d20	0.024595797
139	0xbd880b27	-0.06642752
140	0xbc126333	-0.008934784
141	0xbd6b4963	-0.057443034
142	0x3d369612	0.044576712
143	0x3d938345	0.07202772
144	0x3d651e58	0.05593714
145	0xbdd13ab6	-0.10216276
146	0xbc9642b2	-0.01834235
147	0xbc6ed48d	-0.014577043
148	0xbd0b72a8	-0.03404489
149	0x3d9e1c68	0.07720262
150	0x3d139c19	0.03603754
151	0x3d57d0b1	0.052689258
152	0x3d85aa1f	0.06526589
153	0x3d7ab1ad	0.0612046
154	0x3c4e19b0	0.012579367
155	0x3bb15664	0.00541191
156	0x3ccfd257	0.025368853
157	0x3d83c1bf	0.064334385
158	0xb9b04dcb	-0.00033627296
159	0xbcef8406	-0.029237758
160	0xbd46a71b	-0.048499208
161	0xbdccf7de	-0.100082144
162	0xbd76a759	-0.06021819
163	0x3ce5d9de	0.028057989
164	0x3dab5a04	0.083667785
165	0xbd49370d	-0.049124766
166	0xbe3762ef	-0.17908834
167	0xbd4e2636	-0.05032941
168	0x3bb8af2b	0.005636116
169	0x3851a529	4.99833e-05
170	0xbd567267	-0.052355196
171	0xbdc7dd30	-0.09758985
172	0x3c0879b0	0.008329794
173	0x3c4e11c1	0.012577475
174	0xbc370288	-0.011170037
175	0xbcbea807	-0.023273481
176	0x3d444d3a	0.04792521
177	0xbd0e4d7d	-0.034741867
178	0x3d8c093b	0.06837698
179	0x3d00c64c	0.03143911
180	0xbbf2d156	-0.0074102087
181	0xbc6b99ff	-0.014379977
182	0xbd1f14fe	-0.03883838
183	0x3d1d031a	0.038333036
184	0x3d654a13	0.055978846
185	0xbd6d9f59	-0.058013294
186	0xbd904545	-0.07044462
187	0xbd64294a	-0.05570344
188	0x3c479397	0.012181184
189	0x3cb0adb5	0.021567205
190	0xbc7073b4	-0.014676023
191	0xbdbf2329	-0.09332878
192	0xbd080be6	-0.033214472
193	0x3d7f0bd9	0.06226716
194	0x3d243eb2	0.040098853
195	0xbcb61da6	-0.022230934
196	0xbdac4b50	-0.08412802
197	0xbb2018dd	-0.0024428882
198	0xbbf005ec	-0.0073249247
199	0x3d1ebf89	0.03875688
200	0xbd053198	-0.032518
201	0xbe287665	-0.16451414
202	0xbe075ba7	-0.13218556
203	0x3c2aee2e	0.010432763
204	0x3dd3d53f	0.10343408
205	0xbdf98e8b	-0.12185391
206	0xbe3d670e	-0.18496343
207	0xbe08629e	-0.1331887
208	0x3d9af6c3	0.07566597
209	0x3d8ed869	0.06974871
210	0xbe2904b9	-0.16505708
211	0xbe00b7c8	-0.12570107
212	0xbcf260a2	-0.029587094
213	0x3dfc4e72	0.1231965
214	0x3d736d45	0.05943038
215	0xbe33d186	-0.17560396
216	0xbde31b2e	-0.110891685
217	0xbca317ab	-0.019908747
218	0x3d772457	0.06033739
219	0x3d7f42ed	0.062319685
220	0x38ccd4a9	9.767089e-05
221	0x3d7bff1b	0.061522584
222	0x3d22db1e	0.039759748
223	0x3c4c7f0c	0.012481462
224	0xbcf84a6b	-0.030308923
225	0xbd922c0c	-0.071373075
226	0xbd7450c6	-0.059647344
227	0x3d0b5fc1	0.034026865
228	0x3d2a03f0	0.04150766
229	0x3dd27ab5	0.10277311
230	0xbc80ba31	-0.015713783
231	0xbd8030cc	-0.06259307
232	0x3ba75906	0.005107048
233	0x3d95bcd5	0.073114075
234	0x3d90ffd2	0.07080044
235	0xbc2b5918	-0.010458253
236	0xbd22e9b9	-0.039773677
237	0x3da16102	0.07879831
238	0x3d899af4	0.06719008
239	0xbd0149ac	-0.0315644
240	0xbdba04fa	-0.090829805
241	0xbda9506a	-0.08267291
242	0x3dabaa1a	0.08382054
243	0x3de13388	0.10996157
244	0x3ddd1ce8	0.10796529
245	0xbd1873a7	-0.03721967
246	0xbd05cfc7	-0.032668855
247	0x3c749801	0.014928819
248	0xbce5c6bd	-0.028048867
249	0xbc902525	-0.017595837
250	0xbd6f25d9	-0.058385704
251	0xbcc9b44e	-0.024622109
252	0xbe0e14e6	-0.1387516
253	0xbd3f6e24	-0.046735898
254	0xbd1ac73a	-0.037787654
255	0xbe3183c6	-0.17335424

net.3.bias f4 [40]
0	0x3d0af882	0.0339284
1	0xbc819e4c	-0.015822552
2	0x3ce03a12	0.02737144
3	0xbc94f045	-0.018180976
4	0xbc5b58a9	-0.013387837
5	0x3cc910d6	0.02454416
6	0xbccb62be	-0.024827357
7	0x3bacc554	0.005272547
8	0xbcccb37d	-0.02498793
9	0x3be333da	0.0069336714
10	0x3ca50d44	0.020147927
11	0x3c7c57f8	0.015401833
12	0xbd042cdd	-0.032269347
13	0x3bbb4183	0.0057145967
14	0x3b961a53	0.004580775
15	0xbc8a994f	-0.016918806
16	0xbcc023f2	-0.02345464
17	0x3b1e8c30	0.0024192445
18	0xbcc7cbca	-0.024389166
19	0xbccb1c8a	-0.024793882
20	0x3d251d9e	0.04031145
21	0xbd16328c	-0.0366693
22	0xbba60fd5	-0.0050678053
23	0x3cc3e4f4	0.023912884
24	0xbc2f7229	-0.01070837
25	0xbab66279	-0.0013914845
26	0xbca919e8	-0.020642236
27	0xbd40aded	-0.04704087
28	0x3d538abc	0.05164598
29	0xbcd99d00	-0.026564121
30	0x3be26865	0.0069094175
31	0x3c95f5be	0.018305656
32	0xbd06f1b6	-0.032945357
33	0x3d19ca48	0.037546426
34	0x3c2dd21e	0.010609178
35	0xbb8cd2e0	-0.004297599
36	0xbb28ec56	-0.0025775633
37	0xbcdb5b83	-0.026777035
38	0x3d02b299	0.031908605
39	0xbd252b2f	-0.040324386

net.7.weight f4 [150, 360]
0	0xbdcf7bee	-0.101310596
1	0x3d58e76f	0.052955087
2	0xbce2a67d	-0.027667278
3	0xbdbea790	-0.09309304
4	0x3cb35522	0.02189118
5	0xbcf2f9dc	-0.029660158
6	0xbc61a7a0	-0.013772875
7	0x3dcd7a15	0.10033051
8	0xbc443cbe	-0.011977373
9	0x3d1e2fbb	0.038619738
10	0x3e147c1e	0.14500472
11	0x3d88a35d	0.06671784
12	0xbd017ea6	-0.031614922
13	0x3b1af935	0.0023647074
14	0x3ceb9cfb	0.028761378
15	0x3dc5a464	0.09650496
16	0x3dae8088	0.08520609
17	0x3d17136d	0.03688376
18	0x3cdc8ebf	0.026923535
19	0xbdb79564	-0.08964041
20	0x3d8d0440	0.06885576
21	0xbc816215	-0.01579384
22	0xbd3c6198	-0.04599151
23	0xbccf65d2	-0.025317106
24	0x3da20cfe	0.07912634
25	0x3df45b49	0.11931474
26	0xbca5e4f8	-0.020250782
27	0xbdb11b8e	-0.08647834
28	0x3bf151d5	0.0073644915
29	0x3d7ef42b	0.062244575
30	0xbddee0b0	-0.108826995
31	0xbe3b9d89	-0.18321814
32	0xbcea9681	-0.028636219
33	0xbdb44e45	-0.08803991
34	0xbdd20477	-0.10254758
35	0xbda0e408	-0.078559935
36	0xbbbe6ce9	-0.005811323
37	0x3c9a93a3	0.018869227
38	0xb87abeaf	-5.9782233e-05
39	0x3d592f15	0.053023417
40	0x3d92d404	0.07169345
41	0x3d9fd9ae	0.07805191
42	0x3d761501	0.060078625
43	0x3be49faf	0.0069770436
44	0xbd013901	-0.031548504
45	0xbd35de86	-0.044401668
46	0xbdd8e90b	-0.105913244
47	0xbd7d67bb	-0.061866503
48	0xbe07b0d5	-0.1325105
49	0xbce7da04	-0.0283022
50	0x3b94a1df	0.004535898
51	0xbdb90409	-0.09033973
52	0xbda40a38	-0.080097616
53	0xbdf55e34	-0.119808584
54	0x3ddd1c5a	0.10796423
55	0x3d42cf53	0.047561
56	0x3db4296a	0.087969616
57	0x3dca54e1	0.098794706
58	0x3dbaccf2	0.091211215
59	0x3d093c0f	0.033504542
60	0xbc617b78	-0.013762347
61	0xbc92e191	-0.017929824
62	0xbc986941	-0.018604876
63	0xbdee9873	-0.11650171
64	0xbdc8fd43	-0.09813931
65	0xbd55a120	-0.052155614
66	0x3cd82ef0	0.026389569
67	0xbd9d489e	-0.07679866
68	0x3de8d0f6	0.11367981
69	0xbd33f483	-0.043934356
70	0x3cb0e1ed	0.021592105
71	0x3d438f82	0.04774428
72	0x3e373d84	0.1789456
73	0x3b19c985	0.0023466062
74	0xbd75c8b7	-0.06000587
75	0x3d4a0df2	0.049329706
76	0x3c67cbbf	0.014147698
77	0xba191bf1	-0.00058406504
78	0xbdfc791e	-0.12327789
79	0xbdd1c995	-0.10243527
80	0xbd808ada	-0.06276484
81	0x3dac7e46	0.08422522
82	0x3d016b42	0.03159643
83	0x3d730bcf	0.059337433
84	0x3c550fd4	0.013004262
85	0x3d4c3b24	0.04986109
86	0x3cc3df00	0.023910046
87	0x3d0dfc5d	0.0346645
88	0x3d202b66	0.039103888
89	0x3d96589c	0.0734112
90	0x3c91a435	0.017778495
91	0x3cd7d46c	0.026346408
92	0x3cffcbcb	0.031225106
93	0xbd06aa80	-0.032877445
94	0xbdeddf7a	-0.116148904
95	0xbd081092	-0.033218928
96	0x3d1abbdf	0.037776824
97	0xbc6ad241	-0.014332355
98	0xbe05f77f	-0.13082694
99	0xbbf51a08	-0.00747991
100	0x3d021605	0.03175928
101	0xbd39c498	-0.045353502
102	0x3cb4d15c	0.022072487
103	0x3b7f9563	0.0038998954
104	0x3c9da4f9	0.019243704
105	0xbd2397aa	-0.03993956
106	0x3b62e413	0.0034620806
107	0x3d4484c2	0.04797817
108	0xbd86cd9f	-0.06582188
109	0xbd73758c	-0.059438273
110	0x3be7c8eb	0.007073512
111	0xbcf9ecc9	-0.030508416
112	0x3d71c056	0.059021316
113	0xbd68d2d3	-0.056841683
114	0x3d77af5a	0.060469963
115	0x3d503ad1	0.05083734
116	0x3d6492e1	0.055804137
117	0xbd682362	-0.05667437
118	0xbb9cfae7	-0.004790652
119	0x3d69554b	0.056966107
120	0x3cf54193	0.029938495
121	0xbd5d8f1c	-0.054091558
122	0x3d631be6	0.055446528
123	0xbcb2542c	-0.021768652
124	0xbc9050e8	-0.017616704
125	0xbd82248a	-0.063546255
126	0xbdc3dacd	-0.09563217
127	0xbd4bbd94	-0.049741343
128	0xbc2242cd	-0.009903622
129	0x3cc98d76	0.024603587
130	0xbd85e14e	-0.06537114
131	0xbc568e6a	-0.013095478
132	0x3d6760f3	0.056488942
133	0x3dccf1d5	0.10007063
134	0xbcb637c2	-0.022243384
135	0xbde1f255	-0.11032549
136	0x3b948e6d	0.00453358
137	0x3d33010d	0.043702174
138	0xbaba242b	-0.0014201453
139	0x3ceb3220	0.028710425
140	0x3d4bace0	0.049725413
141	0x3cefd447	0.029276026
142	0xbd1bc600	-0.038030624
143	0x3d1c7a3e	0.038202517
144	0xbbc51a9f	-0.0060151364
145	0x3d2f7efc	0.04284571
146	0x3ca37dfe	0.019957539
147	0xbcc62948	-0.024189606
148	0x3d91486a	0.0709389
149	0x3dd4d277	0.103917055
150	0x3d3fdebc	0.046843275
151	0xbc58987f	-0.013219952
152	0x3c940aaf	0.0180715
153	0x3d64a24e	0.05581885
154	0x3da9fdc4	0.08300355
155	0x3d962024	0.07330349
156	0x3c3a6ada	0.011378014
157	0x3d1c422c	0.038149044
158	0x3d8db81f	0.06919884
159	0xbd88d615	-0.06681458
160	0xbd4eda63	-0.05050124
161	0xbd9ba3d5	-0.07599608
162	0x3d80c1da	0.06286974
163	0x3d7959d8	0.060876697
164	0x3d1de019	0.038543794
165	0x3bdc4c74	0.006722981
166	0x3d23f892	0.040031977
167	0x3bb30c23	0.0054640933
168	0xbd1f56d7	-0.038901176
169	0x3c963bf3	0.018339133
170	0x3d0fe7b2	0.03513307
171	0x3dc06515	0.0939428
172	0xbd35fbee	-0.044429712
173	0x3d9ee7fd	0.07759092
174	0x3c4e4a4d	0.012590957
175	0xbc126e0b	-0.008937369
176	0x3d489f84	0.04898025
177	0x3da9941a	0.08280201
178	0xbd9c8431	-0.07642401
179	0xbd7bbde1	-0.06146038
180	0x3cfe34bc	0.031031005
181	0xbd7605ee	-0.06006425
182	0x3e164081	0.14673044
183	0x3cfddf93	0.030990398
184	0x3dd9cb72	0.10634507
185	0x3dc6e27f	0.097111695
186	0xbc519868	-0.012792684
187	0x3e1aaba1	0.15104534
188	0x3da8d2e0	0.08243346
189	0x3d1aad62	0.037763007
190	0x3c36e9a0	0.011164099
191	0x3a102117	0.0005498095
192	0x3c01f415	0.007931729
193	0x3d4bb0fd	0.049729336
194	0xbcf77582	-0.0302074
195	0x3bbad236	0.0057013286
196	0xbbb5caed	-0.0055478723
197	0x3d21a100	0.039460182
198	0x3d99b956	0.07506053
199	0x3d312413	0.043247294
200	0x3d4b51b6	0.049638472
201	0xbcb7cf20	-0.022437632
202	0x3ce6ea05	0.028187761
203	0xbb1a1ecf	-0.0023516899
204	0x3be627bc	0.0070237797
205	0xbc258c2d	-0.010104221
206	0xbc031182	-0.00799978
207	0x3bdef0f5	0.0068036267
208	0x3d186691	0.03720719
209	0xbd15e0a0	-0.036591172
210	0xbc4aa5a9	-0.012368598
211	0xbcac8e2d	-0.021063888
212	0x3cb8b363	0.022546476
213	0xbcd5d4c4	-0.026102431
214	0x3d23925a	0.039934494
215	0x3ae58d00	0.0017513335
216	0xbd4eff6b	-0.050536554
217	0xbd94bca8	-0.07262546
218	0x3c940fb6	0.018073898
219	0xbd66077a	-0.056159474
220	0xbd85c0dd	-0.065309264
221	0x3ca24ddf	0.019812522
222	0xbd3db72d	-0.04631727
223	0x3cb81262	0.022469703
224	0x3d016b0a	0.03159622
225	0x3d852a01	0.06502152
226	0x3e3341b8	0.17505538
227	0x3e51b299	0.20478286
228	0xbc085a87	-0.008322365
229	0xbd039e74	-0.032133535
230	0x3c905457	0.017618341
231	0xbe18d299	-0.14924087
232	0xbd845179	-0.06460852
233	0xbd344319	-0.0440093
234	0xbdf8876b	-0.12135204
235	0xbe004e49	-0.12529863
236	0x3da74a92	0.0816852
237	0xbd490700	-0.04907894
238	0xbca9cfce	-0.020728972
239	0x3e1371a8	0.14398825
240	0x3c7672d1	0.015042023
241	0xbda2e4d5	-0.079538025
242	0xbbe10383	-0.0068668737
243	0x3c81b808	0.015834823
244	0xbd54f8c8	-0.05199507
245	0xbcafc3e5	-0.021455714
246	0x3c5b8c87	0.013400204
247	0x3c3f1470	0.0116625875
248	0xbbc892ff	-0.006121039
249	0x3c8314b9	0.016001092
250	0xbd1b727d	-0.03795098
251	0xbcb33f6f	-0.021880833
252	0x3bebc4b9	0.007195082
253	0xbd8d4728	-0.068983376
254	0x3c74305c	0.014904108
255	0x3d0d3474	0.03447385

net.7.bias f4 [150]
0	0x3da2b914	0.07945457
1	0x3a9c5527	0.0011927233
2	0x3c53564a	0.012898991
3	0x3d025d48	0.03182724
4	0xbb13c18d	-0.0022545785
5	0xbbf9fbb0	-0.0076288804
6	0xbd67a982	-0.05655814
7	0x3c11f05b	0.008907403
8	0x3d9e4afd	0.07729147
9	0xbc9b9038	-0.018989667
10	0x3ca6d4b2	0.020365093
11	0x3af64c31	0.0018791017
12	0x3c80c452	0.015718613
13	0x3dac7e00	0.0842247
14	0x3a17b0ae	0.000578652
15	0xbd1a618a	-0.037690677
16	0x3d1778ee	0.036980562
17	0x3d7f3302	0.062304504
18	0xbcdb611a	-0.0267797
19	0x3c5685f6	0.013093462
20	0x3c6374d0	0.013882831
21	0xbbfeb85f	-0.0077734436
22	0x3d9c1eea	0.07623084
23	0xbcd98e13	-0.026557004
24	0x3cc3ccc0	0.023901343
25	0xbcbb9323	-0.022897309
26	0x3c13d36b	0.009022574
27	0x3d65dfa9	0.056121502
28	0x3c7ec112	0.015548961
29	0x3d2652ac	0.040606186
30	0x3d0433a8	0.032275826
31	0x3d23126a	0.039812483
32	0xbbab45bc	-0.005226819
33	0x3d95e6d8	0.073194206
34	0x3b32c01a	0.0027275146
35	0xbd865016	-0.06558244
36	0xbc9b8f33	-0.018989181
37	0xbbc802c5	-0.006103846
38	0xbcfdae7f	-0.030966995
39	0x3b71c06a	0.003688837
40	0xbd1ff181	-0.039048675
41	0xbd360f32	-0.044448085
42	0x3c918b97	0.017766757
43	0x3b17f1a6	0.0023184805
44	0xbc2deca7	-0.010615504
45	0xbd05a359	-0.032626484
46	0x3cb888f4	0.022526242
47	0xbcc2d15e	-0.023781475
48	0x3d5cb8ce	0.05388718
49	0xbd652adc	-0.055949077
50	0xbdad75f8	-0.084697664
51	0x3cbea9dc	0.023274355
52	0xbc6fa74e	-0.014627291
53	0xb97e74f4	-0.00024266896
54	0x3d6c6432	0.05771274
55	0x3d595b09	0.053065334
56	0x3c2e9974	0.010656703
57	0xbc2573ed	-0.01009844
58	0xbbeefdf4	-0.007293457
59	0xbd091f63	-0.0334772
60	0xbcae4e2d	-0.021277511
61	0xbc4b0369	-0.01239095
62	0x3d8e5c73	0.06951227
63	0x3d67567d	0.056478966
64	0xbd81312e	-0.063082084
65	0x3d2a8207	0.04162791
66	0xbb32c9cd	-0.0027280927
67	0x3c060f7b	0.008182402
68	0x3c94351b	0.018091729
69	0xbd3da814	-0.04630287
70	0x3d3d3a98	0.046198457
71	0x3d9f1496	0.07767598
72	0x3cdc23ba	0.026872505
73	0xbc370a83	-0.01117194
74	0xbd89226b	-0.06696018
75	0xbd3d5324	-0.046221867
76	0xbc4f181c	-0.0126400255
77	0x3dbd1c6f	0.09233939
78	0x3cea4ea2	0.028601948
79	0xbc35400a	-0.011062631
80	0x3d20a8f1	0.039223615
81	0xbd6dafd5	-0.058029015
82	0xbc1b3433	-0.0094728945
83	0xbcbcc978	-0.023045287
84	0xbd736cc4	-0.0594299
85	0x3d689fa7	0.05679288
86	0xbd6d57e9	-0.057945166
87	0x3d2073ea	0.039173044
88	0xbd61c6e6	-0.055121325
89	0x3d88b9c6	0.066760585
90	0xbcb21a7d	-0.021741146
91	0x3d5691b4	0.052385047
92	0x3c36f0be	0.011165796
93	0xbc9e98a2	-0.01935989
94	0xba519c4d	-0.0007996008
95	0x3cbaf209	0.02282049
96	0xbc675b2e	-0.01412086
97	0xbce1cb3e	-0.027562734
98	0xbca67980	-0.020321608
99	0xbb1d0fa0	-0.0023965612
100	0xbc14a4e0	-0.009072512
101	0xbcb7184d	-0.022350455
102	0xbc8ebede	-0.017424997
103	0xbd77a674	-0.060461476
104	0x3d075d02	0.033047684
105	0x3ce605ef	0.028079001
106	0x3cba43f9	0.02273749
107	0xbda9c10a	-0.082887724
108	0x3d5358ca	0.051598348
109	0x3d24f36a	0.0402712
110	0x3dbaebaa	0.091269806
111	0x3db2b8cb	0.08726653
112	0x3c33b217	0.010967753
113	0xbd55c771	-0.052192155
114	0x3db9adcc	0.09066352
115	0x3cdf4b4e	0.027257588
116	0xbd1d19de	-0.038354747
117	0xbd9e9908	-0.07744032
118	0xbcb61067	-0.022224618
119	0x3d02e8b1	0.031960193
120	0xbcbc0239	-0.022950279
121	0x3d878571	0.06617249
122	0xbcb16b96	-0.021657746
123	0x3d17bb45	0.03704383
124	0x3cb5d54d	0.022196436
125	0xbc421e36	-0.011848023
126	0x3d84215e	0.06451677
127	0x3d2014a7	0.039082196
128	0xbceb77eb	-0.028743705
129	0x3ad7e111	0.0016470273
130	0x3c0712e7	0.008244253
131	0x3d893b31	0.06700743
132	0xbce9aa98	-0.028523728
133	0x3d8eedbe	0.069789395
134	0xbc54a7ba	-0.012979442
135	0x3c962206	0.01832677
136	0x3d482818	0.04886636
137	0xbd44899b	-0.047982793
138	0xbb958599	-0.004563045
139	0xbd005631	-0.0313322
140	0x3b4ae1a5	0.0030957249
141	0xbd0b1ee9	-0.033965025
142	0xbc46386c	-0.012098413
143	0xbc890943	-0.01672805
144	0x3bf1c269	0.007377912
145	0xbd6a3d70	-0.057187498
146	0x3c9e76b3	0.01934371
147	0xbc06b2ea	-0.008221367
148	0x3ca03995	0.019558707
149	0xbca3b66e	-0.01998445

net.9.weight f4 [10, 150]
0	0x3b79baa9	0.0038105643
1	0xbd880366	-0.06641273
2	0xbd85c155	-0.06531016
3	0x3d5148f5	0.051094968
4	0x3e5b2c3e	0.21403596
5	0xbe4b0be9	-0.19828762
6	0xbd8ff781	-0.070296295
7	0x3bc3a48b	0.005970543
8	0xbdb8ad9e	-0.0901749
9	0xbd3b160c	-0.045675322
10	0xbd2c2580	-0.04202795
11	0xbccedd26	-0.025251936
12	0xbb006632	-0.0019592163
13	0x3dfcf377	0.12351125
14	0xbddde9b9	-0.10835595
15	0xbd5804dc	-0.05273901
16	0x3cb6a032	0.022293184
17	0xbc9d215a	-0.019180942
18	0xbe1f01c4	-0.15528017
19	0xbe4fb333	-0.20283203
20	0xbd939430	-0.07205999
21	0xbca2fa25	-0.019894669
22	0x3d92f1fe	0.071750626
23	0x3c2828b6	0.0102636125
24	0x3dc32ecb	0.095304094
25	0x3de63e0c	0.11242303
26	0x3d0c641b	0.034275156
27	0x3db51495	0.08841816
28	0x3e1a2511	0.15053202
29	0xbe514631	-0.20436932
30	0x3dfbfe1c	0.12304327
31	0x3e00f8e1	0.1259494
32	0x3d8bf0e8	0.068330586
33	0xbde9b005	-0.11410526
34	0xbd67c2ee	-0.056582384
35	0x3d44854f	0.047978695
36	0xbd2fe822	-0.04294599
37	0x3ddd9bce	0.10820733
38	0x3de0e9d1	0.10982097
39	0xbaad42da	-0.0013218776
40	0x3c6b1a12	0.014349477
41	0x3a21be47	0.0006170016
42	0xbd88a7eb	-0.06672653
43	0x3c4ec78e	0.01262082
44	0x3d63fd66	0.05566158
45	0x3da632d0	0.081151605
46	0xbd033b6b	-0.032039087
47	0x3c918bbe	0.01776683
48	0x3ddf967a	0.10917373
49	0xbd150593	-0.03638227
50	0xbb9c0933	-0.004761839
51	0x3e61a09e	0.22033927
52	0xbcb02404	-0.021501549
53	0x3d25c235	0.040468413
54	0xbd874b10	-0.06606114
55	0xbe6baa00	-0.23014069
56	0x3bd3dbaa	0.006465395
57	0xbc594e8b	-0.013263355
58	0x3dee1b69	0.11626322
59	0xbd1a6d42	-0.037701853
60	0x3db0b9de	0.08629201
61	0x3dab5268	0.08365327
62	0xbe5e190c	-0.21689242
63	0xbe5688d2	-0.2095063
64	0x3cb85d5e	0.022505458
65	0x3c6507e8	0.013978936
66	0xbd2d32a2	-0.042284615
67	0xbe25b0d2	-0.16180733
68	0xbe17f669	-0.14840092
69	0xbd4772f6	-0.04869362
70	0x3d858a58	0.065205276
71	0x3d6408b9	0.05567238
72	0x3af0669e	0.0018341129
73	0xbd64826a	-0.055788435
74	0x3d4af106	0.049546264
75	0xbd5441f3	-0.051820707
76	0x3e198f43	0.14996056
77	0xbeb6401b	-0.35595784
78	0xbe1a11bd	-0.15045829
79	0xbc69ef5a	-0.014278257
80	0xbd09c4cd	-0.03363495
81	0x3c171ea9	0.009223619
82	0xbe316726	-0.17324504
83	0x3e5754dd	0.21028467
84	0x3d34cdab	0.044141453
85	0xbe2f427c	-0.17115206
86	0x3c082a72	0.008310901
87	0xbd034f6a	-0.032058157
88	0x3d4dadc6	0.05021455
89	0xbc426109	-0.011863955
90	0xbc9de733	-0.019275283
91	0x3e362cef	0.17790578
92	0x3d2e405a	0.04254184
93	0x3e24f08e	0.1610739
94	0xbb0c3141	-0.0021391662
95	0xbd9c1c2f	-0.07622563
96	0x3bdf6557	0.0068175006
97	0xbd6133bc	-0.05498098
98	0xbd1c7b89	-0.03820375
99	0xbd0b8ee2	-0.03407181
100	0xbc5ddb87	-0.013541109
101	0xbd4953f0	-0.049152315
102	0xbd11559d	-0.035482038
103	0x3dad929b	0.084752284
104	0x3e0aacb6	0.13542446
105	0xbd316dc9	-0.04331759
106	0x3ca3363d	0.019923324
107	0xbda9138f	-0.08255684
108	0xbd6b51fb	-0.05745123
109	0xbe3cea09	-0.18448652
110	0xbe1736fa	-0.14767066
111	0x3e4ac5ff	0.19802092
112	0xbb57ef23	-0.0032948933
113	0xbb1ea1e1	-0.0024205374
114	0xbe9c6956	-0.30549115
115	0x3d04e39e	0.032443635
116	0x3d37c90f	0.04486948
117	0xbd010d59	-0.03150687
118	0xbe659685	-0.224207
119	0xbda7b22e	-0.08188282
120	0x3c6d956b	0.014500956
121	0x3d6d773c	0.05797504
122	0xbd039572	-0.032124944
123	0xbea667a8	-0.32500958
124	0xbca3b838	-0.019985303
125	0x3dcd78c8	0.10032803
126	0xbe780f0f	-0.24224494
127	0xbe6ffbfa	-0.23435965
128	0x3d9a89c8	0.07545811
129	0xbd98f4ba	-0.07468553
130	0x3da8ea23	0.08247783
131	0xbe5755fb	-0.21028893
132	0x3d95d614	0.07316223
133	0xbe160b62	-0.1465278
134	0xbc756f30	-0.014980122
135	0xbc37a26b	-0.011208157
136	0x3dc6f7fa	0.097152665
137	0xbcfdef04	-0.03099776
138	0xbd4db837	-0.05022451
139	0x3d215c22	0.039394505
140	0xbda0c202	-0.07849504
141	0x3e10b80e	0.14132711
142	0x3e34a6bb	0.17641728
143	0x3cdc6d13	0.02690748
144	0xbd1f02ea	-0.03882114
145	0x3d5346a8	0.051581055
146	0x3e160c1c	0.14653057
147	0x3c5cdcb0	0.01348035
148	0xbde1fc82	-0.1103449
149	0xbe4b5004	-0.19854742
150	0x3dd1f2e6	0.10251407
151	0xbba96348	-0.005169306
152	0xbd45f0cc	-0.048325345
153	0xbe1ab1e9	-0.1510693
154	0x3e1cbc41	0.15306188
155	0x3e0b4c2d	0.13603278
156	0x3ccd88ad	0.025089586
157	0x3d91f0a9	0.071259804
158	0xbc63394c	-0.013868641
159	0x3caa4347	0.020784033
160	0xbae98319	-0.0017815559
161	0x3e542df8	0.2072066
162	0x3db170dc	0.08664104
163	0xbd618cdc	-0.055065975
164	0x3e38c52f	0.1804397
165	0xbd09c52f	-0.033635315
166	0xbd063e3c	-0.032774195
167	0xbe6a9e2f	-0.22911905
168	0x3e127992	0.14304188
169	0x3ba40c4d	0.005006349
170	0xbd6eb6d6	-0.058279835
171	0xbd82cdd7	-0.06386917
172	0xbc37ae9f	-0.0112110665
173	0xbdda830c	-0.106695265
174	0xbcd25fa8	-0.025680378
175	0xbdea848b	-0.11451062
176	0xbcd4bbb0	-0.025968403
177	0x3e5a5c58	0.21324289
178	0xbdb41f90	-0.087950826
179	0x3dafedf2	0.08590306
180	0x3e8151e3	0.25257787
181	0xbdacea3b	-0.084431134
182	0xbe4092dc	-0.18806022
183	0xbe4cc3ae	-0.19996521
184	0x3ca6ebd1	0.020376118
185	0xbb54768a	-0.0032419288
186	0x3d6543ff	0.05597305
187	0x3db41160	0.087923765
188	0x3d483fe8	0.04888907
189	0x3e5a3e95	0.21312936
190	0x3d385b43	0.04500891
191	0x3c5127aa	0.012765804
192	0xbc212dfd	-0.009837625
193	0xbd7cb6d8	-0.06169781
194	0x3d4c5901	0.04988957
195	0xbe51d442	-0.20491126
196	0xbd0d96d4	-0.03456767
197	0xbcecfb1d	-0.028928334
198	0xbb1891c8	-0.0023280252
199	0x3ce8aed7	0.028403683
200	0xbda16bd7	-0.07881897
201	0xbc0a917b	-0.008457537
202	0xbc0c07bd	-0.008546767
203	0x3d0cc84d	0.03437071
204	0xbb7b751d	-0.0038369366
205	0xbda7ab9f	-0.08187031
206	0xbe1f7dfa	-0.155754
207	0x3def4152	0.11682381
208	0x3cb3b9a1	0.0219391
209	0xbd5fc378	-0.054629773
210	0xbc9dde82	-0.019271139
211	0xbe72f334	-0.23725587
212	0xbdafaf73	-0.08578386
213	0xbe53277a	-0.20620528
214	0x3d39ccec	0.045361444
215	0xbd569be6	-0.05239477
216	0x3cf0e797	0.029407306
217	0xbe438a69	-0.19095768
218	0x3da7fb93	0.08202281
219	0x3d0892e3	0.033343207
220	0xbe4df322	-0.20112279
221	0xbe4f3b5b	-0.20237486
222	0x3cade056	0.021225136
223	0x3d1709c5	0.03687455
224	0xbd3143b3	-0.043277454
225	0xbd72d21f	-0.05928242
226	0xbdc08bc3	-0.094016574
227	0x3d09486c	0.033516333
228	0xbd832da2	-0.06405188
229	0xbd2684b3	-0.040653896
230	0xbe21072b	-0.1572539
231	0x3d10a98b	0.03531794
232	0x3da6158e	0.0810958
233	0x3e19f95f	0.15036534
234	0x3d96b396	0.07358472
235	0x3e595077	0.21222101
236	0x3d68431e	0.056704633
237	0x3d8b91fd	0.068149544
238	0xbd76c4aa	-0.060246147
239	0x3c5f2249	0.013619014
240	0xbc4daca1	-0.012553365
241	0xbd144f55	-0.03620847
242	0xbdae8456	-0.08521335
243	0xbe2be822	-0.1678777
244	0x3c42094d	0.011843038
245	0xbc818ef9	-0.015815245
246	0xbd01f2c5	-0.031725664
247	0x3d8b6c93	0.06807818
248	0x3c189104	0.009311918
249	0x3bdf8223	0.0068209334
250	0x3d87670b	0.06611451
251	0x3d0a2d80	0.0337348
252	0x3d5443da	0.05182252
253	0xbcd5d8d9	-0.026104378
254	0xbe5932bc	-0.2121076
255	0x3d847e83	0.06469443

net.9.bias f4 [10]
0	0xbd647e78	-0.055784672
1	0xbd20249b	-0.03909741
2	0x3d3a125c	0.045427665
3	0xbd86ca75	-0.06581584
4	0x3d28c75e	0.041205756
5	0xbd59c498	-0.053166002
6	0xbcd6b04b	-0.02620711
7	0xbd9fbb1f	-0.077993624
8	0xbd433550	-0.047658265
9	0xbb792517	-0.0038016492
