result/model_15_3.pth (torch, 307183 bytes, 8 tensors)

net.0.weight f4 [20, 1, 4, 4]
000000 0a fe b6 3e c3 e2 14 3f ca 09 7b 3e 8b af c7 3e
       0.3574069 0.5815851 0.24515453 0.39001116
000010 3b 79 66 be 67 7f a9 be a8 86 0d bf 8f 3c 46 3e
       -0.22507183 -0.33105013 -0.55283594 0.19359039
000020 9c 85 e8 bd b8 5e d9 be 71 59 b7 3e 5e 0c 89 3e
       -0.11353609 -0.42455077 0.35810426 0.26767248
000030 1d 22 66 3e ca 98 ce 3e 98 d4 c4 3e af d8 0e be
       0.2247395 0.40350944 0.38443446 -0.13949846
000040 31 27 d0 3e 61 6f 63 3e ad bb 8b 3d 91 cd 86 3e
       0.406549 0.22210456 0.06822906 0.2632871
000050 0c 6f 84 bd 04 3d 65 3b f6 ef 40 bc 14 ba 9b 3e
       -0.06466493 0.0034978995 -0.011775961 0.30415404
000060 75 b2 8d be 8d 5c 7c be e2 8e 84 be 9b 2d 45 be
       -0.27675214 -0.2464468 -0.2589026 -0.19255678
000070 ad 1d 7a bc 10 ef 91 be 4a 38 81 3d 73 ff 3d be
       -0.015265864 -0.28502703 0.063095644 -0.18554477
000080 0f cc 4d 3e 13 b1 74 bd e9 f1 be be 9a 44 49 be
       0.20097373 -0.059739184 -0.37293938 -0.19655076
000090 ba 4d 15 3e a4 d1 36 3f f3 7c 87 3e b4 72 dd be
       0.14580432 0.71413636 0.26462516 -0.43251574
0000a0 1a 39 61 be 28 39 33 3e cf ee 21 3f 73 8a 1a 3e
       -0.21994439 0.17502272 0.6325502 0.15091877
0000b0 21 2e fe bd 9c 60 7b be c3 30 5a 3e 3b 14 d7 3d
       -0.12411142 -0.24548572 0.21307664 0.105019055
0000c0 49 57 ba 3d 86 94 67 be 74 ce ab be 97 07 ef bd
       0.090986796 -0.22615251 -0.3355595 -0.116713695
0000d0 f9 db 32 be e4 51 92 3e f0 5b 4d 3e 20 36 89 3e
       -0.17466725 0.28578103 0.20054603 0.26799107
0000e0 5d 12 37 3e dc 36 17 3e 45 88 82 3e 9e ea be bd
       0.17878099 0.14767021 0.2549459 -0.093220934
0000f0 10 f4 39 3c ab 95 60 be 76 bc 2d bd b5 12 a4 bd
       0.011349693 -0.21932094 -0.04241606 -0.080113806
000100 76 1a 7e 3d ac ba 82 bb 5d 06 52 3e da b4 f9 bd
       0.062036954 -0.003989538 0.2051024 -0.12192698
000110 8a 46 4a be 20 eb 30 be 00 01 2a 3e 7f 59 b6 3d
       -0.19753471 -0.17277193 0.16601944 0.08903789
000120 f4 c8 83 3e 18 7b 60 be df 0e b5 be 21 cc 92 be
       0.25739253 -0.21921957 -0.35362908 -0.28671363
000130 98 c7 03 be ee 83 4b 3e 77 d2 36 3e 8a ea 6d 3e
       -0.12869108 0.19874546 0.17853723 0.23234001
000140 9a 97 60 be 0f 22 14 be 0e 79 34 3e 3a df 2c be
       -0.21932831 -0.14466117 0.17624304 -0.16882029
000150 9d f3 15 3d 1b cc 4e 3d da 29 7a 3e c7 f3 8d be
       0.03660928 0.05048762 0.24430028 -0.2772505
000160 f6 eb fe bd 1f fb a8 3e 16 57 60 3d 96 20 49 be
       -0.1244735 0.3300409 0.05477055 -0.19641337
000170 29 6e 81 3e a1 74 b5 3e 71 ad 86 be 9c 0a 6e be
       0.25279358 0.35440543 -0.263042 -0.23246235
000180 b4 4e 8f 3e 27 0c d6 bb 30 55 13 bd f0 bb 5b be
       0.27989733 -0.0065322104 -0.035969913 -0.21458411
000190 77 66 00 be 14 88 30 bd 28 9e 11 be 05 0c 55 be
       -0.12539087 -0.043098524 -0.14220488 -0.20805366
0001a0 69 15 04 bd 73 75 8c be d4 b8 65 be a3 0d db bc
       -0.03224698 -0.27433357 -0.22433788 -0.026739901
0001b0 7a 94 33 be 28 0b f4 bd d3 da b8 3e b7 df 53 3e
       -0.17537108 -0.119161904 0.3610445 0.20690809
0001c0 f7 31 eb 3d 70 28 4c be e1 05 05 be 00 b9 42 bd
       0.114841394 -0.199373 -0.12990524 -0.04753971
0001d0 42 f6 2f 3d da da 58 be 11 b3 de bd 18 d4 10 be
       0.04295946 -0.21177235 -0.10873998 -0.14143407
0001e0 1e d0 55 bc d0 fe 02 be 63 68 1b bd 72 73 28 be
       -0.013050107 -0.12792516 -0.037941348 -0.16450289
0001f0 88 bb 10 be 09 e9 fe bd 67 0a 81 bd 4a c8 2c be
       -0.14134037 -0.12446792 -0.06300812 -0.16873279
000200 08 39 a7 3e 4d 00 83 3d 9d 66 a9 3e 0f 69 54 3e
       0.326607 0.06396542 0.330861 0.20743202
000210 45 af 55 be c0 bc 34 3e ec 59 91 bd ca 78 70 bd
       -0.20867641 0.17650127 -0.07097229 -0.058708943
000220 52 c0 92 be f8 3d a8 be 69 0f 59 bd 67 0c b9 bd
       -0.28662354 -0.32859778 -0.052993212 -0.09035569
000230 a3 7f 9e 3d fa 5e 50 be 4c 3b 00 3e 69 70 39 be
       0.077391885 -0.2034873 0.1252262 -0.18109287
000240 e9 89 95 bd 16 27 fc 3c 29 a8 0d 3e 23 3c 59 3e
       -0.07301695 0.030780356 0.1383368 0.21214347
000250 31 16 70 3e b6 03 8a be 16 8f b4 3d d4 fc 15 be
       0.23445965 -0.26955956 0.08816354 -0.14647228
000260 9d 25 d5 bd 7c 88 62 be b3 b9 a5 3e c1 38 6b be
       -0.10407565 -0.22122377 0.3236824 -0.22970869
000270 bd c2 33 3d 6f 08 9b 3d 5e a7 b2 3d 55 0e 3d be
       0.04388689 0.07569968 0.08723329 -0.18462498
000280 e2 0d d9 3e 6b 1a ea 3d fe 5a f9 3a de fd 78 be
       0.42393404 0.1143082 0.001902431 -0.24315593
000290 37 08 cd 3e 29 90 94 bc 17 33 4b be de 02 2c 3e
       0.4004533 -0.018135147 -0.19843708 0.16797969
0002a0 bc db 8f 3e c2 0a 14 be 00 2c 66 be 1f 5f f3 bd
       0.28097332 -0.14457229 -0.22477722 -0.11883377
0002b0 0c a2 45 3e d6 5c 5d bd 83 a7 32 be d7 be 01 be
       0.19300097 -0.054043613 -0.17446713 -0.12670456
0002c0 e0 8f 96 be 79 dd 52 3e 94 73 86 3e 6a ab b5 be
       -0.29406643 0.20592298 0.26260054 -0.3548234
0002d0 b7 0a e1 bc ef 22 ae 3e 6b 5b a4 3d 21 21 81 be
       -0.02747093 0.34011027 0.08025249 -0.25220588
0002e0 83 6a 45 3e 45 58 8b 3e 08 a6 82 3d 61 8c 2f be
       0.19278912 0.27215782 0.06379324 -0.17143394
0002f0 60 ca b7 bd 3f 06 d4 3d 58 30 31 bd 12 52 1d be
       -0.08974147 0.10352754 -0.043258995 -0.15363339
000300 5b c4 5f 3e 3f 7e 8d 3e 9b 58 4a bc 5c 85 9c bd
       0.21852247 0.2763538 -0.012350227 -0.07642624
000310 96 5b 3c 3a b3 c3 0e 3d 2e ee 0a 3e 65 24 21 3e
       0.0007185278 0.034854602 0.13567421 0.1573654
000320 c0 93 93 be 9d 28 05 be 2c 14 3f 3e 7b 30 02 3e
       -0.28823662 -0.13003774 0.18660039 0.12713806
000330 c9 1e 52 bd 3d 09 50 be d1 42 79 be 01 c6 8e be
       -0.05129889 -0.20316024 -0.24341895 -0.2788544
000340 36 1a 52 be f1 ab 3a bd 8f c1 79 3e de 34 8d 3e
       -0.20517811 -0.045574132 0.24390243 0.27579397
000350 d2 7f b7 be e3 19 99 be c0 93 ca 3c b2 2d e8 3e
       -0.35839707 -0.29902562 0.024728656 0.45347363
000360 24 9f db bd 5a bd 40 be aa a2 61 3e 92 c2 f8 3c
       -0.10723713 -0.18822232 0.22034708 0.030366216
000370 28 95 92 be 80 f1 cc 3d ce 23 41 bc 37 7f 94 bb
       -0.28629422 0.10007 -0.011788322 -0.0045317668
000380 6b b9 58 be 30 ee 79 3e a5 0d 89 3e 78 8f 0e 3e
       -0.21164481 0.24407268 0.26768222 0.13921916
000390 f2 3c 1f be 40 b1 61 be 81 33 f5 bd 97 d7 a1 3e
       -0.15550593 -0.22040272 -0.11972714 0.31609794
0003a0 72 82 29 3e 3c 15 99 3e 35 aa 34 3e 47 3d 2e 3d
       0.16553667 0.29899013 0.17643054 0.042538907
0003b0 d1 dd 01 bd 08 74 5f be 62 aa 8e be 20 f5 95 be
       -0.03170568 -0.21821606 -0.27864367 -0.29288578
0003c0 a0 a8 34 3e c6 6b a9 bd a2 de fa bb 02 83 a3 bd
       0.1764245 -0.08272509 -0.0076559344 -0.07983972
0003d0 eb 9f 39 bc 66 d7 0f be c1 b1 20 be f8 eb a6 3d
       -0.011329631 -0.14047012 -0.15692808 0.08150476
0003e0 5d fd 5d bd 7d 70 d2 3d 76 3c fe bd 6c e1 34 be
       -0.054196704 0.10275362 -0.12413876 -0.17664117
0003f0 a2 ce 5d 3c 8b 0b a4 bd 65 30 88 bd 40 9f 6d be
       0.013538035 -0.08010014 -0.066498555 -0.2320528

net.0.bias f4 [20]
000000 ae a6 4e 3e f8 67 9e bd 9e 3e db 3e 41 1c 03 3e
       0.20180771 -0.07734674 0.4282121 0.12803747
000010 76 86 e1 bd 42 3f 0c be 76 d3 d7 be 5e eb b1 be
       -0.110119745 -0.13696006 -0.4215352 -0.34749883
000020 f5 2e 1e be f6 55 45 3b c5 e6 5b 3e 70 2b 08 3e
       -0.154476 0.0030111051 0.2147475 0.1329782
000030 79 c9 04 be 2c 90 ce bd 30 e6 fc 3d 06 86 ac be
       -0.1296748 -0.10086092 0.12348592 -0.33696002
000040 c7 3a 28 3b 27 35 f4 3d 46 33 dc be 58 f9 c5 3d
       0.00256698 0.119242005 -0.4300787 0.09666699

net.3.weight f4 [40, 20, 5, 5]
000000 ba 13 47 bd 0c 59 39 bd 7a 70 b8 3c ad 08 cf 3d
       -0.048602797 -0.045250937 0.02251457 0.10109077
000010 43 b3 41 be a4 c6 81 3b d8 b3 9e bc 85 34 45 be
       -0.18916039 0.0039604474 -0.019372866 -0.19258316
000020 b1 67 01 be 95 59 13 bc 7a 70 6d 3d 8c 31 6c 3b
       -0.12637211 -0.008993526 0.057968594 0.0036040274
000030 da db f9 bb e5 32 93 3d f9 9f 09 3d 25 f1 33 bc
       -0.0076250853 0.07187442 0.033599827 -0.010982786
000040 66 4d ab bd 6b fb fc 3d 9b f0 5b 3d 18 ac 95 3d
       -0.08364372 0.12352642 0.053696256 0.07308215
000050 28 63 d4 bd bc 2b 08 bc 35 33 78 bc 18 8c 82 3c
       -0.10370475 -0.008311208 -0.015148927 0.015935943
000060 69 1b 6f 3d 67 59 38 bd fd 7c 44 bd bf a1 a8 bd
       0.05837575 -0.045007136 -0.04797076 -0.082339756
000070 05 f3 b5 bd b7 61 7c bb 11 5a 8d 3d b8 54 84 3d
       -0.08884243 -0.003851039 0.069019444 0.06461471
000080 4c 5e 9c 3c 26 a3 3d 3d 9d a0 19 3b 8a bb d1 bd
       0.019087933 0.04629817 0.002344168 -0.10240848
000090 d6 03 0f bd 5a de c6 3c 10 ca 8c 3d 5f 7a 49 bd
       -0.034915768 0.024275947 0.06874478 -0.049188968
0000a0 1c 2e 79 bd 0b 41 18 be 4c 27 f1 bd 4d 7c a6 bc
       -0.06083499 -0.14868562 -0.117750734 -0.020322943
0000b0 0e 9e d4 bc 32 0d 1f bd 5a 2d 47 bd 8f c0 cf bc
       -0.025954273 -0.038830943 -0.048627235 -0.025360374
0000c0 76 73 a4 3c cb 7f 1d bd 74 4a a4 3d c3 b8 4e 3c
       0.020074587 -0.03845195 0.08022013 0.012617293
0000d0 6a ce 0a 3c e1 53 f0 bc f3 e4 11 bd cd e1 93 3c
       0.0084720645 -0.029336872 -0.035618734 0.018052006
0000e0 c2 be 5e 3d e2 f8 95 bc 42 c3 92 bd 39 14 24 bc
       0.05438114 -0.018307153 -0.07166149 -0.010014587
0000f0 36 6d 8c bd 8f 2b 4d bd 1f 79 86 3d 02 21 db 3b
       -0.06856768 -0.05009037 0.06566071 0.0066872844
000100 8f 72 97 3d 2c 79 e5 bd 74 62 d2 bc b6 75 a8 3d
       0.07394897 -0.11204752 -0.025681712 0.082255766
000110 cf 16 bc 3d c3 3b 13 3e 28 71 3f 3d 4a 45 5b 3d
       0.09184038 0.14378266 0.046738774 0.053532876
000120 2e 03 1a 3d 4c 17 1a 3d 1f 6c ac 3d 8f 49 0a bc
       0.03760069 0.037619874 0.0841906 -0.008440389
000130 65 b3 be bc 54 0b 1c 3d 9e 64 e7 3c 72 89 48 bd
       -0.023278901 0.03809674 0.02824622 -0.048959203
000140 ba db 8d bb bd 87 a2 3c 84 ed 09 3e 6d e8 2f 3e
       -0.004329172 0.019840116 0.13469511 0.17178507
000150 02 42 7f 3d b7 68 5c bc ce 77 36 3c 10 cd 01 3e
       0.06231881 -0.0134527 0.011136962 0.12675881
000160 68 70 a8 3d d2 1b 9f 3c ac a0 df 3d 3b e1 1e 3e
       0.08224565 0.019422445 0.109193176 0.15515606
000170 ab 98 c3 3d 2c 02 de 39 fb 49 fe bd 9b 5a a8 3c
       0.095506035 0.00042344758 -0.124164544 0.020551017
000180 3c ee 83 3d fd 90 c4 3d 75 a7 b3 3d a8 c1 75 3d
       0.06441924 0.09597967 0.08772174 0.059999138
000190 fd 4f 60 bc 66 41 a4 3d 27 11 e6 3d 62 3a 06 3e
       -0.013690946 0.08020286 0.1123374 0.13108209
0001a0 03 09 17 3d 71 54 10 ba 55 6e ad 3d 43 20 2d 3e
       0.03687383 -0.0005505747 0.0846831 0.16906838
0001b0 dc 23 09 3e 69 cf ce bc ba 5f e9 3d d8 9d 19 3e
       0.13392586 -0.025245385 0.113952115 0.15001619
0001c0 f7 98 bf 3d 95 1b 4b 3d f4 a8 a8 bc 10 60 30 3d
       0.093553476 0.04958685 -0.020588376 0.043060362
0001d0 c4 dc 9b 3d ca 6a e9 3d 46 b4 62 3d 8a 79 10 bd
       0.07610467 0.113973215 0.055347703 -0.03527216
0001e0 40 1b cb bc a3 99 33 3e 1d 2f 15 3e d4 c7 4f 3c
       -0.024793267 0.17539077 0.14568754 0.01268192
0001f0 26 ea 15 bd 87 47 2b 3d 7d 10 45 bd 65 5e a1 3b
       -0.036600254 0.04181626 -0.048111428 0.004924583
000200 37 0b 31 3e 47 aa 4b 3e 19 22 bb 3c 10 33 81 bb
       0.17289434 0.19889174 0.022843407 -0.0039428547
000210 f8 cc 5b bd a7 60 ab bc 70 59 c8 3c ff 36 9c bd
       -0.05366227 -0.02092011 0.02445671 -0.07627677
000220 83 3b 59 bd 93 c3 c1 bd 1a 9f ba 3c 08 39 cb bc
       -0.05303527 -0.09461131 0.022780944 -0.024807468
000230 d5 64 b4 3c f0 ac 1b bd 51 fd 2a 3c 2f 5e cc 3d
       0.022020737 -0.038006723 0.010436372 0.099789016
000240 3d 2c 95 bc 2c ff 92 3d e8 3a 57 3d d6 c0 a8 3d
       -0.018209571 0.071775764 0.05254641 0.082399055
000250 e8 31 d3 3d 5b c1 d8 3d 4a 69 a4 3c e7 93 c7 3c
       0.10312253 0.10583755 0.020069737 0.024362518
000260 43 15 0d 3d 2c 22 84 3d 9c 70 9a 3d 10 1a 13 bc
       0.034444105 0.0645183 0.0754101 -0.008978382
000270 94 cd ca 3c d0 41 c2 3d ea 30 9a 3d 05 d1 56 3d
       0.02475623 0.09485209 0.07528861 0.05244543
000280 01 34 42 3c 37 77 fd 3b 63 46 02 3d 01 75 1e 3d
       0.011853219 0.007735159 0.031805407 0.038685802
000290 fd 5b 36 3d 52 ad 5a 3b 17 89 f3 bd 09 4f e3 bd
       0.04452132 0.0033367467 -0.11891382 -0.11099059
0002a0 eb f7 17 bd 37 d1 40 bc e0 f0 85 bd 75 65 ea bd
       -0.037101667 -0.011768631 -0.06540084 -0.11445133
0002b0 c1 5a e1 bc f6 73 0a bd e3 0c 1f bd 76 fa f9 bc
       -0.027509095 -0.033801995 -0.03883065 -0.030514937
0002c0 d9 52 3d 3d df 1d d7 bc 2d bb a1 3d 7d 60 83 3d
       0.046221588 -0.02625936 0.07897029 0.06414888
0002d0 70 6f 39 3b 40 5a dd 3c fe 78 66 3c 9e 82 98 3d
       0.0028295182 0.027020574 0.014066933 0.07446788
0002e0 4f f0 9b 3d 6c f2 1a bd ad c8 16 3b 6e 5e 43 3b
       0.076141946 -0.037828848 0.0023007796 0.0029810923
0002f0 4e 7e af 3c e0 9d cc 3c 12 ed c8 bc e6 48 c5 bd
       0.021422531 0.024977624 -0.024527106 -0.09633045
000300 3e 76 8c bd 50 c6 10 3d 4a d4 0d 3d cd 76 66 bd
       -0.068584904 0.035345376 0.034626283 -0.05626564
000310 f7 20 06 be 83 90 64 bd cf fb 2d bd c3 2b 0b 3d
       -0.13098513 -0.05580188 -0.04247647 0.03397728
000320 02 69 00 be 02 b8 d0 bd 97 c6 9e bd bb 00 96 bd
       -0.12540057 -0.10191347 -0.07752722 -0.07324358
000330 5a d9 13 bd ec 33 0b bd 66 6e cb 3b 29 5c d7 3d
       -0.036095954 -0.033985063 0.006208229 0.10515625
000340 13 15 24 3e 64 98 b0 3c f1 ff 56 be 36 a0 8d bd
       0.16023664 0.02155704 -0.20996071 -0.069153234
000350 20 87 65 3d 0c 3e 04 3e 77 b5 07 bd 3b 7e 17 be
       0.05603707 0.12914294 -0.033132043 -0.14794247
000360 a6 2f 18 be cd f4 2d be 0a 0e 10 be 59 30 50 bd
       -0.14861926 -0.16987915 -0.14067855 -0.050827358
000370 61 28 97 bd f8 49 f6 3c 3b 1f 17 3d e6 9c e6 bc
       -0.073807485 0.030064568 0.036895018 -0.028150987
000380 c3 ed 81 bd bd 89 a8 bc 86 23 02 3d 43 ac 99 bd
       -0.063441776 -0.020573491 0.03177216 -0.075035594
000390 6a 22 26 3d 69 12 d6 bd 6f dc bc 3c 98 c0 85 bb
       0.040560164 -0.1045273 0.02305433 -0.004081797
0003a0 cc ef 88 bc 74 9d 6f 3c c7 5d 83 ba a6 73 7d bd
       -0.016715907 0.014624942 -0.0010022455 -0.06187787
0003b0 90 c2 13 3d 5d 3c af 3d 7b fd 33 bc ab c3 9c bd
       0.03607422 0.08556435 -0.010985727 -0.07654508
0003c0 50 86 04 bd 5b de 8f bd 49 5a 8f 3d 1a 81 3f 3d
       -0.032354653 -0.07024833 0.069996424 0.04675398
0003d0 44 96 aa bd 03 2b 5d 3d 39 8a 27 3d 4a e3 a4 3d
       -0.08329442 0.053996097 0.040903304 0.080511644
0003e0 86 37 f0 bb 67 73 6a 3c 04 81 70 bc 74 8f c6 3c
       -0.0073308377 0.014309741 -0.014679197 0.024238326
0003f0 ef 97 af 3b 55 9c 8d bc 41 d6 25 3d 35 24 db 3a
       0.005358688 -0.017286459 0.04048753 0.0016719165

net.3.bias f4 [40]
000000 98 e7 43 3d f5 e7 c2 ba d8 52 b7 3c 23 d3 d8 bc
       0.047828287 -0.0014870154 0.02237837 -0.026467865
000010 dd 1e 14 bd b9 d2 e4 3c e1 8b 42 bd 90 20 94 3c
       -0.036162246 0.027932512 -0.04749668 0.018081933
000020 6c 5d 55 bc 5b b4 1f bc 26 ef 8b 3c a9 f7 55 3d
       -0.013022762 -0.00974759 0.017081808 0.05223814
000030 53 e6 d2 bc 70 b7 18 3c f3 ce 80 3b ee 70 43 bc
       -0.025744593 0.009321079 0.0039309203 -0.01192878
000040 57 29 da bc ed c6 41 3c 57 f1 de bc f7 ff 77 bc
       -0.02663104 0.011827213 -0.02721469 -0.01513671
000050 8e 05 e9 3c 98 46 b9 bc 8e b1 df 3b c3 43 64 3d
       0.028445031 -0.02261667 0.006826586 0.055728685
000060 e2 9e a7 bb ca 63 97 bc f1 b0 1c bd a8 06 33 bd
       -0.005115376 -0.0184802 -0.038254682 -0.04370752
000070 62 f6 44 3d bb cf 47 bc bc 1a 00 3c 95 29 82 3c
       0.04808653 -0.012195523 0.007818874 0.015888968
000080 4f 37 a9 bc da aa f9 3c 20 18 38 3d 95 7c 3e 3b
       -0.020656256 0.030476976 0.044944882 0.0029065956
000090 9b ef 2f 3c 64 2e 39 bd c4 e7 bf 3c 5f cd f6 bc
       0.010738279 -0.045210257 0.023425944 -0.030127225

net.7.weight f4 [150, 360]
000000 ce b7 38 bb e6 07 16 bb 7f e1 36 bd 62 ba d5 bd
       -0.0028185728 -0.0022892891 -0.044648644 -0.1043594
000010 3f ce 3e bc d4 21 66 bd 17 c1 30 bd fd 7c 3a bd
       -0.011645853 -0.056184605 -0.043152895 -0.045529354
000020 c4 b7 09 3b bf 4b 4a 3d a9 a0 68 3d 98 64 3c 3c
       0.0021014074 0.049388643 0.056793842 0.011498593
000030 4a c3 99 3c 47 ad 21 3c 3a 11 9d 3d ca 8a 09 3e
       0.018769879 0.009867973 0.07669301 0.1343185
000040 07 c5 38 3d 2c 7c 80 3d 8c 52 48 3d 73 9a ba 3c
       0.045109775 0.06273684 0.048906848 0.022778725
000050 61 f8 64 3d 39 c8 6b bd 50 41 4a bd 95 bf f0 bb
       0.055900935 -0.057563994 -0.049378693 -0.007347057
000060 de c1 89 bc e5 4c 5c 3d 78 a3 1e 3c 8c 36 69 bc
       -0.016816076 0.05378427 0.009682529 -0.014234196
000070 69 4b 29 3d b6 b0 f3 bc e4 fc ae bb 5d e8 5c bd
       0.041331682 -0.029747348 -0.0053402055 -0.053932536
000080 65 10 19 3d 39 e3 44 bd e9 d8 04 3d a8 f0 8f bb
       0.03736915 -0.04806826 0.032433424 -0.004392702
000090 dc 24 b8 bc c0 83 af bc e8 ef a0 bb 4a 53 0e 3c
       -0.022478513 -0.021425128 -0.0049114116 0.00868685
0000a0 ac 4c 2e 3d c3 1f 8a 3d 35 01 b3 3d 57 0b 12 ba
       0.04255359 0.06744339 0.087404646 -0.0005571148
0000b0 38 fa 3a 3b 10 5b f3 3c 13 27 43 bd 96 fc c3 bd
       0.002853049 0.029706508 -0.047644686 -0.09569661
0000c0 6b 9f ea bb 40 af 8d 3d e9 62 19 3e fa 12 78 bd
       -0.0071601174 0.06918192 0.14979137 -0.060564972
0000d0 e5 62 db bd 8e b9 8c bc 5c 0c b6 3c 88 e6 02 3c
       -0.10712222 -0.017178323 0.02222269 0.007989533
0000e0 7e 1d bf 3c fe 42 5c 3c fb d3 11 bc a4 82 78 3c
       0.023329493 0.013443707 -0.008900638 0.015167866
0000f0 6d db 05 3d d0 f9 e1 bb 54 27 57 3c 9f 85 ff bd
       0.032679964 -0.006896235 0.013131935 -0.12476658
000100 f7 65 ff bd 21 cb c2 bd d3 3f 84 bc 81 27 85 bd
       -0.1247062 -0.095114 -0.016143715 -0.065016754
000110 91 48 a7 3d 03 9e ec 3c c7 a3 dc 3c 61 ca f7 bb
       0.08168138 0.02888394 0.026933564 -0.0075619672
000120 92 f7 8a 3d d6 e9 83 bd 81 ef 71 bd 42 9a 54 3d
       0.067855015 -0.06441085 -0.0590663 0.051904924
000130 00 2e 24 bb 80 77 ca bc a5 c2 54 bd 33 62 94 bd
       -0.0025051832 -0.024715185 -0.05194344 -0.072452925
000140 d6 0a 5e bd 29 78 9d 3d 4c 5a cc ba f5 e9 c4 3c
       -0.054209553 0.07688934 -0.0015590875 0.02403734
000150 0e 9a c5 3c 97 9a 98 3d 3b 8a 32 bd 17 ea 16 3d
       0.02412131 0.07451361 -0.043588858 0.03684434
000160 cf b2 2c 3d 9d 80 8e 3d 64 9b 74 bd da 6e 65 bc
       0.042162713 0.06958125 -0.059718505 -0.01400348
000170 fd af 63 3d 5b 41 36 3d 20 d1 7b bd f4 f3 21 bc
       0.055587757 0.04449592 -0.061478734 -0.009884823
000180 e8 1c 2e bb 95 bc 81 bd cc c9 a7 bd 9e d7 52 bd
       -0.0026567522 -0.06334797 -0.081927866 -0.05147516
000190 b9 90 0b 3e a1 21 89 3d 86 74 1f bc 1d 6f cb 3c
       0.13629426 0.06695867 -0.009732371 0.024833256
0001a0 b2 cb 84 3d 12 ae 87 bd c3 d8 b0 bc 44 d1 37 3d
       0.06484164 -0.06624998 -0.021587735 0.044877306
0001b0 57 f3 25 bd 57 c6 0b bc 64 8b 9d 3c 98 2a 6d 3c
       -0.04051527 -0.008531175 0.019231506 0.014475487
0001c0 96 2f c6 3d c3 b9 ab bb 8c cf 25 3d cb 22 bd 3c
       0.09677045 -0.0052406504 0.040481135 0.02308788
0001d0 25 b9 6c 3d b7 68 1a bd f5 d6 39 3c 8f fc 6d 3d
       0.057793755 -0.03769752 0.011342754 0.058102187
0001e0 b0 ca 84 3d 0c 72 fd bc 0e 5d 9a 3d 73 c3 a5 bc
       0.06483972 -0.03093817 0.0753728 -0.020234799
0001f0 d7 88 5f bd a5 0d 31 be 54 4f 16 bd e1 80 b8 bd
       -0.05457386 -0.17290361 -0.036696747 -0.09008957
000200 f3 70 e8 3c a6 bb 3c 3d ca d7 3a 3c 88 0d ac 3d
       0.02837417 0.046077393 0.011403987 0.084010184
000210 33 5d 5e 3d 1b ac 0c 3e 9c 0d 12 3d a2 72 c7 bd
       0.0542881 0.13737528 0.03565751 -0.09738661
000220 a9 93 53 bd 17 34 db 3c de 14 3c 3d 17 5e 64 39
       -0.05165449 0.026758237 0.045918338 0.00021778826
000230 17 75 12 3c ff 5d a8 3d b6 57 81 bc a9 91 80 3d
       0.008939049 0.08221053 -0.015788894 0.062777825
000240 53 51 cb 3c 17 ad 35 3c 2c 0d 4d bd d9 68 45 3d
       0.024819052 0.011088631 -0.05006139 0.048195694
000250 44 a0 94 3d 79 a0 3a 3d b2 9e 4f bd ff 3d 78 bd
       0.07257131 0.045563195 -0.050688453 -0.060606
000260 b1 e6 2b bd 5a e7 7f 3c 30 e6 08 3d 75 7e 85 3d
       -0.04196805 0.015619123 0.03342265 0.065182604
000270 af c3 3f 3d 42 9c ce ba 8d 4c 36 3d 93 d8 bf 3b
       0.046817478 -0.0015763121 0.0445066 0.005854675
000280 4e f8 1d 3d 4f fd 82 3d a2 7e 0b 3d 39 ba 92 bb
       0.03856688 0.06395971 0.034056313 -0.004477766
000290 11 98 d5 3c ea 30 13 bd 69 b0 ba 3c 93 3d 24 bd
       0.026073487 -0.03593532 0.022789197 -0.040097784
0002a0 e3 cc 40 3c 0b 23 50 3d 14 7b 43 3d c4 28 8c bd
       0.011767599 0.05081467 0.0477248 -0.06843713
0002b0 60 08 37 bb a4 38 0b 3d 3a 76 0e 3d df 80 89 bc
       -0.0027928576 0.033989564 0.03478072 -0.016785083
0002c0 09 a4 fc bc de 31 35 3d 2f f0 be bd df 56 fd bc
       -0.030839937 0.04423701 -0.09323155 -0.030925212
0002d0 27 63 ea 3d 47 9f 74 bc ce ef 43 3d 2b 76 af 3d
       0.11444693 -0.014930553 0.047836117 0.085674606
0002e0 c9 7a 9d 3d 52 51 e6 3d af 7c b0 bb 80 3e 9b 3d
       0.07689435 0.11245979 -0.005385957 0.0758028
0002f0 57 58 6c 3d 28 c3 d6 3c 98 d2 1f bd 54 31 80 bd
       0.057701435 0.026216105 -0.039019197 -0.062594086
000300 9a c3 1e 3d b8 95 1c 3d 6a 82 da bd 8f d5 d6 3c
       0.03876076 0.03822872 -0.10669406 0.02622488
000310 57 be cc 3c 54 3c 02 3e 39 69 e1 3c 2c 1f 1f 3d
       0.024993105 0.12718326 0.027515994 0.038848087
000320 9f 17 8c 3d f8 4c 0b bd 8f a6 1c 3d 08 ad 17 bd
       0.06840443 -0.03400895 0.03824478 -0.03703025
000330 cf b5 a6 bd 27 b5 61 3d a2 73 a9 3c de d6 27 3d
       -0.08140146 0.0551044 0.02068502 0.040976398
000340 13 d5 ae bb e8 60 c2 bd 03 13 1a 3d 6d ac 4e 3b
       -0.005335459 -0.0949114 0.037615787 0.003153588
000350 dc 82 a3 3c 86 04 92 3b 2d 31 a9 3c 61 f5 16 bd
       0.01995986 0.0044561056 0.020653332 -0.036855105
000360 af cc d7 bd 16 ae a0 bd 6a 34 dc bc 24 f1 97 bd
       -0.10537087 -0.07845704 -0.026880462 -0.07419041
000370 77 ae 34 bd a2 cb 38 3a 36 86 61 bd b1 b7 12 bc
       -0.044111695 0.00070493866 -0.055059634 -0.008954928
000380 fa e7 25 3c d1 05 3b 3d b5 10 db 3c e7 82 0a 3e
       0.010126108 0.045659844 0.026741365 0.13526498
000390 82 34 c1 3d 3a 3d a1 3c b1 f7 38 3c aa f5 de 3d
       0.09433843 0.019682515 0.011289523 0.108867005
0003a0 a0 ed a4 bc 3d 2b 18 bd 24 6b bf bd dc 05 6d bd
       -0.02013284 -0.03715061 -0.09346607 -0.057866916
0003b0 92 f5 ce 3c 0c ef 23 3d c8 f0 cf 3c 6d ab 16 3e
       0.025263581 0.040022895 0.025383368 0.14713831
0003c0 0f 26 3a 3d dd aa 89 bc 67 0c ec 3c 88 cc 0f 3c
       0.04544645 -0.016805107 0.028814508 0.008776791
0003d0 56 00 58 bd e5 33 a8 bc b8 4c 69 3c fd 08 2d 3c
       -0.052734695 -0.020532558 0.014239483 0.010561225
0003e0 d8 ce 09 ba 37 2b 72 3c ae 40 1b bd 03 8a cc bc
       -0.00052569574 0.014780811 -0.03790348 -0.024968153
0003f0 29 b8 7b 3d 0f e7 0a bb 6d 85 09 3d 83 c3 06 3d
       0.061454926 -0.002119485 0.03357451 0.0329013

net.7.bias f4 [150]
000000 b6 31 81 3d 31 14 03 3b e8 68 7e 3c 38 5a cf 3c
       0.0630831 0.0020001049 0.015527941 0.025311574
000010 cc 83 84 bb 57 49 a0 bc e1 a4 6d bd 0d b5 2f 3c
       -0.0040440317 -0.019566221 -0.05801857 0.010724318
000020 5d 1e 05 3d c5 b8 47 bc 5b 65 ba 3c 81 01 5b bc
       0.03249966 -0.012190049 0.022753408 -0.013367058
000030 ea d0 c6 3b 68 37 7d 3d cc 29 4f bb 9a 1b 29 bd
       0.006067385 0.061820418 -0.0031610606 -0.04128609
000040 01 36 0f 3d f8 44 78 3d 20 57 b9 bc e4 27 27 39
       0.03496361 0.06061265 -0.022624552 0.00015941221
000050 37 e5 80 3d 72 19 e8 bb 21 70 eb 3c 00 7a d9 bc
       0.06293719 -0.0070831114 0.02873999 -0.026547432
000060 ca ed b4 3c b9 79 27 bd 04 fc ea 3c 5c f4 66 3d
       0.022086043 -0.04088757 0.028684624 0.056385383
000070 61 04 20 3d 0f 8a bb 3c 17 1d a6 3c c1 48 3f 3d
       0.039066676 0.02289298 0.020277543 0.046700243
000080 e4 14 8a 3b 22 52 88 3d d1 25 ed 3a 9f be 90 bd
       0.004213916 0.066562906 0.0018092935 -0.07067608
000090 25 28 78 3b f9 92 42 3c fe 0a bc bc cd 84 cc 3b
       0.0037865725 0.011875861 -0.02295446 0.006241417
0000a0 a3 a3 c4 3b 20 44 90 bd c0 80 7c 3d 36 04 c9 3c
       0.0060009523 -0.07044244 0.061646223 0.02453814
0000b0 ff 7d de 3c 0d b6 21 bd 9e c0 06 3d c1 25 fc bc
       0.027159689 -0.039480258 0.032898538 -0.030779721
0000c0 d9 f0 17 3d fd 1c 67 bd c0 ab 58 bd d5 e1 8b 3c
       0.037094925 -0.05642413 -0.05289817 0.017075459
0000d0 63 49 87 3b 8b 7a 99 bb da 16 a1 3d 1d 07 35 3d
       0.0041286214 -0.0046837977 0.07865687 0.044196237
0000e0 19 b5 4b 3c 1a dc 9c bc ef 06 ac bc b2 ba 11 bd
       0.012433314 -0.019147921 -0.0209994 -0.035578437
0000f0 e0 64 db 3c 58 02 9e bc 7f 44 7d 3d b3 07 b0 3c
       0.0267815 -0.019288227 0.0618329 0.021488046
000100 e5 ef e6 bc 05 70 2a 3d e9 c9 32 bb da 29 c6 bc
       -0.028190563 0.041610736 -0.0027280992 -0.024189878
000110 25 e0 a9 3c bd 63 41 bd 0d 27 80 3d 17 83 78 3d
       0.020736763 -0.04721426 0.06257448 0.060671892
000120 0f c1 e7 3c 40 f5 ce bc 13 83 9e bd a4 25 3f bd
       0.0282903 -0.025263429 -0.07739844 -0.046666756
000130 5a f1 07 bd 3f 56 11 3d bc 97 01 3d e2 90 89 bc
       -0.033189155 0.03548264 0.031638846 -0.016792718
000140 63 e5 13 3d 9e 36 c2 bc a8 8b b7 bc 7e 61 d0 bc
       0.036107432 -0.023707684 -0.02240546 -0.025437113
000150 30 18 42 bd a0 68 08 3d 2a d2 7a bd b4 bc 2d 3d
       -0.04738635 0.033302903 -0.061235584 0.04241629
000160 12 ff 6f bd 96 30 dd 3c 36 cf d8 3c da 56 c9 3b
       -0.058592863 0.027000707 0.026465993 0.0061443867
000170 28 3f 49 3d 5d 75 63 bc 78 c9 d4 39 77 00 07 3b
       0.049132496 -0.013882962 0.00040585897 0.0020599642
000180 fa e8 62 bc 6e 9d 4b bd bd 8d 3e bc 12 10 1d bb
       -0.013849491 -0.049710684 -0.011630473 -0.0023965877
000190 31 90 cc bc 17 54 a4 bc ec b6 36 bc 16 22 64 bd
       -0.0249711 -0.020059628 -0.01115201 -0.05569657
0001a0 3d d6 63 3d 97 40 23 ba d3 19 dd 3c 9a f8 0b bd
       0.055624235 -0.0006227581 0.026989853 -0.03417263
0001b0 de f4 0c 3d 3f e9 4b 3d 0d 14 8f 3d 58 4e 81 3d
       0.03441321 0.049782988 0.06986246 0.06313771
0001c0 f0 a1 56 3c 7f 05 67 bd 42 df 80 3d 3d 2f 48 3c
       0.013100132 -0.056401726 0.06292583 0.012218294
0001d0 8c ee f0 bc 05 10 4c bd 03 da 2a bd 85 b8 30 3d
       -0.029410623 -0.049819965 -0.04171182 0.04314472
0001e0 3e 0b de 3b 5e b0 62 3d bc d6 31 bc 48 81 91 3c
       0.0067762425 0.055343978 -0.010854419 0.017761841
0001f0 d5 d7 8d 3c cb 5d 41 bc c1 e4 62 3d 5d b2 05 3c
       0.01731483 -0.011802147 0.055393938 0.008160201
000200 fd 4a f4 bc b7 fb 9a ba f9 8b c8 3b 97 0b 5e 3c
       -0.029820913 -0.0011824284 0.0061202017 0.013552568
000210 ce 34 d4 bc 87 6d d6 3d f2 1a 18 bc da 39 8c 3d
       -0.025904085 0.104701094 -0.009283768 0.06846972
000220 9c 82 86 3d 93 10 2f bd 23 08 14 3b f1 99 f8 bc
       0.065678805 -0.042740416 0.0022587858 -0.030346842
000230 aa f9 16 3c 98 48 53 bd 35 72 94 bc 3e 7b 4f bc
       0.009214798 -0.051582903 -0.018120864 -0.012663661
000240 bf dd b3 3c fc e5 69 bd f0 07 17 bc 40 be 60 ba
       0.021956323 -0.057104096 -0.009218201 -0.00085732713
000250 66 61 be bc 63 31 4f bd
       -0.023239803 -0.05058421

net.9.weight f4 [10, 150]
000000 ec c1 88 bc 4d 49 8e bd 78 2f a4 bd 03 99 f1 3c
       -0.016694032 -0.06947575 -0.080168664 0.029491907
000010 56 f7 14 3e fc 0c 6c be df f7 73 bd 87 2b 05 3c
       0.14547476 -0.23051828 -0.05956256 0.0081280535
000020 d7 b2 74 bd 93 06 59 bd f7 3d 2a bd 40 a1 ca bb
       -0.059740867 -0.052984785 -0.041563 -0.0061837733
000030 0a 29 a1 3c f4 5d 1a 3e 05 53 12 be c0 12 87 bd
       0.01967289 0.15074903 -0.14289482 -0.06595373
000040 3d ab b0 3c 12 00 65 3c 82 ed 3a be 0a ad 08 be
       0.021566028 0.013977068 -0.18254665 -0.13347259
000050 d3 a2 60 be d0 88 4a bc 92 74 0d 3d c5 20 ba bb
       -0.21937113 -0.01236172 0.034535 -0.005680176
000060 75 d5 ea 3d d6 06 ca 3d 0b 48 6c 3c bc a4 e4 3d
       0.11466495 0.09864585 0.014421473 0.11164233
000070 01 91 c5 3d ab e4 05 bd 96 12 d3 3d b0 ee 8f 3d
       0.09646798 -0.032688778 0.10306279 0.07027948
000080 80 5b ff 3c 14 04 26 be 3a ab 6b bd 16 43 51 3d
       0.03117156 -0.16212493 -0.05753634 0.05108937
000090 dd c6 7c bd 8b 2e 3c 3e 36 63 91 3d 34 b2 c0 3c
       -0.06171309 0.1837713 0.07099001 0.023522474
0000a0 46 40 f8 3a 2d 43 17 bd b0 ad 21 be 9a 1b 9f 3d
       0.0018940053 -0.0369293 -0.15788913 0.077689365
0000b0 16 f1 60 3e 44 24 a1 3d 2f cd 19 bd 0f d7 2b bd
       0.21966967 0.07868245 -0.037549194 -0.041953143
0000c0 4e a2 b0 3d 01 4e 43 bd 63 42 2d bd df 36 55 3e
       0.08624707 -0.047681812 -0.04229964 0.20821713
0000d0 97 98 bc bc ad b5 50 3d 94 85 c8 bc cd 5f 70 be
       -0.02302198 0.05095451 -0.024477758 -0.23474045
0000e0 35 5e ff bc 9a 3e de bc 85 b2 d1 3d 37 5b 4b bd
       -0.031172851 -0.02712946 0.10239128 -0.049647536
0000f0 9f 67 05 3e 1f 83 bd 3d 29 ca 5d be 16 0a 91 bd
       0.1302781 0.09253525 -0.21659149 -0.07082002
000100 16 0a 30 3c e3 1c 65 3c 7d 32 2d bd 82 8d 4f be
       0.010744592 0.013983938 -0.042284478 -0.20268825
000110 d4 be 27 be d6 9c 47 bd 87 e1 3d 3d 17 03 5f 3d
       -0.16381389 -0.048733555 0.046357658 0.054446306
000120 c0 82 45 3b 57 80 fe bc 35 04 0f 3d 4f e7 55 bd
       0.0030137748 -0.031067057 0.03491612 -0.052222546
000130 b1 21 ca 3d 15 16 96 bd 12 79 61 be 25 3c b2 bc
       0.098697074 -0.073284306 -0.22018841 -0.021757195
000140 60 88 82 bd b8 78 ca bd fb 30 f0 bd 84 1e ee 3d
       -0.06373668 -0.098863065 -0.11728092 0.11626914
000150 d4 3c 17 3e b0 91 31 be 91 a7 9d 3c 8b f8 05 bd
       0.14769298 -0.17340732 0.019244941 -0.032707732
000160 d2 a6 38 3d 63 17 0b 3d a6 a2 69 3d 0d ba 5a 3d
       0.045080967 0.03395785 0.05703988 0.053400088
000170 28 04 86 3d a9 ba 0a 3e c8 4e 08 bb 38 70 56 bd
       0.065437615 0.13547768 -0.002079891 -0.052353114
000180 c9 48 e2 3b 89 d4 61 bd 49 d1 18 bd 6e fe b4 bc
       0.0069056493 -0.05513433 -0.037308965 -0.022093978
000190 ca b1 aa 39 8c 56 42 bd 44 c6 6e bd 6f 7d a2 3d
       0.0003255739 -0.04744582 -0.05829455 0.07934081
0001a0 20 11 c2 3d 63 18 63 3b 70 86 47 3c 69 94 34 be
       0.094759226 0.0034651987 0.0121780485 -0.17634739
0001b0 78 b7 88 bc d1 54 30 be 53 fe 39 be a8 f5 28 3e
       -0.016689047 -0.17219855 -0.18163423 0.1649996
0001c0 ba 4c 71 bb c2 53 96 bc af 0c 5e be 34 ae e4 bc
       -0.0036819414 -0.018350486 -0.21684526 -0.027915098
0001d0 c9 39 1f 3d 5a f2 2a bd 24 9c 3f be dc 2d af bd
       0.038873468 -0.04173503 -0.18711907 -0.08553669
0001e0 67 96 01 bd 9e 1f 09 3e 7c b3 be bb 8f f9 95 bd
       -0.031637575 0.13390967 -0.005819736 -0.0732299
0001f0 45 4e f4 bc 40 90 cf 3d 17 77 08 be c5 25 2b be
       -0.029822478 0.101349354 -0.13326679 -0.16713627
000200 4a 42 99 3d 97 e4 84 bd b2 53 ac 3d 07 3c 6c bd
       0.07483347 -0.064889126 0.08414401 -0.057674434
000210 1a 45 9b 3d ab 34 22 be 50 88 7a bd 1a b3 10 3a
       0.075815395 -0.15840404 -0.061165154 0.0005519852
000220 ce 0c c0 3d 9f 78 60 bc cc e2 48 bd 00 3a 25 3d
       0.09377442 -0.013700633 -0.049044415 0.040338516
000230 fb 2a a1 bd 91 5e 85 3d 23 32 91 3d c6 92 fa 3c
       -0.07869526 0.06512178 0.07089641 0.030587565
000240 34 84 49 bd f3 1b 53 3d 56 76 41 3d ca 89 eb 3c
       -0.049198344 0.051540326 0.047231995 0.028752226
000250 9c 68 00 bc 5e 59 3a bd db fe 40 3d 93 ef 8e 3c
       -0.007837441 -0.045495383 0.04711805 0.017448222
000260 00 01 36 bd 3e 93 ce bd 7e 28 1c 3e c4 cf ab 3d
       -0.044434547 -0.10086678 0.15249822 0.083892375
000270 da 4a 14 3d dd 34 a4 3d cf 34 25 bd e0 07 ba 3c
       0.036204197 0.08017895 -0.040333565 0.022708833
000280 dd 4f 10 bb 38 e1 2d 3e 57 9e b3 3d 42 fa 19 be
       -0.0022020258 0.16980445 0.08770435 -0.15036872
000290 7a dc d6 3d 01 bd d9 bc dd bd 03 bd 12 5a 39 be
       0.10491271 -0.026579382 -0.03216349 -0.18100765
0002a0 c0 80 dc 3d 41 a6 63 3c 6d 8c d4 bd da 32 9a bd
       0.107667446 0.0138946185 -0.103783466 -0.075292304
0002b0 0a 66 87 bb 23 4d 95 bd e7 d0 18 bd 8a ab 9a bd
       -0.004132037 -0.07290103 -0.0373086 -0.0755225
0002c0 1b b5 41 bc 6e 27 27 3e e4 0f c3 bd ec 83 2c 3c
       -0.011822964 0.16323635 -0.09524515 0.0105294995
0002d0 74 40 5f 3e 27 d3 e1 bd 33 e7 38 be b5 02 bb bd
       0.2180193 -0.11026602 -0.18056946 -0.09131376
0002e0 02 c6 d0 3c 5e 77 74 bd 0d ca 58 3d ff 6f e0 3d
       0.025485042 -0.05968415 0.052927066 0.109588616
0002f0 3d bb ad 3c 14 0d 27 3e ca 86 7f 3d aa 71 97 3b
       0.021207446 0.16313583 0.062384404 0.004621704
000300 93 84 9e bd 0f 18 9a bd a2 bf 29 3e 6b 63 85 bd
       -0.0774013 -0.0752412 0.16577008 -0.06513103
000310 39 6b d6 bd 61 71 8a bd e7 7a d5 39 4f 8c dc 3c
       -0.1046967 -0.067599066 0.00040718095 0.026922373
000320 58 57 56 3c 2e 86 d3 bc c4 76 43 3d 2b ce 0a 3d
       0.013082348 -0.025820818 0.047720686 0.033888023
000330 a9 1d 3b bc d1 86 af bd 29 ab 07 be 6b cc 0b 3e
       -0.011420646 -0.08570636 -0.13248886 0.13652198
000340 a7 38 22 3b 72 4c 24 bd d7 1d d9 bd 4e 2b 48 be
       0.0024753006 -0.040111966 -0.106013946 -0.1954777
000350 cc 5a d5 bd 29 5f ae bd 05 79 97 3d 9e 69 56 bd
       -0.10417709 -0.08514244 0.073961295 -0.05234682
000360 7a e7 f0 3c 41 8d fb bd 96 1c 8f 3d 33 8c 08 3d
       0.029407252 -0.122828014 0.06987874 0.03333683
000370 f8 ea 2f be b6 f4 79 be c9 98 c8 3c 83 9f ba 3c
       -0.17179477 -0.24409756 0.024486916 0.02278114
000380 c0 91 75 bd 4f 01 91 bd 0b ed 28 be 2b 45 24 3c
       -0.05995345 -0.07080328 -0.16496675 0.010026257
000390 04 7c 72 bd 13 83 47 bd 3a 57 d6 bd 1d 53 85 3d
       -0.0592003 -0.048708986 -0.10465856 0.06509993
0003a0 da 11 6a 3d 5d 11 f3 3d bf ff e5 3d 85 5a 1c 3e
       0.05714593 0.11868546 0.1123042 0.15268905
0003b0 f4 c9 4c 3d 70 c4 87 3d 47 7c 7a bd c7 52 41 3d
       0.049997285 0.06629264 -0.061153676 0.047198083
0003c0 46 15 6e bd 2c 50 92 3c 75 02 15 be e0 7a 3d be
       -0.058125757 0.017860495 -0.14551719 -0.18503904
0003d0 b6 7e 41 3c 4c 54 5f bc 46 c2 00 bd b3 16 7a 3d
       0.011809995 -0.013630938 -0.031435274 0.061056804
0003e0 e1 03 17 3c c8 f3 de 3b 4c 87 d0 3c 41 27 12 3d
       0.009217233 0.0068039633 0.02545514 0.035681967
0003f0 74 ff a7 3d c6 38 f7 bc ee d7 28 be b2 ce c9 3d
       0.08203021 -0.030178439 -0.1648862 0.09853877

net.9.bias f4 [10]
000000 5f 54 20 bd ce 00 41 bd 78 4c 0a 3d c4 e5 9e bd
       -0.039142963 -0.047119908 0.033764333 -0.07758668
000010 43 ac 3d 3d 7a 27 47 bd 94 08 41 bd 20 2f be bd
       0.04630686 -0.048621632 -0.04712732 -0.09286332
000020 f7 c3 d5 bc e7 36 cb 3b
       -0.02609442 0.006201613
