result/model_11_2.pth (torch, 307183 bytes, 8 tensors)

net.0.weight f4 [20, 1, 4, 4]
0	0x3dd39f4d	0.103331186
1	0x3ee52a1b	0.44758686
2	0x3ea80323	0.32814893
3	0x3ebbd4c2	0.3668576
4	0xbe7fc56a	-0.24977651
5	0xbebb35f8	-0.36564612
6	0xbf1ad00f	-0.6047372
7	0x3eaa2d35	0.33237615
8	0xbdf4accc	-0.11947021
9	0xbebabfde	-0.36474508
10	0x3f0b4681	0.54404455
11	0x3eb88b0e	0.3604359
12	0x3d1b8ae0	0.03797424
13	0x3ebaf2ad	0.36513272
14	0x3e612df3	0.21990184
15	0xbe853fcb	-0.26025233
16	0x3eba4e33	0.36387786
17	0x3e33deb2	0.1756542
18	0x3cfea53e	0.031084653
19	0x3e975d33	0.29563293
20	0x3bb1360e	0.005408055
21	0xbe053c49	-0.13011278
22	0xbd9b85f8	-0.07593912
23	0x3eb9aab2	0.36263043
24	0xbe894192	-0.2680784
25	0xbeb6975a	-0.35662347
26	0xbe79fe06	-0.24413309
27	0xbdeeef0d	-0.11666689
28	0xbd734cfc	-0.05939959
29	0xbe82a7e9	-0.2551873
30	0x3e7136f9	0.23556127
31	0xbe3bf2d8	-0.18354356
32	0x3db3df1a	0.087827876
33	0xbe2b1b20	-0.16709566
34	0xbe9f23db	-0.31082043
35	0xbda8860e	-0.08228694
36	0x3e49568a	0.19661918
37	0x3f1401a6	0.57815015
38	0x3e7e2ba9	0.24821343
39	0xbe891bd5	-0.26779047
40	0xbe47f86a	-0.19528356
41	0xbd3a1a3e	-0.045435183
42	0x3ec73cc0	0.38913536
43	0x3eae08d2	0.33991104
44	0xbcd4401a	-0.025909472
45	0xbe2de453	-0.1698163
46	0xbd9e4298	-0.077275455
47	0xbc2fa325	-0.010720049
48	0x3da4b79f	0.080428354
49	0xbe7493f2	-0.23884562
50	0xbeb12088	-0.34595132
51	0xbe176fa9	-0.14788689
52	0xbe4a722c	-0.19770116
53	0x3e7cf796	0.24703822
54	0x3e2d8fa6	0.16949329
55	0x3e86d238	0.2633226
56	0x3e42f3f1	0.19038369
57	0x3e2300a6	0.15918216
58	0x3e84483c	0.2583636
59	0xbdaa3fbe	-0.08312939
60	0x3d07cb00	0.03315258
61	0xbe3c5711	-0.18392588
62	0xbb3bee04	-0.0028675804
63	0xbd8de527	-0.06928473
64	0x3d9a80c8	0.07544094
65	0xbc1d856b	-0.009614329
66	0x3e3064df	0.1722598
67	0xbd8174d6	-0.06321113
68	0xbe3fb728	-0.18722212
69	0xbe2127bd	-0.15737815
70	0x3e3f0c6a	0.1865708
71	0x3e2b1186	0.16705903
72	0x3e65fd9c	0.22460026
73	0xbe76671b	-0.24062769
74	0xbec3e1f4	-0.38258326
75	0xbe99793c	-0.29975307
76	0xbe23df65	-0.16003187
77	0x3e216d88	0.15764439
78	0x3e33f706	0.175747
79	0x3e54ec0c	0.2079317
80	0xbe592d65	-0.21208723
81	0xbe3e5bab	-0.18589656
82	0x3e5f5914	0.21811324
83	0xbe147db8	-0.14501083
84	0x3c641fc5	0.01392359
85	0xba64e5db	-0.0008731761
86	0x3e96b6af	0.29436252
87	0xbe978f34	-0.29601443
88	0xbe46e591	-0.1942351
89	0x3eaa554d	0.33268204
90	0x3da0fdd5	0.078609146
91	0xbe365d55	-0.17809041
92	0x3e044a75	0.12919028
93	0x3eb4e55f	0.35331246
94	0xbe597328	-0.21235335
95	0xbe25aca3	-0.16179137
96	0x3ea782b8	0.32716918
97	0x3cdec83a	0.027195085
98	0xb71455e3	-8.8414845e-06
99	0xbe7c90d0	-0.24664617
100	0xbe1f8a43	-0.15580086
101	0xbd11d9d9	-0.035608146
102	0xbdf8ca74	-0.1214799
103	0xbe88bedc	-0.26708114
104	0xbce8f284	-0.028435953
105	0xbe59861e	-0.21242568
106	0xbe36ceef	-0.17852376
107	0xbdf1c778	-0.11805624
108	0xbdf7bd96	-0.120967075
109	0xbd27c973	-0.0409636
110	0x3ee2b1db	0.44276318
111	0x3e6eebef	0.23332189
112	0x3e13a7f2	0.14419535
113	0xbe41643d	-0.18885894
114	0xbe059271	-0.13044144
115	0xbcb9dcd5	-0.022688309
116	0x3db8bc02	0.09020235
117	0xbe417a16	-0.18894228
118	0xbda46bb7	-0.080283575
119	0xbde1e1c1	-0.11029387
120	0x3d147f71	0.03625435
121	0xbda71fa2	-0.0816033
122	0x3d38a29d	0.045076955
123	0xbdda45d3	-0.10657849
124	0xbdeb2f6a	-0.11483653
125	0xbdd3238f	-0.10309517
126	0xbd2c2f78	-0.042037457
127	0xbe250fc5	-0.16119297
128	0x3ea6fd0e	0.3261494
129	0x3dd11e25	0.10210828
130	0x3eb01931	0.3439422
131	0x3e24dfe4	0.16101032
132	0xbe5251f6	-0.20539078
133	0x3e1a1813	0.15048246
134	0xbd826d5c	-0.06368515
135	0xbe082fa4	-0.13299423
136	0xbe98927a	-0.29799253
137	0xbeb365cb	-0.350386
138	0xbd42a14d	-0.04751711
139	0xbe052b11	-0.1300471
140	0x3dbead02	0.09310342
141	0xbe2577ea	-0.16159025
142	0x3e4508e9	0.1924168
143	0xbe299135	-0.16559298
144	0xbd93a826	-0.07209806
145	0x3e07b525	0.13252695
146	0x3e32a4f4	0.17445737
147	0x3e690c8e	0.22758695
148	0x3e695569	0.22786488
149	0xbe70165c	-0.2344603
150	0x3d826f53	0.0636889
151	0xbe1f9389	-0.15583624
152	0xbe0a784d	-0.13522454
153	0xbe80081e	-0.25006193
154	0x3e79a94d	0.2438099
155	0xbe8bae05	-0.27281204
156	0x3d1221aa	0.035676636
157	0x3d4e31e5	0.050340552
158	0x3ded4f41	0.11587382
159	0xbe3a07ac	-0.18166989
160	0x3edf9731	0.43670037
161	0x3da87599	0.08225555
162	0xbc9c04e3	-0.019045299
163	0xbe9b8d8f	-0.30381438
164	0x3ec10550	0.37699366
165	0x3c7ead25	0.015544211
166	0xbe25354c	-0.16133612
167	0x3e3287ae	0.1743457
168	0x3e501427	0.20320188
169	0xbda3c45e	-0.079964384
170	0xbe4dac6e	-0.20085308
171	0xbdc99483	-0.098427795
172	0x3e3f9aa6	0.18711337
173	0xbcf7b291	-0.030236514
174	0xbe25d252	-0.16193512
175	0xbe025027	-0.12725888
176	0xbe804d0a	-0.25058776
177	0x3e3ec7a4	0.18630844
178	0x3e428e7a	0.18999663
179	0xbec8318d	-0.39100304
180	0xbb69cf78	-0.003567664
181	0x3ec2f75a	0.3807934
182	0x3d241b00	0.04006481
183	0xbe805905	-0.25067917
184	0x3e4c2789	0.19936956
185	0x3e73e2dc	0.23817009
186	0x3d4a5ced	0.049405027
187	0xbe1831a9	-0.14862694
188	0xbdab855c	-0.08375046
189	0x3d719878	0.058983296
190	0x3cb61e94	0.022231378
191	0xbdadfb0e	-0.084951505
192	0x3e5681b0	0.2094791
193	0x3e849b2d	0.2589964
194	0xbc9f2da6	-0.019430947
195	0xbdb31e31	-0.08745993
196	0x3c6e6ca7	0.014552272
197	0x3d12c620	0.035833478
198	0x3df0e9af	0.117633216
199	0x3e0538ec	0.13009995
200	0xbe8e5a4b	-0.27803263
201	0xbde3bd65	-0.111201085
202	0x3e523a86	0.20530137
203	0x3dcc0980	0.099627495
204	0xbccd358b	-0.025049945
205	0xbe43a5be	-0.19106194
206	0xbe81949f	-0.253087
207	0xbe989f2c	-0.29808939
208	0xbe432498	-0.19056928
209	0xbd588e82	-0.05287028
210	0x3e891d3e	0.26780123
211	0x3e7ff872	0.24997118
212	0xbeace0b6	-0.3376519
213	0xbe8e3147	-0.2777197
214	0x3d976762	0.073927656
215	0x3ecbcc6e	0.39804405
216	0xbdf2402f	-0.11828648
217	0xbe14a88d	-0.14517422
218	0x3e7da324	0.24769264
219	0xbd3786fc	-0.044806466
220	0xbe9be6ed	-0.3044962
221	0x3e19e31f	0.15028046
222	0xbd8f0c76	-0.069847986
223	0xbda393de	-0.07987188
224	0xbe5cb53a	-0.21553507
225	0x3e4f3759	0.20235957
226	0x3e6094f2	0.21931818
227	0x3dc61506	0.09671979
228	0xbe34ad78	-0.17644298
229	0xbe7bf24e	-0.2460415
230	0xbe1e975a	-0.15487424
231	0x3e5c944e	0.21540949
232	0x3e2d74e1	0.16939117
233	0x3ebdfe37	0.37108013
234	0x3e9d0d5a	0.3067425
235	0x3d9dfbc2	0.077140346
236	0xbd140e52	-0.03614647
237	0xbe4dbb92	-0.20091084
238	0xbe81dd85	-0.25364318
239	0xbe88d42e	-0.2672438
240	0x3e399bb2	0.181258
241	0xbdaf4372	-0.08557786
242	0xbd7728d2	-0.060341664
243	0xbdc32512	-0.09528555
244	0x3d159775	0.036521394
245	0xbde4aaec	-0.11165413
246	0xbe173c18	-0.14769018
247	0x3dfffe23	0.124996446
248	0xbd724c5e	-0.05915486
249	0x3e11386a	0.14181677
250	0xbdc7ab6d	-0.09749494
251	0xbe2bf62e	-0.16793129
252	0x3aa4b51a	0.001256618
253	0xbd366ecf	-0.04453927
254	0xbd1f73f7	-0.038928952
255	0xbe522ca6	-0.20524845

net.0.bias f4 [20]
0	0x3e8ba30f	0.2727284
1	0xbe18a9fc	-0.14908594
2	0x3ec481a3	0.38380155
3	0x3e0b5660	0.13607168
4	0xbdfe1397	-0.1240608
5	0xbe30251d	-0.17201658
6	0xbec8ff92	-0.39257485
7	0xbec7bc1b	-0.390107
8	0xbe2c4a8b	-0.16825311
9	0xbc2be127	-0.010490692
10	0x3e5ae132	0.21374968
11	0x3e09dcb7	0.13463102
12	0xbe0fdff3	-0.14050274
13	0xbdfa5336	-0.122229025
14	0x3dddc46b	0.108284794
15	0xbebdc4ab	-0.37064108
16	0x3c15f258	0.0091520175
17	0x3df0af12	0.11752142
18	0xbebca506	-0.36844653
19	0x3df01a82	0.11723806

net.3.weight f4 [40, 20, 5, 5]
0	0xbe32ed83	-0.17473416
1	0xbd7b9964	-0.06142558
2	0xbd76d294	-0.060259417
3	0xbe13f629	-0.14449371
4	0xbe189cfd	-0.14903636
5	0xbcd0f95f	-0.025509534
6	0xbccd4ecb	-0.025061985
7	0xbe218aad	-0.15775557
8	0xbdd281ff	-0.10278701
9	0xbe8788ad	-0.26471463
10	0xbd19cf35	-0.037551124
11	0xbdf9cae0	-0.121968985
12	0xbd0e9b9b	-0.034816366
13	0x3d78c4ac	0.060734436
14	0xbd738d70	-0.059461057
15	0xbd4d10e7	-0.050064947
16	0x3d4c18f7	0.049828496
17	0x3ded3d5e	0.115839705
18	0x3e0ae409	0.13563551
19	0x3e064caa	0.13115183
20	0xbe2e14f1	-0.17000176
21	0xbe2db2af	-0.16962694
22	0xbd6d471f	-0.057929154
23	0x3da24d3a	0.07924886
24	0x3e3d4ba0	0.1848588
25	0x3cd36c1e	0.02580839
26	0x3c900547	0.017580641
27	0xbd5efdd0	-0.054441273
28	0xbc1659d9	-0.009176695
29	0x3d824dbf	0.06362485
30	0x3c82de64	0.015975185
31	0xbdda2fb8	-0.10653633
32	0xbe3e6659	-0.1859373
33	0xbd3c9c15	-0.04604729
34	0xbcaebd94	-0.021330632
35	0x3d320532	0.043461986
36	0xbd655b0f	-0.055995043
37	0xbd818fea	-0.063262776
38	0x3d636714	0.055518225
39	0xbc5b74bb	-0.01339453
40	0x3bfa521b	0.0076391823
41	0xbde05ed0	-0.10955584
42	0xbd2af76c	-0.041739866
43	0xbc1f6a2c	-0.009729903
44	0x3c9e8eba	0.019355167
45	0x3d8962d1	0.06708301
46	0xbd99c97a	-0.07509132
47	0xbd3e0d80	-0.046399593
48	0x3d313447	0.043262746
49	0xbd1ada76	-0.037805997
50	0xbd5f3a65	-0.05449905
51	0xbe352653	-0.17690401
52	0xbe2229fb	-0.15836327
53	0xbe2932ed	-0.16523333
54	0xbe80ed1e	-0.25180906
55	0xbd93cd8d	-0.0721694
56	0xbe26ba3b	-0.16281979
57	0xbd676325	-0.056491036
58	0x3be08b1d	0.006852521
59	0xbe16b025	-0.14715631
60	0x3b57f9cc	0.0032955287
61	0x3e5815b4	0.21102029
62	0x3e34a88a	0.17642418
63	0x3e10a816	0.1412662
64	0x3e259d39	0.16173257
65	0xbdfeb144	-0.124361545
66	0x3d5a63f2	0.05331797
67	0x3dc8ed0d	0.09810839
68	0xbe3014b2	-0.17195395
69	0xbd3e8e5f	-0.046522494
70	0x3dce3b98	0.1006996
71	0x3e19996b	0.1499993
72	0x3c2a1be2	0.010382624
73	0xbe397c4f	-0.18113826
74	0xbdf8ebe7	-0.1215437
75	0xbd0803d4	-0.033206776
76	0xbcbd4a26	-0.023106646
77	0x3db2df54	0.08734003
78	0x3d26b256	0.04069742
79	0xbddf6071	-0.109070666
80	0xbbe36a0d	-0.0069401325
81	0x39f272c5	0.00046243347
82	0x3d659a2d	0.056055237
83	0x3e20c7f7	0.1570128
84	0x3d4ae842	0.049537905
85	0xbdf04895	-0.11732594
86	0xbcf9d8c2	-0.030498866
87	0x3d973625	0.07383374
88	0x3c512bb9	0.012766772
89	0x3c3a38a8	0.011366047
90	0xbda4c06c	-0.08044514
91	0xbcfafbb4	-0.0306376
92	0x3c7d5d79	0.01546418
93	0x3c5ca00a	0.013465891
94	0x3b34dcf7	0.0027597526
95	0xbdef03cf	-0.11670648
96	0x3cfe936c	0.031076156
97	0x3d06fccc	0.03295593
98	0x3dc6e8ca	0.0971237
99	0x3d50ae7c	0.05094765
100	0x3d835625	0.06412915
101	0x3dcf3bfb	0.10118862
102	0x3e117120	0.1420331
103	0x3dc20b20	0.09474778
104	0x3d21da2d	0.03951471
105	0xbe48062e	-0.19533607
106	0xbe517003	-0.20452885
107	0x3deb9471	0.11502922
108	0x3e03bc9e	0.1286492
109	0x3d91401f	0.07092308
110	0x3cbdf94a	0.02319016
111	0x3cbf947b	0.02338623
112	0x3d0818b8	0.0332267
113	0x3e43e186	0.19128999
114	0x3e27d319	0.16389121
115	0xbdc211ff	-0.09476089
116	0x3d55a0e9	0.05215541
117	0x3e1e9049	0.15484728
118	0x3e434b18	0.19071615
119	0x3d1c02c4	0.038088575
120	0x3e08a360	0.13343573
121	0x3d7e6c21	0.06211484
122	0x3dd08722	0.101820245
123	0x3d48e001	0.04904175
124	0xbd121089	-0.0356603
125	0x3d4cf516	0.05003842
126	0x3e288434	0.16456681
127	0x3dbb6e95	0.09151951
128	0x3e2117b7	0.15731703
129	0x3dce663e	0.10078095
130	0x3dc50556	0.096201584
131	0x3e373c12	0.17894009
132	0x3d48ac6c	0.04899256
133	0x3bd94d1b	0.006631506
134	0xbd8ae0e4	-0.06781176
135	0x3cb915a4	0.022593327
136	0x3cce6543	0.02519477
137	0x3c72c3e9	0.014817216
138	0x3ccc038f	0.02490404
139	0xbd91e741	-0.07124186
140	0xbc7fc869	-0.015611746
141	0xbd5e82f5	-0.05432411
142	0x3d38fa72	0.04516072
143	0x3d8ebf27	0.06970053
144	0x3d487dbd	0.04894804
145	0xbdd61e6c	-0.10455021
146	0xbc7498dc	-0.014929023
147	0xbc332353	-0.010933715
148	0xbcfd402d	-0.03091439
149	0x3d9909d9	0.074725814
150	0x3d142190	0.03616482
151	0x3d58e3d1	0.052951638
152	0x3d8607d5	0.065444626
153	0x3d75ed9c	0.060041055
154	0x3c74d4c5	0.014943306
155	0x3b832bca	0.004003023
156	0x3ccf0c4a	0.025274415
157	0x3d87a296	0.06622808
158	0xbb604816	-0.0034222654
159	0xbd0504f3	-0.032475423
160	0xbd5a6beb	-0.053325575
161	0xbdd310ee	-0.103059635
162	0xbd6ca507	-0.05777457
163	0x3cfb4d69	0.03067656
164	0x3dac6cbb	0.08419176
165	0xbd450239	-0.048097823
166	0xbe38917a	-0.18024245
167	0xbd549de4	-0.05190839
168	0x3b918cb5	0.0044418224
169	0x3b368fe5	0.0027856764
170	0xbd590011	-0.05297858
171	0xbdc97c3a	-0.098381475
172	0x3c348958	0.011019073
173	0x3c5a8662	0.013337703
174	0xbc5414f9	-0.012944453
175	0xbcbeb1d0	-0.023278147
176	0x3d40e184	0.04709007
177	0xbd0d9cfd	-0.034573544
178	0x3d8e206b	0.06939777
179	0x3cfa7262	0.03057212
180	0xbc126dee	-0.008937342
181	0xbc8f55e1	-0.017497005
182	0xbd23a5a5	-0.039952893
183	0x3d1edd1e	0.038785093
184	0x3d64f2ec	0.05589573
185	0xbd715da7	-0.058927204
186	0xbd930eb3	-0.07180538
187	0xbd6c6def	-0.05772203
188	0x3c53d758	0.01292976
189	0x3cb0fc85	0.021604786
190	0xbc6fac2a	-0.014628449
191	0xbdbdc6d5	-0.0926644
192	0xbd074225	-0.033022065
193	0x3d7fc2b1	0.06244153
194	0x3d228b13	0.039683413
195	0xbcb3a7ed	-0.02193066
196	0xbdacf26a	-0.08444674
197	0xbaff0b58	-0.0019458337
198	0xbbec307c	-0.007207928
199	0x3d185fbd	0.03720068
200	0xbd006bf0	-0.031352937
201	0xbe2faa5d	-0.17154832
202	0xbe0b89ef	-0.13626836
203	0x3c8edd74	0.017439581
204	0x3dcec933	0.100969695
205	0xbe00d503	-0.12581258
206	0xbe43e690	-0.19130921
207	0xbe1166f9	-0.14199437
208	0x3da88249	0.08227975
209	0x3d925089	0.07144267
210	0xbe25af58	-0.1618017
211	0xbe00ee67	-0.12590943
212	0xbcc60ccc	-0.024176024
213	0x3dfd1fc4	0.123595744
214	0x3d79f4b8	0.061024398
215	0xbe32cd51	-0.17461134
216	0xbde3a3df	-0.1111524
217	0xbc98a6fb	-0.01863431
218	0x3d8c7fe4	0.06860331
219	0x3d7c1e0b	0.06155209
220	0xbb73fd9c	-0.003723002
221	0x3d7fd4b3	0.062458705
222	0x3d28382e	0.041069202
223	0x3c32daaf	0.010916396
224	0xbd0bfb5a	-0.034175254
225	0xbd87f4a4	-0.06638458
226	0xbd684fe1	-0.056716803
227	0x3d14f843	0.036369573
228	0x3d38d57c	0.04512547
229	0x3dcd5f07	0.10027891
230	0xbc6758b4	-0.01412027
231	0xbd5c836d	-0.053836275
232	0x3b450c70	0.0030067228
233	0x3d9446c3	0.07240059
234	0x3d8a12c5	0.06741861
235	0xbc357028	-0.011074103
236	0xbd1f84aa	-0.038944878
237	0x3da1f1b3	0.079074286
238	0x3d7548ae	0.059883766
239	0xbcf0941e	-0.029367503
240	0xbdc09b83	-0.094046615
241	0xbda4772c	-0.08030543
242	0x3db28434	0.08716622
243	0x3ddf30c2	0.10897972
244	0x3dd78db4	0.105250746
245	0xbd1cf33f	-0.038317915
246	0xbd0699a9	-0.032861385
247	0x3c5cf313	0.013485688
248	0xbcf565ff	-0.029955862
249	0xbcb25ad6	-0.02177183
250	0xbd6554f5	-0.055989224
251	0xbcc1b660	-0.023646533
252	0xbe0e7bc3	-0.13914399
253	0xbd3e4073	-0.046448182
254	0xbd199df6	-0.03750416
255	0xbe2fb04b	-0.17157094

net.3.bias f4 [40]
0	0x3d08e26b	0.033419054
1	0xbc74778c	-0.01492108
2	0x3cedfeff	0.029052256
3	0xbc953803	-0.018215185
4	0xbc84c562	-0.0162074
5	0x3cc16fe0	0.023612916
6	0xbcccbbf5	-0.024991969
7	0x3bd14c28	0.0063872524
8	0xbcc83746	-0.024440419
9	0x3bbbb6c5	0.005728575
10	0x3ca764ad	0.020433748
11	0x3c86455f	0.0163905
12	0xbd033601	-0.032033924
13	0x3bab82b2	0.005234086
14	0x3b9661fc	0.0045893174
15	0xbc729058	-0.014804922
16	0xbcb20005	-0.021728525
17	0x3b31d899	0.002713716
18	0xbcc26384	-0.023729093
19	0xbcd1666f	-0.02556154
20	0x3d258fdc	0.040420398
21	0xbd16328a	-0.03666929
22	0xbbbad534	-0.0057016853
23	0x3b67047c	0.0035250476
24	0xbc2ec5b8	-0.010667257
25	0xba40576e	-0.0007337247
26	0xbca9d828	-0.020732954
27	0xbd39b08c	-0.045334384
28	0x3d52a6e6	0.051428698
29	0xbd0ea8c0	-0.0348289
30	0x3be26865	0.0069094175
31	0x3c960ffe	0.018318173
32	0xbcff91c8	-0.031197444
33	0x3d15bff7	0.036560025
34	0x3c0d3155	0.008617719
35	0xbb866c70	-0.004102282
36	0xbb2918fa	-0.002580224
37	0xbcd8407a	-0.026397932
38	0x3d05c5d8	0.03265938
39	0xbd24347e	-0.040089123

net.7.weight f4 [150, 360]
0	0xbdd3ec85	-0.10347847
1	0x3d2d6960	0.04233682
2	0xbd2b6b46	-0.04185035
3	0xbdab5627	-0.08366042
4	0x3c5521ce	0.013008548
5	0xbd1b1df8	-0.037870377
6	0xbc8942f7	-0.016755564
7	0x3daf1f57	0.085508995
8	0xbcb2e3ac	-0.021837078
9	0x3c9c2e3a	0.019065011
10	0x3e1e8c38	0.15483177
11	0x3d8d69b6	0.069049284
12	0xbd2e5fd7	-0.04257187
13	0xbbb9aebf	-0.0056665833
14	0x3d132c2d	0.0359308
15	0x3dcaf36e	0.09909712
16	0x3d9dd10a	0.07705887
17	0x3cdadd8e	0.026716974
18	0x3ce827b3	0.028339243
19	0xbdb083aa	-0.08618863
20	0x3d8336be	0.064069256
21	0xbcc8e877	-0.02452491
22	0xbcc4a3c1	-0.024003865
23	0xbcc81cea	-0.02442785
24	0x3d8d0492	0.06885637
25	0x3e083e86	0.13305101
26	0xbc9c18ff	-0.019054888
27	0xbdacda7c	-0.0844011
28	0x3c8bdd91	0.017073425
29	0x3d82cd6e	0.06386839
30	0xbdc996a0	-0.098431826
31	0xbe23f7cd	-0.16012497
32	0xbc987504	-0.018610485
33	0xbdc2c72f	-0.095106475
34	0xbdbe65d1	-0.09296764
35	0xbd888964	-0.0666683
36	0xbc3fcedf	-0.011707037
37	0x3c551338	0.01300507
38	0xbc24a31c	-0.010048654
39	0x3d0c8482	0.034306057
40	0x3da0d3f0	0.07852924
41	0x3d8a307b	0.06747528
42	0x3d5f5c85	0.054531593
43	0x3be8fb87	0.0071100625
44	0xbcf1d736	-0.029521566
45	0xbd091560	-0.03346765
46	0xbdce0a7f	-0.10060596
47	0xbd86a282	-0.06573965
48	0xbe009845	-0.12558086
49	0xbc998629	-0.01874073
50	0x3cf547d5	0.029941479
51	0xbd9bb27a	-0.07602401
52	0xbd963053	-0.07333436
53	0xbdd851e6	-0.10562496
54	0x3dc61a62	0.09673001
55	0x3d547cf4	0.051876977
56	0x3d835df5	0.06414405
57	0x3dc6edac	0.09713301
58	0x3dbfe7b5	0.093703665
59	0x3cecb59e	0.028895196
60	0xbc13bdd9	-0.009017431
61	0xbcdfb202	-0.02730656
62	0xbca89b37	-0.020581825
63	0xbddf3579	-0.10898871
64	0xbdcf6f77	-0.10128682
65	0xbd7ecd16	-0.062207304
66	0x3cb79db2	0.022414062
67	0xbd96dd58	-0.07366437
68	0x3e0c4ca3	0.1370111
69	0xbd2c6c79	-0.042095635
70	0x3cd99553	0.026560461
71	0x3d25c26b	0.040468615
72	0x3e39560a	0.18099228
73	0x3ba862ea	0.0051387446
74	0xbd93447c	-0.07190797
75	0x3cd92df2	0.026511166
76	0x3c537a8f	0.012907638
77	0x3c243917	0.010023377
78	0xbe047466	-0.12935027
79	0xbde1250d	-0.10993395
80	0xbd87145b	-0.065956794
81	0x3d97b1c9	0.07406957
82	0x3c97ac0c	0.018514656
83	0x3d57017f	0.05249166
84	0x3c096cbf	0.0083877435
85	0x3d31b199	0.04338226
86	0x3c894e17	0.016760869
87	0x3cd57602	0.026057247
88	0x3d114bef	0.035472807
89	0x3d8cd542	0.06876613
90	0x3c992e3b	0.018698802
91	0x3c979964	0.01850576
92	0x3c916535	0.017748455
93	0xbcc4ccf5	-0.024023512
94	0xbde93cb4	-0.11388531
95	0xbd1ce54a	-0.038304605
96	0x3cba4336	0.022737127
97	0xbc3028ca	-0.010751912
98	0xbdf64c46	-0.12026267
99	0xbbf51a08	-0.00747991
100	0x3d021605	0.03175928
101	0xbd39c498	-0.045353502
102	0x3cb760b8	0.022384986
103	0x3b7f9563	0.0038998954
104	0x3c9da4f9	0.019243704
105	0xbd2397aa	-0.03993956
106	0x3b62e413	0.0034620806
107	0x3d4484c2	0.04797817
108	0xbd945948	-0.072435915
109	0xbd69535e	-0.05696427
110	0xbc066697	-0.00820317
111	0xbd1554e6	-0.03645792
112	0x3db19b7b	0.08672234
113	0xbd76f3bf	-0.06029105
114	0x3d5cde94	0.053923205
115	0x3d478da5	0.048719067
116	0x3d582803	0.052772533
117	0xbd6e49fa	-0.05817602
118	0xbc419593	-0.011815446
119	0x3d4f51cb	0.050615113
120	0x3cd65c79	0.026167141
121	0xbd8213d2	-0.06351437
122	0x3d5981bb	0.053102236
123	0xbce40005	-0.02783204
124	0xbc98f5c3	-0.018671876
125	0xbd845188	-0.06460863
126	0xbdcee20b	-0.10101708
127	0xbd8132c1	-0.06308509
128	0xbca22647	-0.019793643
129	0x3c8363a5	0.016038725
130	0xbd8adf62	-0.06780888
131	0xbaef7232	-0.0018268286
132	0x3d4a39c4	0.049371496
133	0x3dbeee3c	0.09322783
134	0xbc917f98	-0.017761037
135	0xbdc8098f	-0.09767448
136	0xbbbe0fc9	-0.0058002216
137	0x3d03603f	0.03207421
138	0x3bc9b54b	0.006155645
139	0x3d0d586a	0.034508146
140	0x3d547a86	0.05187466
141	0x3c6ebbae	0.0145711135
142	0xbd3ffe2c	-0.046873257
143	0x3d0f1730	0.034934223
144	0x3b822aa6	0.0039723692
145	0x3d228cc3	0.039685022
146	0x3c52c5ae	0.012864513
147	0xbcfc435b	-0.030793836
148	0x3d9e35ef	0.07725131
149	0x3dda95b8	0.10673088
150	0x3d1633f4	0.03667064
151	0xbcb2ea92	-0.021840367
152	0x3c8d9abc	0.017285697
153	0x3d68dddc	0.056852207
154	0x3db4d55e	0.08829759
155	0x3d8f9e74	0.070126444
156	0xbb02bc11	-0.0019948522
157	0x3cfe6fef	0.031059233
158	0x3d8f22ac	0.06989035
159	0xbd703285	-0.05864193
160	0xbd3f0dc3	-0.046643984
161	0xbda1534d	-0.078772165
162	0x3d6bffe0	0.05761707
163	0x3d8146b7	0.06312316
164	0x3d1ab871	0.037773553
165	0x3b6a6988	0.0035768468
166	0x3d33a483	0.043858062
167	0x3c82a54d	0.015947962
168	0xbd1e0de4	-0.038587466
169	0x3cbb72da	0.022881914
170	0x3d412f17	0.04716405
171	0x3da96e53	0.08272996
172	0xbc880d2d	-0.016607845
173	0x3d8615a5	0.06547097
174	0x3c13be54	0.009017546
175	0xbcb4a860	-0.022052944
176	0x3cdb1f0f	0.026748208
177	0x3d952401	0.07282258
178	0xbd956d53	-0.072962426
179	0xbd5022b6	-0.050814353
180	0x3cc24674	0.023715235
181	0xbd815157	-0.063143425
182	0x3e0dba47	0.1384059
183	0x3cff2fb2	0.031150673
184	0x3df4264e	0.119213685
185	0x3dc50048	0.09619194
186	0xbbb62750	-0.0055588856
187	0x3e25f1c9	0.16205515
188	0x3dae65c1	0.08515502
189	0x3d1aad62	0.037763007
190	0x3c36e9a0	0.011164099
191	0x3a102117	0.0005498095
192	0x3c01f413	0.007931727
193	0x3d4bb0fd	0.049729336
194	0xbcf77582	-0.0302074
195	0x3bbad237	0.005701329
196	0xbbb5caee	-0.0055478727
197	0x3d21a100	0.039460182
198	0x3dda5fbc	0.10662791
199	0x3d4ae7a1	0.049537305
200	0x3d45db20	0.048304677
201	0xbc7a629c	-0.015282299
202	0x3d10ccd0	0.035351574
203	0x3af87651	0.001895616
204	0xbc5a4549	-0.013322183
205	0xbbf7e69a	-0.0075653316
206	0xbc5f9778	-0.013646953
207	0x3ce626c6	0.02809466
208	0x3d31a90a	0.0433741
209	0xbd15e0a0	-0.036591172
210	0x3d040f59	0.0322412
211	0xb9bba9e2	-0.00035793992
212	0x3cb8b363	0.022546476
213	0x396d59b9	0.00022635506
214	0x3d825014	0.0636293
215	0x3ae58d00	0.0017513335
216	0xbd613aea	-0.054987825
217	0xbd9843aa	-0.07434781
218	0x3baf03d7	0.005341034
219	0xbd5be11c	-0.053681478
220	0xbd836a8c	-0.064168066
221	0x3cf72a0b	0.030171415
222	0xbd5aba88	-0.053400546
223	0x3c94aa53	0.018147623
224	0x3d2b42d0	0.041811764
225	0x3d6257cb	0.055259507
226	0x3e2a9153	0.16657
227	0x3e449a3b	0.19199459
228	0xbca6f6d8	-0.020381376
229	0xbd3c343a	-0.045948245
230	0x3b32ebd4	0.002730121
231	0xbe01cbf7	-0.12675463
232	0xbd663d2c	-0.05621068
233	0xbc4e3173	-0.012585032
234	0xbdd15b63	-0.10222509
235	0xbdee5cfc	-0.11638829
236	0x3da7ff46	0.082029864
237	0xbd0245ca	-0.031804837
238	0xbc5bc8bf	-0.013414561
239	0x3e23aa4d	0.15982933
240	0xba8979bb	-0.0010488549
241	0xbdb3d64e	-0.0878111
242	0xbc85c2de	-0.016328271
243	0x3c81b808	0.015834823
244	0xbd54f8c8	-0.05199507
245	0xbcafc3e5	-0.021455714
246	0x3c5b8c8b	0.013400207
247	0x3c32bd71	0.010909424
248	0xbbbb8577	-0.0057226974
249	0x3c8314b9	0.016001092
250	0xbd1b727f	-0.03795099
251	0xbcb33f6f	-0.021880833
252	0x3c3caff3	0.011516559
253	0xbd8a0a85	-0.06740288
254	0x3a9efdd9	0.0012130096
255	0x3ccb2a12	0.024800334

net.7.bias f4 [150]
0	0x3d821378	0.063513696
1	0x3a0714be	0.0005152932
2	0x3c535649	0.01289899
3	0x3d0ec6ea	0.034857668
4	0xba988487	-0.0011636176
5	0xbc111129	-0.008854189
6	0xbd9e4585	-0.077281035
7	0x3c11f05a	0.008907402
8	0x3d981217	0.07425325
9	0xbc7b8fd9	-0.01535412
10	0x3ca6d4b8	0.020365104
11	0x3a7e1b3f	0.0009693391
12	0x3c877fc3	0.016540414
13	0x3dae9e42	0.08526279
14	0x3b056eaf	0.0020360162
15	0xbd1a726d	-0.03770678
16	0x3d1778ee	0.036980562
17	0x3d818f11	0.06326116
18	0xbc45aef9	-0.0120656425
19	0x3c553e0a	0.01301528
20	0x3d028045	0.03186061
21	0xbbfeb842	-0.00777343
22	0x3cf33169	0.029686647
23	0xbce4e0be	-0.027939197
24	0x3cd6bb0b	0.026212236
25	0xbcb5f7f2	-0.022212956
26	0x3c136ce7	0.008998132
27	0x3d69031f	0.056887742
28	0x3c8e8188	0.01739575
29	0x3d261b78	0.04055354
30	0x3d052b3a	0.032511927
31	0x3d28700b	0.041122478
32	0xbbcf6e21	-0.006330267
33	0x3d942a43	0.07234623
34	0x3b32c02d	0.002727519
35	0xbd898455	-0.067146935
36	0xbc63aa7d	-0.013895628
37	0xbbe18dfd	-0.0068833814
38	0xbcf8955b	-0.030344656
39	0x3b9be82f	0.004757903
40	0xbd2a1291	-0.041521613
41	0xbd869f7c	-0.06573388
42	0x3c918b97	0.017766757
43	0x3b17f1a6	0.0023184805
44	0xbcd1f051	-0.025627287
45	0xbd215b2b	-0.039393585
46	0x3cb06b4c	0.021535538
47	0xbcd153e1	-0.025552692
48	0x3d598a9f	0.053110715
49	0xbd69e9c5	-0.057107706
50	0xbda289c2	-0.079364315
51	0x3cb1be32	0.021697138
52	0xbc810b1f	-0.015752373
53	0xbcbb2509	-0.022844808
54	0x3d6e7d74	0.05822511
55	0x3d5cf42e	0.053943805
56	0x3c244f95	0.010028739
57	0xbc5a8935	-0.013338377
58	0xbc2ddf42	-0.010612311
59	0xbd1a62bd	-0.03769182
60	0xbcae3761	-0.021266641
61	0xbc59b081	-0.013286711
62	0x3d858e5d	0.06521294
63	0x3d5e59af	0.054284748
64	0xbd8c09ac	-0.06837782
65	0x3d2a79cb	0.041620057
66	0xbb32c9cd	-0.0027280927
67	0x3bd6d9e8	0.006556738
68	0x3c83fe28	0.016112402
69	0xbd3da814	-0.04630287
70	0x3d3dfb71	0.04638237
71	0x3d9b7923	0.07591464
72	0x3cdc23ba	0.026872505
73	0xbc370884	-0.011171464
74	0xbd885c8d	-0.06658278
75	0xbd3d5324	-0.046221867
76	0xbc64a5b5	-0.013955523
77	0x3dbb0552	0.09131874
78	0x3ce4d484	0.027933367
79	0xbc354000	-0.011062622
80	0x3d204739	0.039130423
81	0xbd6dafd6	-0.05802902
82	0xbc31c7da	-0.010850871
83	0xbcafa5aa	-0.0214413
84	0xbd736cbd	-0.059429873
85	0x3d696d9e	0.056989305
86	0xbd6d57e9	-0.057945166
87	0x3d2074ae	0.039173774
88	0xbd61c6e6	-0.055121325
89	0x3d8ad376	0.06778614
90	0xbbb56e9e	-0.0055368682
91	0x3d5b5fdd	0.05355822
92	0x3c371f58	0.0111769065
93	0xbcb5e9a2	-0.022206131
94	0xba519c4d	-0.0007996008
95	0x3cb651bd	0.022255773
96	0xbc6746d0	-0.014116004
97	0xbd43030e	-0.047610335
98	0xbca2de3d	-0.019881362
99	0xbb1d0fa0	-0.0023965612
100	0xbc14bab9	-0.009077721
101	0xbcb7184d	-0.022350455
102	0xbc8ecc9b	-0.017431548
103	0xbd77785d	-0.06041752
104	0x3d0b5f8f	0.03402668
105	0x3cef61d3	0.02922145
106	0x3cd4718f	0.025933055
107	0xbda986d3	-0.08277669
108	0x3d515a4d	0.05111151
109	0x3d206f9d	0.039168943
110	0x3db23d70	0.087031245
111	0x3db87849	0.090073176
112	0x3c3a5f0e	0.011375202
113	0xbd55c771	-0.052192155
114	0x3db7f187	0.089816146
115	0x3cdf4b4e	0.027257588
116	0xbd1d19c9	-0.03835467
117	0xbd9ec676	-0.07752697
118	0xbcc60c11	-0.024175676
119	0x3d0878cc	0.033318326
120	0xbcbb1c17	-0.022840543
121	0x3d813bff	0.063102715
122	0xbc975f69	-0.018478112
123	0x3d13359a	0.03593979
124	0x3cb2b93c	0.021816842
125	0xbc219e37	-0.0098643815
126	0x3d7e3dc6	0.06207063
127	0x3d300f6e	0.042983465
128	0xbceca148	-0.028885499
129	0x3ad869f4	0.0016511069
130	0x3c0fe24c	0.008781981
131	0x3d8925d7	0.066966705
132	0xbce990e1	-0.028511466
133	0x3d8887d3	0.066665314
134	0xbc55038f	-0.013001337
135	0x3c962206	0.01832677
136	0x3d4a72bf	0.049425837
137	0xbd448995	-0.04798277
138	0x3a361f8b	0.00069474493
139	0xbcf43441	-0.029810073
140	0x3ba473c7	0.0050186845
141	0xbd0cbb0e	-0.034358077
142	0xbc34d746	-0.011037653
143	0xbc2bc94d	-0.010485006
144	0x3c00e8fe	0.00786805
145	0xbd6a3d70	-0.057187498
146	0x3ca6d844	0.020366795
147	0xbc11a4a9	-0.008889356
148	0x3c9c6a24	0.01909358
149	0xbca3970f	-0.019969491

net.9.weight f4 [10, 150]
0	0x3b8d63a8	0.0043148585
1	0xbd880096	-0.06640737
2	0xbd85c155	-0.06531016
3	0x3d5a2a36	0.05326291
4	0x3e5d6ea9	0.21624245
5	0xbe4e32e6	-0.20136604
6	0xbd47f765	-0.04881992
7	0x3bc3a48e	0.005970544
8	0xbdbc7aa2	-0.09203078
9	0xbd41acd6	-0.04728397
10	0xbd2c2554	-0.042027786
11	0xbccdc64d	-0.025118971
12	0x3a3678db	0.0006960758
13	0x3e01ab1f	0.12662934
14	0xbddfdb44	-0.109304935
15	0xbd57f1ef	-0.05272096
16	0x3cb6a032	0.022293184
17	0xbc9a2ad3	-0.018819248
18	0xbe2df661	-0.16988517
19	0xbe503d62	-0.20335916
20	0xbd7971ca	-0.060899533
21	0xbca7d860	-0.020488918
22	0x3c11f68f	0.008908882
23	0x3c4bbf5a	0.0124357585
24	0x3dc28d8b	0.094996534
25	0x3dea3c30	0.11437261
26	0x3d0b08c5	0.03394391
27	0x3db5a4a9	0.08869297
28	0x3e1d4561	0.15358497
29	0xbe4c3ec2	-0.19945815
30	0x3e009cf7	0.12559877
31	0x3e03395e	0.12814853
32	0x3d92a484	0.07160285
33	0xbdf123b5	-0.11774389
34	0xbd67c30d	-0.0565825
35	0x3d543f11	0.051817957
36	0xbd0518f9	-0.03249452
37	0x3de2c573	0.11072817
38	0x3de2d83e	0.11076401
39	0xbad1cec3	-0.0016007054
40	0x3c45b26d	0.012066466
41	0xbb8c7f94	-0.0042876694
42	0xbd88a7eb	-0.06672653
43	0x3c4ec78e	0.01262082
44	0x3cf77f70	0.030212134
45	0x3d894689	0.06702907
46	0xbd01694a	-0.031594552
47	0x3cb09fa1	0.021560492
48	0x3de1d226	0.11026411
49	0xbd1bed1a	-0.038067915
50	0xbabcfcd9	-0.0014418616
51	0x3e63d626	0.2224966
52	0xbcc119f2	-0.023571942
53	0x3d6f7766	0.058463477
54	0xbd831cc9	-0.06401975
55	0xbe6d9648	-0.23201859
56	0x3c1e0085	0.009643679
57	0xbc70cd95	-0.014697452
58	0x3df06fb3	0.11740055
59	0xbd147503	-0.036244404
60	0x3db0b6aa	0.086285904
61	0x3daf9bf0	0.085746646
62	0xbe5c27f1	-0.21499611
63	0xbe5530a9	-0.20819344
64	0x3d08c4b4	0.033390716
65	0x3c64ffdb	0.013977016
66	0xbd2d32a2	-0.042284615
67	0xbe24d2fe	-0.16096112
68	0xbe180b11	-0.14847971
69	0xbd4772f6	-0.04869362
70	0x3d8cae5c	0.06869194
71	0x3d70311f	0.058640596
72	0x3af06692	0.0018341115
73	0xbd64826b	-0.05578844
74	0x3d39c7bd	0.0453565
75	0xbd5441f3	-0.051820707
76	0x3e1094e1	0.14119293
77	0xbeb7a085	-0.35864654
78	0xbe18ec6c	-0.14933938
79	0xbc6a2436	-0.01429086
80	0xbd020574	-0.03174348
81	0x3c171ed7	0.009223661
82	0xbe31f53b	-0.17378704
83	0x3e5b7ab3	0.21433525
84	0x3d34c5d5	0.04413398
85	0xbe34fca5	-0.17674501
86	0x3c082a72	0.008310901
87	0xbd034e96	-0.032057367
88	0x3d4dadc6	0.05021455
89	0xbc5a05d2	-0.013307052
90	0xbb5f814b	-0.0034104164
91	0x3e389af3	0.18027858
92	0x3d2ec1f7	0.042665448
93	0x3e27f803	0.16403203
94	0xbb0c3141	-0.0021391662
95	0xbd9907e3	-0.074722074
96	0x3bdf54c3	0.0068155243
97	0xbd94c01a	-0.07263203
98	0xbd138988	-0.036019832
99	0xbd0b8ee2	-0.03407181
100	0xbc5eebec	-0.013606053
101	0xbd4953ef	-0.04915231
102	0xbd064468	-0.03278008
103	0x3dadaea9	0.084805794
104	0x3e0d221a	0.1378254
105	0xbd244575	-0.040105302
106	0x3cc0de8e	0.023543622
107	0xbda913c7	-0.08255725
108	0xbd735f31	-0.059416953
109	0xbe4044b4	-0.18776208
110	0xbe13efe4	-0.1444698
111	0x3e446729	0.19179977
112	0xbb58f9f9	-0.003310798
113	0xbb1ea1d0	-0.0024205334
114	0xbe9c938b	-0.30581316
115	0x3d04e3a0	0.032443643
116	0x3d37e68b	0.044897597
117	0xbd019a8b	-0.031641524
118	0xbe685372	-0.22688082
119	0xbda80755	-0.082045235
120	0x3c6d977f	0.0145014515
121	0x3d5cdab0	0.053919494
122	0xbcff1eb6	-0.031142574
123	0xbea676e2	-0.32512575
124	0xbc62568e	-0.013814582
125	0x3dcdfcf6	0.10058014
126	0xbe7bb063	-0.24579005
127	0xbe784237	-0.24244009
128	0x3d9a838a	0.0754462
129	0xbd98f724	-0.07469013
130	0x3dad0981	0.08449078
131	0xbe58d6f4	-0.21175748
132	0x3d95d6d1	0.073163636
133	0xbe17f590	-0.14839768
134	0xbc756849	-0.014978477
135	0xbc37a270	-0.011208162
136	0x3dcd22c1	0.100163944
137	0xbcfe29ba	-0.031025756
138	0xbd140748	-0.036139756
139	0x3d350c68	0.044201285
140	0xbd9638af	-0.0733503
141	0x3e13c7ee	0.14431736
142	0x3e3852bd	0.18000312
143	0x3d3e0df9	0.046400044
144	0xbd181d00	-0.03713703
145	0x3d5346a7	0.05158105
146	0x3e17acd9	0.1481203
147	0x3c8785fd	0.016543383
148	0xbddd7dbd	-0.10814998
149	0xbe3fd18e	-0.18732283
150	0x3dad664e	0.08466779
151	0xbbc7d38d	-0.006098217
152	0xbd45f0d3	-0.04832537
153	0xbe1ea3db	-0.15492193
154	0x3e1a4ec9	0.15069117
155	0x3e0a21b4	0.13489419
156	0x3b73656a	0.0037139305
157	0x3d91f0a8	0.0712598
158	0xbc094c7e	-0.008380054
159	0x3cb286b0	0.02179274
160	0xbae936c6	-0.0017792813
161	0x3e5363e6	0.20643577
162	0x3db895b9	0.09012932
163	0xbd5a6e84	-0.053328052
164	0x3e3983d2	0.18116692
165	0xbd09c355	-0.03363355
166	0xbd063e3c	-0.032774195
167	0xbe6cec38	-0.23136985
168	0x3e126961	0.14298011
169	0x3bb0cf1c	0.005395783
170	0xbd6dc1ce	-0.058046155
171	0xbd82c4ff	-0.0638523
172	0x3c815667	0.01578827
173	0xbdd7e021	-0.10540796
174	0xbcd8f9b1	-0.02648625
175	0xbdee48e3	-0.11634996
176	0xbcac9e6f	-0.02107164
177	0x3e5a169e	0.2129769
178	0xbdbd5248	-0.092442095
179	0x3db1772c	0.08665308
180	0x3e80b58b	0.25138506
181	0xbdb338e5	-0.08751086
182	0xbe431952	-0.19052628
183	0xbe4e028e	-0.20118162
184	0x3ca6ebf2	0.02037618
185	0xbaead9f6	-0.0017917741
186	0x3da12392	0.078681126
187	0x3dad01dd	0.08447621
188	0x3d3fed07	0.046856906
189	0x3e5af999	0.21384276
190	0x3d8291ca	0.06375463
191	0xbbd3e9cf	-0.006467081
192	0xbc212dfd	-0.009837625
193	0xbd7cb6d8	-0.06169781
194	0x3c1a12ac	0.009403866
195	0xbd854fb7	-0.06509345
196	0xbd0c9620	-0.034322858
197	0xbd1683d7	-0.036746826
198	0xbb3b364d	-0.0028566301
199	0x3cf24625	0.029574463
200	0xbda11756	-0.07865779
201	0xbc43ebe6	-0.011958098
202	0xbbbcbe3d	-0.005759983
203	0x3c4e1c7e	0.012580035
204	0xbb9a430c	-0.0047076996
205	0xbdafb4fc	-0.08579442
206	0xbe1fb8d9	-0.15597858
207	0x3df1470a	0.11781128
208	0x3c9da2b6	0.019242626
209	0xbd5ab0e1	-0.05339134
210	0xbc9ae05d	-0.018905813
211	0xbe764408	-0.2404939
212	0xbdb923ee	-0.09040056
213	0xbe543b32	-0.20725706
214	0x3d3fe13e	0.046845667
215	0xbd56a7b6	-0.052406035
216	0x3cf0e797	0.029407306
217	0xbe41e9d5	-0.18936856
218	0x3da653bc	0.0812144
219	0x3d0892e3	0.033343207
220	0xbe4ea1db	-0.2017893
221	0xbe520bdc	-0.20512336
222	0x3cade056	0.021225136
223	0x3d1709c8	0.036874563
224	0xbd414d8d	-0.0471931
225	0xbd72d21f	-0.05928242
226	0xbdbc1630	-0.091839194
227	0x3d04ff02	0.032469757
228	0xbd87b4e6	-0.066263005
229	0xbd269349	-0.040667806
230	0xbe230148	-0.15918458
231	0x3d10a974	0.035317853
232	0x3da43c82	0.080193534
233	0x3e1961ee	0.14978763
234	0x3d96afa7	0.07357722
235	0x3e5aad63	0.21355204
236	0x3d68431e	0.056704633
237	0x3d8b9e44	0.06817296
238	0xbd76c4aa	-0.060246147
239	0x3c3b2050	0.011421278
240	0xbc21c601	-0.009873868
241	0xbd1f38d6	-0.038872562
242	0xbdae839f	-0.085211985
243	0xbe30cb9d	-0.17265172
244	0x3c42094d	0.011843038
245	0xbc775731	-0.015096472
246	0xbd01f879	-0.031731103
247	0x3deae39b	0.114691935
248	0x3c20a1a7	0.009804166
249	0x3bdf8223	0.0068209334
250	0x3d8761f5	0.06610481
251	0x3d0a2d80	0.0337348
252	0x3d50d57c	0.050984845
253	0xbcd5aede	-0.02608436
254	0xbe5db872	-0.21652392
255	0x3d8c7d04	0.06859782

net.9.bias f4 [10]
0	0xbd588b9e	-0.052867524
1	0xbd22c7b0	-0.039741218
2	0x3d331c75	0.04372831
3	0xbd8767c1	-0.06611586
4	0x3d2b987d	0.04189347
5	0xbd5dec0d	-0.054180194
6	0xbcd4a4e9	-0.025957542
7	0xbda15c08	-0.07878882
8	0xbd444c60	-0.0479244
9	0xbb421d12	-0.0029619378
