result/model_15_1.pth (torch, 307183 bytes, 8 tensors)

net.0.weight f4 [20, 1, 4, 4]
000000 79 d2 bb 3e 7d 7c 15 3f ed aa 79 3e f2 b1 ca 3e
       0.36684015 0.5839308 0.2438161 0.39588886
000010 40 c9 5d be 38 1c a9 be 21 92 0f bf 44 83 4f 3e
       -0.21658802 -0.33029342 -0.5608235 0.20264918
000020 22 62 d5 bd 61 ac d8 be fc 9c b9 3e e9 59 91 3e
       -0.10419108 -0.42319015 0.36252582 0.28388909
000030 5e f2 65 3e e3 7d d0 3e e6 d9 c6 3e 07 5f 0b be
       0.22455737 0.40721044 0.38838118 -0.13610469
000040 c9 cc ce 3e fa 4a 60 3e 61 8d 89 3d da 37 87 3e
       0.40390614 0.21903601 0.06716419 0.264098
000050 9f 3b 88 bd 91 51 0c 3c 02 a0 e1 bb 71 69 9c 3e
       -0.06651997 0.008564369 -0.0068855295 0.30549195
000060 fe 7b 8d be fc 9b 77 be 7f 38 80 be a1 05 42 be
       -0.2763366 -0.24180597 -0.25043103 -0.1894746
000070 22 03 7d bc 12 41 92 be 7a a1 86 3d ba 7b 42 be
       -0.015442641 -0.2856527 0.06573768 -0.1899251
000080 40 45 52 3e 5e 97 54 bd 9f 8f bf be 4b 41 4b be
       0.2053423 -0.051902167 -0.37414262 -0.19849126
000090 ed 0c 18 3e 3c f1 37 3f 37 ef 87 3e 71 f3 d9 be
       0.14848681 0.7185247 0.26549694 -0.42568544
0000a0 46 b7 65 be 2d f6 34 3e 1d 7a 1f 3f e6 ec 1d 3e
       -0.22433195 0.17672034 0.62295705 0.15422401
0000b0 f4 6d f9 bd 1d 74 70 be 73 46 50 3e 94 67 d3 3d
       -0.12179175 -0.23481794 0.20339374 0.1032249
0000c0 82 8d b8 3d f6 c9 66 be d7 0f ac be f1 4a f0 bd
       0.090113655 -0.2253798 -0.33605835 -0.11733044
0000d0 c2 84 33 be ad 48 90 3e 69 d0 4a 3e 46 ae 89 3e
       -0.17531112 0.28180447 0.19806065 0.26890773
0000e0 36 cd 35 3e c0 e1 17 3e 58 d9 84 3e a1 3f bb bd
       0.17754063 0.1483221 0.2594707 -0.091429956
0000f0 b2 43 45 3c 60 65 60 be 6e 3a 29 bd 46 0d a4 bd
       0.012040066 -0.21913671 -0.04131549 -0.08010344
000100 f0 76 79 3d d0 86 db bb 73 9c 52 3e 39 2b ff bd
       0.060904443 -0.0066994205 0.20567493 -0.12459416
000110 e8 db 4b be ae 73 32 be 48 a6 28 3e 73 5b ae 3d
       -0.19908106 -0.17426941 0.16469681 0.08513536
000120 15 15 83 3e a1 4b 60 be c6 5a b4 be 42 8d 92 be
       0.25602022 -0.2190385 -0.35225505 -0.28623396
000130 91 ef 02 be 86 92 4e 3e 8e 84 39 3e 07 3a 70 3e
       -0.127867 0.20173082 0.18116972 0.23459636
000140 92 b5 60 be 8a 93 18 be 5d 25 34 3e 56 3f 2a be
       -0.21944264 -0.14900032 0.17592378 -0.16625723
000150 13 9c 02 3d 7f a0 3a 3d be a5 7c 3e 74 62 8d be
       0.031887125 0.045563217 0.246726 -0.27614176
000160 c8 12 05 be da 84 aa 3e 1c 5f 66 3d d4 8b 48 be
       -0.12995446 0.33304483 0.056243047 -0.1958459
000170 f5 19 84 3e 75 a4 b4 3e aa 9f 87 be fc 01 6c be
       0.25801054 0.3528172 -0.26489002 -0.23047632
000180 53 77 8f 3e e6 e0 86 bb 32 69 17 bd aa 09 5c be
       0.28020725 -0.0041161655 -0.036965556 -0.21488062
000190 48 c6 ef bd 7f a8 12 bd 25 80 10 be d4 53 4e be
       -0.11707741 -0.03580522 -0.14111383 -0.20149165
0001a0 60 68 d1 bc c7 96 87 be a8 c0 63 be f9 4a de bc
       -0.025562465 -0.2648222 -0.22241461 -0.02713536
0001b0 b7 fd 30 be 49 fe f9 bd 08 10 b5 3e 5e 45 4f 3e
       -0.17284285 -0.12206704 0.35363793 0.20241305
0001c0 8c 81 ed 3d 0d b4 4b be 06 9e 07 be 2f 96 41 bd
       0.11596975 -0.19892903 -0.13243875 -0.047262367
0001d0 c9 b6 35 3d 16 51 58 be 42 af df bd f7 17 0e be
       0.04436377 -0.21124682 -0.109221 -0.1387633
0001e0 cb b4 56 bc f4 d1 01 be 43 c6 19 bd 35 3f 28 be
       -0.013104628 -0.12677747 -0.037542593 -0.16430362
0001f0 21 5e 12 be d7 40 00 be 65 49 84 bd 2b 52 30 be
       -0.1429372 -0.12524734 -0.064593114 -0.17218845
000200 23 b3 a7 3e 50 f1 82 3d 7c 8b a9 3e d5 78 55 3e
       0.32753858 0.06393683 0.3311423 0.20846875
000210 71 b7 54 be 79 36 35 3e 60 d3 8f bd 09 60 70 bd
       -0.20773102 0.17696561 -0.070227385 -0.058685336
000220 1e 61 92 be 1c fb a7 be 17 48 58 bd 4d fe ba bd
       -0.2858972 -0.3280877 -0.052803125 -0.09130535
000230 17 29 9f 3d 38 df 51 be e5 29 ff 3d 0c 5f 3b be
       0.07771509 -0.20495307 0.124591626 -0.18297976
000240 06 eb 8c bd ec eb 18 3d f4 81 09 3e 05 0d 5a 3e
       -0.06880765 0.037334368 0.1342848 0.21294029
000250 9a 33 7a 3e c5 c2 88 be 97 bf b6 3d 9f ab 14 be
       0.24433747 -0.26711097 0.089232616 -0.14518593
000260 de 71 d6 bd f3 13 62 be 76 33 a6 3e ee c8 6e be
       -0.10470937 -0.22077923 0.32461137 -0.23318836
000270 3e 0c 3b 3d 79 df a1 3d 50 37 ad 3d 80 62 42 be
       0.045665972 0.07903952 0.08457816 -0.18982887
000280 4c 63 d7 3e 31 f0 e9 3d 20 65 6d 3b c9 a8 77 be
       0.42067945 0.11422766 0.0036223605 -0.2418548
000290 46 88 cb 3e e1 b5 65 bc de a5 47 be 7c db 30 3e
       0.39752406 -0.014020414 -0.19496867 0.17271227
0002a0 72 6a 8f 3e 75 ea 14 be eb 94 67 be 15 de f1 bd
       0.280109 -0.14542563 -0.22615401 -0.11809937
0002b0 4d a5 47 3e d2 70 59 bd b8 18 34 be 49 4d 06 be
       0.19496651 -0.05308611 -0.17587554 -0.1311542
0002c0 42 f8 9e be a5 d4 62 3e 7b 78 8b 3e 5f eb bb be
       -0.3104878 0.2215143 0.27240357 -0.3670301
0002d0 2d 5d 33 bd 49 41 b6 3e 16 81 b1 3d c6 e9 86 be
       -0.04379003 0.35596684 0.08667199 -0.2635023
0002e0 5e 05 4d 3e c7 1e 93 3e 91 f9 82 3d 9e 19 38 be
       0.20021579 0.2873442 0.06395257 -0.17978522
0002f0 e3 04 ad bd c6 e8 db 3d dd fa 42 bd 60 fd 20 be
       -0.08448198 0.107377574 -0.047602523 -0.15721655
000300 b6 c5 61 3e 76 20 8e 3e 2d 42 46 bc 84 a5 9a bd
       0.22048077 0.2775914 -0.0121007385 -0.07551101
000310 a2 67 a4 3a 2b 72 12 3d b6 52 0b 3e ce cb 22 3e
       0.0012543092 0.03575341 0.1360577 0.15898058
000320 c2 e1 93 be 01 48 05 be d0 cf 3e 3e 7e 54 02 3e
       -0.28883177 -0.13015749 0.18633962 0.12727544
000330 fe 4c 57 bd c8 4d 51 be 06 20 7b be 3a 6a 8f be
       -0.05256366 -0.20439827 -0.24523935 -0.28010732
000340 a5 ee 51 be 9f ef 2d bd 9d 48 7c 3e 6b f4 8d 3e
       -0.20501192 -0.04246485 0.24637075 0.2772554
000350 e4 99 b7 be e9 c9 97 be ea cf c3 3c 0c 65 e7 3e
       -0.35859597 -0.29646233 0.023902852 0.4519428
000360 e4 77 e3 bd 9f 09 43 be 5f c8 60 3e ac 6a 04 3d
       -0.11106852 -0.19046639 0.21951436 0.032328293
000370 cb 05 95 be 5d 64 c7 3d cf f5 1b bc 26 0f 77 bb
       -0.29105982 0.0973594 -0.009519055 -0.0037698238
000380 18 be 58 be 29 e1 78 3e c4 37 89 3e 54 0a 0d 3e
       -0.21166265 0.24304642 0.26800358 0.13773471
000390 26 28 1f be df 36 62 be 67 26 f9 bd 1d 36 9f 3e
       -0.15542659 -0.22091244 -0.12165528 0.31095973
0003a0 71 df 29 3e a5 1b 9a 3e ac 7f 34 3e b6 90 2b 3d
       0.16589142 0.30099216 0.17626828 0.041886054
0003b0 6a 3b 01 bd b9 51 5d be d9 d1 8d be 40 a9 96 be
       -0.031550802 -0.21613206 -0.27699164 -0.29426003
0003c0 a4 c8 37 3e 99 3f a3 bd 70 f9 ed bb c9 bb a0 bd
       0.17947632 -0.07971115 -0.0072624013 -0.07848317
0003d0 70 4f 33 bc e9 2b 11 be 41 7e 24 be c6 37 a5 3d
       -0.010944232 -0.14176907 -0.16063787 0.080672786
0003e0 62 68 5c bd 09 ac ca 3d 9b 88 02 be 95 e6 34 be
       -0.053810485 0.09896094 -0.12747423 -0.17666085
0003f0 86 10 89 3c 86 8b 9d bd 85 f4 83 bd ae 50 6d be
       0.016731512 -0.076926276 -0.06443123 -0.23175308

net.0.bias f4 [20]
000000 90 a2 54 3e e9 62 9b bd 11 5b dd 3e eb bf 02 3e
       0.20765138 -0.07587225 0.4323354 0.12768523
000010 8f 5e df bd ff f2 0e be 47 f6 d7 be 78 bd b1 be
       -0.109067075 -0.13959883 -0.42180082 -0.34714866
000020 95 95 1e be 38 cf 99 3b 3f 4f 5c 3e c9 6d 0e 3e
       -0.15486749 0.004693892 0.21514605 0.13909067
000030 64 20 04 be 66 36 ce bd 2d 00 fc 3d ab ab ac be
       -0.12902981 -0.100689694 0.12304721 -0.33724722
000040 7e f7 af 3a dd 0b f3 3d 70 53 db be da 65 c7 3d
       0.0013425199 0.11867497 -0.42837095 0.097362235

net.3.weight f4 [40, 20, 5, 5]
000000 57 b6 3c bd 16 95 13 bd 12 fb 3d 3d 05 ee e3 3d
       -0.04607233 -0.03603085 0.046382017 0.11129383
000010 1d 01 3d be 5e 60 05 3d c9 ad 26 bd e8 e6 5f be
       -0.18457456 0.032562606 -0.04069308 -0.21865427
000020 6e d3 0a be 08 22 8a bc ee 35 16 3d 4d 48 6a 3a
       -0.13557217 -0.01686193 0.036672525 0.0008937165
000030 ef 92 16 3a 3f 1a 89 3d c9 2f 39 3d 68 f6 52 bd
       0.0005743941 0.06694459 0.045211587 -0.051504523
000040 2d 56 b9 bd ee e5 0b 3e 89 62 84 3d aa 0a a9 3d
       -0.0904964 0.1366193 0.064641066 0.08253987
000050 75 21 e2 bd b0 c6 00 bd b1 73 8a bd 39 93 0b bd
       -0.11041538 -0.031439483 -0.06760348 -0.03407595
000060 24 ab 63 3d 20 bc 10 bd 49 cb 10 bd 4e f3 9f bd
       0.055583134 -0.03533566 -0.035350118 -0.078100786
000070 09 5f af bd 0f a2 c4 ba 45 8b 82 3d 73 e1 79 3d
       -0.085630484 -0.001500191 0.0637422 0.06100602
000080 ad bc 77 3c 1c 7f 2f 3d 57 89 a8 3a 1e f1 d9 bd
       0.015120667 0.04284583 0.0012858313 -0.106416926
000090 5a 53 5a bd 80 51 2f 3c 64 1b 80 3d c5 22 4a bd
       -0.053302146 0.010700583 0.06255224 -0.049349565
0000a0 44 ed 20 bd c0 4c 0d be dc d9 e8 bd bf 1a ad bc
       -0.039288774 -0.13798809 -0.113696784 -0.021130918
0000b0 7e 82 b5 bc ef e2 28 bd f4 f8 2f bd 83 16 82 bc
       -0.02215695 -0.041232046 -0.04296203 -0.015879875
0000c0 2a 0e 18 3d bf 7b d4 bc 76 d8 cd 3d ba 85 49 3c
       0.037122883 -0.025937913 0.10051052 0.012299949
0000d0 bb 75 bd bb ea 22 4b bd 2d 3e 44 bd 96 14 96 3c
       -0.005781857 -0.049593844 -0.047910858 0.018320363
0000e0 a0 45 31 3d 84 c1 78 bc 97 1c b2 bd 27 86 53 bb
       0.04327929 -0.0151828565 -0.08696859 -0.0032276006
0000f0 28 57 88 bd 38 4d 6e bd 63 21 ad 3d 4c 23 2a 3d
       -0.06657249 -0.05817911 0.08453634 0.041537568
000100 90 75 b4 3d 0f 6b f8 bd 34 0b 9f bc 06 b1 9a 3d
       0.08811486 -0.12129795 -0.019414522 0.07553296
000110 3d 9c 92 3d 4d 50 01 3e 03 03 1b 3d 1f ef 58 3d
       0.07158706 0.12628289 0.03784467 0.05296242
000120 bc eb a4 3c 8f c9 96 3c b1 fa 9a 3d 60 71 8d bc
       0.020131938 0.018406658 0.07567347 -0.017265975
000130 65 a5 32 bd ab 95 fb 3c 93 d9 d2 3c cd 8e 6a bd
       -0.043614764 0.030711016 0.025738513 -0.05726509
000140 ab b8 33 bb e0 85 61 3c 8f c5 04 3e 6e 22 28 3e
       -0.0027423303 0.013764828 0.12965988 0.16419384
000150 e6 82 75 3d fd d2 82 ba 54 1a cb 3c 99 7b 0a 3e
       0.059939288 -0.0009981092 0.024792828 0.13523711
000160 38 28 b5 3d 6d 43 a7 39 c1 00 95 3d cf 60 07 3e
       0.08845562 0.00031902958 0.072755344 0.13220523
000170 9b 3b b3 3d be eb 3e 3b 68 2b 00 be 70 30 a1 3c
       0.08751603 0.0029132213 -0.12516558 0.019676417
000180 c1 f4 88 3d 5b 8f b5 3d 79 41 ac 3d 45 5b 5a 3d
       0.06687308 0.088652335 0.084109254 0.053309698
000190 67 6c 32 bc 4f 13 a0 3d 4a b0 e0 3d 47 1d f6 3d
       -0.010890103 0.07816183 0.109711245 0.12017303
0001a0 9a 86 c2 3c 09 cc 41 3c 69 fa d2 3d d6 79 43 3e
       0.023745824 0.011828431 0.10301668 0.19089445
0001b0 e2 d7 f8 3d 27 7b f9 bc 00 b4 98 3d 7d e7 db 3d
       0.121505514 -0.030454231 0.07456207 0.10737512
0001c0 56 d8 92 3d 7d 54 c9 3c e1 fc 0b bd 94 5d 2c 3d
       0.07170169 0.02457642 -0.03417671 0.04208143
0001d0 3d f0 8a 3d b0 31 ac 3d 7e 33 05 3d 0e 5b 55 bd
       0.06784103 0.08407915 0.03251981 -0.05208879
0001e0 9b fc 85 bb d2 f6 44 3e bf 78 25 3e 18 dc 27 3d
       -0.004088951 0.1923478 0.16159342 0.040981382
0001f0 c7 ad e6 bb 41 c2 34 3d 79 bc 5a bd ad f8 21 3b
       -0.007039759 0.044130567 -0.053402398 0.0024714873
000200 a7 1d 2c 3e 8a 36 3d 3e ea 72 16 3d 08 b6 d8 3b
       0.16808186 0.18477836 0.036730684 0.0066134967
000210 a1 a8 40 bd ab 22 a0 bc 99 1d c8 3c e2 56 81 bd
       -0.047035817 -0.019547781 0.024428176 -0.063154
000220 59 81 3f bd ff f7 c9 bd 4b d9 2e 3d ab b2 0e bc
       -0.046754215 -0.098617546 0.042687695 -0.00870959
000230 e3 d0 69 3b be b9 4b bd 21 f3 1d 3c 9c 87 e1 3d
       0.0035677485 -0.049737684 0.009640486 0.110121936
000240 0c 51 a4 bb df 29 85 3d 71 ab de 3c 48 6c 67 3d
       -0.0050145444 0.06502127 0.027181359 0.05649975
000250 8c 6c b1 3d 92 a8 bd 3d 6a 05 8e 3c 12 64 90 3c
       0.08663282 0.09260668 0.017336566 0.017625842
000260 a0 02 06 3d 62 e7 8d 3d 80 64 9b 3d 8b 52 b2 bb
       0.032717347 0.069288984 0.07587528 -0.005441969
000270 a4 d8 02 3d 56 ec c0 3d 57 a0 94 3d 09 ea 4c 3d
       0.031944886 0.094200775 0.07257145 0.05002788
000280 6e 8d 1f 3c 22 1f 62 39 ba 5e b9 3c da bf 02 3d
       0.009738309 0.00021564637 0.022628177 0.031921245
000290 e1 96 27 3d 5d 9c 71 3a 35 30 f6 bd 16 2e e5 bd
       0.040915374 0.00092167204 -0.120209135 -0.11190431
0002a0 7b 08 0d bd 24 dd 19 bc 48 10 81 bd 6c f7 e6 bd
       -0.034431916 -0.009391103 -0.063019335 -0.11277661
0002b0 b0 2c a4 bc 37 09 e3 bc 9d c3 f0 bc ad 62 f5 bc
       -0.02004084 -0.027714355 -0.02939015 -0.029954279
0002c0 51 54 3b 3d b3 1e ef bc 3f a6 9f 3d 92 f2 84 3d
       0.045734707 -0.029189443 0.07795381 0.06491579
0002d0 6c bd 07 3b ae a0 e4 3c 66 75 48 3c 2b dc 93 3d
       0.002071227 0.02790865 0.012235021 0.07219728
0002e0 cd 6f 9b 3d fc 02 1d bd 3e 78 52 ba 79 e5 64 bb
       0.07589684 -0.038332924 -0.0008028782 -0.0034926815
0002f0 36 2b 93 3c 68 82 bc 3c 50 c9 ae bc dc 9e c1 bd
       0.01796494 0.023011401 -0.021336228 -0.09454128
000300 0a 84 8f bd a0 df 1b 3d d3 e5 16 3d ed 23 52 bd
       -0.07007606 0.038055062 0.03684027 -0.051303793
000310 a8 ae fa bd 29 2f 53 bd 6b 83 19 bd 51 1d 1e 3d
       -0.12240344 -0.051558647 -0.037478846 0.038602177
000320 fd d5 dc bd 20 71 b1 bd b4 f6 ab bd 0b 5a 98 bd
       -0.107830025 -0.08664155 -0.08396664 -0.07439049
000330 28 80 26 bd 62 46 21 bd d5 a7 9c bb 10 84 de 3d
       -0.040649563 -0.039373763 -0.0047807493 0.10865033
000340 bd b1 23 3e eb bc a9 3c d0 c7 5b be db 56 ba bd
       0.1598577 0.020719966 -0.21462941 -0.090985976
000350 ca c2 1c 3d 7a 84 f5 3d 29 2e 01 bd 86 b8 04 be
       0.038271703 0.119881585 -0.031538162 -0.12961015
000360 35 08 0d be af a8 35 be a0 a3 1c be a9 2e 61 bd
       -0.13772662 -0.17740129 -0.15296793 -0.05497614
000370 4b 85 a0 bd 9b 17 11 3d e0 6c 53 3d 04 c6 bc 3b
       -0.078379236 0.035422903 0.051617503 0.00576091
000380 11 3e 30 bd 24 97 70 bc 06 48 3d 3d 23 f8 6a bd
       -0.04302794 -0.014684472 0.046211265 -0.057365548
000390 72 9e 0e 3d 4f b1 e8 bd 07 3c e2 3c d4 4b 33 bc
       0.034819074 -0.11361944 0.027616514 -0.010943372
0003a0 86 bb 8b bc 83 e7 59 3c d6 57 77 bc 03 92 84 bd
       -0.017057192 0.013299826 -0.015096625 -0.06473162
0003b0 5c 89 f1 3c 3d 75 97 3d 1f a9 d2 3b 59 cd 6f bd
       0.029484443 0.07395408 0.006428852 -0.058545444
0003c0 bf 09 b6 bb 25 01 9b bd 88 f2 a3 3d c3 c6 68 3d
       -0.005555361 -0.07568578 0.080052435 0.05683018
0003d0 8e 92 a1 bd 07 89 39 3d 73 3e 0e 3d 7f 3f 9c 3d
       -0.07889281 0.045296695 0.034727525 0.076292984
0003e0 b8 52 bc 3b 87 5c a5 3c 8e a5 cc ba 1d 56 98 3c
       0.0057471655 0.020185722 -0.0015613304 0.01859575
0003f0 6b 61 47 3c d6 65 1a bc 3f 2c 3f 3d ad ce 22 bc
       0.012169222 -0.009423694 0.046673056 -0.009936971

net.3.bias f4 [40]
000000 3f 8d 41 3d 47 68 c6 ba de 4a b2 3c 29 d2 d8 bc
       0.047253843 -0.0015137278 0.021764215 -0.0264674
000010 1f 4f 1a bd bf 29 e5 3c 97 8c 42 bd 4b f5 8b 3c
       -0.037673112 0.027974008 -0.04749736 0.017084738
000020 a5 b6 6a bc ac 45 16 bc 01 42 8d 3c 1a 88 52 3d
       -0.014325772 -0.0091718845 0.017243387 0.051399328
000030 bf 9c ed bc b0 83 20 3c b4 c4 20 3a d9 8c 48 bc
       -0.029005406 0.009797022 0.00061328267 -0.012240612
000040 7e 2d dd bc 39 c2 49 3c 3e c8 e0 bc 41 c9 75 bc
       -0.026999231 0.012314373 -0.027439233 -0.015001596
000050 74 cb e5 3c a2 ce c2 bc 14 ff 9f 3b 8a 92 57 3d
       0.028051116 -0.02378017 0.0048827026 0.052629985
000060 9b e4 b3 bb 45 6b 98 bc 79 68 1d bd a8 05 33 bd
       -0.0054898984 -0.018605838 -0.03842971 -0.043706566
000070 3e c3 44 3d 48 59 42 bc d7 d4 ff 3b e4 15 82 3c
       0.04803776 -0.011862107 0.007807355 0.015879579
000080 14 cc ad bc 4e 15 f6 3c c8 a3 38 3d bb 7e 4f 3b
       -0.021215476 0.030039456 0.04507807 0.003166123
000090 46 74 b3 bb a2 b8 3c bd 16 4e c4 3c b4 0a ea bc
       -0.0054765074 -0.046074517 0.023963016 -0.028569557

net.7.weight f4 [150, 360]
000000 d9 a0 f5 bb 31 1f 54 ba 54 19 40 bd 4c 33 f1 bd
       -0.007495981 -0.0008091806 -0.046899155 -0.11777362
000010 d1 c9 4b bc 12 5e 86 bd 54 0c 49 bd 4b 6d 4c bd
       -0.0124382535 -0.06560911 -0.049084023 -0.049908917
000020 e3 e3 29 38 40 56 31 3d c3 0c 57 3d a1 a1 1c 3c
       4.0504976e-05 0.043295145 0.052502405 0.00956002
000030 46 16 a1 3c a5 62 0f 3c 2c b9 9a 3d 90 a9 11 3e
       0.019663941 0.008751546 0.0755485 0.14224839
000040 70 db 27 3d b0 a0 8b 3d 81 66 43 3d f5 2f c2 3c
       0.040980756 0.06817758 0.047705177 0.023704508
000050 f4 a2 51 3d be 86 68 bd 6e ca 3e bd 95 94 18 bc
       0.051180795 -0.056769125 -0.04657977 -0.0093127685
000060 08 24 78 bc cd 9c 60 3d 69 79 1a 3c 8c 36 69 bc
       -0.015145309 0.054837037 0.0094283605 -0.014234196
000070 6e 4b 29 3d b6 b0 f3 bc eb fc ae bb 5d e8 5c bd
       0.0413317 -0.029747348 -0.0053402088 -0.053932536
000080 65 10 19 3d 39 e3 44 bd e9 d8 04 3d a8 f0 8f bb
       0.03736915 -0.04806826 0.032433424 -0.004392702
000090 d3 3b d5 bc 6f f7 6d bc 3e 99 86 3b 95 95 9a 3c
       -0.026029503 -0.014524325 0.0041076234 0.018870154
0000a0 6f 40 23 3d 46 d6 8a 3d 05 96 81 3d 22 ec 60 bb
       0.03985637 0.06779151 0.06327442 -0.0034320434
0000b0 20 df f3 3b 68 74 03 3d 60 01 45 bd 88 54 cb bd
       0.00744237 0.032093436 -0.048097014 -0.099282324
0000c0 0c 17 de bb e0 40 87 3d 78 e7 14 3e 2c 1d 7e bd
       -0.0067776497 0.06604171 0.14541423 -0.06203954
0000d0 68 ec d5 bd 0e 4e 09 bc 5c 0c b6 3c 88 e6 02 3c
       -0.104454815 -0.008380426 0.02222269 0.007989533
0000e0 7e 1d bf 3c fd 42 5c 3c fb d3 11 bc a4 82 78 3c
       0.023329493 0.013443706 -0.008900638 0.015167866
0000f0 6d db 05 3d d0 f9 e1 bb 54 27 57 3c 87 ce 03 be
       0.032679964 -0.006896235 0.013131935 -0.12871753
000100 6e 37 01 be 2e df bd bd f5 71 3c bc e8 eb 6f bd
       -0.12618801 -0.09271084 -0.011501779 -0.058574587
000110 86 a2 9b 3d 03 55 1c 3d 1b dd d9 3c 0e 53 51 bb
       0.07599358 0.03816701 0.02659469 -0.0031940374
000120 4c ce 85 3d f8 01 82 bd 96 6e 6a bd 34 87 3b 3d
       0.06533489 -0.06348032 -0.05723437 0.045783237
000130 97 16 15 bc 8c a3 e1 bc 31 76 4a bd 29 84 a3 bd
       -0.009099624 -0.027543806 -0.049429122 -0.07984192
000140 62 2d 6d bd c7 30 a2 3d 9f ad 11 3a 6b b0 d0 3c
       -0.05790461 0.0791946 0.00055571826 0.025474748
000150 81 bb cd 3c 25 db 98 3d 3c f7 26 bd a4 73 17 3d
       0.025113823 0.074636735 -0.040763125 0.036975518
000160 c7 2d 2c 3d 94 c9 90 3d 0e 1a 84 bd 2c bd 75 bc
       0.042035844 0.07069698 -0.06450282 -0.014998715
000170 b6 8b 6c 3d b5 de 10 3d 46 78 95 bd 70 a8 33 bc
       0.057750426 0.03536864 -0.07298331 -0.010965452
000180 41 39 99 bb f0 ef 84 bd 88 02 ac bd 29 9d 66 bd
       -0.0046760147 -0.06491077 -0.0839892 -0.056302223
000190 7f c8 11 3e b6 04 86 3d 4e 5a 4b bc 59 71 c2 3c
       0.1423664 0.06543867 -0.012411667 0.023735689
0001a0 21 a3 7c 3d d1 b4 81 bd 7c be c4 bc 56 96 2a 3d
       0.06167901 -0.06333316 -0.024016611 0.041647278
0001b0 e5 4e 18 bd f4 c4 3d bc 00 ae 95 3c e0 10 75 3c
       -0.037184615 -0.011582602 0.018271446 0.014957637
0001c0 74 73 b4 3d 30 b0 f3 bb 6c 8d 28 3d df 09 c6 3c
       0.088110834 -0.0074367747 0.041150495 0.024174629
0001d0 65 3b 79 3d 1d 91 2d bd 86 3b 34 3c 3b 01 65 3d
       0.06084766 -0.04237472 0.01100052 0.055909377
0001e0 b3 ef 8a 3d fb 26 01 bd a9 e2 97 3d 8e 9a b5 bc
       0.06784 -0.031531315 0.07416279 -0.022168424
0001f0 39 cf 52 bd 22 c9 25 be c1 43 07 bd 1f b4 ba bd
       -0.051467154 -0.16190007 -0.0330236 -0.091163866
000200 79 81 c0 3c 79 e6 49 3d 6d 7b 1d 3c 46 5f a3 3d
       0.023499237 0.04929206 0.0096119465 0.07977156
000210 d9 8d 67 3d 2a c3 07 3e e8 f7 32 3d 0f 87 ce bd
       0.05653176 0.13258043 0.043693453 -0.10084354
000220 e0 c8 fe bc 16 9a 59 3d 26 22 00 3d ed 3a 05 bb
       -0.031101644 0.053125463 0.031282566 -0.0020329312
000230 e4 82 f6 ba ab a7 a1 3d a0 59 99 bc 6a e7 70 3d
       -0.0018807319 0.07893308 -0.018719494 0.058814444
000240 70 88 ad 3c f4 4a 2b 3c bd 5e 42 bd d3 8a 6f 3d
       0.021183223 0.010454882 -0.04745363 0.058482002
000250 df f7 69 3d e7 9d 2e 3d 4a 11 53 bd 6c cc 82 bd
       0.057121154 0.042631056 -0.05153016 -0.06386647
000260 26 d9 23 bd f6 eb 7b 3c 9f 84 05 3d 48 42 85 3d
       -0.04000201 0.015376082 0.03259718 0.06506783
000270 4d d5 2d 3d f8 39 e5 bb 42 fa 14 3d 28 bb 88 3c
       0.042439748 -0.006995436 0.036371477 0.016690806
000280 12 21 16 3d ec 6a 8f 3d c2 fd 0e 3d 5d 4c a8 bb
       0.036652632 0.070028156 0.03490997 -0.0051360563
000290 96 c6 da 3c eb 6e 12 bd 76 bd bf 3c a3 5c 0e bd
       0.026706021 -0.03575031 0.023405772 -0.034756314
0002a0 e4 93 4f 3c ac 19 45 3d 4d 8f 52 3d 82 70 95 bd
       0.012669537 0.048120186 0.051406194 -0.0729685
0002b0 a1 e7 9b bb 71 72 02 3d f0 c2 f7 3c 25 70 aa bc
       -0.004757837 0.03184742 0.03024432 -0.020805428
0002c0 7a 66 f3 bc 78 89 37 3d 85 56 c0 bd d8 cd f5 bc
       -0.02971195 0.044808835 -0.09391502 -0.03000538
0002d0 28 00 d8 3d d2 58 d4 bb 1e b9 53 3d 3b 2c b4 3d
       0.10546905 -0.006480315 0.051690213 0.08797499
0002e0 90 53 9f 3d 79 3d df 3d 79 b3 d9 bb be be a5 3d
       0.0777961 0.10900397 -0.0066437093 0.08093022
0002f0 42 c0 71 3d e1 d1 7e 3c a7 35 47 bd 63 3c 82 bd
       0.059021242 0.015552969 -0.04863515 -0.06359174
000300 cc 2b d5 3c 26 9f 05 3d 45 02 db bd 5a 40 c8 3c
       0.02602186 0.03262248 -0.10693792 0.024444748
000310 e9 28 d8 3c 87 f5 df 3d 43 5c cb 3c 4c 4b 2a 3d
       0.026386695 0.109355025 0.024824267 0.041575715
000320 33 9a 89 3d f2 10 28 bd ab a5 01 3d d6 82 26 bd
       0.06718864 -0.041031785 0.031652134 -0.04065212
000330 96 b8 b7 bd a7 e9 64 3d 50 d6 9c 3c ab 95 2a 3d
       -0.08970754 0.05588689 0.01914516 0.04164664
000340 b3 84 71 bb 79 e0 ad bd 3a 8a 25 3d c3 ec b7 3b
       -0.0036852777 -0.084900804 0.040415026 0.005612941
000350 4f d0 76 3c dd ee 80 3b aa 93 ad 3c 58 23 1c bd
       0.015064313 0.0039347247 0.021188576 -0.038119644
000360 bc e2 c6 bd f4 62 9b bd 91 3e 04 bd e5 9b 82 bd
       -0.09711215 -0.07587233 -0.03228623 -0.06377391
000370 aa 75 1c bd 23 95 bf ba 3c 78 53 bd 0a 43 1b bc
       -0.03819815 -0.001461659 -0.051628336 -0.009476433
000380 c0 07 1a 3c bc 45 40 3d 31 58 c3 3c d4 b4 08 3e
       0.009401262 0.046941504 0.023845764 0.1335023
000390 04 cb b6 3d 31 d2 58 3c 32 22 ee 3b 26 ab e1 3d
       0.08925441 0.013233707 0.00726726 0.11018972
0003a0 4c e8 a3 bc 5e 8e 29 bd 58 0f ca bd 59 bc 80 bd
       -0.020008229 -0.041395538 -0.09866208 -0.062859245
0003b0 b3 85 8d 3c 43 ef 1a 3d 0d 4c 97 3c 68 e2 0b 3e
       0.017275667 0.037825834 0.018468881 0.13660586
0003c0 46 fe 36 3d f6 bb 82 bc dd ae bd 3c 88 cc 0f 3c
       0.044676088 -0.015958767 0.02315467 0.008776791
0003d0 56 00 58 bd e5 33 a8 bc b5 4c 69 3c fd 08 2d 3c
       -0.052734695 -0.020532558 0.01423948 0.010561225
0003e0 d4 e1 09 ba 37 2b 72 3c ae 40 1b bd 03 8a cc bc
       -0.0005259786 0.014780811 -0.03790348 -0.024968153
0003f0 9d f0 72 3d 17 09 d3 39 14 c8 14 3d 26 af db 3c
       0.059311498 0.0004025183 0.036323622 0.026816916

net.7.bias f4 [150]
000000 3e 64 82 3d b5 da 5b 3b 3b 6e 7e 3c 4f 02 cf 3c
       0.06366776 0.0033547108 0.015529211 0.025269656
000010 e6 86 75 bb d3 bf b2 bc e1 a4 6d bd 8a 10 30 3c
       -0.003746444 -0.021819985 -0.05801857 0.010746131
000020 60 1e 05 3d c9 cf 26 bc a5 6b ba 3c 0a 92 68 bc
       0.03249967 -0.010181376 0.022756407 -0.014194975
000030 1e 18 b3 3b 44 9c 7c 3d f9 e2 58 3b 63 96 2e bd
       0.0054655215 0.061672464 0.003309427 -0.04262389
000040 75 15 12 3d 77 b7 7a 3d 92 8a ac bc d6 ae 02 3a
       0.035664994 0.061210122 -0.02106217 0.0004985159
000050 62 f1 7a 3d 57 28 70 bc 21 70 eb 3c 41 5e d2 bc
       0.061265357 -0.014658055 0.02873999 -0.02567971
000060 b0 b7 ce 3c 2a 1e 28 bd ae d9 f0 3c 64 d1 5f 3d
       0.025234073 -0.04104439 0.029400673 0.05464305
000070 91 62 18 3d 0f 8a bb 3c 0c 41 aa 3c b0 f3 3b 3d
       0.037203375 0.02289298 0.02078297 0.045886695
000080 bf aa 8f 3b 3d 2a 87 3d d1 25 ed 3a 9e 1c 9f bd
       0.004384368 0.06599853 0.0018092935 -0.0776913
000090 25 28 78 3b c6 a8 bd 3b c3 64 c7 bc a1 05 db 3b
       0.0037865725 0.0057879416 -0.02434004 0.0066840206
0000a0 7a 53 b8 3b d8 1f 71 bd 1d b4 76 3d 4e 37 d4 3c
       0.0056251856 -0.05886826 0.060230363 0.025905278
0000b0 e3 db 12 bc c5 ba 21 bd 40 64 0b 3d 3d 0b f5 bc
       -0.008963558 -0.039484758 0.034031153 -0.029912585
0000c0 c4 32 22 3d fd 1c 67 bd 80 83 59 bd 65 41 bc 3c
       0.039599195 -0.05642413 -0.053103924 0.022980401
0000d0 9f 6e 75 3b 9a 76 8b bb bd d5 9f 3d 0a a7 2a 3d
       0.0037449969 -0.004256082 0.07804439 0.041663207
0000e0 7a e1 4c 3c fb c7 8d bc 23 a6 ac bc c7 db 11 bd
       0.01250493 -0.017307272 -0.021075314 -0.035609987
0000f0 d1 2e fd 3c bb 39 96 bc d5 21 7d 3d b3 07 b0 3c
       0.030906113 -0.018338075 0.061799843 0.021488046
000100 b8 72 97 bd d6 6a 2a 3d e9 c9 32 bb c5 64 c0 bc
       -0.07394928 0.041605793 -0.0027280992 -0.02348555
000110 c7 48 a0 3c f4 f1 3e bd 12 dd 81 3d 4a 0d 7f 3d
       0.019565953 -0.046617463 0.06340994 0.062268533
000120 d3 a6 e7 3c 6c 69 a8 bc 7d 74 95 bd a4 25 3f bd
       0.02827779 -0.020558082 -0.07297609 -0.046666756
000130 ae 4e eb bc bf ad 12 3d 08 00 ea 3c 6e 90 89 bc
       -0.02872404 0.03581023 0.028564468 -0.016792502
000140 8e 29 0b 3d 89 3d 9c bc a2 8a c5 bc b1 f6 ee bc
       0.033975177 -0.019072311 -0.024113957 -0.029170366
000150 88 cc 35 bd aa 3f 01 3d f7 8d 5f bd c3 77 2e 3d
       -0.04438451 0.031554855 -0.054578748 0.042594682
000160 12 ff 6f bd 71 11 08 3d 13 0e d1 3c ae be a7 3c
       -0.058592863 0.03321976 0.025519406 0.020476665
000170 d2 f1 4f 3d cf 8e 66 bc 78 c9 d4 39 aa d2 30 3b
       0.050767727 -0.014072134 0.00040585897 0.0026981034
000180 16 10 63 bc 09 4d 4d bd b2 4e 3e bc 12 10 1d bb
       -0.013858816 -0.050122295 -0.011615442 -0.0023965877
000190 7a 58 29 bc 17 54 a4 bc 63 ba 21 bc 72 be 63 bd
       -0.010336036 -0.020059628 -0.009871098 -0.055601545
0001a0 19 af 5a 3d e1 b0 e4 ba d3 19 dd 3c 4e cb e4 bc
       0.053389642 -0.0017447734 0.026989853 -0.027928974
0001b0 f1 c4 f7 3c 69 38 41 3d 81 28 84 3d 4c b6 92 3d
       0.030245276 0.047172938 0.06453038 0.071636766
0001c0 ea 24 53 3c f8 65 6d bd d8 5c 82 3d b1 a5 9e 3c
       0.012887219 -0.057958573 0.06365365 0.019366117
0001d0 98 24 01 bd 05 10 4c bd c0 8b 24 bd 5e 07 2a 3d
       -0.03152904 -0.049819965 -0.04017234 0.041510932
0001e0 a5 c6 34 3c e2 e5 62 3d 91 4a 08 bc f2 6f 91 3c
       0.011033689 0.055395015 -0.008318559 0.017753575
0001f0 d0 d7 8d 3c fc ca 51 bc 1c 83 62 3d 32 2e a4 3b
       0.017314821 -0.012804743 0.055300817 0.0050103897
000200 44 4a f4 bc 0b 92 b7 3c 04 76 92 3b a2 a5 5f 3c
       -0.029820569 0.022408506 0.004469635 0.01365033
000210 db 34 d4 bc aa 21 d8 3d 6f 3d 3c bc bf 03 7d 3d
       -0.02590411 0.10553296 -0.011489256 0.06177115
000220 61 55 84 3d 33 e7 2d bd f4 c4 06 3b f1 99 f8 bc
       0.06461597 -0.042456817 0.002056417 -0.030346842
000230 d6 51 6f 3c 98 48 53 bd e5 7c 94 bc 55 7b 4f bc
       0.014606914 -0.051582903 -0.01812596 -0.012663682
000240 ad d1 a4 3c fb e5 69 bd 70 51 15 bc 92 4e ef ba
       0.020119512 -0.057104092 -0.0091136545 -0.0018257669
000250 e0 fe c3 bc a4 e8 4c bd
       -0.023925245 -0.05002655

net.9.weight f4 [10, 150]
000000 66 b3 68 bc c1 b5 8c bd 2a a1 a3 bd 3b ef 0b 3d
       -0.014202928 -0.06870604 -0.07989724 0.034163695
000010 d6 59 15 3e cc 64 6b be dd f7 73 bd 7f 2b 05 3c
       0.14585051 -0.2298767 -0.059562553 0.008128046
000020 a1 b2 74 bd 62 e9 58 bd 0b 3e 2a bd 84 e4 a8 bb
       -0.059740666 -0.052956946 -0.041563075 -0.0051541943
000030 43 8d a9 3c fc 58 18 3e 56 da 0a be 62 b1 6e bd
       0.020697242 0.14877695 -0.13559851 -0.058274634
000040 aa f5 b0 3c 25 1e 86 3c 15 9d 3b be dd 7e 02 be
       0.021601517 0.016371796 -0.18321641 -0.12743707
000050 79 e6 62 be 12 1f 47 bc 93 74 0d 3d 18 7e 9f ba
       -0.22158231 -0.012153404 0.034535002 -0.0012168316
000060 c7 7f f5 3d 1d fc ce 3d 8e 5b 6f 3c 76 e0 e9 3d
       0.11987262 0.101066805 0.014609231 0.11419766
000070 7a 3a cc 3d aa e4 05 bd 44 e1 d5 3d a3 d8 95 3d
       0.09972091 -0.032688774 0.10443357 0.07316711
000080 3f db 0a 3d 43 ae 2e be 3a ab 6b bd 2a 4b ef 3c
       0.033900496 -0.17058663 -0.05753634 0.029210646
000090 dd c6 7c bd 21 f1 5e 3e bb 4c 8f 3d cb 7d 76 3c
       -0.06171309 0.21771671 0.06997057 0.01504464
0000a0 29 57 34 3c 60 ad fa bc 7e a3 1f be df 28 9f 3d
       0.011007109 -0.03060025 -0.15589711 0.077714674
0000b0 4f 3e 1a 3d 9e d8 a0 3d 9b c0 18 bd 5d 1b 1e bd
       0.03765708 0.078538164 -0.037293058 -0.038600314
0000c0 60 52 b5 3d 01 4e 43 bd 95 4d 2a bd 8d 48 59 3e
       0.088536024 -0.047681812 -0.041577894 0.21219082
0000d0 1c 86 b0 bc 35 a8 50 3d b4 1c c6 bc fb de 7f be
       -0.021548323 0.050941665 -0.024183609 -0.24987404
0000e0 63 47 01 bd 0d ea 91 bc 5d 2b d9 3d 6a 5c 4b bd
       -0.03156222 -0.0178118 0.10603974 -0.04964868
0000f0 c8 b7 08 3e a3 24 c3 3d be 86 5e be 16 0a 91 bd
       0.13351357 0.09528472 -0.21731088 -0.07082002
000100 0b 50 23 bc 26 1f 65 3c 7d 32 2d bd 87 a6 51 be
       -0.009967814 0.013984477 -0.042284478 -0.20473681
000110 99 b9 26 be c1 a7 47 bd 18 70 49 3d 5d d3 74 3d
       -0.16281737 -0.048743967 0.049179167 0.059771884
000120 13 80 45 3b 05 24 05 bd f5 fd cc 3d 4f e7 55 bd
       0.0030136153 -0.032505054 0.10009376 -0.052222546
000130 17 0e d4 3d a3 42 96 bd 56 0f 61 be 6f 23 b2 bc
       0.1035425 -0.07336929 -0.21978506 -0.021745412
000140 da ca 7e bd be 9f b4 bd 61 a8 f6 bd bc 05 e7 3d
       -0.062205173 -0.08819531 -0.120438345 0.112803906
000150 72 b9 15 3e b4 8d 2a be 59 92 f0 3b cf 00 07 bd
       0.14621523 -0.16655618 0.0073416648 -0.032959756
000160 cf a6 38 3d f2 36 35 3d c2 04 81 3d 02 fb e5 3c
       0.045080956 0.044241853 0.062997356 0.028073791
000170 d7 f7 88 3d a4 e6 0e 3e c8 4e 08 bb 9d 52 48 bd
       0.06687897 0.1395517 -0.002079891 -0.04890691
000180 b5 48 e2 3b dc 44 87 bd 65 4f 19 bd 6e fe b4 bc
       0.00690564 -0.06604931 -0.037429232 -0.022093978
000190 48 ba bb 39 92 56 42 bd 90 9c 61 bd 35 78 a2 3d
       0.0003580621 -0.04744584 -0.05508095 0.07933084
0001a0 c1 db c9 3d a7 b9 66 3b 72 86 47 3c fa 86 42 be
       0.09856368 0.0035205872 0.01217805 -0.18996802
0001b0 65 93 2a bc 62 5c 2b be 0c 9f 33 be e1 79 37 3e
       -0.010411118 -0.1673446 -0.1754114 0.17917587
0001c0 0a 5f 74 bb be 23 91 bc b2 c8 5d be fb 79 d2 bc
       -0.0037288093 -0.017717239 -0.2165859 -0.02569293
0001d0 90 ab 1f 3d 59 f2 2a bd fc e4 3e be a2 4f a4 bd
       0.038981974 -0.041735027 -0.18642038 -0.08023001
0001e0 ba 02 02 bd 7c 55 05 3e 67 c5 81 bc 5a a7 95 bd
       -0.03174088 0.13020891 -0.0158412 -0.073073104
0001f0 c9 4d f4 bc 3f f1 cc 3d 1b 81 ca bd f2 6c 20 be
       -0.029822247 0.100069515 -0.09887906 -0.1566656
000200 ea 43 99 3d c3 b6 08 be 12 19 b1 3d 11 2f 6b bd
       0.07483657 -0.13350968 0.0864736 -0.057417933
000210 20 45 9b 3d ef 86 1e be 29 a2 7d bc 6e fb 58 3b
       0.07581544 -0.1548116 -0.0154805565 0.0033108848
000220 59 f2 c4 3d 0c 56 67 bc d4 b4 48 bd 00 3a 25 3d
       0.09616537 -0.014119636 -0.049000576 0.040338516
000230 c3 6d a0 bd 91 5e 85 3d e2 32 91 3d 4d 98 fa 3c
       -0.078334354 0.06512178 0.07089783 0.0305902
000240 c4 ce 30 bd ae 1b 53 3d 1c ba 41 3d a0 81 f4 3c
       -0.043165937 0.05154007 0.04729663 0.029846966
000250 07 16 c0 bb 42 6c 4a bd 15 10 4e 3d b9 f2 f4 39
       -0.005862001 -0.04941965 0.050308306 0.0004672015
000260 84 89 3b bd 5d 22 c7 bd c4 e5 1c 3e ba 6d be 3d
       -0.045785442 -0.09723351 0.15322024 0.092982724
000270 db 4a 14 3d da 34 a4 3d 9b e1 24 bd 29 f6 e2 3c
       0.0362042 0.08017893 -0.040254217 0.027705269
000280 dd 4f 10 bb 38 61 30 3e c5 17 9f 3d 54 c0 14 be
       -0.0022020258 0.17224586 0.077682056 -0.14526492
000290 fd 3c fd 3d b4 18 f8 bc 59 11 03 bd 2f b0 33 be
       0.12365148 -0.030285217 -0.031998966 -0.17547677
0002a0 bc 1d e8 3d 3a c2 b7 3c d9 a6 d5 bd 7c 38 9a bd
       0.113337964 0.022431482 -0.10432214 -0.07530305
0002b0 07 66 87 bb 60 9c 88 bd 90 be af bc f9 1e a2 bd
       -0.0041320357 -0.06670451 -0.021453172 -0.07916064
0002c0 5f a1 40 bc 37 6b 25 3e 64 23 b4 bd e8 83 2c 3c
       -0.011757224 0.1615418 -0.08795813 0.010529496
0002d0 d0 9f 5d 3e f7 95 dd bd e1 f6 38 be 02 0b c7 bd
       0.21642995 -0.10819619 -0.18062927 -0.097188964
0002e0 03 c6 d0 3c cf a0 4e bd 0d ca 58 3d 05 5b fd 3d
       0.025485044 -0.050446328 0.052927066 0.12370876
0002f0 64 29 da 3c d8 13 25 3e ed 6c 94 3d 2e a5 8e 3c
       0.026631065 0.16120851 0.072473384 0.017412748
000300 ac b5 9a bd 3e b9 95 bd b3 35 85 3d 6b 63 85 bd
       -0.075541824 -0.07310723 0.06504383 -0.06513103
000310 bf 68 e3 bd f0 31 79 bd d8 11 66 b9 4e 8c dc 3c
       -0.11103963 -0.06083864 -0.00021941157 0.026922371
000320 31 e6 9a 3c 81 8a 7f bc dc a6 4b 3d 03 ce 0a 3d
       0.018908592 -0.015596987 0.049719676 0.033887874
000330 1f 8e 26 bc 27 99 a9 bd a7 99 07 be b1 3a 10 3e
       -0.01016572 -0.082811646 -0.13242207 0.14084889
000340 23 9e 3f 3c 29 4d 24 bd fa 2e cf bd 7d 62 45 be
       0.011695418 -0.04011265 -0.10116382 -0.19275852
000350 4a 95 c7 bd 29 5f ae bd 11 8b d4 3d 6e 63 56 bd
       -0.097452715 -0.08514244 0.10378087 -0.052340917
000360 7a e7 f0 3c fc ea 03 be c3 b1 a4 3d d4 84 08 3d
       0.029407252 -0.12882608 0.08041718 0.0333298
000370 16 32 34 be 87 20 78 be b0 98 c8 3c e4 61 0f 3c
       -0.17597231 -0.24231158 0.02448687 0.008751366
000380 a1 17 c5 bd 4f 01 91 bd 02 3c 20 be b6 fd 23 3c
       -0.096236475 -0.07080328 -0.15647891 0.01000922
000390 e3 08 a7 bd 19 6c 46 bd 64 c6 d5 bd 39 e0 92 3d
       -0.08155992 -0.048442934 -0.10438231 0.07171673
0003a0 ab 52 70 3d 87 32 fc 3d f9 59 e8 3d 0a 9e 1a 3e
       0.05867259 0.12314325 0.11345286 0.1509935
0003b0 aa 3d 7e 3d c0 30 8a 3d 4a 7c 7a bd dd 39 61 bb
       0.062070526 0.067475796 -0.061153688 -0.0034366765
0003c0 86 87 4a bd 1a b9 a2 3c 9f 33 1b be 90 8d 3a be
       -0.04944565 0.019863654 -0.1515641 -0.18218064
0003d0 b6 7e 41 3c 3b a5 5f bc 17 c2 00 bd 27 d6 70 3d
       0.011809995 -0.013650234 -0.0314351 0.05879798
0003e0 d0 03 17 3c c8 f3 de 3b 56 df 8d 3d 33 27 12 3d
       0.009217218 0.0068039633 0.069273636 0.035681915
0003f0 31 fe ab 3d 58 83 fd bc c4 e6 24 be 70 c1 b9 3d
       0.083980925 -0.030946419 -0.16103655 0.090700984

net.9.bias f4 [10]
000000 99 aa 14 bd 63 7a 39 bd d7 5d 06 3d f2 f1 9c bd
       -0.036295507 -0.045282733 0.032804336 -0.07663335
000010 91 f3 36 3d f1 33 4f bd 29 4c 39 bd 65 f4 b9 bd
       0.044665877 -0.050586645 -0.045238648 -0.09079818
000020 16 8b dc bc 06 bf 6b 3b
       -0.02692179 0.0035972013
