result/model_11_3.pth (torch, 307183 bytes, 8 tensors)

net.0.weight f4 [20, 1, 4, 4]
000000 7f 0d d5 3d 5a 34 e6 3e 59 93 a6 3e 0c d3 ba 3e
       0.10402965 0.44961816 0.32534292 0.3648914
000010 09 9d 7d be 95 32 bb be 3e f6 1a bf e6 9d a8 3e
       -0.24766935 -0.3656203 -0.60531986 0.32932967
000020 2c cf f9 bd 33 33 bd be f3 2e 09 3f 9f 29 b9 3e
       -0.12197718 -0.36953124 0.53587264 0.36164567
000030 73 63 1d 3d 5b 7c bd 3e 10 66 65 3e 3d 4e 83 be
       0.03842492 0.37008938 0.22402215 -0.2564563
000040 a2 03 b8 3e ef 34 34 3e db 2b eb 3c 63 dc 95 3e
       0.35940272 0.17598318 0.028707435 0.29269704
000050 30 34 f8 3b 2b ca 01 be 6e 48 9b bd 22 20 ba 3e
       0.0075745806 -0.12674777 -0.07582174 0.3635264
000060 bb 25 88 be 35 7d b7 be 3a 9f 81 be 6e 07 f7 bd
       -0.26591286 -0.35837713 -0.25316793 -0.12061964
000070 32 1d 78 bd f1 36 83 be 08 62 6b 3e 30 28 3b be
       -0.060574718 -0.25627854 0.22986615 -0.18277049
000080 05 d1 b4 3d 3e 76 2a be 6a 32 9f be 29 7c a7 bd
       0.0882893 -0.16646668 -0.3109315 -0.081779785
000090 4f 2a 49 3e c6 46 14 3f 98 3f 7f 3e db 45 89 be
       0.19645046 0.5792049 0.24926603 -0.26811108
0000a0 78 16 4a be 44 43 3f bd cf ab c7 3e 57 35 ae 3e
       -0.19735134 -0.04669501 0.38998267 0.3402507
0000b0 78 30 e0 bc 8d f3 2d be 62 ec 9d bd 8d ec 16 bc
       -0.027366862 -0.16987438 -0.07711102 -0.009211672
0000c0 f2 7f a0 3d 12 cc 76 be 67 0f b2 be 47 ea 18 be
       0.07836904 -0.24101284 -0.34777376 -0.1493312
0000d0 6e 29 4b be a0 70 7c 3e ad 78 2f 3e 49 e0 87 3e
       -0.19840023 0.24652338 0.17135878 0.26538303
0000e0 d9 b0 42 3e e7 d2 23 3e 44 02 84 3e 61 e8 ab bd
       0.19012775 0.15998422 0.2578298 -0.08393932
0000f0 f1 13 07 3d eb 37 3d be be ba 48 bb 58 50 8c bd
       0.032978002 -0.18478362 -0.0030628885 -0.06851262
000100 67 8d 9a 3d 2b b0 18 bc a8 7a 30 3e 90 b0 80 bd
       0.075465016 -0.0093193455 0.1723429 -0.062836766
000110 3e f0 3f be 19 f9 20 be 8b ec 3e 3e 02 b7 2b 3e
       -0.18743989 -0.15720023 0.18644921 0.1676903
000120 1e 44 66 3e 55 eb 75 be 9c c5 c3 be 3d 9d 99 be
       0.22486922 -0.24015553 -0.382367 -0.30002776
000130 8d 77 23 be 44 ed 21 3e 03 d3 34 3e a3 21 55 3e
       -0.15963574 0.15813166 0.1765862 0.20813613
000140 2b e2 56 be a6 aa 3c be f8 3f 5d 3e 7d b2 10 be
       -0.20984714 -0.18424472 0.21606433 -0.14130588
000150 76 00 99 3c d2 bd de ba 3b 26 93 3e 2e 4d 95 be
       0.018676978 -0.0016993827 0.28740105 -0.29160446
000160 9a f6 3f be cc b3 a5 3e 28 2d a0 3d b3 a4 33 be
       -0.18746415 0.32363737 0.07821113 -0.17543297
000170 81 1c 0a 3e 3f 9f b2 3e 8e 25 58 be 94 50 26 be
       0.13487436 0.3488712 -0.21108076 -0.16241676
000180 95 65 a7 3e 87 2a c8 3c 01 cf 54 3a 77 20 79 be
       0.32694688 0.024434341 0.0008118004 -0.2432879
000190 c0 10 20 be 91 19 25 bd c8 65 ff bd 08 cd 87 be
       -0.1563139 -0.040307585 -0.12470585 -0.26523614
0001a0 98 0c f8 bc f7 f5 5c be fc ca 38 be 12 28 e3 bd
       -0.030279443 -0.21578203 -0.18046182 -0.11091627
0001b0 47 a6 fb bd b0 fe 38 bd d9 32 e0 3e a8 ea 6e 3e
       -0.12287574 -0.045164764 0.43788794 0.23331702
0001c0 44 ee 12 3e ca 8b 42 be af e3 05 be f6 ed b2 bc
       0.14348704 -0.18998638 -0.13075136 -0.021841984
0001d0 7e 11 b8 3d 26 65 41 be a6 8a a2 bd 10 12 e0 bd
       0.08987711 -0.18886241 -0.07936601 -0.10940945
0001e0 fa 92 14 3d e4 8f a3 bd 02 8d 3e 3d a0 c0 d8 bd
       0.03627298 -0.07986429 0.046521194 -0.10583615
0001f0 77 0d ec bd 6b 19 d2 bd b3 3a 2d bd 7c 5b 25 be
       -0.11526006 -0.10258754 -0.042292308 -0.1614818
000200 84 57 a7 3e 64 9d d2 3d ef 77 af 3e a8 b8 24 3e
       0.32683957 0.10283926 0.3427119 0.16086066
000210 37 41 4f be 37 27 1d 3e 36 5f 7e bd 0b 59 07 be
       -0.20239721 0.1534699 -0.06210252 -0.13217561
000220 94 55 98 be 1e 8e b2 be c3 d0 46 bd 96 8b 06 be
       -0.2975279 -0.34874052 -0.048538934 -0.13139185
000230 3d 64 c0 3d ee de 25 be 4d 66 44 3e b7 ce 28 be
       0.09394119 -0.16198322 0.1917965 -0.16485105
000240 18 09 90 bd f8 dd 05 3e bc b4 30 3e f3 cc 66 3e
       -0.070329845 0.13072956 0.17256445 0.2253912
000250 ab bc 6b 3e 2d aa 70 be d3 4d 85 3d 6b 90 1d be
       0.2302119 -0.23502417 0.065089844 -0.15387122
000260 4c 20 05 be 9d 4b 80 be 5b 19 7d 3e e8 1a 8b be
       -0.13000602 -0.25057688 0.24716704 -0.27168965
000270 02 2b 17 3d ab 96 47 3d 25 7b ee 3d a0 dc 3a be
       0.03690625 0.048727673 0.11644582 -0.18248224
000280 a0 fc de 3e 79 75 a2 3d a1 f7 96 bc af 5c 9b be
       0.43552113 0.079325624 -0.018428626 -0.3034415
000290 82 24 c1 3e dc e6 7d 3c 40 ee 28 be 30 94 30 3e
       0.37723166 0.015496936 -0.16497135 0.17244029
0002a0 0c 6d 53 3e c1 8b 9f bd 8c 45 50 be b5 3b cb bd
       0.20647067 -0.07790328 -0.2033903 -0.099234976
0002b0 c1 3d 40 3e 92 24 fa bc fd 50 26 be 17 b9 01 be
       0.18773557 -0.030535016 -0.16241832 -0.12668262
0002c0 b4 9f 80 be 2b 68 3f 3e 20 90 43 3e 3c 1c c8 be
       -0.25121844 0.1869208 0.19097948 -0.3908404
0002d0 12 f4 7d bb ac 52 c3 3e 4a a8 21 3d cf 85 81 be
       -0.0038750214 0.3814901 0.039467134 -0.252974
0002e0 96 c0 4e 3e d5 94 71 3e 43 1f 35 3d 17 32 1e be
       0.20190653 0.23591931 0.044219267 -0.15448795
0002f0 67 e5 aa bd d8 11 73 3d 90 62 c1 3c f7 67 af bd
       -0.08344536 0.05934319 0.023606569 -0.085647516
000300 c6 4a 56 3e de a7 84 3e a3 9a a1 bc 2c 8c b3 bd
       0.20926961 0.25909323 -0.019727057 -0.0876697
000310 5e db 71 3c e5 48 18 3d 53 f6 f3 3d f4 18 07 3e
       0.014761774 0.037178893 0.11912217 0.13193113
000320 2f 3d 8e be c6 9f e2 bd 8b 06 53 3e 2c a8 cd 3d
       -0.27781054 -0.110656306 0.20607965 0.10041842
000330 48 b6 ca bc d2 59 43 be 8e 6a 81 be 86 8c 98 be
       -0.024745122 -0.19077232 -0.25276607 -0.2979471
000340 11 b9 42 be fe 5c 58 bd ae 2a 89 3e c0 24 80 3e
       -0.1901591 -0.05282306 0.26790375 0.25028038
000350 5d 86 ac be f7 21 8e be 40 2d 92 3d 8a 0f cb 3e
       -0.3369626 -0.27760288 0.07137537 0.39660293
000360 d0 c7 ee bd 4d a8 13 be a3 7b 7d 3e 85 ec 38 bd
       -0.11659205 -0.1441967 0.24754195 -0.045147438
000370 43 9c 9b be f5 38 1b 3e 91 c4 8f bd 0a c4 a8 bd
       -0.30392656 0.15158446 -0.07019914 -0.082405165
000380 5b 09 5d be be 77 4e 3e b5 3a 5e 3e 75 f5 c3 3d
       -0.215856 0.20162866 0.21702082 0.095683016
000390 52 41 34 be 2b e8 7b be 01 75 1f be 22 bb 5c 3e
       -0.17603043 -0.24600284 -0.15571977 0.2155576
0003a0 77 a0 2c 3e 3e 71 bd 3e 94 1f 9d 3e 3b 0f a0 3d
       0.16858087 0.3700046 0.30688155 0.07815405
0003b0 82 2b 19 bd c1 5b 4e be 4c e4 81 be c2 ca 88 be
       -0.037395008 -0.20152189 -0.2536949 -0.26717192
0003c0 bd 99 3a 3e c6 89 ae bd d4 38 73 bd 4e 07 c6 bd
       0.18222709 -0.08522372 -0.059380367 -0.09669362
0003d0 b9 3d 12 3d 43 c5 e3 bd 97 ab 15 be f8 a6 fa 3d
       0.035703395 -0.11121609 -0.14616238 0.12238878
0003e0 79 52 6e bd 0a 71 0f 3e d4 16 c8 bd 0c c5 2c be
       -0.05818412 0.14007965 -0.09769979 -0.16872042
0003f0 c2 90 16 3b 89 51 3c bd aa bf 21 bd ca 4f 4f be
       0.0022974466 -0.045976195 -0.039489426 -0.20245281

net.0.bias f4 [20]
000000 6c 66 8c 3e 9d 2a 19 be ba 4b c4 3e df 27 0c 3e
       0.27421892 -0.14957662 0.38339025 0.13687085
000010 47 aa fe bd 2b 57 31 be 51 99 ca be fe ae c7 be
       -0.124348216 -0.17318408 -0.39570096 -0.39000696
000020 9e 24 2d be 78 fd 4f bc 45 90 59 3e c0 f3 0a 3e
       -0.169085 -0.012694709 0.2124644 0.13569546
000030 34 eb 0f be 07 ac f7 bd 9e b5 de 3d 84 3a bd be
       -0.14054567 -0.120933585 0.108744845 -0.36958706
000040 76 11 25 3c 2a 9b ef 3d 51 10 bc be 68 b1 ed 3d
       0.010074964 0.11699517 -0.36731198 0.11606103

net.3.weight f4 [40, 20, 5, 5]
000000 99 2a 3b be 64 38 7d bd 87 ec 7a bd 8f 42 19 be
       -0.18277968 -0.061821356 -0.061260726 -0.14966796
000010 bb 1e 29 be 2f 3b a8 bc 6d e6 f0 bc ef d8 27 be
       -0.16515629 -0.020536033 -0.02940675 -0.16391347
000020 b4 9e c4 bd 08 ad 8c be 79 eb 3c bd 34 28 f4 bd
       -0.09600583 -0.27475762 -0.046123 -0.11921731
000030 e7 9b e6 bc 17 6f 70 3d 2d 66 60 bd c9 96 56 bd
       -0.028150512 0.058699694 -0.054784942 -0.052389894
000040 0b 1d 3a 3d be 6a e0 3d 3f 9b 04 3e b6 d2 08 3e
       0.045437854 0.109578595 0.12949847 0.1336163
000050 6a b0 23 be 91 e5 2c be d4 03 85 bd 9d 44 94 3d
       -0.15985265 -0.16884448 -0.06494871 0.072396494
000060 5e ff 40 3e b1 fc db 3c 6e f5 83 3c 37 24 63 bd
       0.18847415 0.026853891 0.016108241 -0.05545446
000070 3f 6d fb bb c4 3b 7f 3d 6d a8 5e 3c f2 96 d8 bd
       -0.0076729353 0.062312856 0.0135899605 -0.105756655
000080 45 dd 3c be 2b c1 2f bd 65 77 9a bc 21 64 2a 3d
       -0.18443783 -0.04290883 -0.01885576 0.041599397
000090 89 00 6d bd 22 e9 86 bd d6 84 62 3d a1 28 fb bb
       -0.05786184 -0.06587435 0.055302463 -0.0076647555
0000a0 d4 76 ab 3b 34 6d eb bd 70 29 33 bd f0 e7 45 bc
       0.0052326713 -0.11495438 -0.04374069 -0.012079224
0000b0 77 f3 73 3c 9c b0 89 3d 4a aa 9a bd bd 8f 3a bd
       0.0148895895 0.06723139 -0.07552011 -0.045547236
0000c0 ba 52 3b 3d 1f 3c 19 bd e8 b6 60 bd fe b5 34 be
       0.04573319 -0.03741085 -0.054861933 -0.1764755
0000d0 78 dd 23 be 01 8f 35 be ef ab 89 be 22 1f 92 bd
       -0.16002452 -0.17730333 -0.26888987 -0.07134844
0000e0 d2 5f 2b be 3d 3e 68 bd 56 41 9e 3b 28 14 14 be
       -0.16735771 -0.05669998 0.004829566 -0.14460814
0000f0 ab b3 82 3b 29 23 4f 3e 04 68 2c 3e fc 0a 0a 3e
       0.0039887032 0.20228256 0.16836554 0.13480753
000100 5b d8 27 3e 8d f7 fc bd 2e 37 61 3d 44 15 c1 3d
       0.16391127 -0.12351904 0.054984264 0.09427884
000110 f1 7e 31 be cd be 48 bd 37 b9 c8 3d fc b5 18 3e
       -0.1733358 -0.049010087 0.09800952 0.14913172
000120 69 17 4e 3c c2 9e 39 be 56 30 ff bd 7e 21 11 bd
       0.012578824 -0.18126968 -0.12460391 -0.03543233
000130 fc c7 df bc 2c 7a b0 3d 4e b7 15 3d 59 a9 e8 bd
       -0.02731704 0.086170524 0.036551766 -0.113604255
000140 fd 29 5c bc a4 3a 34 bb 95 c7 62 3d 4b b0 1e 3e
       -0.013437745 -0.0027500773 0.055366118 0.15496938
000150 4d e8 67 3d ef 67 f0 bd 63 2e 08 bd 7f cf 8b 3d
       0.056618024 -0.11738574 -0.033247363 0.06826686
000160 b1 ef 01 3c b4 59 5d 3c 44 d2 a5 bd f7 b0 ea bc
       0.007930682 0.013510156 -0.080967456 -0.028648837
000170 79 d0 87 3c 33 20 5b 3c ff d9 66 3b 83 31 f1 bd
       0.0165789 0.013374376 0.003522515 -0.11777022
000180 03 0e ff 3c 54 39 fc 3c c4 3f cb 3d e8 03 42 3d
       0.031134611 0.030789055 0.09924272 0.047367007
000190 55 6f 79 3d 89 36 cf 3d a3 7f 13 3e 4c 74 ad 3d
       0.06089719 0.10117824 0.14404158 0.084694475
0001a0 95 90 30 3d 05 fb 46 be 89 6e 52 be f3 ce d3 3d
       0.043106634 -0.19431694 -0.20549978 0.10342207
0001b0 3a 3f 04 3e 10 8a a7 3d ae 17 ef 3c de 19 cd 3c
       0.12914744 0.0818063 0.029186096 0.025036748
0001c0 46 0f 1b 3d 3b 1a 4a 3e 84 eb 21 3e 96 51 b2 bd
       0.037856363 0.19736569 0.15812498 -0.087069675
0001d0 90 f0 53 3d 8e a8 17 3e dc f9 46 3e cc 20 0a 3d
       0.05174309 0.14810392 0.19431251 0.033722684
0001e0 ca ed 08 3e 08 04 8b 3d 8f f9 c7 3d 2e 37 51 3d
       0.1337196 0.06787878 0.097643964 0.051078014
0001f0 6e 30 08 bd 5a c6 44 3d 2d e3 25 3e 15 dd ba 3d
       -0.03324931 0.048040725 0.16199942 0.09124199
000200 cb f7 20 3e 9a 14 dc 3d dd a7 b5 3d d7 07 33 3e
       0.15719526 0.10746117 0.08869908 0.1748346
000210 5f 85 3b 3d 9f 2d 2e 3c 7d b6 7f bd 83 f4 a0 3c
       0.04578149 0.010630994 -0.062429894 0.019647842
000220 2d e7 8c 3c d4 37 4c 3c fc 5c e1 3c c3 32 8e bd
       0.017200077 0.012464482 0.027510159 -0.06943276
000230 fd 0d db bc 92 6b 74 bd 86 57 3d 3d 2f c4 8d 3d
       -0.026740069 -0.0596729 0.046226047 0.06922185
000240 0f 64 51 3d f9 94 e5 bd bf e7 5b bc 91 5c 82 bc
       0.051120814 -0.11210055 -0.013421952 -0.01591328
000250 89 a3 0e bd 03 2f 9f 3d 49 fd 17 3d c4 e8 5b 3d
       -0.034823928 0.07772639 0.037106786 0.05368878
000260 14 fe 89 3d ce bb 80 3d a2 97 73 3c c4 dd 92 3b
       0.06737915 0.06285821 0.014867695 0.004482003
000270 82 93 bf 3c e6 35 84 3d 7e 31 46 bb d5 83 e5 bc
       0.023385767 0.06455593 -0.0030241902 -0.028016964
000280 02 ee 42 bd 66 83 c6 bd 32 d0 66 bd b6 e8 df 3c
       -0.047590263 -0.09693031 -0.056350894 0.027332645
000290 78 c3 a7 3d 37 7d 3d bd 49 cd 38 be 45 f2 52 bd
       0.081915796 -0.046261992 -0.1804706 -0.051500577
0002a0 9f 36 6a 3b ca 36 9d 3a 48 54 53 bd cd 27 c8 bd
       0.0035738123 0.0011994478 -0.05159405 -0.097732164
0002b0 bb 89 3c 3c 47 43 5b 3c 69 0d 08 bc f9 09 b7 bc
       0.011507447 0.013382739 -0.0083039785 -0.022343623
0002c0 a9 03 45 3d 4a d9 09 bd 52 f9 8f 3d 8d c7 01 3d
       0.048099194 -0.03365449 0.07029976 0.031684447
0002d0 41 25 f0 bb b6 07 73 bc 60 04 1a bd f0 78 22 3d
       -0.0073286598 -0.014833381 -0.03760183 0.039666116
0002e0 99 d3 67 3d 62 31 67 bd 45 2b 91 bd 61 e0 5f bd
       0.05659828 -0.05644358 -0.07088331 -0.054657344
0002f0 58 13 61 3c 33 c9 b2 3c 34 73 3f bc 59 73 bc bd
       0.013737522 0.021824455 -0.011685181 -0.09201688
000300 96 ec 03 bd 2a d7 81 3d 12 8d 28 3d e9 f0 a4 bc
       -0.032208048 0.063398674 0.04115016 -0.020134406
000310 ce 4f aa bd 4c 05 e3 ba 4b 83 d6 bb f8 d0 1e 3d
       -0.08316003 -0.0017320304 -0.006546413 0.038773507
000320 3b ee ed bc ca 0c 30 be 5b 89 0c be e8 29 00 3c
       -0.029044261 -0.17192379 -0.13724272 0.007822491
000330 38 2b bd 3d bb a7 01 be 20 3f 44 be 1c 2a 0b be
       0.09236759 -0.1266164 -0.19164705 -0.13590282
000340 89 4a b1 3d 8f c5 99 3d 0f cf 25 be c9 f0 fb bd
       0.086567946 0.075083844 -0.16192268 -0.123017855
000350 6b 09 02 bd 9f c9 00 3e 3a 85 76 3d 44 d9 33 be
       -0.031747263 0.12576912 0.06018565 -0.17563349
000360 dc d0 e4 bd be 75 c3 bc 56 4a 7c 3d b6 27 72 3d
       -0.11172649 -0.023859855 0.06159433 0.059119903
000370 0d 3c b8 bb 21 bb 6c 3d 5d 3c 2c 3d f7 ef 6e 3c
       -0.005622393 0.057795648 0.042049754 0.014583579
000380 0b 9a d7 bc 35 b2 81 bd a4 21 54 bd bd 52 f5 3c
       -0.02631857 -0.063328184 -0.051789895 0.02994668
000390 09 0f 0c 3d db e9 d1 3d 9b b8 57 bc 27 b0 70 bd
       0.034194026 0.102496825 -0.013166572 -0.058761742
0003a0 ee 19 18 3b 52 df 95 3d f1 04 86 3d 76 7b 7f bc
       0.0023208815 0.073179856 0.06543911 -0.0155934
0003b0 89 35 31 bd 04 74 9c 3d c8 d4 6f 3d 89 a1 f0 bc
       -0.043263946 0.07639316 0.058552533 -0.029373901
0003c0 2b 00 c2 bd db 77 a8 bd 4b fc a8 3d d3 77 cf 3d
       -0.09472688 -0.082259856 0.08251246 0.101302765
0003d0 a1 ae d2 3d 99 6f 11 bd 69 17 0a bd 9a ca 5e 3c
       0.10287214 -0.03550682 -0.033713732 0.013598109
0003e0 69 5f bc bc 9d ab c1 bc 55 b2 5b bd 2d 08 eb bc
       -0.022994714 -0.023641402 -0.053636868 -0.028690422
0003f0 26 7e 0c be bf 65 3f bd 25 30 0f bd f9 e9 34 be
       -0.13719997 -0.046727892 -0.034958024 -0.17667378

net.3.bias f4 [40]
000000 10 7f 0c 3d d3 d2 70 bc aa 61 e1 3c 67 a0 9a bc
       0.034300864 -0.014698702 0.02751239 -0.018875314
000010 2e 08 52 bc 83 0c bb 3c b8 1b c2 bc 31 d5 c9 3b
       -0.012819333 0.022833114 -0.023694858 0.0061594476
000020 b7 be c9 bc 46 d2 85 3b 0f d6 a2 3c 05 4c 80 3c
       -0.024627073 0.0040839044 0.019877462 0.015661249
000030 d2 b8 02 bd 93 e6 b0 3b 4c a8 74 3b ef 7b 7e bc
       -0.03191454 0.0053985803 0.0037331758 -0.015532478
000040 98 74 b4 bc 7c 13 2b 3b f2 c7 be bc c6 f0 bd bc
       -0.022028252 0.0026104143 -0.0232887 -0.023186099
000050 8a a1 25 3d 8e 32 16 bd 33 f6 90 bb 8c d0 c1 3c
       0.04043726 -0.036669306 -0.0044238805 0.023659013
000060 4b 7c 32 bc 56 54 21 39 13 52 ab bc 26 8c 40 bd
       -0.010893892 0.00015385574 -0.02091316 -0.047008656
000070 3f c3 4e 3d c3 ee 63 bd 65 68 e2 3b fe b5 9a 3c
       0.05047917 -0.055647623 0.0069094175 0.018885609
000080 dd d1 02 bd 3f 4f 1c 3d 46 31 e8 3b ed e4 82 bb
       -0.031938422 0.038161512 0.007085952 -0.0039945752
000090 01 e9 28 bb 5b 70 d6 bc 31 37 03 3d 35 92 22 bd
       -0.0025773647 -0.026176622 0.032035057 -0.039690215

net.7.weight f4 [150, 360]
000000 18 c0 d4 bd 40 16 4e 3d 23 a9 1a bd 30 b2 b7 bd
       -0.103882015 0.050314188 -0.037758958 -0.089695334
000010 0c f2 68 3c b8 e8 1a bd 09 2e af bc 0f 52 bc 3d
       0.014217865 -0.037819594 -0.021384256 0.09195339
000020 0e b0 8e bc d4 f2 0f 3d ca c1 23 3e a0 14 98 3d
       -0.017417934 0.03514369 0.15991893 0.07425809
000030 09 bd 26 bd 80 8d 41 bb 3f 61 0b 3d 24 3f c4 3d
       -0.04070762 -0.0029533803 0.034028288 0.095823556
000040 6a c6 a9 3d 23 b5 0b 3d 16 73 ac 3c 61 c8 af bd
       0.082897976 0.034108292 0.021050971 -0.08583141
000050 52 51 8f 3d e8 dc ca bc 11 f7 f2 bc 4c 45 d0 bc
       0.069979325 -0.02476354 -0.029658826 -0.025423668
000060 33 e5 92 3d 71 9a 04 3e 1b 76 aa bc 1d a8 b5 bd
       0.071726225 0.1294954 -0.02080827 -0.08869956
000070 68 4b 83 3c ff 2a 8a 3d 3a d3 d8 bd 5e b5 26 be
       0.016027167 0.06746482 -0.10587163 -0.16280124
000080 56 09 cc bc 27 bc ba bd 09 d3 bf bd 65 f4 88 bd
       -0.024906795 -0.091179185 -0.09366424 -0.066872396
000090 80 db 29 bc b8 73 9a 3c d0 b2 fd bb 2a 4f 1f 3d
       -0.010367274 0.018854007 -0.0077422634 0.038893856
0000a0 ca 7d 9f 3d c2 5c 86 3d 64 07 5d 3d 71 5c d1 3b
       0.07787664 0.06560661 0.053962126 0.0063891937
0000b0 f0 60 00 bd 59 30 20 bd 6b 7e d0 bd 53 de 86 bd
       -0.031342447 -0.039108608 -0.10180362 -0.06585374
0000c0 21 48 05 be c5 f2 a7 bc cd 0c bb 3c 49 bf aa bd
       -0.13015796 -0.020501504 0.022833252 -0.08337266
0000d0 53 0f b2 bd 41 e9 ef bd 9a 79 d1 3d 38 eb 5b 3d
       -0.08694329 -0.117144115 0.10228272 0.05369112
0000e0 5a 8b 89 3d 1b 83 be 3d ac 3c b9 3d 78 b6 d6 3c
       0.06716032 0.0930235 0.09044775 0.026210055
0000f0 96 59 2a bc 72 a6 cb bc 3a 86 c6 bc 9b 21 ea bd
       -0.0103973355 -0.02485964 -0.024233926 -0.11432191
000100 f3 d3 cd bd 0a 8b 5f bd 0c 3a c2 3c 66 71 97 bd
       -0.10050192 -0.054575957 0.02370932 -0.07394676
000110 6e ab 02 3e d0 a7 39 bd fa f1 bd 3c 4c 3d 20 3d
       0.12760708 -0.045326054 0.023186672 0.039120957
000120 ce d6 33 3e b7 f8 2e bc f8 72 97 bd 48 6b 16 3d
       0.1756241 -0.010679415 -0.073949754 0.036723405
000130 74 cf 25 3c f5 21 f5 3b 5c ba fe bd 2a ac d6 bd
       0.010120261 0.0074808546 -0.12437889 -0.104820564
000140 c8 4b 7c bd 92 8d 9d 3d df a0 b9 3c c3 e3 62 3d
       -0.061595708 0.07693018 0.022659717 0.05539299
000150 4b 68 16 3c a7 39 3a 3d e2 40 98 3c 09 b1 e1 3c
       0.009180139 0.045465138 0.018585626 0.027550237
000160 e3 ca 06 3d d1 b5 8b 3d 76 47 81 3c 8c a1 92 3c
       0.03290833 0.06821788 0.015781146 0.017899297
000170 7e b2 aa 3c 6c 7e cb bc 0b 40 d5 bd e0 f2 bc bc
       0.020837065 -0.024840556 -0.10412606 -0.02306503
000180 2c d3 ed 3c b5 60 8a bc e6 b3 00 be 08 1a f5 bb
       0.029031359 -0.016891817 -0.12568626 -0.00747991
000190 05 16 02 3d 98 c4 39 bd 25 f0 b5 3c 61 95 7f 3b
       0.03175928 -0.045353502 0.022209236 0.003899895
0001a0 f9 a4 9d 3c aa 97 23 bd 13 e4 62 3b c2 84 44 3d
       0.019243704 -0.03993956 0.0034620806 0.04797817
0001b0 e9 3d 8c bd 45 a5 5b bd 48 d7 98 bb a3 1f 06 bd
       -0.06847746 -0.05362441 -0.0046643354 -0.032745015
0001c0 6d f9 a2 3d 17 56 6a bd f4 ad 68 3d 40 72 44 3d
       0.079577304 -0.057211008 0.05680652 0.04796052
0001d0 3e 4d 4f 3d a1 79 5c bd da d8 e2 bb 81 84 64 3d
       0.050610773 -0.053826932 -0.0069228234 0.055790428
0001e0 af 6a e1 3c a7 2a 83 bd 0a 50 4c 3d ff 0d f8 bc
       0.027516691 -0.0640462 0.04988102 -0.030280111
0001f0 52 89 bd bc b1 bd 7b bd a2 b5 c0 bd 1c 1a 72 bd
       -0.023136768 -0.0614602 -0.09409644 -0.05910693
000200 7d 56 96 bc 53 28 98 3c cf 7f 83 bd 3c 75 ea bb
       -0.018351788 0.018573916 -0.06420862 -0.0071550887
000210 4a 4a 50 3d cf 9b ce 3d ed 90 bf bc 39 19 cd bd
       0.050852098 0.10088312 -0.023384536 -0.100145765
000220 42 a0 e1 3a 26 5e 1e 3d a4 c5 cb 3a af 16 02 3d
       0.0017213898 0.038664006 0.0015546572 0.031759914
000230 28 2d 5e 3d e7 8b 97 3c 0a 02 36 bd 31 b8 1d 3d
       0.054242283 0.018499328 -0.04443554 0.038505737
000240 74 76 86 3b 5e a8 37 3d 9a c9 57 3c e5 34 06 bd
       0.004103476 0.0448383 0.013170624 -0.032765288
000250 cc d4 98 3d de b5 cd 3d 43 11 22 3d 80 dc 56 bc
       0.07462463 0.10044454 0.039567243 -0.013114095
000260 10 93 8a 3c fc 1f 6b 3d b7 66 b6 3d e7 44 9b 3d
       0.016915828 0.05740355 0.0890631 0.075815015
000270 13 19 d6 3a aa 41 11 3d 45 54 90 3d cc f4 83 bd
       0.0016334377 0.035463013 0.07047323 -0.06443176
000280 0a b1 67 bd b9 b2 aa bd f0 c5 6d 3d 28 f7 6e 3d
       -0.056565322 -0.0833487 0.058050096 0.058341175
000290 1e 85 1f 3d 2a a9 63 3b 69 0f 20 3d 76 9f 7f 3c
       0.03894531 0.003473828 0.039077196 0.015601983
0002a0 26 7d 05 bd 8c 8b d1 3c b2 34 40 3d 7d 6c a7 3d
       -0.032590054 0.025579236 0.046925254 0.08174989
0002b0 3b 28 cb bc c1 67 80 3d 04 54 41 3c 2a a3 85 bc
       -0.024799457 0.062697895 0.011799816 -0.016313154
0002c0 4f 75 11 3d f8 91 90 3d 29 f2 9b bd c6 02 6a bd
       0.035512265 0.07059091 -0.07614548 -0.05713155
0002d0 53 1e dd 3c 05 a2 81 bd b1 d6 10 3e 7f b8 f6 3c
       0.026991999 -0.06329731 0.14144398 0.030117271
0002e0 4d 06 f1 3d fd 8b c7 3d f2 0f f8 bb 11 a4 1e 3e
       0.1176878 0.097434975 -0.00757026 0.15492274
0002f0 92 98 a7 3d 62 ad 1a 3d a0 e9 36 3c 17 21 10 3a
       0.08183397 0.037763007 0.011164099 0.0005498095
000300 15 f4 01 3c fd b0 4b 3d 82 75 f7 bc 36 d2 ba 3b
       0.007931729 0.049729336 -0.0302074 0.0057013286
000310 ed ca b5 bb 01 a1 21 3d a4 69 d4 3d 93 b4 71 3d
       -0.0055478723 0.039460186 0.10371712 0.0590101
000320 f4 93 61 3d 68 65 99 bc 1c b6 07 3d 26 d9 9b 3a
       0.05507274 -0.018725112 0.033132657 0.0011890277
000330 b7 16 b6 bb ea b9 26 bc 24 d2 1f bc 61 f0 de 3b
       -0.005556907 -0.010176161 -0.009754691 0.0068035577
000340 91 66 18 3d a0 e0 15 bd a9 01 31 bc 2c 8e ac bc
       0.03720719 -0.036591172 -0.0108036185 -0.021063887
000350 63 b3 b8 3c c4 d4 d5 bc 5a 92 23 3d 00 8d e5 3a
       0.022546476 -0.026102431 0.039934494 0.0017513335
000360 c8 b8 61 bd 79 eb 8f bd de d2 4d 3c 86 3a 5f bd
       -0.05510786 -0.07027335 0.012562482 -0.05449917
000370 f6 97 81 bd 80 51 bf 3c 63 d0 59 bd ab e9 a5 3c
       -0.063278124 0.023354292 -0.05317725 0.020253023
000380 df 31 2a 3d 89 bb 76 3d a1 47 2b 3e 08 73 45 3e
       0.041551467 0.06023744 0.16726543 0.19282162
000390 f9 c9 7b bc 88 08 2a bd aa 1f 14 3c 73 d8 10 be
       -0.015367978 -0.041512042 0.009040752 -0.14145069
0003a0 04 83 79 bd 00 ab c4 bc c8 a0 da bd 6b db f1 bd
       -0.06091596 -0.02400732 -0.10675198 -0.11809429
0003b0 18 b1 9b 3d 2c b2 16 bd 6a 71 62 bc ed cf 17 3e
       0.07602137 -0.03679101 -0.013820985 0.14825411
0003c0 c0 ae e9 3b c7 fc a8 bd c6 d3 c3 bc 08 b8 81 3c
       0.0071314275 -0.082513385 -0.023904692 0.015834823
0003d0 c8 f8 54 bd e5 c3 af bc 87 8c 5b 3c 4d b7 34 3c
       -0.05199507 -0.021455714 0.013400204 0.01103003
0003e0 a4 ba 7a bb b8 14 83 3c 7f 72 1b bd 6f 3f b3 bc
       -0.003825822 0.01600109 -0.03795099 -0.021880833
0003f0 f6 61 fb 3b 46 00 89 bd 6e 65 de 3a 95 c9 91 3c
       0.00767159 -0.06689505 0.0016967484 0.017796317

net.7.bias f4 [150]
000000 60 72 8c 3d d4 d8 21 3a 4b 56 53 3c 0c d3 fa 3c
       0.06857753 0.00061739725 0.012898992 0.030618213
000010 7f 89 21 ba 9f 5a 04 bc 3b 82 64 bd 5b f0 11 3c
       -0.0006162151 -0.008078246 -0.05578826 0.008907403
000020 cf 3c 98 3d 25 2f 9c bc b8 d4 a6 3c fa f5 fd 3a
       0.07433473 -0.019065449 0.020365104 0.0019375675
000030 7f ab 82 3c ed ce ad 3d fa ba 4b 3b 8a c2 19 bd
       0.015950916 0.084867336 0.0031086789 -0.037539043
000040 ee 78 17 3d 75 df 7a 3d 78 23 72 bc ce 6e 35 3c
       0.036980562 0.06124826 -0.014778964 0.011073781
000050 f6 ab 9c 3c c5 b8 fe bb 3c 39 03 3d b7 59 e2 bc
       0.019124966 -0.007773491 0.032037005 -0.02763067
000060 44 8b d9 3c 1d 71 c9 bc 3e ab 12 3c 08 8d 6e 3d
       0.026555665 -0.02459007 0.00895196 0.058239967
000070 b7 48 88 3c 41 75 1e 3d 1f 86 09 3d 6c bf 26 3d
       0.016636236 0.03868604 0.033575173 0.040709898
000080 e3 c6 9e bb 76 cc 94 3d 23 c0 32 3b 53 3d 76 bd
       -0.0048454865 0.0726556 0.0027275167 -0.060117077
000090 d8 0c c3 bc 2b 9d ea bb 41 90 f9 bc 72 d8 0c 3b
       -0.023809835 -0.007159849 -0.030464293 0.0021491316
0000a0 1a 27 33 bd 52 9d 84 bd 97 8b 91 3c a6 f1 17 3b
       -0.043738462 -0.06475319 0.017766757 0.0023184805
0000b0 48 70 23 bc 25 07 f1 bc 62 23 af 3c cb 7e a5 bc
       -0.0099755 -0.029422352 0.021379177 -0.020202061
0000c0 87 8d 5d 3d 28 cf 6a bd 9d c8 9d bd 45 d0 cd 3c
       0.05409005 -0.057326466 -0.077042796 0.025123725
0000d0 a8 48 89 bc 20 47 80 b9 49 37 6f 3d a2 b5 58 3d
       -0.016758278 -0.00024467055 0.058402333 0.052907594
0000e0 4e 35 30 3c 06 e4 4f bc a5 2e 06 bc ea 97 05 bd
       0.010754896 -0.012688642 -0.008189832 -0.03261558
0000f0 a8 4a ae bc f1 ff 59 bc 0e 04 88 3d 3a ff 60 3d
       -0.021275833 -0.01330565 0.06641398 0.054930903
000100 94 d4 87 bd 02 78 2a 3d cd c9 32 bb 38 de 59 3b
       -0.06632343 0.041618355 -0.0027280927 0.0033244025
000110 a9 7a ab 3c 14 a8 3d bd 90 1f 3b 3d 72 f5 9c 3d
       0.020932512 -0.04630287 0.045684397 0.076640025
000120 ba 23 dc 3c b7 0b 37 bc 8c 12 31 bd 24 53 3d bd
       0.026872505 -0.011172227 -0.04323058 -0.046221867
000130 41 5d 33 bc 85 6b bf 3d dd 03 e6 3c ff 3f 35 bc
       -0.010947526 0.093466796 0.028078014 -0.011062621
000140 44 23 21 3d 5a 02 a4 bd 26 9d 24 bc 6b 6b 7e bc
       0.039340273 -0.08008261 -0.010047233 -0.01552854
000150 bd 6c 73 bd 87 4b 61 3d e9 57 6d bd 80 72 20 3d
       -0.059429873 0.05500367 -0.057945166 0.039171696
000160 e6 c6 61 bd 1f 48 87 3d 1d e9 7a bb c3 64 61 3d
       -0.055121325 0.06605553 -0.003828592 0.055027734
000170 d8 16 37 3c 5d 07 9f bc 4d 9c 51 ba de 4c a5 3c
       0.01117488 -0.01941269 -0.0007996008 0.020178255
000180 4a 4c 67 bc 17 69 87 bd 6c 11 a3 bc a0 0f 1d bb
       -0.01411731 -0.06611841 -0.019905768 -0.0023965612
000190 fa c8 14 bc 4c 18 b7 bc b9 ce 94 bc c5 a9 77 bd
       -0.00908112 -0.022350453 -0.01816498 -0.06046464
0001a0 98 b0 09 3d 86 6f e4 3c da ad e4 3c 61 bf aa bd
       0.03361568 0.02788521 0.02791493 -0.08337284
0001b0 cf 9c 47 3d 60 06 2c 3d 66 ea bc 3d 98 0b b4 3d
       0.04873353 0.041998267 0.092243955 0.08791274
0001c0 7e 00 30 3c 72 c7 55 bd fe 0b b6 3d 4e 4b df 3c
       0.010742305 -0.05219216 0.08889006 0.027257588
0001d0 04 1a 1d bd 02 50 9e bd d9 be ce bc e9 4c e3 3c
       -0.03835489 -0.07730104 -0.025237488 0.027746635
0001e0 cc 0d bb bc 93 78 83 3d 97 75 b1 bc ee 6a fa 3c
       -0.022833727 0.06419482 -0.021662517 0.030568566
0001f0 04 bf b2 3c dd 80 35 bc 17 1e 8c 3d 5a a0 13 3d
       0.021819599 -0.011078087 0.06841677 0.036041595
000200 6b ab ec bc f1 97 d8 3a 11 e1 6a 3c bd de 82 3d
       -0.028890332 0.0016524774 0.014335887 0.0639014
000210 41 90 e9 bc 71 2d 88 3d 77 c2 54 bc 06 22 96 3c
       -0.028511168 0.06649292 -0.012985817 0.01832677
000220 16 21 55 3d 79 89 44 bd e1 4f 95 bb 67 c6 f8 bc
       0.052033506 -0.047982667 -0.0045566414 -0.030368043
000230 c1 4f 89 3a 8b 3a f9 bc d3 8a 25 bc 03 cf 17 bc
       0.0010476039 -0.030423423 -0.010103899 -0.009265664
000240 5b 9f 27 3c 70 3d 6a bd 01 72 9d 3c 62 91 ed bb
       0.010230864 -0.057187498 0.0192194 -0.007249997
000250 4f a5 9b 3c b0 fe 99 bc
       0.018999724 -0.018798202

net.9.weight f4 [10, 150]
000000 1d 27 9b 3b c1 f2 87 bd 55 c1 85 bd 69 7e 5c 3d
       0.0047348873 -0.066380985 -0.06531016 0.05383149
000010 98 97 57 3e 99 30 4e be db 03 8f bd 8c a4 c3 3b
       0.21053922 -0.20135726 -0.06983157 0.0059705433
000020 1f ae be bd 90 91 3d bd 54 25 2c bd f3 7c e7 bc
       -0.09310555 -0.046281397 -0.042027786 -0.028257823
000030 b6 87 7b ba bf 40 ff 3d d4 f0 e3 bd ca 15 58 bd
       -0.00095951126 0.12463521 -0.11129919 -0.052755155
000040 32 a0 b6 3c 94 1c 94 bc bc 1c 2e be b5 0d 4e be
       0.022293184 -0.018080033 -0.17003149 -0.20122416
000050 39 20 89 bd db fe a6 bc bf 28 f7 3b bd a9 ee 3b
       -0.06695599 -0.020385196 0.007542699 0.007283418
000060 d1 d9 b9 3d bf 38 e1 3d df 00 0a 3d 23 e7 ac 3d
       0.09074748 0.109971516 0.033692237 0.08442523
000070 7e dd 18 3e de 92 4a be 07 54 f3 3d ca 60 fc 3d
       0.14928243 -0.19782588 0.11881261 0.123231485
000080 05 34 8a 3d b2 cb dc bd 0d c3 67 bd 95 8a 7c 3d
       0.06748203 -0.10781039 -0.0565825 0.0616556
000090 16 87 1d bd 8e ac cf 3d 76 83 de 3d 4e 79 dc b8
       -0.038458906 0.10140334 0.10864918 -0.00010513012
0000a0 38 07 db 3c 2f d3 97 bb eb a7 88 bd 8e c7 4e 3c
       0.02673684 -0.0046333293 -0.06672653 0.01262082
0000b0 34 98 45 3e dc 16 a3 3d f4 c9 01 bd 69 b9 87 3c
       0.19296342 0.079633445 -0.031686738 0.016567903
0000c0 a6 5c dc 3d 45 b8 a4 bc 1a b6 ce 3b 4c 62 5c 3e
       0.10759859 -0.020107398 0.0063083293 0.21521872
0000d0 03 f1 b0 bc 36 be 25 3d d9 dc 85 bd e3 52 66 be
       -0.021599298 0.040464602 -0.06536264 -0.22492556
0000e0 0f a6 10 3c 25 83 cd bc 5a fe e9 3d 10 e9 1c bd
       0.008828654 -0.025086949 0.11425467 -0.038308203
0000f0 b7 9f b0 3d 3c 9a aa 3d 65 49 59 be 39 1e 51 be
       0.08624213 0.08330199 -0.21219404 -0.20421685
000100 c1 f2 88 3c b1 08 65 3c a2 32 2d bd 68 68 1d be
       0.016717317 0.013979123 -0.042284615 -0.15371859
000110 60 cd 16 be f6 72 47 bd 5e c6 88 3d 2c 3b 67 3d
       -0.14726782 -0.04869362 0.066784605 0.056452915
000120 94 66 f0 3a 68 82 64 bd 12 d3 eb bd f3 41 54 bd
       0.0018341118 -0.055788428 -0.11514868 -0.051820707
000130 2c 53 0f 3e a6 d9 b1 be 22 19 19 be 32 24 6a bc
       0.13996571 -0.34736365 -0.14950994 -0.014290856
000140 8a 27 e4 bc fa d7 25 3c c3 89 2c be 1b f0 54 3e
       -0.027850885 0.010122294 -0.16849427 0.20794718
000150 d5 c5 34 3d 4a f1 30 be 72 2a 08 3c dc 4f 03 bd
       0.04413398 -0.17279544 0.008310901 -0.03205858
000160 c6 ad 4d 3d 99 25 47 bc 93 9d 24 3c 82 b7 33 3e
       0.05021455 -0.01215496 0.010047334 0.17550471
000170 70 83 2f 3d 9f 2f 22 3e 41 31 0c bb 8f ac a0 bd
       0.042849958 0.15838479 -0.0021391662 -0.07845413
000180 c6 54 df 3b 23 12 6e bd 2b 5d 14 bd e2 8e 0b bd
       0.0068155257 -0.058122765 -0.036221664 -0.03407181
000190 75 29 5f bc ef 53 49 bd e8 6b 1c bd 7b 63 ad 3d
       -0.013620724 -0.04915231 -0.038188845 0.0846624
0001a0 9b 06 09 3e 78 f0 1a bd 34 0e 11 3d 17 15 a9 bd
       0.13381426 -0.037826985 0.035413936 -0.08255976
0001b0 a4 f2 89 bd 32 22 3b be 3c f0 17 be d6 ba 3e 3e
       -0.06735733 -0.18274763 -0.14837736 0.1862596
0001c0 bb f8 58 bb d0 a1 1e bb 23 80 9a be 9f e3 04 3d
       -0.003310724 -0.0024205334 -0.30175886 0.03244364
0001d0 0d dc 37 3d e0 5d 01 bd b3 f4 6c be 24 58 96 bd
       0.04488759 -0.031583667 -0.2314022 -0.0734103
0001e0 21 94 6d 3c 89 12 46 3d 12 f9 03 bd 5f d5 9c be
       0.014500649 0.04835752 -0.032219954 -0.3063154
0001f0 b0 5b 63 bc 08 8f ca 3d f7 6b 7a be ed a2 78 be
       -0.0138768405 0.09890562 -0.24455248 -0.24280901
000200 e6 88 9a 3d 2c f9 98 bd 48 7d a0 3d 7b 77 58 be
       0.075456426 -0.07469401 0.078363955 -0.21139328
000210 9a d8 95 3d 25 a9 1a be 33 2e 75 bc 6b a2 37 bc
       0.07316704 -0.15103586 -0.014964628 -0.011208157
000220 0a 99 c7 3d 63 5f fd bc 66 52 50 bd 9f 5c 31 3d
       0.09745987 -0.030929273 -0.05085983 0.04330122
000230 ed a1 99 bd 31 3c 0b 3e 3f 37 33 3e 4a fd 41 3d
       -0.07501588 0.1359718 0.17501543 0.047360696
000240 da 7c 34 bd a8 46 53 3d f4 50 11 3e e2 f9 1c 3c
       -0.04406438 0.051581055 0.14191037 0.009581061
000250 f3 5e d5 bd b5 5f 43 be 91 a1 be 3d 3d 38 a6 ba
       -0.10418501 -0.19079478 0.0930816 -0.0012681555
000260 d3 f0 45 bd 50 c0 11 be 84 eb 1c 3e 66 23 09 3e
       -0.04832537 -0.14233518 0.15324217 0.1339241
000270 d5 8a e9 3c a9 f0 91 3d a0 29 17 bc e4 23 b9 3c
       0.028508583 0.071259804 -0.009226233 0.022600122
000280 c0 36 e9 ba df ec 4f 3e d3 c4 b0 3d 43 06 5f bd
       -0.0017792806 0.20305203 0.08631291 -0.05444933
000290 21 b5 39 3e 56 c3 09 bd 3c 3e 06 bd bb 8c 5d be
       0.18135501 -0.033633552 -0.032774195 -0.21635716
0002a0 5e 05 16 3e 01 e9 02 3c a2 f5 6d bd d5 c6 82 bd
       0.14650485 0.007990123 -0.05809558 -0.063855805
0002b0 b2 9b 3f 3c 3a ad de bd 48 3c c0 bc 08 6c eb bd
       0.0116948355 -0.10872884 -0.023466244 -0.11495215
0002c0 93 53 80 bc 56 53 59 3e c1 74 ac bd ef e2 bb 3d
       -0.015664851 0.21223196 -0.084207065 0.091741435
0002d0 cd 14 7f 3e 48 57 b0 bd 91 c3 40 be 97 4c 48 be
       0.24910279 -0.086103976 -0.18824603 -0.19560467
0002e0 f4 eb a6 3c 07 7d 5e bc c6 5b b7 3d 70 93 a6 3d
       0.020376183 -0.0135796135 0.08953051 0.0813359
0002f0 84 5b 5d 3d 81 8b 5a 3e a4 20 41 3d e5 8e fd 3b
       0.054042354 0.21342279 0.04715027 0.0077379816
000300 fd 2d 21 bc d8 b6 7c bd 6f fa 0b 3d 56 99 43 be
       -0.009837625 -0.06169781 0.03417438 -0.19101462
000310 69 c4 0c bd e5 c6 5f bc ed 79 ae bb b3 57 ea 3c
       -0.034367 -0.01365826 -0.0053245933 0.028606271
000320 77 d7 bd bb ef 6e 86 bc 2e 1d 40 bb 85 88 0c 3d
       -0.0057935077 -0.01641032 -0.0029314267 0.034309883
000330 c4 58 a6 bb 39 cf 93 bd 46 8d 1f be 47 43 e2 3d
       -0.0050764997 -0.07217259 -0.15581235 0.110479884
000340 d8 9c a2 3c b3 14 46 bd 04 bc 86 bc ed 6c 71 be
       0.01985018 -0.048359584 -0.016447075 -0.23576708
000350 7a cc ca bd 9f 0d 4e be d2 a3 3b 3d d3 9b 56 bd
       -0.09902282 -0.20122384 0.045810528 -0.0523947
000360 97 e7 f0 3c 3d 0f 39 be 17 1c b9 3d e3 92 08 3d
       0.029407306 -0.18072219 0.09038561 0.033343207
000370 e8 cf 48 be 81 fa 4b be 56 e0 ad 3c d9 09 17 3d
       -0.1961056 -0.19919778 0.021225136 0.036874626
000380 a8 21 c1 be 1f d2 72 bd af 2d bc bd fc 13 23 3d
       -0.3772099 -0.05928242 -0.09188401 0.03981398
000390 81 0d 6c bd 47 93 26 bd 10 ef 15 be 26 85 ce 3c
       -0.057630066 -0.0406678 -0.14641976 0.025209974
0003a0 22 60 ad 3d da c8 17 3e a7 af 96 3d 26 c4 56 3e
       0.084656015 0.14822713 0.07357722 0.20973262
0003b0 1e 43 68 3d 89 95 8b 3d aa c4 76 bd 73 83 a2 3c
       0.056704633 0.06815631 -0.060246147 0.01983807
0003c0 3b 26 f0 bb c4 60 11 bd 3a 81 ae bd ad db 31 be
       -0.007328776 -0.035492674 -0.08520742 -0.17368956
0003d0 4d 09 42 3c a1 be 9f bc 92 f8 01 bd eb 2e fe 3d
       0.011843038 -0.019500079 -0.031731196 0.12411293
0003e0 d8 a5 20 3c 23 82 df 3b 23 5e 87 3d 7f 2d 0a 3d
       0.009805165 0.0068209334 0.06609752 0.033734795
0003f0 cd d9 4a 3d a2 a1 d6 bc 40 96 55 be 22 a5 80 3d
       0.049524117 -0.02620012 -0.20858097 0.062814966

net.9.bias f4 [10]
000000 26 9c 5e bd 54 16 1b bd ba 48 2c 3d 9e 35 81 bd
       -0.054348134 -0.03786309 0.042061545 -0.06309055
000010 16 1e 20 3d c2 65 5a bd 89 e3 d4 bc c0 4b 9f bd
       0.039091192 -0.0533197 -0.025987403 -0.0777812
000020 7a 33 44 bd f8 4d 6d bb
       -0.047900654 -0.0036209803
