result/model_17_3.pth (torch, 307183 bytes, 8 tensors)

net.0.weight f4 [20, 1, 4, 4]
0	0x3ee9c4a7	0.45657846
1	0x3f1b3ebe	0.6064261
2	0x3e664844	0.22488505
3	0x3ee0cbb6	0.4390542
4	0xbce397e9	-0.027782397
5	0xbe85aaa9	-0.26106766
6	0xbef61f5b	-0.48070797
7	0x3e934879	0.2876623
8	0xbcefa8ef	-0.029255359
9	0xbec3250b	-0.381142
10	0x3ed8e2aa	0.4236043
11	0x3ea7418c	0.32667196
12	0x3e4eb35e	0.2018561
13	0x3ec51500	0.38492584
14	0x3ed6175d	0.418147
15	0xbdbba4fd	-0.091623284
16	0x3eda9a7c	0.42695987
17	0x3e85deee	0.26146644
18	0x3d98e8bf	0.07466268
19	0x3e7afc67	0.24510346
20	0xbd81c890	-0.063370824
21	0x3cbdac59	0.02315347
22	0xbd2c767d	-0.042105187
23	0x3e5ea8d4	0.2174409
24	0xbe8db92a	-0.2768033
25	0xbe69522e	-0.22785255
26	0xbe81c6a4	-0.25346863
27	0xbe660d7d	-0.22466083
28	0xbc558538	-0.01303225
29	0xbe8d9119	-0.27649763
30	0x3d916e87	0.071011595
31	0xbe4d2f9f	-0.20037697
32	0x3e863825	0.2621471
33	0xbd0a66d1	-0.03378946
34	0xbec4ca9b	-0.38435826
35	0xbe82257b	-0.2541922
36	0x3e4b241b	0.19837992
37	0x3f4dd6f7	0.80406135
38	0x3ed8aa48	0.42317414
39	0xbec6098d	-0.38679162
40	0xbe82842e	-0.2549147
41	0x3de240cf	0.110475175
42	0x3f228fcf	0.63500684
43	0x3e7074ef	0.23482107
44	0xbe3c7ce7	-0.18407021
45	0xbea94212	-0.3305822
46	0x3e0397e7	0.12850915
47	0x3e0b525c	0.13605636
48	0x3db560ae	0.08856331
49	0xbe700287	-0.23438464
50	0xbeb8c343	-0.36086473
51	0xbdf2edf5	-0.11861793
52	0xbe2a3f73	-0.16625766
53	0x3e963f0f	0.29344985
54	0x3e56c94c	0.20975226
55	0x3e91373f	0.28362462
56	0x3e2a66d8	0.16640794
57	0x3e1669da	0.14688817
58	0x3e871ee3	0.26390752
59	0xbdc05468	-0.09391099
60	0x3b72b757	0.0037035549
61	0xbe708b73	-0.23490696
62	0xbd400a7f	-0.04688501
63	0xbd9e7169	-0.07736475
64	0x3d6d869d	0.057989705
65	0x3c141986	0.009039288
66	0x3e76c709	0.24099363
67	0xbde72a0f	-0.11287319
68	0xbe542ebc	-0.20720953
69	0xbe390ea1	-0.18071987
70	0x3e258edf	0.16167782
71	0x3d8f4cbb	0.06997057
72	0x3e7eda07	0.24887858
73	0xbe67a4db	-0.22621481
74	0xbeb954a1	-0.3619738
75	0xbe95b07f	-0.29236218
76	0xbdf0a6e5	-0.117505826
77	0x3e490579	0.19630994
78	0x3e2a42bd	0.16627021
79	0x3e7aaf39	0.24480905
80	0xbe530971	-0.2060907
81	0xbdc98f6f	-0.09841811
82	0x3e47bdc6	0.19505987
83	0xbe379bcc	-0.17930526
84	0x3d94e092	0.07269396
85	0x3dcf880c	0.10133371
86	0x3e6f7af3	0.23386745
87	0xbe95b528	-0.29239774
88	0xbda440c4	-0.080201656
89	0x3ead9ae6	0.3390724
90	0x3bc36236	0.0059626354
91	0xbe6d826a	-0.2319428
92	0x3e8a5714	0.2701956
93	0x3eb77739	0.35833147
94	0xbe98fec3	-0.29881868
95	0xbe8c801d	-0.27441493
96	0x3e8f3a90	0.27974367
97	0xbcb41501	-0.021982672
98	0xbdb5e449	-0.088814326
99	0xbe81b142	-0.2533055
100	0xbe03e7e2	-0.12881425
101	0xbd70b007	-0.058761623
102	0xbe21a483	-0.15785412
103	0xbe3f23ab	-0.1866595
104	0xbd85b3e1	-0.0652845
105	0xbe916635	-0.2839829
106	0xbe777fb9	-0.24169816
107	0xbc9425e9	-0.018084483
108	0xbe1ad189	-0.15118994
109	0xbdb83686	-0.089947745
110	0x3eb67e75	0.35643354
111	0x3e82f37f	0.25576398
112	0x3e006605	0.12538917
113	0xbe45d0aa	-0.1931788
114	0xbe0ee49e	-0.13954398
115	0xbd5fcc47	-0.054638173
116	0x3d2e0e6d	0.042494226
117	0xbe5ceff3	-0.21575908
118	0xbe0116d6	-0.12606367
119	0xbe21bd56	-0.15794882
120	0xbca1c6dc	-0.019748144
121	0xbe0aa327	-0.135388
122	0xbd83c1a9	-0.06433422
123	0xbe3bebc9	-0.18351664
124	0xbe151bcf	-0.1456139
125	0xbe03c789	-0.12869085
126	0xbd99f454	-0.07517305
127	0xbe2c7e8e	-0.16845152
128	0x3eaf581f	0.3424692
129	0x3dabd94b	0.08391055
130	0x3eacf257	0.3377864
131	0x3e5be9ff	0.21475981
132	0xbe49d681	-0.19710733
133	0x3e3d3579	0.1847743
134	0xbd971fff	-0.0737915
135	0xbd6e3e76	-0.058165036
136	0xbe955b03	-0.29171
137	0xbeae9a0d	-0.34101906
138	0xbd9f3d44	-0.07775357
139	0xbdd77aab	-0.10521444
140	0x3d88dd82	0.06682874
141	0xbe611754	-0.21981555
142	0x3dd17ebb	0.1022925
143	0xbe38932d	-0.18024893
144	0xbdab73a4	-0.08371666
145	0x3d9f7da4	0.07787636
146	0x3e459fa5	0.19299181
147	0x3e9bafdf	0.30407616
148	0x3e852c75	0.2601048
149	0xbe96c1fb	-0.2944487
150	0x3dd26180	0.10272503
151	0xbe184903	-0.14871602
152	0xbe107582	-0.14107326
153	0xbe6afb70	-0.22947478
154	0x3eaae39d	0.3337678
155	0xbe89dc5c	-0.26925933
156	0xbc682e28	-0.014171161
157	0x3d8c151d	0.068399645
158	0x3dba0742	0.090834156
159	0xbe4738a9	-0.19455208
160	0x3ede4600	0.4341278
161	0x3da44820	0.08021569
162	0xbb276066	-0.0025539636
163	0xbe787f7a	-0.24267378
164	0x3ed75c44	0.4206258
165	0xbd57b182	-0.05265952
166	0xbe4edd1b	-0.20201533
167	0x3e29a7f2	0.16567972
168	0x3eb41095	0.351689
169	0xbe2197bf	-0.15780543
170	0xbe79bf86	-0.24389467
171	0xbdf13e7e	-0.117794976
172	0x3e7e89c9	0.24857248
173	0xbd8347c1	-0.0641017
174	0xbe55966b	-0.20858161
175	0xbe265cb6	-0.16246304
176	0xbe929bd0	-0.286345
177	0x3e6f556d	0.23372431
178	0x3e885a78	0.26631522
179	0xbeba6d4a	-0.36411506
180	0x3c90c0b7	0.017670019
181	0x3ebf1883	0.37323388
182	0x3d9d70e3	0.07687547
183	0xbe894e3c	-0.268175
184	0x3e58e3ef	0.211807
185	0x3e950ef4	0.2911297
186	0x3d4c1c5e	0.04983174
187	0xbe5199d8	-0.20468843
188	0xbdb31f57	-0.08746212
189	0x3deea9eb	0.11653503
190	0xbd39878e	-0.04529529
191	0xbe2dfbeb	-0.1699063
192	0x3e683c25	0.22679193
193	0x3e919de4	0.28440773
194	0xbbcb4d18	-0.0062042587
195	0xbd603066	-0.054733656
196	0x3aa1f6ce	0.0012356879
197	0x3d36ece1	0.0446595
198	0x3e165f79	0.14684857
199	0x3e2e748e	0.1703665
200	0xbe975a2b	-0.2956098
201	0xbe0cba8e	-0.1374304
202	0x3e2998f1	0.16562249
203	0x3de48849	0.11158807
204	0xbd7f4467	-0.062321093
205	0xbe5dbdab	-0.21654384
206	0xbe8213d2	-0.25405747
207	0xbe942a56	-0.2893855
208	0xbe4e798b	-0.20163552
209	0xbc436ff3	-0.011928546
210	0x3e74736f	0.2387216
211	0x3e8bb463	0.27286062
212	0xbeba5869	-0.36395577
213	0xbe91d067	-0.2847931
214	0x3c321623	0.010869536
215	0x3eea5f0a	0.45775634
216	0xbde5a47e	-0.11213015
217	0xbe4ed820	-0.20199633
218	0x3e36af54	0.1784032
219	0x3d800350	0.06250632
220	0xbe8cb7a5	-0.2748386
221	0x3dbdd719	0.09269542
222	0xbd454ecb	-0.048170846
223	0x3cd33e27	0.025786472
224	0xbe55528f	-0.20832275
225	0x3e7a2ae4	0.24430424
226	0x3e853b31	0.26021722
227	0x3e0f840d	0.14015217
228	0xbe32df42	-0.17467979
229	0xbe5d18f9	-0.21591558
230	0xbde8fc55	-0.113762535
231	0x3ea478a5	0.32123294
232	0x3e132c58	0.14372385
233	0x3e8bbed0	0.27294016
234	0x3e0ed533	0.13948517
235	0x3d385782	0.04500533
236	0xbc1a443d	-0.009415683
237	0xbe5ea644	-0.21743113
238	0xbe936658	-0.2878902
239	0xbe94d90e	-0.2907185
240	0x3e34dbac	0.17661923
241	0xbdae6e87	-0.08517175
242	0xbc855dfd	-0.016280169
243	0xbda2a47a	-0.07941528
244	0xbc5e4a10	-0.013567463
245	0xbe1d6613	-0.1537097
246	0xbe3f8225	-0.1870199
247	0x3d765c04	0.060146347
248	0xbd4e30b3	-0.050339412
249	0x3dba6782	0.09101774
250	0xbe121dce	-0.14269182
251	0xbe2becdb	-0.16789572
252	0x3d03882e	0.032112293
253	0xbd88b1e4	-0.06674555
254	0xbd77ac05	-0.060466785
255	0xbe58241f	-0.21107529

net.0.bias f4 [20]
0	0x3e680774	0.22659093
1	0xbdd03abd	-0.101674534
2	0x3ef818a1	0.4845629
3	0x3e0cb28f	0.1373999
4	0xbdd1134b	-0.10208758
5	0xbdda20b4	-0.10650769
6	0xbed69e0b	-0.41917452
7	0xbeb32c97	-0.34994957
8	0xbe1955ee	-0.14974186
9	0x3d6233ca	0.05522517
10	0x3e69962c	0.22811192
11	0x3e1c4d57	0.15263878
12	0xbe000264	-0.12500912
13	0xbdd0c371	-0.101935275
14	0x3df5d345	0.12003187
15	0xbebcd683	-0.3688241
16	0x3cc3e6fa	0.02391385
17	0x3dfcf114	0.123506695
18	0xbedc87c7	-0.4307234
19	0x3e01c0d4	0.12671214

net.3.weight f4 [40, 20, 5, 5]
0	0xbd559566	-0.05214443
1	0xbd23569d	-0.039877523
2	0xbe4f93f9	-0.20271291
3	0xbe552ea0	-0.20818567
4	0xbe1b694d	-0.15176888
5	0x3d8b40ad	0.06799445
6	0xbc3931ea	-0.011303404
7	0xbe48ed5f	-0.196218
8	0xbdb27911	-0.08714498
9	0xbbccb11b	-0.0062466986
10	0xbd980266	-0.074223325
11	0xbc9b5477	-0.018961174
12	0x3cc53352	0.024072323
13	0xbd9bc7b7	-0.07606452
14	0xbe0e4c8d	-0.1389639
15	0xbe1173bd	-0.14204307
16	0xbd9412b7	-0.07230132
17	0xbd577986	-0.05260613
18	0xbc8cb0bd	-0.01717412
19	0xbd9de7bc	-0.077102154
20	0xbe317982	-0.17331508
21	0xbcff0b2f	-0.031133262
22	0xbca3dfb7	-0.020004136
23	0x3bca042c	0.006165048
24	0xbd4ec56e	-0.050481252
25	0xbb1bb8c6	-0.0023761257
26	0xbd05661b	-0.03256808
27	0xbe09e803	-0.13467412
28	0xbd935218	-0.071933925
29	0x3c49e62b	0.012322943
30	0xbc90d32c	-0.01767882
31	0xbdc29449	-0.095009394
32	0xbe0207d3	-0.12698297
33	0x3980abce	0.00024542067
34	0x3b7cda72	0.0038582352
35	0xbdddaf75	-0.108244814
36	0xbdfc91b2	-0.12332477
37	0x3cb4f401	0.022089006
38	0x3d8b5a28	0.06804305
39	0x3bcf194a	0.0063201534
40	0x3cb7a0c0	0.022415519
41	0xbd81d73e	-0.06339882
42	0x3c18a56b	0.0093167825
43	0x3d8c3fd1	0.068481095
44	0x3c9a4fd3	0.018836891
45	0x3c7483fe	0.0149240475
46	0xbd85612c	-0.06512675
47	0xbcc16680	-0.023608446
48	0x3d22e4e8	0.039769083
49	0xbc85430f	-0.016267328
50	0x3d6a6a09	0.05723003
51	0x3cc47608	0.023982063
52	0xbdbda7d7	-0.092605285
53	0xbe0312cf	-0.12800144
54	0xbd2b5b5d	-0.041835178
55	0xbe09b3dd	-0.13447519
56	0xbe5356b4	-0.20638543
57	0xbe0262de	-0.12733027
58	0xbd449f82	-0.04800368
59	0xbd04137a	-0.032245137
60	0x3c4a582d	0.012350124
61	0x3d60c875	0.05487867
62	0x3d220223	0.03955282
63	0x3d17060e	0.03687101
64	0xbbbf29db	-0.005833847
65	0x3dc50d84	0.096217185
66	0x3dfc30d2	0.12313999
67	0x3db7cea4	0.089749604
68	0x3b15f64d	0.0022882402
69	0x3d401441	0.046894316
70	0x3da44814	0.0802156
71	0x3d9bc601	0.076061256
72	0x3d81acf5	0.06331817
73	0x3ba07934	0.004897261
74	0x3d56af6a	0.05241338
75	0x3c9bd586	0.019022714
76	0xbc66ee05	-0.014094834
77	0x3d7f8158	0.06237921
78	0x3d843604	0.06455615
79	0x3ce90a2b	0.028447231
80	0xbc9ddcd2	-0.019270334
81	0x3d4174b4	0.047230437
82	0x3daba8e6	0.08381824
83	0x3e074aea	0.13212171
84	0x3e0b32d1	0.13593604
85	0xbca9fe62	-0.020751182
86	0xbd17ac2b	-0.037029427
87	0x3d24f8ab	0.04027621
88	0x3ddc3ff5	0.10754386
89	0x3daa0e1f	0.08303475
90	0xbd9466b8	-0.072461545
91	0x3dc66957	0.09688061
92	0x3df5d283	0.120030425
93	0x3df49ca8	0.11943942
94	0xbc90a802	-0.017658237
95	0x3b1ffafe	0.0024411078
96	0x3d02bd9c	0.031919107
97	0x3d7e1925	0.0620357
98	0x3c0a5619	0.008443379
99	0xbc5a0003	-0.013305667
100	0x3d31fb45	0.04345252
101	0x3e323d2c	0.17406148
102	0x3df8137e	0.12113093
103	0x3d9f1a38	0.07768673
104	0x3db3fa1f	0.08787941
105	0x3bb5143e	0.0055260947
106	0xbd98ec4c	-0.07466945
107	0x3d87c838	0.066299856
108	0x3e0c5571	0.13704468
109	0x3dd4a883	0.103837036
110	0xbddc7b54	-0.107657105
111	0x3cb15722	0.021647993
112	0x3e13b3c7	0.14424048
113	0x3e6f5bf0	0.23374915
114	0x3e0c87f8	0.13723743
115	0x3d84a700	0.06477165
116	0x3de614ba	0.11234422
117	0x3e732eb1	0.2374828
118	0x3e224da4	0.1584993
119	0x3ccb2fd4	0.02480308
120	0x3bd6d8c4	0.006556602
121	0x3de1ca17	0.11024874
122	0x3daa1e95	0.08306614
123	0x3d4595de	0.048238628
124	0xbcf57535	-0.029963115
125	0x3e254e81	0.16143228
126	0x3db9668f	0.090527646
127	0x3d79aaa6	0.06095376
128	0x3db99862	0.09062268
129	0x3dd53564	0.10410574
130	0x3e53c141	0.2067919
131	0x3e1682d5	0.14698346
132	0x3d8d0409	0.06885535
133	0xbcb7ef98	-0.022453114
134	0xbcbe0a85	-0.023198375
135	0x3d2a93c7	0.041644838
136	0x3c678a08	0.01413203
137	0xbdc66775	-0.096877016
138	0xbda01dbd	-0.07818172
139	0x3c07a4e6	0.008279061
140	0xbd5a38ad	-0.053276706
141	0xbdc1951d	-0.09452269
142	0xbd4ad278	-0.049517125
143	0xbcca88bb	-0.024723401
144	0x3cabb14c	0.020958565
145	0x3c00ac2a	0.007853547
146	0x3d02c0eb	0.031922262
147	0x3cd1417d	0.025543923
148	0x3da1d0eb	0.07901176
149	0x3de8c935	0.11366502
150	0x3caea6bb	0.021319738
151	0x3d215bbb	0.03939412
152	0x3d361765	0.044455905
153	0x3d12ce3b	0.035841208
154	0x3d288826	0.041145466
155	0x3bb5abf2	0.005544179
156	0x3cb94f1c	0.02262073
157	0x3d097145	0.033555288
158	0xbb97312d	-0.0046140165
159	0x3b968cab	0.0045944056
160	0xbd295d15	-0.041348536
161	0xbdefa792	-0.117018834
162	0xbd731d18	-0.059353918
163	0x3d0baaed	0.034098554
164	0x3d34c43a	0.04413245
165	0xbd324cfa	-0.04353044
166	0xbe097456	-0.13423285
167	0xbda8f24d	-0.0824934
168	0xbc9a43f5	-0.018831233
169	0x3ab5359f	0.0013825184
170	0xbd256c78	-0.040386647
171	0xbdc38f2f	-0.095487945
172	0xbc8326c5	-0.016009698
173	0xbd16576e	-0.036704473
174	0xbc5c5df9	-0.013450139
175	0xbcfda608	-0.030962959
176	0x3d459c81	0.048244957
177	0xbd2f3df1	-0.04278368
178	0x3d1ac9db	0.03779016
179	0x3cf3ead3	0.029775059
180	0xbbe5ac13	-0.0070090382
181	0xbb38c141	-0.002819136
182	0xbd30f09a	-0.043198206
183	0x3cb58f38	0.022163019
184	0x3d496e23	0.0491773
185	0xbd80a7e5	-0.06282023
186	0xbd633420	-0.055469632
187	0xbd1ae8f2	-0.03781981
188	0x3c5f19ac	0.0136169605
189	0x3ccddca6	0.025129627
190	0xbc400491	-0.011719839
191	0xbdac804d	-0.08422909
192	0xbd390ed9	-0.045180175
193	0x3d14470a	0.03620056
194	0x3d421c06	0.047390006
195	0xbca3694c	-0.01994767
196	0xbdb43b38	-0.088003576
197	0xbd1b8dd9	-0.037977073
198	0xbd194c51	-0.037426297
199	0x3d56af69	0.052413378
200	0xbde10b73	-0.10988512
201	0xbe169562	-0.14705423
202	0xbe5a6f24	-0.2133146
203	0xbdbac7af	-0.09120118
204	0x3ba04a9b	0.004891706
205	0xbe092316	-0.1339229
206	0xbe222616	-0.15834841
207	0xbdd33c3a	-0.10314222
208	0x3d3077fd	0.04308318
209	0x3d4952cf	0.049151238
210	0xbe487b6b	-0.1957833
211	0xbe57fac4	-0.21091753
212	0xbcb196c9	-0.021678345
213	0x3deb3d33	0.11486282
214	0x3e0d3b3c	0.13792127
215	0xbdb3b467	-0.087746434
216	0xbb89bcf8	-0.004203435
217	0x3dbd6b05	0.09248928
218	0x3dfbf034	0.123016745
219	0x3df47b3e	0.11937569
220	0xbc5fed05	-0.01366735
221	0x3d316ccf	0.04331666
222	0x3d0f9fb2	0.035064407
223	0x3bc53fa3	0.006019549
224	0xbd131486	-0.035908245
225	0xbb8f1fe8	-0.004367817
226	0xbd9feeff	-0.07809257
227	0x3d07f185	0.033189315
228	0xbc1b658d	-0.009484661
229	0xbd60521c	-0.054765806
230	0x3d4f18ea	0.05056087
231	0x3da80aaf	0.08205163
232	0x3d49ce1f	0.049268838
233	0x3dd059b1	0.10173357
234	0x3da58749	0.08082444
235	0xbd5616f9	-0.052268002
236	0x3c55787c	0.013029214
237	0x3df93320	0.121679544
238	0x3d941580	0.07230663
239	0x3db3f603	0.087871574
240	0x3c917b51	0.017758997
241	0xbd4ae616	-0.049535833
242	0x3dd1a5fc	0.10236737
243	0x3e051884	0.12997633
244	0x3cf39994	0.029736318
245	0x3ce9408d	0.028473163
246	0x3ce137ac	0.027492367
247	0x3d2c5a89	0.04207853
248	0x3d3bc8d0	0.045845807
249	0x3b9110eb	0.0044270656
250	0x3d8a82e0	0.06763244
251	0x3d95fdd3	0.07323804
252	0x3bd72eda	0.0065668644
253	0x3d2bfbf0	0.041988313
254	0xbd0ec155	-0.034852345
255	0x3cba051b	0.022707513

net.3.bias f4 [40]
0	0x3d33e833	0.043922614
1	0x3c09b179	0.008404129
2	0x3c29f52d	0.010373396
3	0xbc2a960a	-0.010411749
4	0xbd1059e5	-0.03524198
5	0x3ce993c4	0.028512843
6	0xbd3684b7	-0.04456016
7	0x3c8326b6	0.01600967
8	0xbc3ad604	-0.011403564
9	0xbc2590c1	-0.010105313
10	0x3cba8f67	0.022773458
11	0x3d93af9b	0.072112285
12	0xbd354685	-0.044256706
13	0x3b8888ed	0.0041667135
14	0xbb3803ed	-0.0028078512
15	0xbcc7973b	-0.024364104
16	0xbcd3a8b0	-0.025837272
17	0x3bdf307c	0.0068111997
18	0xbd10a06a	-0.035309233
19	0xbc150042	-0.0090943
20	0x3cdb440d	0.026765848
21	0xbcbad06f	-0.022804467
22	0x3a498c78	0.0007688473
23	0x3d2afe39	0.041746352
24	0xbb89dcf0	-0.004207246
25	0xbc9dd61b	-0.019267133
26	0xbcf29af8	-0.02961491
27	0xbd40c863	-0.047066104
28	0x3d4fe15c	0.05075203
29	0x3abd195f	0.0014427117
30	0x3bf0899a	0.007340622
31	0x3cbfb456	0.02340142
32	0xbc72b596	-0.014813801
33	0x3cdf7d33	0.02728138
34	0x3d962335	0.07330934
35	0x3b83377a	0.004004416
36	0x3c1b09d1	0.00946279
37	0xbd4d4484	-0.05011417
38	0x3ce208df	0.02759212
39	0xbcc2d710	-0.02378419

net.7.weight f4 [150, 360]
0	0xbd06afd1	-0.032882515
1	0xba8dc965	-0.0010817467
2	0xbcece2d6	-0.028916758
3	0xbc596478	-0.0132685825
4	0x3c72e80a	0.01482583
5	0xbd208879	-0.03919265
6	0x3dd88728	0.10572654
7	0x3d9d2a38	0.07674068
8	0xbab944f7	-0.0014134933
9	0x3d9824f0	0.0742892
10	0x3da401ca	0.08008154
11	0x3cd08dd4	0.025458254
12	0x3d2cc0c7	0.042176034
13	0x3c54d2e5	0.012989734
14	0x3d56a647	0.05240467
15	0x3dbfe5bb	0.093699895
16	0x3d7407ba	0.05957768
17	0x3d9a8070	0.07544029
18	0x3d2cef24	0.04222025
19	0xbcfd1b21	-0.030896725
20	0xbcc36c46	-0.02385534
21	0xbd45e38d	-0.048312712
22	0xbd917654	-0.071026474
23	0xbcdfed02	-0.027334694
24	0x3c3c5c64	0.011496637
25	0x3da2a5a5	0.079417504
26	0xbc9c2cfb	-0.019064417
27	0x3bece483	0.007229389
28	0x3dd95d68	0.10613519
29	0x3d2fae79	0.042891
30	0xbd39595c	-0.045251235
31	0xbdbd5d78	-0.092463434
32	0x3daf5647	0.08561378
33	0xbd802b14	-0.062582165
34	0xbd2aa729	-0.041663323
35	0xbce913e8	-0.028451875
36	0x3c7a2f5b	0.0152700795
37	0xbb7f5954	-0.0038963156
38	0xbc0e3672	-0.008679973
39	0x3d226871	0.039650384
40	0x3bb8bd2e	0.0056377864
41	0x3d4821ce	0.048860364
42	0x3d88c2f6	0.06677811
43	0xbc8f2a70	-0.01747629
44	0x3aa2fa99	0.0012434303
45	0x3d15aa78	0.036539525
46	0xbd788e42	-0.060682543
47	0xbdb5ee2b	-0.088833176
48	0x3c51100f	0.012760176
49	0x3d995f1a	0.07488842
50	0x3dd06402	0.10175325
51	0xbd40a858	-0.047035545
52	0xbd1b670c	-0.03794007
53	0x3cca42c3	0.024690038
54	0x3c85617a	0.016281832
55	0x3c02e688	0.007989533
56	0x3cbf1d7e	0.023329493
57	0x3c62a9be	0.013834415
58	0xbc18baf5	-0.009321918
59	0x3cad1847	0.02112974
60	0x3d05db6d	0.032679964
61	0xba85a176	-0.0010195214
62	0x3c572754	0.013131935
63	0xbde92776	-0.1138448
64	0xbdb3adf1	-0.08773411
65	0xbd6e067e	-0.05811166
66	0x3ccfb1eb	0.025353393
67	0x3a9fe6be	0.0012199504
68	0x3d926bdd	0.071494795
69	0x3d28b977	0.041192498
70	0x3d5bd4f2	0.053669877
71	0xbd8ff4d4	-0.07029119
72	0xbcedc3a6	-0.029023957
73	0xbd93ee2d	-0.07223163
74	0xbd2a04a0	-0.041508317
75	0xbc841e6b	-0.016127786
76	0xbcf43ce4	-0.029814191
77	0x3c854150	0.016266495
78	0xbd7edf3e	-0.06222462
79	0xbddb9c71	-0.10723198
80	0xbd95cb6a	-0.07314189
81	0x3db3210e	0.08746539
82	0x3c12b706	0.008954769
83	0x3ce1be80	0.027556658
84	0x3cfab6c5	0.03060473
85	0x3dab4827	0.08363371
86	0xbcb5108a	-0.022102613
87	0x3d5d8a9b	0.054087263
88	0x3d793bb1	0.06084794
89	0x3d8b2e0f	0.06795894
90	0x3d00c560	0.03143823
91	0xbcaba834	-0.020954229
92	0x3cd2ae64	0.025717922
93	0x3c8a2ed1	0.016868027
94	0xbde4f1fd	-0.11178968
95	0xbdd6a556	-0.10480754
96	0xbb3f5995	-0.0029197682
97	0xbd9f5510	-0.07779896
98	0xbda6295e	-0.08113359
99	0xbd9350fe	-0.071931824
100	0x3dfdbdd5	0.12389723
101	0x3da6510a	0.08120926
102	0x3d0e3c3f	0.034725424
103	0x3c52b947	0.012861556
104	0x3d2f2eeb	0.042769354
105	0xbd80a5aa	-0.06281598
106	0xbd270e4b	-0.040785115
107	0x3cbe7390	0.023248464
108	0xbd131d46	-0.03591659
109	0xbc7f9eae	-0.015601797
110	0x3d5bcb88	0.0536609
111	0x3c691a40	0.01422745
112	0x3d7e7bd3	0.062129807
113	0xbcfdc277	-0.030976517
114	0x3d569862	0.052391417
115	0x3a8807f2	0.0010378344
116	0x3d2445c7	0.040105607
117	0x3d8fba78	0.07017988
118	0xb889626e	-6.551003e-05
119	0x3d383777	0.04497477
120	0x3daa7321	0.0832274
121	0xbaf6ffd3	-0.0018844552
122	0x3d439412	0.047748633
123	0xbc9786ad	-0.018496836
124	0xbbfb0c39	-0.007661369
125	0xbe11ca0a	-0.14237228
126	0xbc6cb9de	-0.014448611
127	0xbd93b095	-0.07211415
128	0x3d1f0c0a	0.03882984
129	0x3d234300	0.039858818
130	0xbca937ba	-0.020656455
131	0x3dc46959	0.09590406
132	0x3d593f89	0.053039107
133	0x3e07714a	0.1322681
134	0x3d32c1a7	0.043641713
135	0x39cf71fd	0.00039567045
136	0x3da8269e	0.08210491
137	0x3ded6adb	0.11592647
138	0x3d9893fa	0.07450099
139	0xbb5d7ba7	-0.0033795626
140	0x3d688a25	0.05677237
141	0x3d0ddee4	0.034636393
142	0xbdbf19a3	-0.09331062
143	0x3cda4695	0.026644984
144	0x3d1508b1	0.036385242
145	0x3c040c92	0.008059638
146	0xbd5088e4	-0.0509118
147	0x3c330a84	0.0109278
148	0x3d3b77e3	0.04576863
149	0x3d03861a	0.03211031
150	0xbc97e8f7	-0.018543703
151	0xbd41ddb2	-0.047330566
152	0xbca79589	-0.020457046
153	0x3d114471	0.03546566
154	0x3d529f8f	0.0514217
155	0x3d557888	0.0521169
156	0xbc21b3a1	-0.009869487
157	0xbd295bab	-0.041347187
158	0x3bb22830	0.0054369196
159	0x3ccbd10d	0.024879957
160	0x3d0c6af7	0.034281697
161	0x3d31fae5	0.043452162
162	0x3cc15c58	0.023603603
163	0x3bbe7ad7	0.0058129835
164	0x3cdaff0b	0.026732942
165	0xbd8fd348	-0.070227206
166	0x3ca13e92	0.019683156
167	0xbd03aa63	-0.032144915
168	0x3c691f63	0.014228675
169	0x3d0cf22b	0.034410637
170	0x3d10ab7a	0.035319783
171	0x3bbc690f	0.0057498286
172	0x3cbb49f3	0.02286241
173	0xbcf86813	-0.030323064
174	0x3d103f59	0.035216663
175	0xbcc5b4fe	-0.024134155
176	0xbd3270dd	-0.043564666
177	0x3d445f61	0.047942523
178	0xbdaf07e9	-0.085464306
179	0xbc578e8a	-0.013156543
180	0x3d5dd8ca	0.054161824
181	0x3c2cbd3e	0.010543166
182	0x3db604b4	0.08887616
183	0x3d9a2903	0.075273536
184	0x3e358f1e	0.17730376
185	0x3d8a8be6	0.06764965
186	0x3d1e41a7	0.03863683
187	0x3de6c845	0.11268667
188	0x3db223d1	0.08698238
189	0xbcfbde90	-0.030745775
190	0xbd811a71	-0.063038714
191	0xbdf3800b	-0.11889657
192	0x3d59df5f	0.05319154
193	0x3d1cfeb5	0.038328845
194	0xbe019044	-0.12652689
195	0x3cf1ce0c	0.029517196
196	0x3cd4e7a1	0.025989356
197	0x3df61e3c	0.120174855
198	0x3d83b964	0.06431845
199	0x3cf4e32d	0.029893482
200	0x3d8e99f5	0.06962959
201	0xbcf69abb	-0.030103078
202	0x3d3ad7d9	0.045616005
203	0xbd046b3b	-0.032328825
204	0xbdb987e1	-0.0905912
205	0x3da43f51	0.08019889
206	0x3b9618a8	0.004580576
207	0x3d62f85b	0.05541263
208	0xbab45b29	-0.0013760078
209	0xbe1e4285	-0.15455063
210	0x3d709910	0.05873972
211	0x3d052691	0.032507483
212	0x3c966544	0.018358834
213	0x3d16e16c	0.036836073
214	0x3d741144	0.05958678
215	0x3cd2467c	0.025668375
216	0xbcb05280	-0.021523714
217	0xbd14f346	-0.036364816
218	0xbd3e0cd9	-0.04639897
219	0x3c5566f4	0.013025034
220	0x3c841125	0.016121456
221	0xbb86b79b	-0.004111243
222	0xbcab202d	-0.020889366
223	0x3c1a8456	0.009430965
224	0xbc42da1a	-0.01189282
225	0x3c0cd545	0.008595769
226	0xbc28fd14	-0.010314245
227	0x3dcbc6a7	0.09949999
228	0x3d139cc7	0.036038186
229	0x3ce6dc37	0.028181178
230	0x3bbe8512	0.005814203
231	0x3e05cdf2	0.13066843
232	0xbb66504e	-0.003514308
233	0xbcad07b2	-0.021121833
234	0xbd4c1e4a	-0.049833573
235	0xbda7bbf7	-0.08190148
236	0x3d7a5d2a	0.061124004
237	0x3c6ec8fc	0.014574286
238	0x3d2c4517	0.042058077
239	0x3e40e160	0.18835974
240	0xbc10089b	-0.008791114
241	0xbdae0676	-0.08497326
242	0x3d0e17ad	0.034690548
243	0x3c003265	0.007824515
244	0xbd5a47c5	-0.0532911
245	0xbcb18e43	-0.021674281
246	0x3c6bff16	0.014404079
247	0x3c2cb9fc	0.010542389
248	0xba376c93	-0.0006997075
249	0x3c6c0afa	0.014406914
250	0xbd19ef92	-0.037581988
251	0xbcd11a92	-0.025525365
252	0x3d5f0cee	0.05445569
253	0xbc803fff	-0.015655516
254	0x3c202ddd	0.00977656
255	0x3ce6c9e5	0.028172443

net.7.bias f4 [150]
0	0x3d955ed4	0.07293478
1	0xbc759820	-0.014989883
2	0xbc9a5083	-0.01883722
3	0x3cfe2c7a	0.031027067
4	0xbb736359	-0.0037138073
5	0xbc526254	-0.012840826
6	0xbd6a6292	-0.05722291
7	0x3c30f385	0.010800247
8	0x3d051eb9	0.032500003
9	0xbc2cd625	-0.010549103
10	0x3cab2cab	0.020895323
11	0xbc77bb0a	-0.015120277
12	0x3b9cd456	0.0047860546
13	0x3d4e359f	0.050344106
14	0xbbf2f3d9	-0.007414323
15	0xbd228418	-0.039676756
16	0x3dae1538	0.08500141
17	0x3d64afc1	0.055831674
18	0xbc0dcdf0	-0.008655056
19	0xbbe40b38	-0.006959345
20	0x3d734df1	0.059400503
21	0xbc48b284	-0.012249593
22	0x3cdc4343	0.026887542
23	0xbd57754f	-0.05260211
24	0x3ce76c31	0.028249832
25	0xbced4d1f	-0.028967438
26	0x3d2e5e1a	0.04257021
27	0x3d34a1d2	0.044099636
28	0x3d337599	0.04381332
29	0x3c6d1c06	0.014472013
30	0x3c2a1a1c	0.0103822015
31	0x3d5c0ead	0.053724933
32	0x3bc2daaa	0.005946477
33	0x3d6e7c2a	0.05822388
34	0x3c4c6c02	0.012476923
35	0xbd768bf4	-0.060192063
36	0x3ce8f7f7	0.028438551
37	0x3c9c13ac	0.019052349
38	0x3b329510	0.0027249493
39	0x3be1019d	0.0068666474
40	0x3cf44ba7	0.02982123
41	0xbd3f4008	-0.046691924
42	0x3d58d1d9	0.0529345
43	0x3a66e555	0.0008807977
44	0xbc0bc8a0	-0.008531719
45	0xbd2a6a86	-0.041605495
46	0x3d48fe3b	0.049070578
47	0xbd0abbf5	-0.033870656
48	0x3d0dc481	0.03461123
49	0xbd68535d	-0.056720126
50	0xbd5d0a53	-0.053964924
51	0x3cbc9e26	0.02302463
52	0x3c02fa22	0.007994207
53	0xba96f0bd	-0.0011515837
54	0x3d905504	0.070474654
55	0x3d5cb3b9	0.053882334
56	0xbcbf2adb	-0.023335865
57	0xbcfe5326	-0.031045508
58	0xbc2e3a72	-0.010634052
59	0xbd0fceac	-0.035109207
60	0x3d19cbd1	0.03754789
61	0xbc3db2fc	-0.011578318
62	0x3d806443	0.062691234
63	0x3d1f0a5d	0.038828243
64	0xbd9459c4	-0.07243684
65	0x3d29c33d	0.04144596
66	0xbb32ca0a	-0.002728107
67	0xbcb84df5	-0.02249811
68	0x3d02dc39	0.031948302
69	0xbd7a4de6	-0.061109446
70	0x3d54e335	0.051974494
71	0x3d6ed6a3	0.058310162
72	0x3cf35745	0.0297047
73	0xbc288685	-0.010285978
74	0xbd8cd868	-0.06877214
75	0xbd023642	-0.031790026
76	0xbc640154	-0.013916332
77	0x3d08a288	0.033358127
78	0x3d1fcf59	0.0390161
79	0xbd25b1f3	-0.04045291
80	0x3cd9a7ca	0.026569266
81	0xbd713afc	-0.058894143
82	0xbcc39312	-0.02387384
83	0xbd12aaa3	-0.035807263
84	0xbd80d7f2	-0.06291188
85	0x3cdc8870	0.026920527
86	0x3c09406c	0.008377176
87	0x3d2b3dbb	0.041806918
88	0xbd3b8156	-0.04577764
89	0x3d31c417	0.043399896
90	0x3d1a4ab0	0.037668884
91	0x3d722471	0.059116784
92	0x3d502495	0.050816137
93	0xbbafe55a	-0.005367917
94	0xbc4d6bc0	-0.012537897
95	0x3c1ce2f0	0.0095755905
96	0xbc687588	-0.014188178
97	0xbd4b881c	-0.04969035
98	0xbc8fa0cf	-0.017532734
99	0xbb1d0a29	-0.0023962355
100	0xbce7ebc5	-0.028310666
101	0xbcb27eb8	-0.02178894
102	0xbc481f3f	-0.012214481
103	0xbd6699b5	-0.05629893
104	0x3d85bebe	0.06530522
105	0xbb7cb441	-0.0038559588
106	0x3cd33742	0.025783185
107	0xbd632457	-0.05545458
108	0x3d391fb2	0.045196243
109	0x3d2507ca	0.04029063
110	0x3db3d91c	0.08781645
111	0x3d6dde16	0.058073126
112	0x3d355521	0.04427064
113	0xbd5938be	-0.05303263
114	0x3d8b2c2f	0.06795537
115	0x3d922e3f	0.07137727
116	0xbd06ecdf	-0.03294074
117	0xbd4c7983	-0.04992057
118	0xbd041cac	-0.032253906
119	0x3d28aef1	0.041182462
120	0x3c0769bd	0.008264956
121	0x3d980f93	0.074248455
122	0xbc5dfe32	-0.013549374
123	0x3d0128b0	0.031532943
124	0x3c91c895	0.01779584
125	0xbc717091	-0.014736311
126	0x3d5c2d0d	0.0537539
127	0xb955c231	-0.00020385605
128	0xbcedc649	-0.029025214
129	0x3b1eee62	0.0024250974
130	0x3c7cd1b5	0.015430857
131	0x3d195815	0.037437517
132	0xbb219461	-0.002465509
133	0x3db53616	0.08848207
134	0xbce27178	-0.027641997
135	0x3d4d2954	0.05008824
136	0x3da480db	0.0803239
137	0xbc37c8cd	-0.011217308
138	0x3b388d21	0.0028160291
139	0xbd02ca20	-0.031931043
140	0x3c2ad6a6	0.010427153
141	0xbc3a8229	-0.011383572
142	0xbc95e912	-0.018299613
143	0xbc4e84b5	-0.012604882
144	0x3c9436c0	0.018092513
145	0xbcbdcffd	-0.023170466
146	0xbc163780	-0.009168506
147	0xbadc8c9c	-0.0016826573
148	0xbcb4047a	-0.02197479
149	0xbd4fb961	-0.0507139

net.9.weight f4 [10, 150]
0	0xbd43e125	-0.047822136
1	0xbd012e84	-0.0315385
2	0xbcd224fc	-0.025652401
3	0x3cb75bf4	0.022382714
4	0x3e28a90f	0.1647074
5	0xbe3120a4	-0.17297608
6	0xbd70330c	-0.058642432
7	0x3bafdc4e	0.0053668385
8	0xbd74b47a	-0.05974243
9	0xbd5f1a50	-0.054468453
10	0xbd28b85a	-0.041191436
11	0xbd162c46	-0.036663316
12	0x3d70b135	0.058762748
13	0x3dfbc63d	0.1229367
14	0xbe2a654a	-0.16640201
15	0xbd8222e9	-0.06354315
16	0xbd97baae	-0.07408653
17	0xbd459092	-0.048233576
18	0xbe580ad5	-0.21097882
19	0xbe1109db	-0.14163916
20	0xbe306b23	-0.1722837
21	0xbc50c68a	-0.012742648
22	0x3d3becfd	0.045880307
23	0xbcde0aad	-0.0271047
24	0x3d93181f	0.07182335
25	0x3dbd8311	0.092535146
26	0x3db5aa0b	0.08870324
27	0x3dd3f1a0	0.10348821
28	0x3de2ef25	0.110807694
29	0xbd339663	-0.04384459
30	0x3de2c6b6	0.11073057
31	0x3dbef2b1	0.093236335
32	0x3cfaa3b5	0.03059564
33	0xbe5f8ff7	-0.21832262
34	0xbd6e5ca0	-0.058193803
35	0x3d7c51cd	0.06160145
36	0xbe0c45aa	-0.1369845
37	0x3e6ee242	0.23328498
38	0x3dad5f74	0.08465472
39	0x3c09f936	0.008421233
40	0x3d02be56	0.0319198
41	0xba49fb0a	-0.0007704949
42	0xbe436956	-0.19083151
43	0x3c5f626f	0.013634308
44	0x3d20c6c7	0.03925207
45	0x3d8beafb	0.06831928
46	0xbc7f73d6	-0.015591582
47	0x3c0b1baf	0.008490487
48	0x3db65702	0.08903314
49	0xbd438d39	-0.047742102
50	0x3b76476f	0.0037579199
51	0x3e225924	0.15854317
52	0xbd4403df	-0.047855254
53	0x3d30fc6a	0.04320947
54	0xbcc3ad72	-0.023886416
55	0xbe427ad7	-0.18992172
56	0xbb2c378c	-0.0026278226
57	0xbcae9bf3	-0.021314597
58	0x3d99e214	0.07513824
59	0xbd538f53	-0.051650357
60	0x3e06a5da	0.13149205
61	0x3dbaca25	0.09120587
62	0xbe3b9f74	-0.18322545
63	0xbddae282	-0.10687734
64	0xbc18cfc9	-0.009326884
65	0x3c678e9c	0.014133122
66	0xbd2d327a	-0.042284466
67	0xbe38be7b	-0.18041413
68	0xbe27ee1a	-0.16399422
69	0xbcd65cd3	-0.026167309
70	0x3d4d6482	0.05014468
71	0x3d85e0fe	0.065370545
72	0x3b4a5f4c	0.0030879555
73	0xbd634c11	-0.055492464
74	0x3d3e13d7	0.04640564
75	0xbe4b0407	-0.19825755
76	0x3db5cb2c	0.088766426
77	0xbd9670cb	-0.07345732
78	0xbe26fb23	-0.16306739
79	0xbd37499a	-0.044747926
80	0xbccc4397	-0.024934573
81	0xbca7c415	-0.020479241
82	0xbdbbb89f	-0.09166073
83	0x3defff3f	0.11718606
84	0x3d3c740e	0.046009116
85	0xbe2d6afd	-0.16935344
86	0x3d526eb1	0.051375095
87	0xbd002601	-0.031286243
88	0x3e0cb382	0.13740352
89	0x3c4c4087	0.012466556
90	0x3d5dde0c	0.05416684
91	0x3dc56d9a	0.096400455
92	0x3d9b2140	0.07574701
93	0x3e04fca1	0.12986995
94	0x3d4ee9ab	0.050515812
95	0xbd0d8fef	-0.034561094
96	0x3be1c70e	0.0068901842
97	0xbd61c2b1	-0.055117313
98	0xbd161994	-0.036645487
99	0xbcb50310	-0.022096187
100	0xbbaaaad7	-0.005208354
101	0xbd36983c	-0.044578776
102	0xbd1bf363	-0.03807391
103	0x3d66bb3a	0.056330897
104	0x3dfff4ab	0.124978386
105	0x3c349e78	0.01102411
106	0xbafedc42	-0.0019444304
107	0xbdbbaedb	-0.091642104
108	0xbcafef02	-0.021476272
109	0xbe3be45c	-0.18348831
110	0xbe09c658	-0.13454568
111	0x3e07ac27	0.13249265
112	0x3b8b231a	0.004246128
113	0xbc74ff3c	-0.014953431
114	0xbe3bd681	-0.18343545
115	0x3d3e87e9	0.046516333
116	0x3d3e99da	0.046533443
117	0xbd2b4d3f	-0.041821714
118	0xbe206c3f	-0.15666293
119	0xbde46a08	-0.11153036
120	0x3c64ad4c	0.013957333
121	0x3dc5a951	0.09651435
122	0xbcc9b2b2	-0.024621341
123	0xbe91896c	-0.28425157
124	0xbcc0bc39	-0.023527252
125	0x3d87ced3	0.066312455
126	0xbd4cf675	-0.050039727
127	0xbe06ae81	-0.13152505
128	0x3d9afb5e	0.07567476
129	0xbd984945	-0.0743585
130	0x3d4d20ee	0.050080232
131	0xbe1f2775	-0.15542395
132	0x3e40b3f7	0.18818651
133	0xbe0094bd	-0.12556739
134	0xbd113751	-0.035453144
135	0x3cad2402	0.021135334
136	0x3dae9857	0.0852515
137	0xbd7443f2	-0.05963511
138	0xbd5fed19	-0.054669473
139	0x3d1ebdf5	0.038755376
140	0xbdabf4de	-0.08396314
141	0x3e12a3d9	0.14320315
142	0x3d8ccb93	0.06874766
143	0x3d00b941	0.031426672
144	0xbc3ce847	-0.011529989
145	0x3dfee462	0.12445904
146	0x3d2adb56	0.04171308
147	0x3d2b73b6	0.041858397
148	0x3b94d0b6	0.004541482
149	0xbd3b8503	-0.045781147
150	0x3d6d75a2	0.05797351
151	0xbd1f3749	-0.038871083
152	0xbce5e03e	-0.028061029
153	0xbda77afd	-0.08177755
154	0x3e17dcf5	0.14830382
155	0x3d9ec803	0.07752993
156	0x3d17359f	0.03691637
157	0x3d911d85	0.070857085
158	0xbd25bb19	-0.040461633
159	0x3d1865e9	0.037206564
160	0xbb659a87	-0.0035034732
161	0x3e193bb8	0.14964187
162	0x3d823edd	0.063596465
163	0xbe110e44	-0.14165598
164	0x3dbdf758	0.09275693
165	0xbcf88e52	-0.030341301
166	0xbe588b21	-0.21146823
167	0xbe4bc5be	-0.19899651
168	0x3e08c31e	0.13355681
169	0x3cfb574a	0.030681271
170	0xbdcd1fca	-0.10015829
171	0xbd9a2ab5	-0.07527677
172	0xbbca7a93	-0.0061791628
173	0xbd851024	-0.06497219
174	0x3d4861d7	0.048921432
175	0xbd9f8f41	-0.077909954
176	0xbd262a0f	-0.040567454
177	0x3e14bd20	0.1452527
178	0xbdcfa268	-0.101383984
179	0x3d48c887	0.049019363
180	0x3e4811f8	0.19538105
181	0xbd8c893e	-0.06862114
182	0xbe29716f	-0.16547178
183	0xbecb14f8	-0.39664435
184	0x3d506f92	0.05088765
185	0xbb9c0bac	-0.0047621336
186	0x3dc4ea58	0.0961501
187	0x3dab38da	0.08360453
188	0x3cf69d9d	0.030104453
189	0x3e16501d	0.14678998
190	0x3db39118	0.08767909
191	0x3cb0d967	0.02158804
192	0xbd76b757	-0.06023344
193	0xbd8456be	-0.06461857
194	0x3d8cfee8	0.06884557
195	0xbd60c457	-0.054874744
196	0xbda60df0	-0.08108127
197	0xbd6dc058	-0.05804476
198	0xbce5d33e	-0.02805483
199	0x3ce2b48f	0.027673988
200	0xbca8dfae	-0.020614471
201	0xbcf5f176	-0.030022364
202	0x3d544480	0.05182314
203	0x3cea4b94	0.028600492
204	0xbb376875	-0.0027985845
205	0xbd8a7692	-0.06760897
206	0xbd6be89e	-0.057594888
207	0x3d89efeb	0.06735214
208	0x3a81d5ef	0.0009905676
209	0xbd598402	-0.053104408
210	0xbdb06cb7	-0.08614486
211	0xbe430b9b	-0.19047396
212	0xbdf860bc	-0.121278256
213	0xbe105269	-0.14093937
214	0x3da27612	0.079326764
215	0xbd56bed1	-0.05242807
216	0x3cf0e77a	0.029407252
217	0xbe1dd3e2	-0.15412858
218	0x3db361a2	0.08758856
219	0x3d2426b2	0.040075965
220	0xbe0dc7ce	-0.1384575
221	0xbe72d6ad	-0.23714705
222	0x3cbdbac9	0.023160355
223	0x3cdd66bb	0.027026525
224	0xbd2fb904	-0.042901054
225	0xbe41bff8	-0.18920887
226	0xbd94672a	-0.072462395
227	0x3c209f52	0.00980361
228	0xbd02331a	-0.031787015
229	0xbd3f075c	-0.046637878
230	0xbda48e7a	-0.08034988
231	0x3cce1e18	0.025160834
232	0x3d8f6751	0.07002128
233	0x3e0fae87	0.1403142
234	0x3d97f79f	0.07420277
235	0x3e124830	0.1428535
236	0x3da19208	0.078891814
237	0x3d8c3b39	0.06847233
238	0xbeb59fba	-0.35473424
239	0x3cb66588	0.02226521
240	0xbd971c8d	-0.073784925
241	0x3b846277	0.0040400582
242	0xbe120403	-0.14259343
243	0xbe2bba85	-0.1677037
244	0xbcdbfece	-0.026854899
245	0xbd6269da	-0.05527673
246	0xbd00de8f	-0.03146225
247	0x3d6cf946	0.057854913
248	0x3c148f84	0.00906742
249	0x3c9a0b38	0.018804178
250	0x3d469c61	0.04848898
251	0x3cfe0d26	0.031012129
252	0x3d93cb71	0.07216538
253	0xbc610b33	-0.01373558
254	0xbe20566f	-0.15657972
255	0x3e0778f7	0.13229738

net.9.bias f4 [10]
0	0xbd09b560	-0.03362024
1	0xbd3df5ad	-0.046376873
2	0x3d1d6f53	0.038436245
3	0xbd95a9f5	-0.07307807
4	0x3d15dbf2	0.03658671
5	0xbd6f9648	-0.05849293
6	0xbd2c95c4	-0.042135015
7	0xbdcbf95f	-0.09959673
8	0xbc907a8d	-0.017636562
9	0x3b77967c	0.0037778905
