result/model_13_1.pth (torch, 307183 bytes, 8 tensors)

net.0.weight f4 [20, 1, 4, 4]
0.23539263 0.52116346 0.27221805 0.3248643 -0.2704732 -0.3806683 -0.54493 0.25805628
-0.13253725 -0.31334764 0.52714616 0.2609319 0.21239038 0.47557896 0.326572 -0.3012093
0.39992294 0.18297623 0.041299682 0.31565163 0.033166226 0.03150308 0.056480043 0.38202602
-0.2981138 -0.35117954 -0.37644204 -0.22811335 -0.057506435 -0.29171023 0.041376 -0.14208212
0.14362536 -0.16239114 -0.330675 -0.11672647 0.22333 0.6253562 0.14741515 -0.3904852
-0.20322947 0.09730555 0.52747154 0.19963734 -0.0559292 -0.15440702 0.07862963 0.063612625
0.07396854 -0.24313328 -0.33413064 -0.12201516 -0.19279997 0.265844 0.21913016 0.28161317
0.19467148 0.16949439 0.22950931 -0.10762198 0.033745263 -0.2044173 -0.058936752 -0.08854513
0.0813835 0.007814531 0.1803403 -0.07353033 -0.2014058 -0.16768211 0.15800971 0.12731731
0.23079169 -0.22930157 -0.37486273 -0.31040078 -0.14806758 0.17682144 0.17906065 0.23001555
-0.21216278 -0.15353385 0.18063329 -0.14932793 0.004208803 0.029614197 0.26997146 -0.2857669
-0.17581452 0.35606617 0.093518436 -0.19561143 0.16904745 0.37439445 -0.23791775 -0.19914147
0.25279206 -0.011738453 -0.038417473 -0.22523493 -0.1340346 -0.010936535 -0.11506555 -0.21257812
-0.0156981 -0.21171741 -0.1887219 -0.060935874 -0.16587418 -0.09463011 0.3938673 0.17702623
0.13037388 -0.19116017 -0.12493781 -0.03574985 0.051160373 -0.20782645 -0.094826065 -0.12432645
0.005654643 -0.1104444 -0.0045206 -0.13727872 -0.11053845 -0.101374865 -0.039327525 -0.14859706
0.3265326 0.07337437 0.3419387 0.21503162 -0.21923293 0.1466642 -0.08708873 -0.0855657
-0.29856977 -0.34859616 -0.05698156 -0.09836516 0.07396956 -0.16732161 0.17268586 -0.16078395
-0.08044557 0.07488143 0.14766863 0.22867393 0.24036129 -0.2470642 0.079582326 -0.15634401
-0.09846889 -0.23394461 0.2782147 -0.25604305 0.040144857 0.05647832 0.08170066 -0.18734483
0.40735567 0.089163266 -0.0051271655 -0.26519814 0.3760549 -0.011116327 -0.20573334 0.148506
0.23185533 -0.113131076 -0.21513344 -0.118348874 0.20655796 -0.014746755 -0.15513301 -0.14194557
-0.25990468 0.19461204 0.17485274 -0.3866898 0.002137688 0.39353243 0.0060379836 -0.27154627
0.21424535 0.28301486 0.014313121 -0.16949317 -0.091505356 0.10775793 -0.0054251575 -0.117755465
0.21580395 0.25672522 -0.027795266 -0.09534815 0.0049692085 0.040172946 0.1323796 0.15184921
-0.28359473 -0.12215543 0.20241508 0.12860921 -0.035295572 -0.19477734 -0.2494631 -0.29292047
-0.1808544 -0.060111724 0.27124175 0.26268467 -0.34405756 -0.33582246 0.032358248 0.45956033
-0.12588878 -0.19010498 0.23998466 0.02623328 -0.30082697 0.11872381 -0.015139658 -0.038826186
-0.21511784 0.21533373 0.2276645 0.10423387 -0.15991552 -0.22592163 -0.13835631 0.26828486
0.16939414 0.35091233 0.23913465 0.05299469 -0.030408513 -0.20036446 -0.26342094 -0.2892107
0.17753328 -0.07970966 -0.022193547 -0.08391721 -0.008912167 -0.13655862 -0.15002957 0.09210282
-0.06622154 0.10863371 -0.107287735 -0.16283205 -0.0105690155 -0.07779657 -0.05802832 -0.20775397
00000000: c40a 713e f86a 053f 2a60 8b3e 9d54 a63e
00000010: 777b 8abe f5e6 c2be 8880 0bbf f41f 843e
00000020: d8b7 07be 1a6f a0be 0df3 063f de98 853e
00000030: dd7c 593e 167f f33e 7234 a73e 1b38 9abe
00000040: b3c2 cc3e 1f5e 3b3e db29 293d 179d a13e
00000050: 4fd9 073d 6009 013d 9e57 673d ea98 c33e
00000060: 5fa2 98be cecd b3be 03bd c0be 8c96 69be
00000070: de8b 6bbd 0b5b 95be e179 293d fa7d 11be
00000080: 8712 133e dd49 26be 3c4e a9be 4a0e efbd
00000090: 9fb0 643e 5817 203f fff3 163e aded c7be
000000a0: 631b 50be 2248 c73d 6008 073f bb6d 4c3e
000000b0: 0416 65bd e01c 1ebe 9208 a13d 5647 823d
000000c0: d17c 973d eef7 78be 2c13 abbe 16e3 f9bd
000000d0: 5b6d 45be b41c 883e a863 603e 9a2f 903e
000000e0: f657 473e f08f 2d3e 7d04 6b3e ea68 dcbd
000000f0: 7938 0a3d c552 51be aa67 71bd 2657 b5bd
00000100: 64ac a63d 8508 003c 21ab 383e 1297 96bd
00000110: 523d 4ebe dcb4 2bbe 4ccd 213e 785f 023e
00000120: a854 6c3e 08ce 6abe 02ee bfbe daec 9ebe
00000130: 079f 17be ae10 353e ad5b 373e 3289 6b3e
00000140: 3341 59be fa37 1dbe eff7 383e 6ce9 18be
00000150: 00ea 893b 7999 f23c b339 8a3e 0a50 92be
00000160: b908 34be 4e4e b63e 9886 bf3d 5d4e 48be
00000170: c61a 2d3e a1b0 bf3e b6a0 73be beeb 4bbe
00000180: f66d 813e a452 40bc a45b 1dbd fca3 66be
00000190: 5e40 09be 272f 33bc 7da7 ebbd 14ae 59be
000001a0: 4d99 80bc 73cc 58be 5040 41be e597 79bd
000001b0: ecda 29be 6ecd c1bd faa8 c93e 5d46 353e
000001c0: bb80 053e 7ebf 43be 65df ffbd 6f6e 12bd
000001d0: 8a8d 513d 75d0 54be 2b34 c2bd de9e febd
000001e0: 954a b93b ac30 e2bd 8b21 94bb cb92 0cbe
000001f0: fc61 e2bd a09d cfbd e615 21bd d429 18be
00000200: 482f a73e 4d45 963d 9712 af3e 4031 5c3e
00000210: 997e 60be 242f 163e 935b b2bd 123d afbd
00000220: 23de 98be 327b b2be 7f65 69bd ac73 c9bd
00000230: 5a7d 973d 5b56 2bbe 90d4 303e 8ca4 24be
00000240: a6c0 a4bd 6f5b 993d 7236 173e 8029 6a3e
00000250: 4521 763e 66fe 7cbe 0ffc a23d a518 20be
00000260: 0faa c9bd 2d8f 6fbe 2872 8e3e 1318 83be
00000270: ef6e 243d d055 673d ad52 a73d 53d7 3fbe
00000280: ec90 d03e 3b9b b63d c801 a8bb 0dc8 87be
00000290: 458a c03e 4121 36bc c3ab 52be f511 183e
000002a0: 7c6b 6d3e 44b1 e7bd f14b 5cbe e560 f2bd
000002b0: ee83 533e 609c 71bc 30db 1ebe 2e5a 11be
000002c0: 3a12 85be 6148 473e 990c 333e 35fc c5be
000002d0: 7418 0c3b 157d c93e 47da c53b 1d08 8bbe
000002e0: 2263 5b3e 53e7 903e 9581 6a3c 9e8f 2dbe
000002f0: 2967 bbbd 31b0 dc3d 85c5 b1bb c729 f1bd
00000300: b6fb 5c3e 7d71 833e e6b2 e3bc e445 c3bd
00000310: bed4 a23b 638c 243d 858e 073e 5c7e 1b3e
00000320: 5433 91be a02c fabd e645 4f3e 22b2 033e
00000330: 1792 10bd b673 47be 4173 7fbe acf9 95be
00000340: e531 39be b637 76bd 33e0 8a3e 9b7e 863e
00000350: 5028 b0be ecf0 abbe 158a 043d 7e4b eb3e
00000360: fde8 00be e1aa 42be 8abe 753e 2de7 d63c
00000370: fe05 9abe 7825 f33d 540c 78bc 3508 1fbd
00000380: da47 5cbe 7280 5c3e e220 693e 9178 d53d
00000390: e5c0 23be 0058 67be 47ad 0dbe a25c 893e
000003a0: a875 2d3e c8aa b33e b7df 743e f610 593d
000003b0: 461b f9bc 572c 4dbe 1cdf 86be 6d13 94be
000003c0: 49cb 353e d13e a3bd 3ecf b5bc c9dc abbd
000003d0: 5604 12bc 06d6 0bbe 5aa1 19be 67a0 bc3d
000003e0: 299f 87bd 5a7b de3d acb9 dbbd 72bd 26be
000003f0: aa29 2dbc cf53 9fbd 1baf 6dbd 75bd 54be

net.0.bias f4 [20]
0.28082934 -0.09496561 0.41162118 0.12825505 -0.12227122 -0.15969677 -0.40863764 -0.37891564
-0.1428415 -0.009552776 0.19545628 0.136165 -0.13174488 -0.09774461 0.12132483 -0.3662796
0.00036097923 0.11268265 -0.4193213 0.10848459
00000000: ddc8 8f3e 547d c2bd 03c0 d23e 4b55 033e
00000010: 5569 fabd 8d87 23be f438 d1be 3b01 c2be
00000020: 0b45 12be 3f83 1cbc b125 483e d66e 0b3e
00000030: 21e8 06be 532e c8bd 2779 f83d 0089 bbbe
00000040: d041 bd39 29c6 e63d 48b1 d6be 2b2d de3d

net.3.weight f4 [40, 20, 5, 5]
-0.23089744 0.0076349825 -0.09173408 -0.23197424 -0.12214182 -0.012570297 0.027976638 -0.09425773
-0.11747209 -0.06606719 -0.16418873 -0.073342115 0.06556767 0.13357134 -0.027376743 -0.1907344
-0.08473388 -0.044558056 -0.024372747 0.013591097 -0.15393062 -0.012202804 -0.03577386 0.07083625
0.067390166 0.015017619 -0.016862836 -0.08743248 -0.014965372 0.037617117 -0.038450867 -0.14620447
-0.18167143 -0.0046506613 -0.008068252 -0.07447419 -0.11936743 -0.08804125 0.02805251 -0.03108657
0.005847273 -0.057519276 -0.013791185 0.039952632 0.022170506 0.030575486 -0.062920846 -0.007385557
0.048412453 -0.008020511 -0.08993304 -0.14070117 -0.10307236 -0.19008626 -0.18176661 -0.12750614
-0.14510012 0.058338966 0.06068692 0.026772853 -0.04534149 0.07486871 0.1419984 0.10487511
0.14642097 0.033051785 0.15069552 0.10294811 -0.12377236 -0.044063143 0.06969434 0.08817732
0.009442908 -0.15748422 -0.13458738 -0.020770676 -0.046531674 0.076932624 0.07483976 -0.0116871195
0.0103121465 0.06470501 0.15404524 0.20428638 0.05952362 -0.042404246 -0.028147394 0.12851521
0.07802578 0.05721115 -0.118347 0.020389872 0.020567166 0.05323431 -0.024565637 -0.08773106
0.009854153 0.042694226 0.033601068 -0.008862249 0.07323051 0.18763705 0.18793468 0.07306166
5.5806417e-05 -0.052875258 -0.07284695 0.18732674 0.25624627 0.13517915 -0.15185486 -0.0065014637
0.0016840268 0.08080584 0.12265812 0.038167886 0.15625057 0.17805661 0.039596308 0.025426857
0.015766343 0.053183172 0.1058649 -0.030437572 -0.085014366 0.16635233 0.12080213 0.13456985
0.14229251 0.1174171 0.20063177 0.18710078 0.08340543 0.047981597 -0.0372738 0.0038585027
-0.060103748 -0.02733725 0.04854892 -0.009257644 -0.030467618 -0.15836442 0.034610376 0.06313524
0.022400314 -0.09734344 -0.01738569 -0.03645634 0.02295941 0.11181564 0.035547808 0.052712444
0.077471785 0.06461445 0.034760177 0.02071696 0.04834707 0.07978584 0.001959537 -0.012391925
-0.033253383 -0.1076775 -0.059813235 0.01409473 0.054632735 -0.035991702 -0.13610725 -0.0754182
0.007431601 2.2898601e-05 -0.022707567 -0.097445555 0.005643199 -0.00017439634 -0.00950072 -0.017735695
0.049559813 -0.021808544 0.07418661 0.0338712 -7.480456e-05 -0.004884634 -0.04289495 0.04347842
0.052435823 -0.054750282 -0.043637294 -0.05616781 0.009331854 0.012476932 -0.007456063 -0.07700445
-0.058658145 0.049350776 0.042504326 -0.009890808 -0.08862069 -0.02139984 -0.013229375 0.056635465
-0.10157899 -0.14039288 -0.124694325 0.07149925 0.107681215 -0.11927873 -0.22437234 -0.18782936
0.104537345 0.09011078 -0.13214448 -0.21754594 -0.17061643 -0.00506893 0.07605582 -0.10647154
-0.0051183114 0.09797858 0.080539726 0.102339365 -0.017998897 0.071723156 0.090645775 0.04423971
-0.03818946 -0.049761333 0.014263524 0.010981609 0.04594258 0.005997111 0.05071444 -0.021601807
0.011809998 0.10935919 0.025324149 0.018739486 -0.03901462 0.13697514 0.09031767 -0.04773672
-0.018396245 -0.06491266 0.11219879 0.15321681 0.083763376 -0.025716 0.07037755 0.061841078
-0.0019741305 0.03726319 0.006670937 0.017873062 -0.02119416 -0.015857348 -0.047527965 -0.061306663
00000000: 6170 6cbe e02e fa3b 14df bbbd a88a 6dbe
00000010: 7e25 fabd a6f3 4dbc 432f e53c 320a c1bd
00000020: 3595 f0bd 3c4e 87bd 1721 28be 6434 96bd
00000030: 5848 863d edc6 083e 3145 e0bc e14f 43be
00000040: f588 adbd 8282 36bd 5ba9 c7bc 31ad 5e3c
00000050: fd9f 1dbe 45ee 47bc 9c87 12bd 9912 913d
00000060: db03 8a3d 760c 763c ee23 8abc cd0f b3bd
00000070: 5231 75bc 6814 1a3d a87e 1dbd a0b6 15be
00000080: 1308 3abe 9364 98bb b430 04bc ed85 98bd
00000090: e976 f4bd f94e b4bd 61ce e53c 43a9 febc
000000a0: 7b9a bf3b 5599 6bbd 6cf4 61bc 5fa5 233d
000000b0: ec9e b53c 7179 fa3c a5dc 80bd 8b02 f2bb
000000c0: 234c 463d 7668 03bc d02e b8bd f813 10be
000000d0: 9a17 d3bd f9a5 42be 0721 3abe f890 02be
000000e0: 2095 14be d7f4 6e3d d992 783d be52 db3c
000000f0: 00b8 39bd c454 993d 0768 113e c3c8 d63d
00000100: 61ef 153e 4f61 073d ed4f 1a3e 75d6 d23d
00000110: 5d7c fdbd 8e7b 34bd e8bb 8e3d 5096 b43d
00000120: 6db6 1a3c 8b43 21be 46d1 09be 4427 aabc
00000130: ff97 3ebd da8e 9d3d 9745 993d 557b 3fbc
00000140: 47f4 283c 0f84 843d 09be 1d3e 7330 513e
00000150: 0acf 733d 13b0 2dbd 5d95 e6bc 7e99 033e
00000160: fbcb 9f3d 3d56 6a3d e95f f2bd a908 a73c
00000170: 797c a83c 380c 5a3d e03d c9bc 58ac b3bd
00000180: 5073 213c 24e0 2e3d 46a1 093d f732 11bc
00000190: e1f9 953d ed23 403e f371 403e 5aa1 953d
000001a0: af11 6a38 ba93 58bd c830 95bd 95d2 3f3e
000001b0: b632 833e 676c 0a3e d77f 1bbe 3b0a d5bb
000001c0: 90ba dc3a 887d a53d 2e34 fb3d ee55 1c3d
000001d0: 2600 203e 7954 363e bd2f 223d fc4b d03c
000001e0: 6b28 813c 99d6 593d b2cf d83d 3758 f9bc
000001f0: 031c aebd 4458 2a3e 1b67 f73d aecc 093e
00000200: 21b5 113e 6078 f03d 6a72 4d3e 5997 3f3e
00000210: 77d0 aa3d 5a88 443d 69ac 18bd efde 7c3b
00000220: 592f 76bd 5ef2 dfbc 3bdb 463d 60ad 17bc
00000230: 3a97 f9bc 482a 22be 9cc3 0d3d 0c4d 813d
00000240: dd80 b73c ff5b c7bd 6f6c 8ebc 3e53 15bd
00000250: 5f15 bc3c 99ff e43d 949a 113d 01e9 573d
00000260: 87a9 9e3d 9554 843d b060 0e3d 9db6 a93c
00000270: 9407 463d c266 a33d 936b 003b 8007 4bbc
00000280: b334 08bd 0586 dcbd b9fe 74bd 95ed 663c
00000290: 93c6 5f3d 096c 13bd b35f 0bbe db74 9abd
000002a0: ca84 f33b 5f16 c037 3805 babc 8991 c7bd
000002b0: 96ea b83b 29de 36b9 e8a8 1bbc 734a 91bc
000002c0: 3bff 4a3d d5a7 b2bc 26ef 973d 87bc 0a3d
000002d0: 64e0 9cb8 480f a0bb 9db2 2fbd 6d16 323d
000002e0: f2c6 563d d541 60bd 05bd 32bd 3810 66bd
000002f0: a2e4 183c 0c6c 4c3c fd51 f4bb 82b4 9dbd
00000300: 8643 70bd 0a24 4a3d 0419 2e3d 0e0d 22bc
00000310: c47e b5bd b84e afbc 05c0 58bc 97fa 673d
00000320: a508 d0bd 27c3 0fbe bd5f ffbd 336e 923d
00000330: f887 dc3d 6848 f4bd ddc1 65be 5756 40be
00000340: ad17 d63d 008c b83d e250 07be 5dc4 5ebe
00000350: 13b6 2ebe 4419 a6bb 27c3 9b3d c00d dabd
00000360: 82b7 a7bb fea8 c83d 03f2 a43d 4d97 d13d
00000370: 6c72 93bc 97e3 923d 7ea4 b93d b334 353d
00000380: 8d6c 1cbd 8ad2 4bbd 8eb1 693c 35ec 333c
00000390: 492e 3c3d 6a83 c43b f2b9 4f3d 46f6 b0bc
000003a0: b97e 413c b6f7 df3d 9774 cf3c 8d83 993c
000003b0: cbcd 1fbd 3643 0c3e 78f8 b83d 9487 43bd
000003c0: b9b3 96bc eef0 84bd 7bc8 e53d dee4 1c3e
000003d0: 228c ab3d 5caa d2bc 1b22 903d 124d 7d3d
000003e0: 6a60 01bb 49a1 183d e097 da3b 876a 923c
000003f0: 609f adbc 45e7 81bc afac 42bd b21c 7bbd

net.3.bias f4 [40]
0.042820502 -0.010317579 0.02700885 -0.02974966 -0.02185514 0.01712392 -0.018830063 0.013628622
-0.025967905 0.004762281 0.01327347 0.065473005 -0.0425314 -0.0033878286 0.011753177 -0.01060575
-0.005233464 0.008349447 -0.02522694 -0.03003133 0.034458864 -0.03629344 0.004984228 0.028566346
-0.008052315 -0.029236669 -0.041584168 -0.06569409 0.049315404 -0.029723434 0.0070265047 0.02055449
-0.026840072 0.028758854 0.043372992 0.0028417902 -0.0052423766 -0.030464994 0.04624677 -0.04069945
00000000: 8d64 2f3d 100b 29bc aa41 dd3c 8fb5 f3bc
00000010: 8d09 b3bc 7747 8c3c 8141 9abc 954a 5f3c
00000020: a5ba d4bc e90c 9c3b f878 593c b616 863d
00000030: 6835 2ebd 5506 5ebb 6690 403c bdc3 2dbc
00000040: 7a7d abbb 1ecc 083c baa8 cebc 4404 f6bc
00000050: bd24 0d3d 6ea8 14bd bc52 a33b f803 ea3c
00000060: dbed 03bc bd81 efbc 2954 2abd a08a 86bd
00000070: f3fe 493d 8f7e f3bc 983e e63b e461 a83c
00000080: b6df dbbc b097 eb3c e1a7 313d 543d 3a3b
00000090: 3ec8 abbb b991 f9bc 416d 3d3d 77b4 26bd

net.7.weight f4 [150, 360]
-0.12856221 0.051138837 -0.030808885 -0.10004725 -0.008377236 -0.079803966 -0.03940985 0.041365266
-0.055750016 0.056862034 0.10358487 0.07667132 -0.0046776175 -0.026992874 0.003303372 0.035083655
0.02073875 0.04448678 -0.010287347 -0.040334374 0.111148424 -0.048930418 -0.07561102 0.037750386
0.03364525 0.05423861 -0.07224943 -0.008903503 0.038501922 -0.024636215 -0.0030022736 -0.040104173
0.03892457 -0.05184363 0.025871968 -0.004392702 -0.020222073 -0.018450813 0.017362867 0.034424715
0.015186321 0.05789927 0.06221892 0.0020293707 -0.0046529965 0.011919604 -0.05883008 -0.055627897
-0.05426778 0.043301452 0.014725222 -0.034420915 -0.021281615 0.0012985861 0.044744693 -0.0360725
0.034733586 0.10529472 0.04709281 0.036348417 0.049859986 -0.028374158 -0.012546733 -0.11900057
-0.07066346 -0.07780486 0.010549342 -0.0579873 0.07376852 -0.035194393 -0.010036016 0.030430758
0.08627662 -0.081351325 -0.10339345 -0.003796085 0.009019573 -0.030461455 -0.12867165 -0.11372824
-0.09837348 0.092163235 0.041877203 0.07209932 0.0050458633 0.08530579 0.032268327 0.02149472
0.059737645 0.09833537 -0.022408027 -0.042301636 0.04075988 -0.013733482 -0.14719768 -0.039568275
-0.00021040214 -0.08720464 -0.13059457 -0.03138272 0.14635555 0.04653997 -0.0025352268 0.033474654
0.08497999 -0.0728264 -0.026564226 0.03030889 -0.088215806 -0.080821544 0.02215598 0.07064906
0.11572371 0.00043357207 0.105303995 0.04631999 0.0833558 -0.07613493 -0.035976302 0.040279794
0.049911674 -0.0032475356 0.05478977 -0.034870565 -0.04567113 -0.10825867 -0.09273012 -0.0639929
-0.017501138 0.04511083 -0.028025612 -0.009393551 0.037404332 0.099281006 0.024606664 -0.14118241
-0.09472433 0.051208977 -0.012213417 -0.023098512 0.033953626 0.05250297 -0.042429917 0.027322268
0.01603327 0.011237744 0.0020565582 0.0051552523 0.06342279 0.042894244 0.07433102 0.021065027
0.06377554 0.015027949 0.043364175 0.100713275 -0.06284132 -0.034172717 0.04144547 -0.058780994
0.01297855 -0.08070326 0.07044494 0.04977635 0.030818252 0.0115497215 0.038576744 -0.014039925
-0.015019549 0.04629654 0.05319229 0.014857954 -0.073740125 0.11441144 0.059654035 -0.011528241
0.04226766 0.05947334 -0.06979934 -0.06309204 0.019100806 0.039254528 0.07744448 -0.008302725
0.067424305 0.04794603 -0.08831832 0.040561628 0.08130282 0.026838657 0.010466093 0.0007107735
-0.0020780358 0.04879099 -0.032530032 0.0052907174 -0.0042910054 0.039516035 0.02129208 -0.0027539046
0.054496232 -0.047586102 0.033247825 -0.030332869 -0.08435308 0.02564222 -0.008199023 0.044005714
0.07019864 -0.057420574 0.06316424 0.049845133 -0.014383855 0.050969783 0.038591262 -0.06815572
-0.111202 -0.11436066 0.0040693134 -0.06802681 -0.058594972 -0.055952888 -0.0693076 -0.0064067305
-0.024643114 0.038543172 0.09232844 0.11374969 0.08312404 0.038458794 0.040947482 0.05667701
-0.058618788 -0.046367355 -0.15060434 -0.07010255 0.05864606 -0.029760122 -0.0018517402 0.11324092
0.0067483378 -0.011709831 0.08323499 0.01587425 -0.069908805 -0.021514473 0.026434744 0.03399386
-0.009543068 -0.00077431224 -0.042252332 -0.009127029 0.0052969204 -0.026736805 0.060721647 0.012047863
00000000: d0a5 03be f576 513d ea62 fcbc 93e5 ccbd
00000010: ad40 09bc 4370 a3bd 396c 21bd a06e 293d
00000020: 215a 64bd 2ae8 683d 4e24 d43d da05 9d3d
00000030: b346 99bb 2920 ddbc 637d 583b e1b3 0f3d
00000040: 50e4 a93c c537 363d 438c 28bc a835 25bd
00000050: c9a1 e33d 436b 48bd f3d9 9abd 26a0 1a3d
00000060: 9acf 093d 4e29 5e3d 82f7 93bd 00e0 11bc
00000070: 31b4 1d3d e3d1 c9bc cbc1 44bb 4644 24bd
00000080: 5f6f 1f3d fc59 54bd 73f1 d33c a8f0 8fbb
00000090: c3a8 a5bc 2926 97bc 923c 8e3c ee00 0d3d
000000a0: 0cd0 783c c927 6d3d 44d9 7e3d 31ff 043b
000000b0: 2a78 98bb 714a 433c cff7 70bd 14da 63bd
000000c0: e447 5ebd dd5c 313d 0f42 713c f2fc 0cbd
000000d0: c856 aebc 5235 aa3a 3646 373d c2c0 13bd
000000e0: ce44 0e3d c2a4 d73d 64e4 403d 14e2 143d
000000f0: fc39 4c3d ec70 e8bc d090 4dbc 92b6 f3bd
00000100: 01b8 90bd 2858 9fbd 26d7 2c3c 1784 6dbd
00000110: f313 973d ff27 10bd 1a6e 24bc ed49 f93c
00000120: ccb1 b03d 869b a6bd f2bf d3bd bdc7 78bb
00000130: d5c6 133c 4d8a f9bc 80c2 03be 5aea e8bd
00000140: 0978 c9bd 14c0 bc3d 6e87 2b3d cfa8 933d
00000150: c557 a53b cdb4 ae3d cb2b 043d b215 b03c
00000160: 76af 743d 0e64 c93d 0a91 b7bc 7b44 2dbd
00000170: d5f3 263d 6602 61bc fdba 16be 5812 22bd
00000180: 659f 5cb9 5998 b2bd 95ba 05be 2b8b 00bd
00000190: 3bde 153e b2a0 3e3d 0c26 26bb b81c 093d
000001a0: fd09 ae3d 0226 95bd 389d d9bc 594a f83c
000001b0: 7daa b4bd c485 a5bd 7580 b53c 74b0 903d
000001c0: 8d00 ed3d 0f51 e339 9fa9 d73d 08ba 3d3d
000001d0: 72b6 aa3d a1ec 9bbd e35b 13bd 6dfc 243d
000001e0: 2f70 4c3d 9bd4 54bb 3d6b 603d 70d4 0ebd
000001f0: a711 3bbd b9b6 ddbd 4ae9 bdbd b60e 83bd
00000200: 8c5e 8fbc 22c6 383d f895 e5bc 69e7 19bc
00000210: 4935 193d d753 cb3d ea93 c93c 1f92 10be
00000220: d4fe c1bd 81c0 513d c91a 48bc 1739 bdbc
00000230: f512 0b3d 5b0d 573d feca 2dbd f3d2 df3c
00000240: 3458 833c 841e 383c 52c7 063b 64ed a83b
00000250: cfe3 813d e0b1 2f3d dd3a 983d 9090 ac3c
00000260: c09c 823d c937 763c a29e 313d c342 ce3d
00000270: f3b2 80bd b1f8 0bbd bac2 293d 57c4 70bd
00000280: fca3 543c c047 a5bd 7045 903d 49e2 4b3d
00000290: 8f76 fc3c 0b3b 3d3c a602 1e3d b707 66bc
000002a0: 8e14 76bc 71a1 3d3d 29e0 593d c76e 733c
000002b0: 1005 97bd 8c50 ea3d ca57 743d f3e0 3cbc
000002c0: db20 2d3d 519a 733d f5f2 8ebd 6636 81bd
000002d0: 4b79 9c3c 5bc9 203d 369b 9e3d 2708 08bc
000002e0: c115 8a3d 0e63 443d 3ce0 b4bd f323 263d
000002f0: 1882 a63d bedc db3c fa79 2b3c 3453 3a3a
00000300: a82f 08bb 10d9 473d 363e 05bd c15d ad3b
00000310: 909b 8cbb 91db 213d ba6c ae3c da7a 34bb
00000320: 7137 5f3d a5e9 42bd df2e 083d a37c f8bc
00000330: 4fc1 acbd a20f d23c 3255 06bc 563f 343d
00000340: 4ec4 8f3d d631 6bbd 415c 813d 692a 4c3d
00000350: 43aa 6bbc b1c5 503d df11 1e3d 3a95 8bbd
00000360: e0bd e3bd ec35 eabd e057 853b a451 8bbd
00000370: 4801 70bd db2e 65bd 25f1 8dbd 8def d1bb
00000380: 5be0 c9bc 72df 1d3d b116 bd3d 99f5 e83d
00000390: f03c aa3d f886 1d3d 8cb8 273d 2726 683d
000003a0: 411a 70bd b2eb 3dbd 0638 1abe ed91 8fbd
000003b0: da36 703d 80cb f3bc 17b6 f2ba dbea e73d
000003c0: 2921 dd3b 97da 3fbc 1b77 aa3d b70a 823c
000003d0: 592c 8fbd 1f3f b0bc ad8d d83c 253d 0b3d
000003e0: 875a 1cbc 37fb 4aba c810 2dbd 8989 15bc
000003f0: ca91 ad3b 2507 dbbc 43b7 783d 6664 453c

net.7.bias f4 [150]
0.10240165 0.0024081087 0.014218844 0.027183823 -0.01629961 -0.012136683 -0.060074143 0.009955943
0.086316586 -0.022733165 0.023011992 -0.012493809 -0.0005920306 0.064688414 0.0034912752 -0.037908927
0.036981937 0.06941249 -0.010795526 0.0072998116 0.07114872 -0.0014956458 0.030478189 -0.0057722265
0.03974686 -0.028374325 0.059123028 0.055360034 0.039578598 0.024887228 0.011281944 0.041521147
0.007891343 0.08984911 0.0028232173 -0.060261957 -0.010848049 0.0036695343 -0.028649753 -0.00350149
0.007322062 -0.053633094 0.01878361 -0.016121835 -0.010991411 -0.041963838 0.044267327 -0.02717555
0.043171152 -0.056607366 -0.05251754 0.033037953 0.016578617 -0.002607867 0.072477154 0.052377198
0.0050848303 -0.009431631 -0.017372267 -0.03575225 0.02378284 -0.016833778 0.069648944 0.005478786
-0.07612608 0.041598603 -0.0027280957 -0.009067591 0.026904898 -0.0061727175 0.05258298 0.065498576
0.027788104 -0.011761125 -0.06286094 -0.0462215 -0.011436531 0.09028416 0.029491125 -0.014271818
0.028443903 -0.05638623 -0.017861495 -0.038209915 -0.048192203 0.033561178 -0.05737452 0.056580503
-0.054745927 0.072487585 0.034387723 0.059664175 0.0023381724 0.0015053996 -0.0016712628 -0.016958725
-0.031130828 -0.06788145 -0.02240287 -0.002396578 -0.011737938 -0.022451868 -0.009961235 -0.057181127
0.055000987 0.01791885 0.023616053 -0.05475118 0.035865903 0.058374077 0.030934505 0.0563079
0.055734497 -0.049247026 0.07521989 0.028248947 -0.037541464 -0.030662967 -0.031630527 0.026910378
0.013201076 0.06979427 -0.0089520095 0.02616607 0.018934293 -0.021342736 0.06109217 0.031053862
-0.026314834 0.046295155 0.01158874 0.05961986 -0.029388975 0.07546712 -0.012813506 0.030338382
0.061272115 -0.04306992 0.003956092 -0.03461387 0.06277231 -0.051013924 -0.0183189 0.007955991
0.022973947 -0.059003398 -0.024507357 -0.027536046 -0.0038211884 -0.0031943112
00000000: f5b7 d13d 5cd1 1d3b 27f6 683c 9cb0 de3c
00000010: c286 85bc f0d8 46bc 4e10 76bd 401e 233c
00000020: c0c6 b03d e73a babc a583 bc3c d5b2 4cbc
00000030: 8032 1bba 5c7b 843d e1cd 643b 6446 1bbd
00000040: 5f7a 173d 2328 8e3d b8df 30bc 4233 ef3b
00000050: 6cb6 913d 8c09 c4ba 65ad f93c f224 bdbb
00000060: 9acd 223d 4671 e8bc fd2a 723d 34c1 623d
00000070: 2b1d 223d 4de0 cb3c e7d7 383c 1412 2a3d
00000080: b14a 013c cf02 b83d ba05 393b 3ed5 76bd
00000090: 04bc 31bc 927c 703b e3b2 eabc 4179 65bb
000000a0: e8ed ef3b 60ae 5bbd 16e0 993c f011 84bc
000000b0: 5215 34bc 46e2 2bbd a851 353d 429f debc
000000c0: 3cd4 303d 20dd 67bd a21c 57bd ce52 073d
000000d0: e1cf 873c bfe8 2abb e76e 943d 7989 563d
000000e0: a69e a63b 2187 1abc 4950 8ebc f470 12bd
000000f0: 3bd4 c23c fee6 89bc 1ba4 8e3d 6387 b33b
00000100: fde7 9bbd 4c63 2a3d dac9 32bb 3c90 14bc
00000110: a967 dc3c 8244 cabb 4061 573d 1e24 863d
00000120: e1a3 e33c bcb1 40bc 3dbd 80bd c152 3dbd
00000130: 4a60 3bbc e7e6 b83d 5f97 f13c 58d4 69bc
00000140: 3003 e93c 3ff5 66bd 4552 92bc 0082 1cbd
00000150: 3065 45bd 7277 093d 8b01 6bbd f5c0 673d
00000160: 443d 60bd 5f74 943d 24da 0c3d 6c62 743d
00000170: 063c 193b d450 c53a 460e dbba 06ed 8abc
00000180: 1406 ffbc 6e05 8bbd 3986 b7bc e80f 1dbb
00000190: 7b50 40bc fbec b7bc 7334 23bc c236 6abd
000001a0: b748 613d 8dca 923c 7476 c13c c642 60bd
000001b0: 20e8 123d a819 6f3d 5c6a fd3c 1da3 663d
000001c0: db49 643d 40b7 49bd e30c 9a3d 566a e73c
000001d0: 14c5 19bd e730 fbbc 038f 01bd 2773 dc3c
000001e0: 5349 583c 4cf0 8e3d 73ab 12bc 3a5a d63c
000001f0: 171c 9b3c f6d6 aebc c93b 7a3d ab64 fe3c
00000200: 3592 d7bc fd9f 3d3d b3de 3d3c f433 743d
00000210: 26c1 f0bc 818e 9a3d bdef 51bc 3388 f83c
00000220: 78f8 7a3d 166a 30bd 1ba2 813b 46c7 0dbd
00000230: c58e 803d faf3 50bd 8511 96bc d859 023c
00000240: dc33 bc3c 8cad 71bd a7c3 c8bc 4693 e1bc
00000250: e76c 7abb a657 51bb

net.9.weight f4 [10, 150]
-0.012885659 -0.067702785 -0.0660887 0.07395468 0.15857339 -0.20008047 0.0049678506 0.008282683
-0.06742166 -0.066751905 -0.042237952 -0.0065048197 -0.0055836635 0.12471073 -0.11282146 -0.05297358
0.02235366 0.006307627 -0.14013678 -0.1805549 -0.18036701 -0.01685002 0.03458748 -0.0018638993
0.16113436 0.09154473 0.06625718 0.08890429 0.118242554 -0.03344507 0.105567046 0.0952391
0.04797346 -0.12602657 -0.057175726 0.06172996 -0.0393042 0.22829586 0.10679005 -0.015325222
0.00939904 -0.004230178 -0.06755423 0.023604948 0.035309665 0.05290323 -0.018239608 -0.0036793537
0.093039565 -0.039896026 0.0027490335 0.1963133 0.02553196 0.046601668 -0.003438338 -0.26092866
0.0018427313 -0.017392997 0.15290128 -0.046187013 0.13164827 0.08692249 -0.19280072 -0.08263106
-0.0061495462 0.013866668 -0.04228457 -0.22176431 -0.18437453 -0.09482289 0.07350853 0.06426843
-0.0016041266 -0.055619773 0.06506309 -0.051796205 0.14691073 -0.35186845 -0.2059193 -0.019227764
-0.038235478 -0.009162331 -0.15257525 0.054788277 0.17550546 -0.082409546 0.00922273 -0.05294515
0.041969426 -0.024354782 0.09165038 0.2253502 0.03091778 0.13793166 -0.0025721982 -0.06926741
0.030651469 -0.07040936 -0.16292685 -0.022103723 -0.0016158388 -0.04960817 -0.055707604 0.07025331
0.11446456 0.020245668 0.05740828 -0.086434044 -0.019257853 -0.13357645 -0.12787913 0.15141875
0.036491152 0.0074363463 -0.24990411 0.03164843 0.045738593 -0.058971632 -0.23053204 -0.05851744
0.033519816 0.08089197 -0.019133793 -0.3034022 -0.025606817 0.13965519 -0.16034663 -0.20654485
0.08309365 -0.09837347 0.11915922 -0.20445482 0.072433166 -0.16951945 -0.014964285 -0.077546276
0.08815001 -0.014620755 -0.109036095 0.044350874 -0.18470633 0.06689952 0.06770792 0.11306539
0.016722614 0.05089079 0.051444158 0.018758321 -0.072960794 -0.106649384 0.10149483 0.0017037687
-0.051304888 -0.101114504 0.15379958 0.10535658 0.02498457 0.07158634 -0.010904202 0.032162845
-0.0024433883 0.19808476 0.069276616 -0.11745809 0.14053956 -0.028369464 -0.03178713 -0.19840969
0.14204448 0.019820498 -0.09438813 -0.070090204 -0.004145397 -0.044490255 -0.002208003 -0.12124372
-0.13780528 0.1795876 -0.086310044 0.009348033 0.19720267 -0.13496111 -0.18367097 -0.11035034
0.023557214 -0.00048849493 0.05268828 0.14639731 0.05594536 0.18848158 0.0455679 0.022238873
-0.010043995 -0.04052337 0.07024197 -0.06572347 -0.11196022 -0.043804012 -0.00028333327 0.027300553
-0.020163633 -0.010940786 -0.025777858 0.026209097 0.009620495 -0.0681858 -0.14596604 0.11080875
0.03455936 -0.038915478 -0.09703791 -0.19734025 -0.09704458 -0.11117649 0.0796019 -0.05162546
0.029407265 -0.17229857 0.09521045 0.054486524 -0.18507957 -0.23924169 0.01415754 0.024728136
-0.07498102 -0.05928454 -0.05890006 -0.011156499 -0.09076383 -0.034717448 -0.09441888 0.02622694
0.0747008 0.06350588 0.38355464 0.028741103 0.052332677 0.11803481 -0.049124613 0.045953173
-0.08373262 0.048206978 -0.09301212 -0.19392611 0.012391137 -0.045119807 -0.00818675 0.056184586
0.049965486 0.0068060155 0.06731098 0.034903407 0.03986924 -0.009711361 -0.21398568 0.096655786
00000000: 5f1e 53bc c2a7 8abd 8359 87bd 8d75 973d
00000010: 1061 223e e5e1 4cbe 5ac9 a23b 17b4 073c
00000020: 5e14 8abd 39b5 88bd b401 2dbd 6226 d5bb
00000030: 2af7 b6bb 5768 ff3d f00e e7bd d3fa 58bd
00000040: 061f b73c 36b0 ce3b 0480 0fbe 62e3 38be
00000050: 21b2 38be 0e09 8abc 9aab 0d3d 154e f4ba
00000060: 6800 253e ce7b bb3d d8b1 873d 7413 b63d
00000070: 2729 f23d b3fd 08bd 8933 d83d b80c c33d
00000080: d27f 443d 1c0d 01be 1831 6abd 8ed8 7c3d
00000090: 71fd 20bd 64c6 693e beb4 da3d a416 7bbc
000000a0: 6efe 193c 4e9d 8abb df59 8abd 2a5f c13c
000000b0: dea0 103d 0fb1 583d 3b6b 95bc 5021 71bb
000000c0: 878b be3d 046a 23bd 2129 343b 5b06 493e
000000d0: 6728 d13c 64e1 3e3d bd55 61bb 7198 85be
000000e0: cd87 f13a c27b 8ebc 2792 1c3e 982e 3dbd
000000f0: cece 063e 6b04 b23d 8d6d 45be 793a a9bd
00000100: 2282 c9bb 0531 633c 9632 2dbd 2f16 63be
00000110: adcc 3cbe 8132 c2bd a48b 963d 2b9f 833d
00000120: 8f41 d2ba 8fd1 63bd cc3f 853d 4228 54bd
00000130: c46f 163e 1a28 b4be 82dc 52be 8b83 9dbc
00000140: ce9c 1cbd 9a1d 16bc b03c 1cbe ac69 603d
00000150: b4b7 333e 56c6 a8bd ef1a 173c 03dd 58bd
00000160: 22e8 2b3d ae83 c7bc 32b3 bb3d 34c2 663e
00000170: 4947 fd3c f53d 0d3e 5392 28bb 12dc 8dbd
00000180: ca18 fb3c c832 90bd 4cd6 26be de12 b5bc
00000190: 8eca d3ba f031 4bbd a82d 64bd f8e0 8f3d
000001a0: 656c ea3d 3eda a53c f224 6b3d 5504 b1bd
000001b0: a5c2 9dbc 44c8 08be bff2 02be 840d 1b3e
000001c0: bf77 153d 98ac f33b dde6 7fbe c9a1 013d
000001d0: 6458 3b3d 3d8c 71bd 9710 6cbe fcaf 6fbd
000001e0: 134c 093d b0aa a53d 79be 9cbc 8857 9bbe
000001f0: 63c5 d1bc c501 0f3e e831 24be 7e80 53be
00000200: 012d aa3d 0878 c9bd c009 f43d 9b5c 51be
00000210: d757 943d 8296 2dbe c32c 75bc 95d0 9ebd
00000220: fe87 b43d e48b 6fbc 514e dfbd 43a9 353d
00000230: a823 3dbe 9e02 893d 73aa 8a3d d48e e73d
00000240: ddfd 883c dc72 503d 1cb7 523d 0dab 993c
00000250: 786c 95bd fe6a dabd 85dc cf3d fe50 df3a
00000260: 1325 52bd 1f15 cfbd a37d 1d3e 31c5 d73d
00000270: 71ac cc3c dc9b 923d 8aa7 32bc 30bd 033d
00000280: 4121 20bb bbd6 4a3e e6e0 8d3d de8d f0bd
00000290: 9ae9 0f3e 1467 e8bc 3933 02bd e92b 4bbe
000002a0: 1c74 113e 995e a23c 904e c1bd 748b 8fbd
000002b0: 1cd6 87bb 6a3b 36bd 25b4 10bb a14e f8bd
000002c0: d41c 0dbe d0e5 373e 52c3 b0bd 7e28 193c
000002d0: 7fef 493e 3f33 0abe 3e14 3cbe 5cff e1bd
000002e0: 0ffb c03c 570e 00ba aacf 573d 2de9 153e
000002f0: f626 653d 5101 413e 68a5 3a3d 4c2e b63c
00000300: 928f 24bc d5fb 25bd 06db 8f3d 079a 86bd
00000310: 664b e5bd d66b 33bd 598c 94b9 69a5 df3c
00000320: 342e a5bc fc40 33bc 162c d3bc 76b4 d63c
00000330: 489f 1d3c ffa4 8bbd 1f78 15be b3ef e23d
00000340: 1e8e 0d3d d665 1fbd d0bb c6bd 9013 4abe
00000350: 4fbf c6bd 80b0 e3bd 5206 a33d 3875 53bd
00000360: 81e7 f03c 096f 30be b2fd c23d 432d 5f3d
00000370: 8085 3dbe c6fb 74be 07f5 673c a992 ca3c
00000380: a68f 99bd 59d4 72bd 3041 71bd c0c9 36bc
00000390: 63e2 b9bd e233 0ebd b05e c1bd e1d9 d63c
000003a0: bcfc 983d 5f0f 823d 4661 c43e 7672 eb3c
000003b0: ca5a 563d 3cbc f13d e436 49bd 6539 3c3d
000003c0: 027c abbd ae74 453d 237d bebd 9194 46be
000003d0: 3204 4b3c 8ccf 38bd b821 06bc cf21 663d
000003e0: 9ca8 4c3d ff04 df3b 57da 893d e0f6 0e3d
000003f0: ee4d 233d 661c 1fbc 101f 5bbe 78f3 c53d

net.9.bias f4 [10]
-0.03764751 -0.04638314 0.033718772 -0.061583128 0.04109212 -0.05904496 -0.036448564 -0.094233334
-0.03492141 0.0060772095
00000000: 4734 1abd 3ffc 3dbd b21c 0a3d 973e 7cbd
00000010: 3650 283d 21d9 71bd 174b 15bd 68fd c0bd
00000020: c109 0fbd 5423 c73b
