result/model_21_4.pth (torch, 307183 bytes, 8 tensors)

net.0.weight f4 [20, 1, 4, 4]
00000000: 9e4a e43e c5dc 043f fcf6 413e 9682 b23e
00000010: a5ff 223e 1d41 f93d 4ca2 9ebd 67e6 5f3e
00000020: efdf a43e e974 a0bd 9034 a43e bab9 473c
00000030: 5fdc dc3e e759 8f3e 54a1 0e3e 06e3 97be
00000040: d733 bd3e 2597 813e 9872 cc3d b343 893e
00000050: 6bb1 20be c4e1 053c 5f1a 4ebd a793 463e
00000060: fb09 95be 301a 50be 64e6 59be b966 4dbe
00000070: 12d8 083c fe59 91be 722b 5c3d 7c70 62be
00000080: 02f8 533e eca8 943d cfa6 dabe be20 a6be
00000090: f4a8 8b3d 0ecd 353f 7c94 e13e 963c b3be
000000a0: e3dd 77be 5c61 283e 85bb 0f3f 7516 963e
000000b0: 3585 5ebe 6dd5 a5be 65fb 323e 2abf 833e
000000c0: c965 ef3d a2ec 73be de8a d3be 2a81 1bbe
000000d0: 2b58 0fbe 1d7f 923e 9bbd 3e3e 3eb4 8f3e
000000e0: b798 243e e6f6 243e 972a ac3e 6442 92bd
000000f0: 3b05 843b 3949 7ebe 9ce4 08bd c156 a6bd
00000100: 7b32 9b3d aa86 8a3c d2d2 883e d045 d5bd
00000110: eae0 42be edfa 35be 4102 3b3e 2183 873d
00000120: a95f 693e 9ffa 7dbe efb8 b0be 4a23 8ebe
00000130: b71b 01be 9fb7 1c3e 98a5 0e3e cdc8 7f3e
00000140: 8e50 ddbd 3ff9 d3bc cee6 423e 166e 38be
00000150: 5635 623e d4bc ee3d 4c35 103e b8b4 acbe
00000160: aa91 d93c c5d1 873e 4aa4 c3bd 5a7d 7cbe
00000170: 07f4 a33e ef50 993e 1616 b0be 6afe 99be
00000180: 2359 af3e f504 a4ba a95d 49bd 2b3a 7bbe
00000190: 8108 ffbd dede 00bd 8f65 0cbe 9d7e 54be
000001a0: 07fd 57bd 3ae1 91be 2db5 a0be fad2 2bbd
000001b0: 1ee7 33be 9252 fdbd 26bc 923e 3845 953e
000001c0: 359c ca3d f52c 49be b056 0cbe f1b3 a6bd
000001d0: 224f ff3c c3d9 55be b55f febd e79e 40be
000001e0: 1fd1 75bc d458 fdbd cb0d a7bd f817 5bbe
000001f0: fd40 0cbe 5f23 0dbe 7c0f d2bd a44c 37be
00000200: 35b0 a23e 1fb5 9b3d 92c0 a23e 51ec 4f3e
00000210: 5060 5cbe 5af8 363e d2d5 85bd a56d 41bd
00000220: 888c 93be 945d a9be cab6 1cbd 25d7 bdbd
00000230: 8f40 863d 600f 6ebe 335c dc3d 0a5f 45be
00000240: 4473 e4bd e11f d83d e143 933e 952c d43e
00000250: 6942 853e bbec debd e4dc 4e3e fed5 71be
00000260: 1a69 b9bd c570 10be 6817 6d3e d455 dfbe
00000270: e4c5 05bc 563d 3a3d fae2 86bc 34c2 97be
00000280: ea12 d23e 5659 e53d 99d2 563d 194a 33be
00000290: 5643 b13e 350a 263c 11dd 0cbe 676f 8a3e
000002a0: b044 843e 07c8 29be 22ea 85be 785a dabd
000002b0: 7b2b 533e f760 e4bd d6e7 86be 85d3 46be
000002c0: 772c 78be 2469 b13e f29b 803e 8bd9 babe
000002d0: e1a5 493c e940 be3e b8ce d1bb dba5 8ebe
000002e0: 417b 2e3e 91f4 993e f9f4 73ba 5709 69be
000002f0: cfa7 79bd 9514 2e3e 4861 95bd 34bd 4cbe
00000300: 1022 523e 61bc 8c3e 2c73 e63b d492 36bd
00000310: a0c4 99bb 9278 443d dc74 2f3e 29c0 3d3e
00000320: ad54 9dbe 6fa1 0fbe 06d0 443e 909f 0e3e
00000330: c231 a2bd a7e8 68be fa7a 7bbe c03b 90be
00000340: 354d 4ebe 6ad0 9f3c e85e 963e 6a57 983e
00000350: 2f1e c2be 60db 96be 41e9 393c eca2 ef3e
00000360: 8b04 0fbe 009d 71be 3740 003e 7a83 b03d
00000370: 9570 95be 5285 383d 630b a8bd 5bff da3d
00000380: ddd6 66be 3cea 633e 9d97 8a3e 8470 3f3e
00000390: c396 1abe b4af 27be 1657 9cbd b216 b03e
000003a0: 9c62 233e 035c 8d3e 130c f03d 33c4 413d
000003b0: 73c2 7bbc 9473 78be 8657 a0be 3609 97be
000003c0: af73 163e 1810 a4bd 1467 27bc 01e6 f3bd
000003d0: d52e e9bc 8969 1fbe c30e 2bbe 272a 003d
000003e0: a393 a1bd 86af af3d 0a5c 11be 3d78 52be
000003f0: 93cd 2bbc 734d f8bd bde4 a6bd 25d4 53be
0.44588178 0.5189937 0.18941873 0.34865254 0.15917833 0.121706225 -0.077457994 0.21865235
0.32202098 -0.07834799 0.32071352 0.012190277 0.4313688 0.27998278 0.1392873 -0.29665393
0.36953613 0.25310627 0.099827945 0.26809463 -0.1569268 0.0081715025 -0.05031812 0.19392262
-0.29109177 -0.2032249 -0.21279293 -0.20058717 0.008352296 -0.2838897 0.05375237 -0.22113222
0.20700076 0.07258782 -0.4270539 -0.32446855 0.068193346 0.71016014 0.44058597 -0.3500716
-0.24205737 0.1644339 0.5614551 0.29314008 -0.21730502 -0.32389393 0.17478712 0.25731784
0.11689336 -0.23820737 -0.41316885 -0.15185991 -0.13998477 0.28612605 0.18627016 0.280672
0.16073881 0.1610981 0.33626243 -0.07141569 0.004028944 -0.2483262 -0.033421144 -0.08122016
0.07577988 0.016909916 0.26723343 -0.10413706 -0.1903111 -0.17771502 0.18262579 0.06616808
0.22790398 -0.24802636 -0.34516093 -0.27761298 -0.12608229 0.15304421 0.13930357 0.24978943
-0.1080638 -0.025875686 0.19033358 -0.18010744 0.22090659 0.1165711 0.14082831 -0.33731627
0.026558716 0.2652723 -0.0955282 -0.24657193 0.32022116 0.2994456 -0.3439185 -0.30076915
0.34247693 -0.0012513684 -0.049161587 -0.24533908 -0.12452794 -0.031462543 -0.13710617 -0.20751424
-0.05273154 -0.28492147 -0.31388226 -0.04194925 -0.17568633 -0.12369265 0.2865917 0.29154372
0.098930754 -0.19646056 -0.13704944 -0.0813979 0.031165663 -0.20883851 -0.124205984 -0.18810616
-0.015003472 -0.12370458 -0.08156928 -0.21395862 -0.13696666 -0.13783024 -0.1025686 -0.1790033
0.3177506 0.076029055 0.31787544 0.20304991 -0.21521115 0.17868176 -0.065349236 -0.047223706
-0.28818154 -0.33079207 -0.03826026 -0.09269551 0.06555282 -0.23248053 0.10759773 -0.19274536
-0.11154798 0.105529554 0.28762725 0.41440263 0.2602723 -0.108849965 0.2020145 -0.23616788
-0.0905325 -0.14105518 0.2315346 -0.4362017 -0.008164857 0.04546865 -0.016465653 -0.29640353
0.41030055 0.1119868 0.052446935 -0.17508735 0.34621686 0.0101342695 -0.13756205 0.27038118
0.25833654 -0.1658021 -0.26155192 -0.10661787 0.20622055 -0.11151307 -0.26348752 -0.19416626
-0.24235712 0.34650528 0.25118977 -0.36494097 0.012307615 0.37158898 -0.0064028166 -0.27860913
0.17039205 0.30069402 -0.0009306218 -0.22757469 -0.06095105 0.17000039 -0.072939456 -0.1999405
0.20520806 0.27487472 0.0070327725 -0.04457362 -0.004692629 0.047966547 0.17134422 0.18530335
-0.30728665 -0.14026426 0.1921998 0.13928056 -0.07919647 -0.22745 -0.2455863 -0.28170586
-0.2014664 0.01950856 0.29369283 0.29754192 -0.37913653 -0.29464245 0.011347116 0.46803987
-0.13966577 -0.23595047 0.12524496 0.08618827 -0.29187456 0.04504902 -0.08205297 0.106932364
-0.22542901 0.22257322 0.27068797 0.18695265 -0.15096574 -0.16375619 -0.07633798 0.34392315
0.15955585 0.27609262 0.11721053 0.04730625 -0.0153661845 -0.2426284 -0.31316775 -0.29499215
0.14692567 -0.08010882 -0.010217447 -0.11909104 -0.028464714 -0.15567602 -0.1670485 0.0312902
-0.078894876 0.085784 -0.14195266 -0.2055368 -0.010486024 -0.12124147 -0.08149097 -0.20686395

net.0.bias f4 [20]
00000000: 3ac9 f03d 4fc1 1cbe ff19 c83e fc10 193e
00000010: 5258 dcbd 9f7f d3bd 47e5 cdbe 7f79 b1be
00000020: cf43 1dbe e016 d93d 8989 763e fa30 0b3e
00000030: 0f8c f8bd 1283 06be 7a88 0f3e 15ea acbe
00000040: e44d 403d 4ce8 033e a035 c9be 29c2 033e
0.11757131 -0.15308116 0.39082333 0.14947885 -0.10759033 -0.10327076 -0.40213987 -0.34663007
-0.15357898 0.10600066 0.24075903 0.13592902 -0.12136089 -0.13135937 0.14016905 -0.3377234
0.046949282 0.12881583 -0.39298725 0.12867035

net.3.weight f4 [40, 20, 5, 5]
00000000: 8229 66bc 16a5 3fbd 7811 3ebd 76bc 80bd
00000010: 3abc 40bd 0d91 4c3d 3324 0a3d dc89 75bd
00000020: fb5e 0ebd 5fcd a0bd 2adf 0c3e 0438 253d
00000030: ca7c db3c c78c 94bd cd97 a6be 6398 bd3d
00000040: 7488 083b 58c8 b3bd e08f 5ebe a38a 3cbe
00000050: 21e4 73bc 5f2b 2bbd 7da9 18bd 62b3 a7bd
00000060: d82f 03be 28a0 8839 5f47 aabc 2cec efbd
00000070: 1711 b6bd 6b05 67bb 6d47 ae3c e2e0 8ebd
00000080: 03cf e4bd 476a c03c 6f58 6c3c 8078 b8bd
00000090: e058 d0bd ac24 833c 22d7 873d ce7e 043c
000000a0: b2d6 b83c 168d a4bd 7810 053b 2aec 833d
000000b0: 789d a43c 9025 8b3d 586d 30bd 7398 a0bc
000000c0: 86c6 413d 90ba 453c 37fe c03d cc1a 6fbd
000000d0: c2a9 dcbd 3cf5 83bd 068d 703d 950d 8fbd
000000e0: 8f0f 50be 9237 b7bd 8a49 c3bb ba19 2ebc
000000f0: d3bc 77bd dc03 ffbc 4b9a a93c 60bf 4abb
00000100: 4025 f6bc 3e43 163d eaec c43d a8f0 a73d
00000110: 00d6 c5bc 9f10 adbc 9ab8 9c3d dbec 2e3e
00000120: 51b9 0b3e 4d10 723c e7b6 04bd b5ba a83d
00000130: 2448 52bc 6c0c 3c3d a067 8e3d b335 5a3d
00000140: 5643 ad3b 09fd a03d c233 983d d16b ef3d
00000150: 4c82 e73d c603 ce3c 97f4 fdbc 0654 493c
00000160: fdbc 093e 2100 953d 3bcd acbd 10cc 743d
00000170: b5fb 133e 226e 233e f013 c03c 4867 99bd
00000180: 6e98 d73c 2dba c03d ef12 4b3d 3daa 00bd
00000190: 4318 973c 7dce 1d3e 1969 cb3d 4d58 433d
000001a0: ec89 113d 8841 9f3d 4aa3 48bd 5755 763c
000001b0: a136 cb3d ed63 773d 2354 0fbe 4f24 edbd
000001c0: d7d3 013d 8afc 2b3e e117 213e d708 b5bd
000001d0: 546e 053d fe9c 663e a16d 0e3e ec85 383d
000001e0: 250f 2d3d 7960 fd3d 627b 1e3e a1f2 653d
000001f0: 99c1 13bc fdb4 723d aede 61bc 0791 8bbc
00000200: 2160 d0bc 3010 c03c e3e6 933d a65d 173e
00000210: 552d 3e3d 5db1 a4bd c0d9 8b3b 48a9 b33d
00000220: 28e3 e43d aa0a dbbd 9ef1 b6bd 9e40 5c3d
00000230: 20b8 fbbc a842 bbbd 4bda c4bd 071f 45bc
00000240: cfc8 f4bb c280 b8bd 57e2 6bbd 3d84 39bd
00000250: bacf e73c a81c bf3d 05e1 803c a53a b93c
00000260: 3fb8 393d 41a5 cdba a5d8 c2ba c10f 8f3c
00000270: 4ffa 5b3c 4f83 bebb bf58 93bb 4fae 0dbc
00000280: c365 3cbd 99a5 00be 0c54 33bd 02c3 0d3d
00000290: 81c4 763d c849 0dbd 5de6 0dbe c1cf 8abd
000002a0: 3fd8 d939 1c6c bb3c 639b 93bc d10c bebd
000002b0: ffc9 9bbc 63fe f1bc 8c35 95ba 2e64 efbc
000002c0: 45c4 483d a90c 41bd a1e7 533c b8da eb3b
000002d0: 00f0 90bb 89c8 b7bc 743d 7fbd 52ea c43c
000002e0: 61ee 683d f1ae 76bd 4489 98bd c745 1cbd
000002f0: da63 093c c6a4 3d3d 4d3c 833a 408b 9dbd
00000300: 9847 30bd 7f5b 2e3d a02d 663d 8d4e 153c
00000310: 9daf 90bd 2d80 03bd 7a7b 03bd bd93 733d
00000320: b2c7 03be 4ec5 16be 2d1f 64be 096c e0bd
00000330: 3098 043d 0132 a0bd 6d80 14be 94f3 7bbd
00000340: fd6a 9e3d f653 bb3d 2d57 47be 0dba 23be
00000350: 0754 e0bc 3317 d93d 562f d33d cc49 ebbd
00000360: b06e 3cbd f473 8f3d 0a18 f33d 3b15 cf3d
00000370: 796e 053d 05b6 893d 12d1 963d 0e4d 343d
00000380: 5c92 21bb 2578 3bbe d24c d5bd 5b8b 383d
00000390: 5985 47bd d3ef 983c 11fa 32bc 126e 993d
000003a0: a5ba 4b3d 7261 c13d 5bc0 f13d fb56 dabc
000003b0: c385 813d 10ab 9d3d 8f92 b43c b839 173d
000003c0: 476b 72bd 28ee a6bd bb9a 7d3d b0c8 bb3d
000003d0: 3148 d8bb 58f6 6ebd 8ff4 46bd a4f5 1f3d
000003e0: b86c eb3c 087c b9bb 08ff 113d a5e3 aabc
000003f0: ca69 02bc a6ea b33c e06e 08bd 1293 78bd
-0.014047982 -0.046788298 -0.04640338 -0.06285946 -0.047054507 0.04994302 0.03372593 -0.059945926
-0.03475855 -0.078516714 0.13757005 0.040336624 0.026792902 -0.07253414 -0.3253769 0.09257581
0.0020833286 -0.08778447 -0.21734571 -0.1841226 -0.014885933 -0.04178941 -0.03727101 -0.081885114
-0.1281122 0.00026059267 -0.020785986 -0.11714968 -0.088899784 -0.0035251032 0.021274293 -0.06976487
-0.11172297 0.023488177 0.014425381 -0.090073586 -0.101732016 0.016008697 0.0663283 0.008086873
0.022563312 -0.080347225 0.0020304006 0.06441529 0.020094618 0.06794274 -0.04307303 -0.019603943
0.047308467 0.012068406 0.09423488 -0.058375165 -0.10774566 -0.06443259 0.05872824 -0.069850124
-0.20318435 -0.08946146 -0.0059596943 -0.010626251 -0.06048281 -0.03112977 0.020703455 -0.0030936822
-0.030047059 0.03668522 0.096155 0.082001984 -0.024149895 -0.02112609 0.076523975 0.1708254
0.13644911 0.014774394 -0.03240099 0.082387365 -0.0128345825 0.045910284 0.06953359 0.053273868
0.005287568 0.078607626 0.07431747 0.11690486 0.11304149 0.025148284 -0.031000419 0.012288099
0.13451 0.07275415 -0.08437582 0.05976492 0.14451487 0.15959981 0.023447007 -0.074904025
0.026317801 0.0941051 0.049578603 -0.031412352 0.018444186 0.154108 0.09932155 0.047691632
0.035531923 0.07776171 -0.04898385 0.015034995 0.09922529 0.06039803 -0.1399694 -0.11579191
0.031696167 0.16795555 0.15731765 -0.08839577 0.03257592 0.22520825 0.13909008 0.045049593
0.04225077 0.12371916 0.15476754 0.056139592 -0.009018325 0.059254635 -0.013786001 -0.017036928
-0.025436463 0.023445219 0.072217725 0.14781818 0.04642995 -0.08041642 0.004267901 0.08772522
0.11176139 -0.106953934 -0.089328036 0.05377256 -0.030727446 -0.09143573 -0.096119486 -0.012031323
-0.0074702273 -0.090089336 -0.0575889 -0.045292128 0.028297294 0.093316376 0.015732298 0.022610972
0.045341726 -0.0015689508 -0.001486559 0.017463567 0.013426377 -0.005813993 -0.0044966633 -0.008647515
-0.045995485 -0.1256317 -0.043781325 0.034609802 0.060245994 -0.03449419 -0.13857408 -0.06777907
0.0004155058 0.022878699 -0.01801843 -0.09279788 -0.019017218 -0.029540246 -0.0011383756 -0.029222574
0.049015302 -0.047131214 0.012933643 0.007197704 -0.0044231415 -0.02243449 -0.062314466 0.024037514
0.05686796 -0.06022543 -0.07448056 -0.038152482 0.008385623 0.04629972 0.0010012478 -0.076925755
-0.043037027 0.042567726 0.056195855 0.009112966 -0.070647456 -0.03210466 -0.03210018 0.059467066
-0.12869146 -0.14723703 -0.22277518 -0.10958106 0.0323717 -0.078220375 -0.14502116 -0.06151159
0.0773525 0.09146874 -0.19466849 -0.15988941 -0.027383817 0.10600128 0.10311763 -0.11488685
-0.046003997 0.07004538 0.118698195 0.10111471 0.032576058 0.067241706 0.07364096 0.044018798
-0.0024653887 -0.1830755 -0.10415043 0.045054775 -0.048711155 0.018669045 -0.010923878 0.07491697
0.049738545 0.09442414 0.11804267 -0.026652804 0.06324341 0.07698643 0.02204254 0.03692028
-0.05918434 -0.081508934 0.06191514 0.091691375 -0.0066004028 -0.0583404 -0.048573073 0.03905262
0.028738365 -0.0056605376 0.035643607 -0.020860502 -0.007959792 0.021962475 -0.033308864 -0.060687132

net.3.bias f4 [40]
00000000: 094a 4a3d ff3d 133c d4e5 983c 3168 f1bc
00000010: f597 03bd fc95 103d c4e3 8ebc a032 b63c
00000020: 3eda 14bc 4458 dfbb a353 943c 2385 313d
00000030: a54b 3dbd 6417 353c bc64 d8ba 23a1 c4bc
00000040: d4df 95bb f488 a9bb fed4 2fbd 8203 1ebb
00000050: 2187 2a3d 41f0 debc df48 0d3b 4b5b 8e3d
00000060: 9657 243b 911a e1bc d13b abbc 1233 c5bc
00000070: 39c4 683d 5c47 8bbb 3a0a 883c 0a1e 073d
00000080: bd00 5cbc 66a4 123d 1b8a b43d 33ef f83b
00000090: 2322 b33b 4fc1 4cbd 5d36 e23c 8d80 afbc
0.04938701 0.008986949 0.018664278 -0.029468628 -0.03212734 0.035299286 -0.017442591 0.022240937
-0.009085236 -0.006815942 0.018106287 0.04333986 -0.04621472 0.01105294 -0.0016509513 -0.024002617
-0.0045738015 -0.005173797 -0.042927735 -0.0024110978 0.041632775 -0.027214171 0.0021558327 0.069510065
0.002507662 -0.027478488 -0.020902546 -0.024072204 0.056827758 -0.00425045 0.016606439 0.03298763
-0.01342791 0.035801314 0.08815404 0.007596874 0.005466716 -0.04998904 0.027613813 -0.021423602

net.7.weight f4 [150, 360]
00000000: 4730 93bd 9897 a03c e8cf 5d3c 0090 c2bc
00000010: 1c50 383d 2546 32bc f0f4 7a3d 61f2 8c3d
00000020: a233 8dbb 6f84 983d a661 933d 6e83 2c3d
00000030: 4120 f23c fcfc 81bc cfb5 453d c50c 823c
00000040: 8abb f03c e1ad d43d 543d 953d fdea 62bd
00000050: d2fc 65bd 4839 18bd c2e0 81bd 86b4 3dbc
00000060: a03d 293b 5370 ba3d 432e 433d 00e0 11bc
00000070: 31b4 1d3d e3d1 c9bc 866b 0d3c a06a 55bd
00000080: 2bda 063d fc59 54bd 3cc1 d33c 98d0 29bc
00000090: dc3b 163c 4c3c 933c 5d4d 423c 712d e33c
000000a0: 6d94 2d3d d59d 263d 06dd 5a3d ac0e 1d3c
000000b0: e323 a6bb 9286 5abb 6dae 40bd 80ca 82bc
000000c0: d366 0abc b2be 2f3d 92a9 7b3d b65e 60bd
000000d0: 2740 babd 30a3 59bd 45a4 e3bc 65e6 78bc
000000e0: 0fbe 6f3d d54d 653d fb98 84bb 41a2 e93c
000000f0: 6313 5e3d 1de3 b4bc 0bfb 03bd a6ee a3bd
00000100: 62f3 6cbd 9037 0cbc 2e34 843c 28b8 7f3c
00000110: e6f6 9c3d a7a6 1f3c eed3 f43c bc6b acbd
00000120: 5aff 7fbc 4988 01be fe5b 51bd 9257 9f3b
00000130: 90d1 2abd 0f61 80bc 1cea dfbc 025b dcbd
00000140: ab99 9bbd 6dc2 b23d 197c 233d 86e2 103d
00000150: 87ab f0ba 9898 bc3d 08f6 343c 85da ec3c
00000160: 97ec 9c3d 51e1 e43d a724 95bc 8017 24bd
00000170: de76 263d 3e58 163d 1a68 75bd 43e9 ba3b
00000180: 739a b33c f048 c2bc 5c26 78bd 9314 2cbd
00000190: dee4 f03c a2f7 9d3d ac8f 83bc 9529 30bd
000001a0: c154 683d 3a67 aebd 71b3 bcbd 9407 353c
000001b0: 3c7c 0dbd e2ee 2ebd 07c9 ed3c f969 bf3b
000001c0: c8c5 703d 2cb9 efbb deac 203d 91f0 283d
000001d0: cd49 243d 6e20 183d 0a9c b0bc 514a f13c
000001e0: 10f7 c83d 3a8f 06bd c044 5ebc 909e 88bd
000001f0: 6d06 93bd 518d 4ebe 5943 8cbc b986 c2b9
00000200: 3535 bb3d b795 b33c 8df7 c2bc 48b0 2b3d
00000210: 3894 25bc 1902 aa3d 1e09 8d3c 997f 05bc
00000220: c163 953d 0a6f a03d 20f3 353d 09be 213c
00000230: 310e a13c a9ad 4f3d 922a 5cbd ddca 1c3d
00000240: 07d0 59bd 95dd 99bc 682b 62bb e810 1e3c
00000250: fec1 b13b 2d84 813d 8554 9dbc 4502 9bbd
00000260: 25ca fc3c 1e56 903d 9529 9b3d ef5e ab3d
00000270: c8b9 6cb9 e831 62bd cbd1 06bd 7441 b3bd
00000280: d2e2 cbbd acd6 333c b257 513c 0c82 b1b9
00000290: ccc5 983c 7245 71bd 919b bc3b 3061 0fbd
000002a0: d1d3 1cbd a751 223b f64b e53c 501e 40bd
000002b0: b366 e0bc 26c6 86bd e09a 693c f65e edbb
000002c0: 78a5 4fbd 960d 573c dcb0 97bd eefb 04bc
000002d0: 469a 753d c7f8 5d3c 8e89 873d ab23 883d
000002e0: a036 c53d 278c 693d 0343 d9bc b9f2 b43d
000002f0: adcb 8b3d 39ab 98bc b4cc 19bc cdc9 9e3c
00000300: b69e c23a f704 123d 0192 79bd 93ff 963c
00000310: 164f c1bc 4866 323d fc4b 653d 0d1d 873b
00000320: 8e88 a63d a893 cd39 8b20 8e3d c902 22bd
00000330: 1a15 15be 8139 a73c b073 69bc e0ab 0a3d
00000340: 741d 403d 9553 40bd 2912 cb3c 657b 66bb
00000350: d298 a13d 0b06 66bb a6a2 653b a4eb 95bc
00000360: 98ea e5bc 2aae fcbc 56b8 c83d 3abd febc
00000370: 9703 c3bc 240f 083d 68b4 7bbb 69e1 a33a
00000380: 11c6 e9bc 92f8 48bd 47e0 02bd 17c1 b43d
00000390: d677 96bc 34ec 6d3c 77e4 813d 09af be3d
000003a0: 7841 693d ebde ae3c e4c2 57bd 8a2d 83bd
000003b0: a728 2a3d 1b05 dbbc 6954 5dbd 2f90 bb3d
000003c0: 7909 253d 2d46 49bd daa8 743d dbdc 3cbd
000003d0: afeb dbbd bce2 a0bb 1e76 f33c d5bf a93c
000003e0: a3ae 873b 36e0 2f3d 7909 73bd 8ee5 8dbd
000003f0: bcfc c93b 43e4 aebd 722d 79bc 55fa 91bd
-0.071869425 0.019603536 0.013538338 -0.023750305 0.044998273 -0.010880982 0.061268747 0.068821676
-0.0043091336 0.07447135 0.07196359 0.04211753 0.029556395 -0.015867703 0.04826909 0.01587523
0.0293863 0.10384727 0.07287088 -0.055399884 -0.05614931 -0.037164003 -0.06341697 -0.011578685
0.0025824085 0.091034554 0.04765154 -0.008903503 0.038501922 -0.024636215 0.008631593 -0.05210364
0.032922905 -0.05184363 0.025848977 -0.010364674 0.009169545 0.017973088 0.011859265 0.02773163
0.042377878 0.040677864 0.05343344 0.009586018 -0.005070196 -0.003334437 -0.047041345 -0.0159657
-0.008447367 0.04290647 0.06144101 -0.054777823 -0.09094267 -0.053134143 -0.02778829 -0.015191649
0.058530863 0.05598243 -0.004046557 0.028519752 0.054217707 -0.022080952 -0.032221835 -0.08004503
-0.057849295 -0.008558169 0.016138162 0.015607871 0.0766428 0.009744323 0.029886212 -0.08418986
-0.015624845 -0.12649645 -0.05111312 0.004862734 -0.04170376 -0.015671281 -0.027333312 -0.10759546
-0.07597669 0.0872849 0.03991327 0.03537228 -0.0018361666 0.092087924 0.011044987 0.028912792
0.076623134 0.11175788 -0.018205954 -0.040061474 0.040640704 0.036705248 -0.059913732 0.0057040765
0.021924233 -0.02371642 -0.060583457 -0.04201181 0.029406007 0.07713248 -0.016059719 -0.043008406
0.056721453 -0.08515783 -0.09213913 0.01104917 -0.034542307 -0.042708285 0.029026521 0.0058414903
0.05878237 -0.0073157754 0.03922736 0.041245047 0.040109444 0.037140302 -0.02155878 0.029454382
0.098127484 -0.032851435 -0.013566196 -0.066708684 -0.0717896 -0.20171095 -0.017121958 -0.0003710294
0.09141008 0.021921976 -0.023799682 0.04191616 -0.010106139 0.08301181 0.017216261 -0.008148097
0.07294417 0.07833679 0.044421315 0.009871968 0.019660087 0.050702725 -0.053751536 0.038279403
-0.053176906 -0.018782416 -0.0034510735 0.009647585 0.005424737 0.06324039 -0.019205341 -0.07568792
0.030858109 0.070476755 0.075762905 0.083677165 -0.00022575923 -0.055223376 -0.032914918 -0.087527186
-0.09955372 0.010976475 0.012777256 -0.00033856963 0.018649004 -0.05890412 0.0057558496 -0.035004795
-0.03828794 0.0024767907 0.027990323 -0.04690391 -0.02739272 -0.065807626 0.0142581165 -0.0072439862
-0.050694913 0.013125798 -0.0740678 -0.008116705 0.05996158 0.013548083 0.06618033 0.06647428
0.096295595 0.057018425 -0.026521211 0.08835358 0.068259574 -0.018636333 -0.009387184 0.019383335
0.0014848325 0.035649266 -0.060930256 0.018432414 -0.023597281 0.043554574 0.055980667 0.004123336
0.081315145 0.0003921066 0.06939801 -0.039553437 -0.14558831 0.020413162 -0.014248773 0.03385532
0.04690309 -0.04695471 0.024788933 -0.0035168764 0.07890476 -0.0035098817 0.0035039573 -0.018300839
-0.028065965 -0.030844767 0.09800784 -0.03109609 -0.023805423 0.033217564 -0.003840709 0.001250309
-0.028536828 -0.04906518 -0.03195217 0.088258915 -0.01836769 0.014521647 0.06342404 0.09310729
0.0569472 0.02134653 -0.052676097 -0.0640517 0.041542675 -0.026735833 -0.054035578 0.0915836
0.040292237 -0.04913919 0.059731342 -0.04610906 -0.107383125 -0.0049098413 0.029719409 0.020721355
0.0041406914 0.042938434 -0.059335206 -0.0692855 0.0061641615 -0.08539631 -0.015208589 -0.07127825

net.7.bias f4 [150]
00000000: 077c 9a3d be75 193d 1d63 f43c 18bc 7b3c
00000010: 54fc 4c3c 7861 06bc 2fc8 b8bd fbd1 0dbc
00000020: 9e73 0b3d b520 283d dd54 a83c 23e3 4abc
00000030: 603d 4e3c b009 5d3d a54f 6d3a 3fbd 57bd
00000040: 3206 8b3d 1560 453d 2977 1cbc d03b a43b
00000050: 3d5c ef3c e42d d8bb 6762 5c3d ddea 55bd
00000060: 8650 a23c 5920 47bd 7ead 0a3d 5837 1b3d
00000070: 1258 103d 4039 af3c bfc1 9b3c e571 553d
00000080: 8ea6 7a3c 0e0a 003d eaf4 7f3a d8bd 95bc
00000090: 1aa3 7d3d efa5 353c ac9d 7abc cb54 9cbc
000000a0: dd49 573c 57bc 81bd 8262 853d 38d1 f03c
000000b0: 64cb 03bc 755d b8ba 1a71 043d ebe0 2abd
000000c0: 3f1e 453d 5a6f 26bd c379 8cbd b537 293d
000000d0: 4f92 8a3c 61d6 e5bb 8142 9f3d 7d29 0a3d
000000e0: a072 d5bb 140d 71bd e1f8 64bc 3121 33bd
000000f0: bbca 373d c4ea 1cbc 2c33 573d ca6b 9a3b
00000100: 1eac 80bd 90d9 943d cbb5 4dbb d01f 6abc
00000110: 4e8e 0b3c 7be0 82bd 5d62 87bb f519 7b3d
00000120: 8b33 de3c ec6f 053d 633b 8dbd 0a30 02bd
00000130: a9a9 34bd e786 863d 7142 a23c dede 69bc
00000140: b6c9 a93c 556c 6abd 9d8c 22bd f455 38bd
00000150: 48f5 1abd ff6d b83c afe4 fa3a 8dbc 233d
00000160: 823a 4cbd d2fa 9a3d 064c 1c3d a4bc 8f3d
00000170: 78a1 563c 7a86 f13a 436f 543d 92ed e83c
00000180: 3304 90bc 8b80 96bd 4fc0 ed3c 1017 1dbb
00000190: fa9d 973c 73a3 a23b 3f0f 163c bb32 74bd
000001a0: 1bdd 923d 178f c9bc 680e d83c 9917 08bd
000001b0: cb9d 813d 3504 1a3d 7799 af3d 52b8 443d
000001c0: df59 2b3d 0df4 87bd 7be3 863d a2f8 ff3c
000001d0: ee50 af3b fb7e 58bd 894d 0dbd 9711 ee3c
000001e0: a6eb 7b3c d249 5f3d c1aa 4bbc b1c2 bb3c
000001f0: 4689 90bb a58c 07bd f477 8cbb 800d 04bc
00000200: 50ca 92bb cfc6 62ba 24f3 3c3c ec9d 5a3d
00000210: 2eae 18bc 3c1e 4a3c 2c4f 91bc da39 5c3c
00000220: 3f31 a73d cb6c 3cbd 53ef c13b 7d03 f8bc
00000230: 74c9 3bbb 1513 60bd f0ef aebc 9add c33c
00000240: aa94 973c 19a2 b3bc 97b2 26bd 6428 753b
00000250: 2910 13bd 46c0 47bd
0.075431876 0.037465803 0.029832417 0.015364669 0.012511332 -0.008201949 -0.09022557 -0.00865602
0.034045808 0.041046817 0.020548278 -0.012383255 0.012587875 0.053964317 0.00090527005 -0.052670714
0.06788291 0.048187334 -0.009549894 0.005012013 0.029218787 -0.0065972675 0.05380478 -0.052225936
0.019813787 -0.048614834 0.03385686 0.037894577 0.03524024 0.021389604 0.019013284 0.05211057
0.015298499 0.03125959 0.0009763973 -0.018279001 0.061923124 0.011086925 -0.015296381 -0.019083401
0.013140169 -0.06334751 0.065129295 0.029396638 -0.008044098 -0.0014065938 0.032334425 -0.041718405
0.048124548 -0.040633537 -0.06859162 0.041312892 0.016915468 -0.0070140813 0.077763565 0.033730973
-0.0065139085 -0.058850363 -0.013975353 -0.043732826 0.044871073 -0.009577457 0.052539036 0.0047125565
-0.06282829 0.07268059 -0.0031388875 -0.014289811 0.008517815 -0.063904725 -0.004131599 0.06130405
0.027124187 0.03257744 -0.06896093 -0.031784095 -0.044107113 0.06568699 0.019807072 -0.014274327
0.020726066 -0.05723222 -0.03968488 -0.045003846 -0.037831575 0.022513388 0.0019141639 0.039974738
-0.049860485 0.075673714 0.03815844 0.07018402 0.013100021 0.0018426918 0.05186392 0.028433595
-0.017580127 -0.073487364 0.029022364 -0.0023970045 0.018507946 0.0049633323 0.009158908 -0.059618693
0.07171079 -0.024604363 0.026374057 -0.03322563 0.06328925 0.03760167 0.08574193 0.048027344
0.041833755 -0.06638346 0.06586357 0.031246487 0.0053502237 -0.052855473 -0.03449777 0.029061122
0.015376007 0.05451376 -0.012430848 0.022919985 -0.0044108955 -0.033093113 -0.0042867605 -0.008059859
-0.004479684 -0.00086508406 0.011532579 0.053373262 -0.009318871 0.01233631 -0.017737947 0.013441527
0.0816369 -0.04600219 0.0059184222 -0.0302751 -0.002865401 -0.054705698 -0.021354645 0.023909379
0.018503506 -0.02192788 -0.04069766 0.0037408108 -0.035904083 -0.04876735

net.9.weight f4 [10, 150]
00000000: 588f b7bd 1c94 39be 13cc 2fbe cd6b 493c
00000010: 0554 003e 4235 04be 408a 40bd e864 973c
00000020: 0b66 6dbd c131 4fbe 45c6 2bbd f419 9d3b
00000030: d48a 183d 03c9 e53d 4793 49be b343 b6bd
00000040: c4af 95bd 6a0c 223d 2bd5 61be 8426 eabd
00000050: 2e28 03be dc48 46bc c616 9e3d c281 c3bc
00000060: 5191 cb3d 4a02 4b3d 2071 893d 18e3 b53d
00000070: 640c ba3d 9c64 15bd c5a1 873d b020 cd3d
00000080: 830d f13c c45e 36bd dad1 5abd 0f2c 0d3e
00000090: e4b3 2abe 8d00 423e 73d7 053e db3e e53c
000000a0: dc62 98bc 2290 6d3c 0789 29be 41b6 803d
000000b0: 3ead 1c3d 5a47 c53d 1266 1cbc 8530 5fbc
000000c0: f984 a53d 99ce b5bd 2f37 b5bc e18e 0b3e
000000d0: d065 9cbd 3376 5d3d e063 f9bc a521 5abe
000000e0: e7f1 04bd 2e24 13bc 5aaa b43d 2c8e 48bd
000000f0: 5e61 e53d 5958 973d dfa6 18be 6a5b 63bc
00000100: 5d28 b53b cfca 8ebd 274f 2dbd 3781 29be
00000110: ad53 d9bd 713b a2bc 1a78 023d 982e 27bd
00000120: 4ba4 5e3b f163 adbd 7bc1 2b3d 0020 12be
00000130: 15e8 1dbb 7d88 6cbe 766c 07be e0f7 9dbc
00000140: 8337 a7bc 23d4 d33c 8f50 b9bd 39d7 d13d
00000150: 4e19 033e 4d01 e9bd 4c68 63bd d34b 02bd
00000160: 031a f73d 876e 37bd 08bb 443d e0b4 ba3d
00000170: ba6b 343d 4076 e83d 2742 8fbc 5f21 27bd
00000180: ea02 dd3b a7cc babd af7e 05be 24fe b4bc
00000190: a5ed e73c 47b6 18be b26f e9bc 7a43 3c3e
000001a0: e98b d23d 4177 093c 6493 4b3c 38af 043d
000001b0: 077b f0bc ea8e 1cbe 9762 35be 811e bd3d
000001c0: cfc9 63bd 187d aebc 275d 06be 1282 023d
000001d0: fd42 053e b8b3 20bd 136b 0abe 0b1e a5bd
000001e0: 7756 37bc 104a 803d 8a23 02bc c2bf 3abe
000001f0: 2ea1 70bc f2b2 0b3d c18a 99bd 809b aebd
00000200: 685d 0c3e f4bc 60bd a3d3 7f3d 2725 18be
00000210: 3237 1b3e 4d92 79bd 5d20 80bc de91 d2bc
00000220: 3d28 a43d eef8 71bc f9ce 6f3e 0197 253d
00000230: 1a0a 90bd 1a3d 863d 08ac 943d 4352 443e
00000240: ca02 ae3a 3a5e d23d ef0d 313d e31d 093d
00000250: b114 a0bc 2aaa 9cbc efb5 943d fc85 243c
00000260: 6c60 293d 7c4a 9ebd 854f 313e a568 c03d
00000270: 320a 59bd a536 903d b13e e9bc 1c9a 8e3d
00000280: 1a85 46bb 838e 323e a37f d83c a58f 02be
00000290: 24e7 9c3d 5eec 8bbc 10aa 04be 1832 6dbe
000002a0: 8509 143e 7f5f e93c 827b b0bd 992f 9abd
000002b0: 948e 32bc b8e7 66bd 39a6 7b3d 71cb 0abd
000002c0: 1d78 6cbd 9429 0d3e 00f0 afbd 2f35 02bc
000002d0: feb2 213e 912a 73bd 7229 18be f363 1abd
000002e0: 8245 c23c 2298 fbbb 96c8 b33d 28bf ef3d
000002f0: d479 003d 0888 263e 0c5b a53d e928 e83b
00000300: 162a 64bd f8b8 38be e8ba 853d bc33 28be
00000310: f407 b6bd f7fc b6bd c239 1abd 6dc9 6a3e
00000320: faf6 76bd 1ec9 bb3c 9074 2d3d 1cbb 4e3d
00000330: 3a24 6cbd d58b 01bd adb8 90bd cb35 0a3d
00000340: d041 663d 0f35 22bd 8e68 edbd 6222 53be
00000350: 3362 95bd 50ff 09be 5fff a23d f5d6 24be
00000360: 2755 f03c e99c 1ebe aeb6 763d 8cd2 4f3d
00000370: 3e2e b9bd 1d11 f7bd de3b 5f3c 28c1 e73c
00000380: 4d52 29bd 4711 4dbe 68ad 5ebd 360c 02bc
00000390: 645d 55bd f434 0ebd e71e d5bd ed81 893d
000003a0: aa8b a93d 730f 123e 3f87 9e3e 8f55 263e
000003b0: 31ff b73d f286 8e3d db24 90be 1ed7 2d3c
000003c0: cc51 99bd 1b1b 1b3b 030b aebd 7f50 22be
000003d0: 9a53 7dbd b837 fabc 9064 01bd 7aa4 bd3d
000003e0: 2f65 933c 6b0f 9a3c 4758 ec3d fb53 193c
000003f0: 1cce 243d 1136 f9bd e9e9 31be 548e 03bd
-0.089628875 -0.18122905 -0.17167692 0.012293768 0.12532051 -0.12910941 -0.047006845 0.018480733
-0.057958644 -0.20233823 -0.04193713 0.0047943536 0.03724177 0.112199806 -0.19685088 -0.08899631
-0.07308915 0.03956262 -0.22053973 -0.114331275 -0.12808296 -0.012102332 0.077191874 -0.023865584
0.09939826 0.04956273 0.0671103 0.08881205 0.090843946 -0.0364729 0.06622652 0.10016
0.029425388 -0.04452397 -0.053422786 0.13786338 -0.16670185 0.18945523 0.13070469 0.027984073
-0.018601827 0.014499696 -0.16556178 0.06284762 0.038251154 0.0963275 -0.00954582 -0.013622408
0.08082003 -0.08877296 -0.02212104 0.13628723 -0.07636607 0.0540678 -0.030443132 -0.21301897
-0.03245726 -0.008980794 0.088215545 -0.04896371 0.11200212 0.07389898 -0.14907406 -0.013876775
0.0055284933 -0.069722764 -0.042311814 -0.16553198 -0.10611663 -0.019803734 0.03185282 -0.04081592
0.0033972438 -0.08466328 0.041932564 -0.1427002 -0.002409463 -0.23098941 -0.13224968 -0.019283235
-0.020412212 0.02585799 -0.090485685 0.102461286 0.12802622 -0.11377201 -0.055519387 -0.031810593
0.12065508 -0.04478314 0.04802993 0.091165304 0.04404805 0.113506794 -0.017487599 -0.04080331
0.006744732 -0.091210656 -0.13036607 -0.02209384 0.02831156 -0.14913283 -0.028495643 0.18385115
0.10280592 0.008390249 0.012425277 0.032393664 -0.029355539 -0.15288892 -0.1771339 0.09234334
-0.05561238 -0.021299884 -0.13121472 0.031862326 0.13013835 -0.039233893 -0.13517408 -0.08062371
-0.011190048 0.06264126 -0.0079430435 -0.18237212 -0.014686866 0.034106202 -0.07497168 -0.08525753
0.13707507 -0.0548677 0.062457692 -0.14857922 0.15157774 -0.06093054 -0.015640432 -0.02570432
0.08015487 -0.014768822 0.23418798 0.04042721 -0.07033177 0.06554623 0.07259375 0.19172005
0.0013275978 0.102718785 0.04322618 0.033475768 -0.019541116 -0.01912411 0.072612636 0.01004171
0.04135172 -0.077290505 0.1731549 0.09394959 -0.05298824 0.070416726 -0.028472276 0.06962988
-0.0030291737 0.17437176 0.02642805 -0.12750109 0.07661274 -0.017080482 -0.12955499 -0.2316364
0.14456756 0.028487919 -0.08617307 -0.0752861 -0.010898251 -0.056373328 0.06143782 -0.033885423
-0.057731736 0.13785392 -0.08590698 -0.00794725 0.15790936 -0.059366766 -0.1485956 -0.037692975
0.023714785 -0.0076780478 0.08778493 0.11706382 0.031366184 0.1626283 0.080740064 0.007084955
-0.0557042 -0.1803931 0.0652979 -0.16425985 -0.08888236 -0.08934968 -0.03765274 0.229284
-0.06029413 0.022923049 0.04234749 0.05047141 -0.057651736 -0.031627495 -0.07066474 0.033742707
0.056215107 -0.039601382 -0.11592208 -0.20618585 -0.07294121 -0.134763 0.079588644 -0.16097625
0.029337479 -0.15489544 0.06023281 0.050737903 -0.09042023 -0.12063811 0.013625113 0.028290346
-0.041338254 -0.20026122 -0.05436459 -0.007937482 -0.052091017 -0.03471847 -0.10406285 0.067142345
0.08278592 0.14263706 0.3096256 0.16243576 0.08984221 0.069593325 -0.28153118 0.01061037
-0.07486305 0.002366728 -0.08498194 -0.1585102 -0.061847307 -0.030544147 -0.031590044 0.09259887
0.017992584 0.01880618 0.11540275 0.009358401 0.040235624 -0.121685155 -0.17374386 -0.032118157

net.9.bias f4 [10]
00000000: 1dab 1bbd 2dd9 83bd 51df 583d c2ff 8abd
00000010: d192 513d c767 95bd 6bc2 dabc 24cc cdbd
00000020: 9778 b2bc aa7a 15bc
-0.038004983 -0.06437907 0.052947346 -0.06787063 0.051165406 -0.072951846 -0.026704034 -0.10048702
-0.021786017 -0.009123484
