result/model_29_1.pth (torch, 307183 bytes, 8 tensors)

net.0.weight f4 [20, 1, 4, 4]
000000 34 f2 bb 3e 33 17 c4 3e f9 a0 bd 3d 19 4f a1 3e
       0.36708224 0.3829895 0.09259219 0.3150566
000010 06 16 85 3d e9 bf 28 3e 69 02 ed bc f5 15 47 3e
       0.06498341 0.16479458 -0.028931813 0.1944197
000020 e4 fd 8a 3e 38 91 cc bd cc eb 8d 3e c8 70 9c 3d
       0.27146828 -0.09988636 0.2771896 0.07638699
000030 b7 13 83 3e 8e 3a 16 3e 75 67 66 3e bd d5 ba bb
       0.2560098 0.14670774 0.22500403 -0.005701749
000040 f7 25 94 3e 3e d2 45 3e 37 b0 9f 3c c3 3c 27 3e
       0.28935215 0.19318482 0.019493205 0.16331773
000050 94 d9 01 be 14 66 d7 3c 15 06 b6 bd 26 a3 01 3e
       -0.12680656 0.026293792 -0.08887879 0.12659892
000060 f6 67 8b be f4 8a 1a be 37 fa 1f be ed 85 6d be
       -0.27227753 -0.15092069 -0.15622793 -0.2319562
000070 f7 fd bd bc 1d e4 96 be 16 dc c3 3d db 82 90 be
       -0.023192389 -0.29470912 0.095634624 -0.28224835
000080 bf c5 93 3e e4 36 25 bd ac de d9 be e9 9a 93 be
       0.28861806 -0.04033555 -0.42552698 -0.28829125
000090 b3 9f 34 3e 55 d1 c8 3e 2e 3b 46 bb 30 9d d2 be
       0.17639045 0.39222208 -0.0030247676 -0.4113555
0000a0 a7 c7 93 3d 95 93 56 3e 93 ad 99 3e 75 5d 4a 3e
       0.07215815 0.20954736 0.3001524 0.19762214
0000b0 a4 f1 7a bc 5d b4 db bc 16 b4 9d 3e cf 0f 71 3e
       -0.015316401 -0.026819402 0.30801457 0.23541187
0000c0 23 cc b5 3d 1f 6a 9e be 31 a1 f6 be f5 5d 8b be
       0.088768266 -0.3094034 -0.48169854 -0.2722012
0000d0 c3 ba 11 be 28 45 44 3e 42 0e 60 3c 00 f3 0a 3e
       -0.142314 0.19167006 0.013675274 0.1356926
0000e0 1a ef 41 3e c3 85 31 3e fc f4 c3 3e 96 7d 0b 3b
       0.18938866 0.17336182 0.38272846 0.0021284572
0000f0 52 39 ba 3d 13 6f a0 bd bd e5 2e 3e 4d 3d f9 3c
       0.09092964 -0.07833686 0.17079826 0.030424738
000100 c8 77 ce 3d 69 d6 0e 3d ef af a0 3e 9a 66 7c bd
       0.1008144 0.034872446 0.31384227 -0.061621286
000110 df 10 3b be fd 11 2f be d5 d0 4d 3e 57 aa 93 3d
       -0.18268155 -0.17096706 0.20099194 0.07210224
000120 24 58 42 3e 85 0e 88 be 90 f6 a6 be 4c fa 85 be
       0.18978935 -0.26573578 -0.32609987 -0.26167524
000130 97 df 33 be b9 b5 d3 3d d0 49 c6 3d 34 5c 67 3e
       -0.17565762 0.10337395 0.09682047 0.22593766
000140 6d 66 ec bc 2b 06 f0 bd f8 25 b6 3d bc a4 35 be
       -0.028857434 -0.117199264 0.08893961 -0.17738622
000150 5a 8c 8f 3e 12 9f 25 bd d8 f6 46 3d 6f de 93 be
       0.28036767 -0.040434904 0.048575252 -0.2888064
000160 1f 97 be 3a 08 7b 59 3d aa 5b 6a bd 22 76 26 be
       0.0014540887 0.053095847 -0.057216324 -0.16256002
000170 fe 6e 99 3e 45 64 28 3e 07 0d 7d be 0f ca 54 be
       0.29967493 0.164445 -0.24712001 -0.20780204
000180 6f b4 af 3e 91 8c 78 3a 74 78 fd bc 31 14 88 be
       0.34317347 0.0009481395 -0.030941226 -0.26577905
000190 6c 6e 0b be c9 b5 64 3b 38 29 c9 bd d2 8a 5f be
       -0.13616341 0.0034898391 -0.09822315 -0.218303
0001a0 de 6a b8 bd 08 b1 96 be 5e 6c a9 be 65 1d 14 be
       -0.09004758 -0.2943194 -0.3309049 -0.14464338
0001b0 7c 6c 9d be 23 6b 75 be 58 94 38 3e 46 7d 03 3e
       -0.3074683 -0.2396665 0.18025339 0.12840757
0001c0 b9 19 94 3d b7 44 69 be 57 34 28 be 19 e7 dd bd
       0.07231469 -0.22780119 -0.16426216 -0.10835094
0001d0 b2 cd 8c bb 9d a3 72 be 2e b1 08 be ed 35 47 be
       -0.0042969817 -0.23695226 -0.13348839 -0.19454165
0001e0 88 a1 58 bd ca 34 13 be a3 a5 a6 bd 54 ec 68 be
       -0.052888423 -0.14375606 -0.081370614 -0.22746402
0001f0 b6 10 40 be c5 4c 32 be b0 e9 fd bd 14 b4 5b be
       -0.18756375 -0.17412098 -0.12398088 -0.21455413
000200 c1 68 98 3e ac 8e 9c 3d bf d2 ad 3e 17 35 60 3e
       0.2976742 0.076444 0.3394985 0.21895252
000210 8b 4a 64 be 0f 5a 3a 3e d0 88 3e bd 5a 77 bf bc
       -0.22294061 0.18198417 -0.046517193 -0.023372341
000220 91 b3 8e be 81 6c a3 be 73 a4 6f bc 82 56 a6 bd
       -0.27871373 -0.3191872 -0.01462661 -0.08121969
000230 76 54 2f 3d 27 31 86 be 83 41 c8 3d 72 a9 67 be
       0.042805158 -0.26209375 0.0977812 -0.22623232
000240 ad fd 0a 3e 9d 21 7c 3e db 09 52 3e 36 de b2 3d
       0.13573332 0.24622197 0.20511572 0.087337896
000250 6f ae d4 3e 8f 14 43 bd 52 0f 59 3d 7d 8f a9 be
       0.41539332 -0.047627028 0.052993126 -0.33117285
000260 fc 91 32 3e ff 8d ba bd 39 8c c9 3d 9a b7 cc be
       0.17438501 -0.09109115 0.098411985 -0.39983827
000270 ce 05 9a 3e a7 b1 93 3d 0a 62 2d be 2b 92 ba be
       0.30082554 0.07211619 -0.1693193 -0.36439642
000280 f0 1a cc 3e 7e 0b 53 3e 18 8b f3 3d 82 86 27 be
       0.39864302 0.20609853 0.118917644 -0.16359904
000290 7d 2e a3 3e 75 16 a5 3d b3 eb f4 bd 3e 50 65 3e
       0.31871405 0.08060924 -0.119590186 0.22393891
0002a0 cd 44 4b 3e ec b9 45 be 1c 11 8b be f0 93 d1 bd
       0.19850464 -0.19309205 -0.2716149 -0.10233295
0002b0 7c 2f 12 3e 0c 08 3f be 09 09 87 be 62 91 24 be
       0.14275926 -0.18655413 -0.2637408 -0.16071084
0002c0 79 58 31 be 56 a4 81 3e 9b 12 58 3e b8 4f c5 be
       -0.17318906 0.2532069 0.21100847 -0.38537383
0002d0 6e e8 04 3e af aa 90 3e 61 aa c2 bc ac af 9e be
       0.1297929 0.2825522 -0.023762884 -0.30993402
0002e0 d0 9d 75 3e da 8e 83 3e 32 04 c1 3a 16 aa 81 be
       0.23985982 0.25694925 0.0014725982 -0.25325078
0002f0 d4 4d 47 3d 23 7e 2d 3e 57 5c 92 bd e0 13 62 be
       0.048658207 0.16942649 -0.07146519 -0.22077894
000300 fa f3 54 3e c4 98 ae 3e 55 f0 b1 3d 69 dd 91 3c
       0.20796195 0.34100926 0.08688418 0.017805772
000310 aa a2 3e bd 19 ae 85 3d 12 92 4e 3e d1 4d 6c 3e
       -0.046541847 0.06527347 0.20172909 0.2307656
000320 fe d6 ab be e0 9f 2c be ec be 1f 3e 11 d9 f0 3d
       -0.33562464 -0.16857862 0.15600175 0.11760152
000330 e5 ae f5 bd 64 eb 85 be c8 cd 85 be e3 68 96 be
       -0.11996249 -0.2615615 -0.2613356 -0.29376897
000340 4f ff 41 be de 3d 32 3d 53 3f b2 3e 40 74 b3 3e
       -0.18945049 0.043516032 0.34813938 0.3504963
000350 d3 e4 c0 be b3 52 99 be f8 a4 b7 3b 26 32 f1 3e
       -0.3767458 -0.29945907 0.0056043826 0.47108573
000360 c0 7a 0e be a2 12 73 be 85 51 ab 3d 79 92 b4 3d
       -0.13914013 -0.23737577 0.08365158 0.08817
000370 f5 f5 95 be b7 b2 39 3d d9 52 fa bd fa 35 a1 3d
       -0.29289213 0.04533645 -0.12222833 0.07871623
000380 96 ce 71 be 2d 17 55 3e 02 09 92 3e 07 7e 51 3e
       -0.23613963 0.20809622 0.28522497 0.20458232
000390 46 22 0d be e5 62 1b be 5a bd 54 bd c6 fd b1 3e
       -0.13782606 -0.15174444 -0.051938392 0.34763926
0003a0 0f 25 21 3e b1 48 7d 3e 55 7d d2 3d 36 15 80 3d
       0.15736793 0.24734761 0.102778114 0.06254046
0003b0 52 de dd 3b ad 23 6c be 6c 52 a2 be 91 4c a1 be
       0.0067708874 -0.23060484 -0.31703508 -0.31503728
0003c0 11 35 f9 3d 22 af be bd 98 2f 8c bc 1a 9e 06 be
       0.12168325 -0.09310748 -0.017112538 -0.13146248
0003d0 c4 7b 8b bd 9b be 33 be f0 0c 2d be 2f 7b f8 3c
       -0.06810716 -0.17553179 -0.16899467 0.030332176
0003e0 64 47 06 be 5c ae 9a 3d 39 0d 12 be 0f 42 73 be
       -0.13113171 0.07552788 -0.14262857 -0.23755668
0003f0 05 34 9c bd 96 f8 28 be 68 af d2 bd 29 f3 75 be
       -0.076271094 -0.16501078 -0.10287362 -0.2401854

net.0.bias f4 [20]
000000 d0 11 69 bd 14 b2 59 be b6 91 a4 3e b4 30 33 3e
       -0.056901753 -0.21259338 0.3214242 0.17499048
000010 f5 45 e3 bd 38 a1 2c be 3e d7 e3 be f6 b8 ac be
       -0.110973276 -0.16858375 -0.44500154 -0.33734864
000020 7b b9 2b be 7b aa 54 3d ef 9e 5d 3e a8 3e 0f 3e
       -0.16769974 0.051920395 0.2164266 0.13988745
000030 3e 15 cd bd 46 d5 08 be fe 71 2c 3e 0a ef b2 be
       -0.10013817 -0.13362607 0.1684036 -0.34947997
000040 1c bf 70 3d fe fd 0b 3e ac f1 aa be da 6d b3 3d
       0.058776006 0.13671109 -0.33387506 0.08761187

net.3.weight f4 [40, 20, 5, 5]
000000 ee 8b ed bd cb 0f cb 3c 11 9c 35 bd 88 2b 99 bd
       -0.11598955 0.024787804 -0.04433829 -0.07479006
000010 2c 4d 26 bc 60 04 ce bd 38 fb b7 3d 6f 1a 92 bd
       -0.010150235 -0.10059428 0.08983463 -0.07133948
000020 c3 0c 8f bd ba 3c 13 3c 75 2d f3 3c b7 20 99 3d
       -0.06984856 0.008986646 0.029684762 0.07476943
000030 82 33 92 3c 79 cb d2 3c 57 9c 83 bd 94 a3 a9 3d
       0.017846826 0.025731789 -0.06426304 0.08283153
000040 c8 1a 50 3d e3 8d 1a 3c c4 92 17 3c 0a dd 7f bd
       0.05080679 0.0094332425 0.0092513 -0.06246666
000050 5e 06 2f 3c 62 45 7a bd 2e ee 74 bd 3f 4b 86 bd
       0.01068267 -0.061101325 -0.05979746 -0.06557321
000060 32 62 12 be e4 08 b8 3c ff cc a6 bb aa a1 96 bd
       -0.14295271 0.022465177 -0.0050903554 -0.07355054
000070 15 e5 8e bd a2 4d 6a bb a6 69 64 3d 14 22 2b bd
       -0.06977288 -0.003575184 0.055764817 -0.041780546
000080 f8 a1 0d be 77 33 f6 3b 56 47 79 bb 52 b3 3d bc
       -0.13831317 0.0075134593 -0.0038036904 -0.011578398
000090 e9 06 aa bd b3 af 5e bc c3 e7 c6 3d 77 3f 4a 3c
       -0.08302099 -0.013591695 0.09712174 0.012344233
0000a0 0e 4c b4 3c f0 ec b1 bd c7 4b 32 bb 85 9d 74 3d
       0.022008922 -0.0868777 -0.0027205811 0.059720535
0000b0 ba a0 1b 3d 7b 32 17 3d c7 5d 54 bd 4e b4 18 bd
       0.037995078 0.036913376 -0.051847246 -0.037281327
0000c0 65 51 22 3d ae cb 06 3d e6 95 00 be 6c cb 03 be
       0.039628405 0.032909088 -0.12557182 -0.12870568
0000d0 5c 6e b3 bd 1d 0f 5d bd 68 85 7a bb b0 66 bd bd
       -0.08761284 -0.05396949 -0.003822649 -0.09248102
0000e0 f3 a8 98 bd 6f f7 f6 bc bf 4b 02 bd c5 15 51 bd
       -0.074540995 -0.030147282 -0.03181052 -0.05104615
0000f0 10 fe 60 bd 7f 58 c8 bc 12 de e7 bc ac 32 39 bd
       -0.054929793 -0.02445626 -0.028304134 -0.04521434
000100 5e d1 53 bd 6c b4 be bd 73 5f 7e bd 91 ed 23 3c
       -0.05171334 -0.093117565 -0.062102746 0.010005371
000110 33 9c b2 bc e0 5a 93 bc 2c 0e 6b bd 90 c9 27 3c
       -0.021802997 -0.017987669 -0.057386562 0.010240927
000120 04 e3 d0 3d fd 16 41 3d d7 e5 cc ba 19 0e 95 bd
       0.1019955 0.047141064 -0.0015632462 -0.072780795
000130 96 47 49 3c d7 18 5b 3d 90 eb 45 ba be 58 80 bb
       0.012285134 0.053490486 -0.0007550055 -0.003916829
000140 b0 0d 85 bb cc 18 dc 3c 06 05 08 3d 32 19 aa 3d
       -0.0040604696 0.026867293 0.033207916 0.08305587
000150 7f 82 8c 3d df 65 0e 3c 9b 76 56 bd 42 c6 96 bd
       0.06860828 0.00869128 -0.052359205 -0.073620334
000160 94 75 b5 bb 35 43 72 3c 1a bf 37 bd f3 14 3d be
       -0.005537698 0.014786531 -0.044859983 -0.18465023
000170 ab ce 07 bd 61 94 d6 3d 2b 55 32 3d af 1a 03 be
       -0.03315608 0.1047752 0.043538254 -0.12803148
000180 84 5f bc bd 49 3a bf 3d 3e 79 c8 3d ba be 94 3d
       -0.09197906 0.09337289 0.0978875 0.07262941
000190 2a b0 d7 bc ea 24 41 3d d9 56 52 bc 8d bf 11 3d
       -0.026329119 0.047154345 -0.012838089 0.035583068
0001a0 0f 22 f2 3c 48 e8 9e 3b 72 fd 19 bd d4 b8 0f bd
       0.029557256 0.0048494674 -0.03759522 -0.035088375
0001b0 74 d5 77 3d c7 47 ae bb 1d be 42 3c 4c b4 01 be
       0.0605063 -0.005318615 0.011886147 -0.12666434
0001c0 61 c9 05 be 50 2e 76 3d f6 9f 99 3d 8d 4b 84 bd
       -0.13065101 0.06010276 0.07501213 -0.06459723
0001d0 a7 7d 66 bd 08 fe f9 bc 15 c4 98 3c d9 77 07 3c
       -0.056272175 -0.03051664 0.018648187 0.00826832
0001e0 42 40 d6 bd b3 5c 45 bc cb a6 12 3d 35 53 62 3d
       -0.10461475 -0.012046027 0.035803597 0.055255134
0001f0 f2 61 8b 3d 48 5c 56 3c c7 1b 81 bd a8 49 05 3d
       0.06805791 0.013083525 -0.06304126 0.032540947
000200 ca a8 5a 3d 85 8c c0 3b 7a 08 0b 3d ae 0e d5 bd
       0.053383626 0.0058761262 0.03394363 -0.104031906
000210 79 5a e6 3d 8a 99 30 bc 2a b1 7d bd cb 3e a2 bc
       0.11247725 -0.010778794 -0.061936535 -0.019805333
000220 dd b7 75 bd 1b 1b 8e 3a db fd 79 bd 2b 3d ac bb
       -0.0599898 0.0010841818 -0.06103311 -0.005256315
000230 d3 54 77 3d 34 22 4e 3d 55 e0 0d bd aa 3c 69 bc
       0.06038363 0.050325587 -0.034637768 -0.014235655
000240 d5 6f 71 bc c8 99 0f 3d 2d 0c 34 3d 94 aa ae bc
       -0.0147361355 0.035058767 0.043956924 -0.021321572
000250 64 23 35 3d b1 ab 96 3d 0f eb 6e 3d ca eb 57 3d
       0.044223204 0.07356966 0.058329638 0.0527151
000260 ef 5a da 3c 6e 17 29 3c fe 05 3e 3c ff 14 ee 3c
       0.026654689 0.0103205275 0.011598108 0.029062746
000270 b4 af e5 3b 7d c0 a4 bc 49 b9 c9 3b 92 b4 88 ba
       0.007009471 -0.020111317 0.006156121 -0.0010429791
000280 9e 39 f6 ba ca 47 f8 bd 4f 4d ca bc 41 bf a0 3d
       -0.0018785482 -0.12123068 -0.024695067 0.07848979
000290 52 2d 8d 3d 90 46 f2 3c 9f c5 f1 bd a7 74 e3 bc
       0.0689341 0.029574662 -0.11805271 -0.027765585
0002a0 5b b1 22 3c 1f 09 92 3c 9d b9 a7 3a 3d 41 c2 bd
       0.00992998 0.017826615 0.0012796406 -0.094850995
0002b0 55 ec d2 bc 3f 06 1f bd 9f ec d9 bb d8 42 ae 3b
       -0.025747458 -0.038824316 -0.006650522 0.005318027
0002c0 ff e9 7e 3d d7 a8 12 bd 7b 5b 00 3d 75 c8 a1 3a
       0.062234875 -0.03580555 0.031337243 0.0012343066
0002d0 68 80 b7 3c 6e 19 40 bc 2c 8e 9c bd 5e 57 06 3d
       0.022400096 -0.011724813 -0.07644305 0.032798164
0002e0 18 3f 37 3d ca 0e d8 bc 6a fc 9f bd ad a7 e1 bc
       0.044737905 -0.02637424 -0.07811816 -0.027545774
0002f0 7e 44 4d 3d da 5f 1e 3d fb bb 85 3c 6a ad 95 bd
       0.050114147 0.03866563 0.016324988 -0.07308467
000300 01 23 b5 bb 10 c1 89 3d be 8d 79 3d 27 3f ea ba
       -0.0055278544 0.06726277 0.06092619 -0.0017871604
000310 69 06 79 bd 00 b6 a0 bc 6a 7e d6 bc 0a dd 77 3d
       -0.06079713 -0.019618034 -0.026183326 0.060513534
000320 02 f6 71 be 2b 3f 6f be b7 3d 81 be 6a f3 1b be
       -0.23629001 -0.2336394 -0.25242397 -0.15229574
000330 99 67 8e bc 8e eb 16 be 90 dc 10 be 11 05 f7 bd
       -0.017383384 -0.14738294 -0.14146638 -0.12061513
000340 3f b1 e3 3c 27 51 24 3d c5 38 aa bd 4a f0 d2 bd
       0.027794478 0.040116455 -0.08311609 -0.10299738
000350 8b 0a bf bd 84 0b 8e 3d 72 e2 a1 3d 80 4b 02 be
       -0.09328183 0.0693579 0.07904519 -0.12724113
000360 ec d1 d9 bd ab a4 be bd 0b ec f6 3c 6b 85 e2 3d
       -0.106357425 -0.09308752 0.030141851 0.11060604
000370 e5 a9 a6 bd b9 28 fe bc f5 85 92 3b 88 f3 5c 3d
       -0.081378736 -0.031025277 0.0044715353 0.053943187
000380 4f 1e c5 3d 8d e7 e1 bd 06 ac 8b bc ea 7a 79 3d
       0.096249215 -0.11030493 -0.0170498 0.060908236
000390 d5 dd 8c bd f4 32 23 bd 84 5d 0e be 93 1a d1 3d
       -0.068782486 -0.039843515 -0.13902861 0.10210147
0003a0 54 cc 98 3d 99 f9 84 3c ab 05 bd 3c 26 e1 0a be
       0.074608475 0.016232299 0.023073992 -0.1356245
0003b0 ea 10 13 3e 72 2c db 3d 73 45 a8 bc 86 99 e3 bc
       0.14361921 0.10701837 -0.020540928 -0.027783167
0003c0 64 2b 2d 3e 75 e7 71 3d 21 76 00 3d 64 e8 e9 bc
       0.16911083 0.059058625 0.031362657 -0.028553195
0003d0 41 a8 2c bd b6 46 29 3e e3 81 61 3c 79 c0 67 bd
       -0.042152647 0.1653088 0.013763878 -0.05658004
0003e0 22 02 48 bd ed fd 85 bd c2 14 b0 bd 17 5c bf bd
       -0.04883016 -0.06542573 -0.08597709 -0.093437366
0003f0 48 e4 7f 3b 98 0f 78 3d 54 e3 fe bb ff 80 e3 bd
       0.0039045978 0.060561746 -0.0077785645 -0.111085884

net.3.bias f4 [40]
000000 9b ee 67 3d 24 6d 91 3c 2b 42 4a 3d d9 ee f1 bc
       0.056624036 0.017752238 0.04937951 -0.029532837
000010 4c 65 52 bd 16 55 5f 3d 9e 84 91 bb b0 f7 15 3d
       -0.051366135 0.054524504 -0.004440858 0.036613166
000020 7b c2 14 bd 37 5b 9f bc 92 4a 4a 3c c6 2b 9b 3c
       -0.036318284 -0.019452674 0.0123468805 0.018941771
000030 3d df 14 bd 18 52 ba 3c a8 af d7 3b c7 95 67 bc
       -0.03634571 0.022744223 0.006582219 -0.014134831
000040 c3 8e 37 bb 6d b2 95 3c d2 cc 2d bd 15 f5 8a bc
       -0.0028008677 0.018273557 -0.04243166 -0.016962567
000050 3a a5 89 3c 9f da b1 bc d3 2d 42 3c 0b cf 6a 3d
       0.016802419 -0.021710692 0.011851746 0.057326358
000060 ce 6a 31 3c 93 cd 64 bc d3 55 bf bc f8 ee 5a 3c
       0.010828687 -0.013965028 -0.023356354 0.013362639
000070 9d 9b 80 3c 50 e9 2c bc 53 d6 4c 3d 04 04 aa 3c
       0.015699202 -0.010553673 0.050009083 0.020753868
000080 23 a2 8c bc d2 a4 32 3d f6 b6 e4 3d 26 49 f2 3c
       -0.017167157 0.043614216 0.111677095 0.029575896
000090 e0 3e 0d 3c 67 7f 3e bd 5b 49 ee 3c e3 c6 a4 bc
       0.008620948 -0.04650822 0.029087713 -0.020114368

net.7.weight f4 [150, 360]
000000 e7 a7 8d 3d 6b 4f a0 3d d2 3c 83 3b c0 78 25 3d
       0.069167905 0.07827648 0.004005053 0.04039836
000010 b5 2d 8d 3d 4a 43 a8 bc a7 c8 e2 3d c4 c2 df 3d
       0.068934835 -0.020539898 0.11073428 0.109258205
000020 44 96 22 bd eb 6b cf 3d d1 b6 a9 3d 47 61 33 3d
       -0.039694086 0.101280056 0.082868226 0.043793943
000030 34 d9 00 3d d0 63 16 bd b6 d5 a4 bd f8 e5 b3 3b
       0.03145714 -0.036716282 -0.080485746 0.005490061
000040 85 22 f0 3b 8f 02 19 bc 1b a8 75 3d 2a d3 72 bd
       0.007328334 -0.009338989 0.05997477 -0.059283413
000050 08 85 11 3d 28 ac ae bc e1 96 5c bd 25 86 ff 3c
       0.03552726 -0.021322325 -0.053854827 0.031191895
000060 47 3f b9 3d 2b c8 02 3b 46 89 bc bc 00 e0 11 bc
       0.09045272 0.0019955735 -0.023014676 -0.008903503
000070 7d 1b 28 3d 2d 91 9a bc 7d 5a 1c 3c 3b 51 55 bd
       0.04104184 -0.018868053 0.009543058 -0.05207942
000080 a7 d8 06 3d 94 e5 6c bd 6c b8 d3 3c 94 cb 2f bc
       0.03292146 -0.05783613 0.025844775 -0.010729689
000090 bb ad 16 bc 96 6c 84 3d 4f f8 96 bc 22 26 b8 3c
       -0.009196694 0.064660236 -0.01842895 0.02247912
0000a0 77 20 a1 3d 67 25 2a 3d de 33 de 3d 39 15 c3 3c
       0.0786752 0.041539576 0.10849737 0.02381383
0000b0 3b cb eb bc b5 e6 d8 39 d4 e2 b6 bc ca 7c 20 bb
       -0.028783431 0.0004137062 -0.022324957 -0.0024488443
0000c0 7f d0 65 bd 34 9a 23 3d b9 65 00 3d 6e 52 51 bd
       -0.05610704 0.03994198 0.03134701 -0.051104
0000d0 2f 81 a5 bc e0 2e 83 bc ec 5b ff 3c 50 ee e9 bc
       -0.020203201 -0.016013563 0.031171761 -0.028556019
0000e0 3f 0a 11 3c 3e fe 51 3c 2c 6e 81 bc 79 e8 f9 3c
       0.0088525405 0.012816964 -0.015799604 0.03050636
0000f0 df 06 8c 3d 26 7d 99 bd 96 76 8b bc 94 6d 4e bd
       0.06837248 -0.07494573 -0.01702432 -0.05039747
000100 0a 52 4e bd e5 32 1f bd e5 d5 df 3c 50 50 fc 3a
       -0.050371207 -0.038866896 0.027323673 0.0019250009
000110 19 8c ae 3d 5a f6 d9 bb 3d a8 c5 bc 79 3d 0a 3d
       0.08522815 -0.006651682 -0.024128074 0.03375003
000120 09 29 db bb d3 d0 28 bd b0 51 84 3c 05 bd a6 3d
       -0.0066882414 -0.041214775 0.016152233 0.08141521
000130 44 96 fe 3c 71 10 43 3d 0e 79 ce 3b 08 f4 1b bd
       0.031077512 0.0476231 0.006301052 -0.038074523
000140 ca 4a 44 bd fc 78 9a 3d 1f 16 04 3d 87 61 72 3c
       -0.047922887 0.07542607 0.03224766 0.01479376
000150 34 6c 77 bc 0e c5 29 3d 64 2e 27 3c ee 1a eb 3c
       -0.015101481 0.04144769 0.0102039315 0.028699365
000160 e3 8a 3b 3d 4e c1 03 3e 46 d0 ba bc 12 50 11 3d
       0.04578675 0.12866709 -0.02280439 0.03547675
000170 ef 2f 3e 3d 46 98 e8 3c b3 3a bd 3b 94 8e 3b bb
       0.04643243 0.028392922 0.0057748198 -0.0028618919
000180 72 a3 10 3d db 57 38 3d 03 c7 92 bc b3 cd 41 bc
       0.035312124 0.04500566 -0.017917162 -0.011828828
000190 07 24 f7 3c 20 a9 13 bd 97 b2 17 3d 83 79 ff 3b
       0.030168546 -0.036049962 0.03703555 0.0077964677
0001a0 06 75 86 3c 04 70 3d bd bc 57 48 bc 7e cc 0f 3d
       0.016413223 -0.046249405 -0.012227949 0.03510713
0001b0 e9 d3 81 3c 00 88 3b 3d 57 27 fe 3b 5d 3c 24 3b
       0.015848117 0.045783997 0.0077561545 0.0025060393
0001c0 0e bc 40 3d 38 de 3d 3d ba 7c c9 3c dc ed 00 3d
       0.047054343 0.046354502 0.024595607 0.03147684
0001d0 a8 0c fc 3d ca 73 6e 3d 6f 68 ef bc a6 17 b3 3c
       0.123071015 0.058215894 -0.029224603 0.021861862
0001e0 f4 ca af 3d d9 13 7e 3c 42 a8 4d 3d ae 90 ce bc
       0.08583632 0.015507662 0.05020929 -0.025215473
0001f0 34 6d fe bd a8 1d 83 be fe fe 10 3d f0 b0 c0 3c
       -0.124231726 -0.25608563 0.03539943 0.02352187
000200 ce 7c 9f 3d 51 9d 7c 3d 25 2a 02 bd 98 93 3f 3d
       0.077874765 0.061673466 -0.031778473 0.046771616
000210 34 39 09 3d 9d d6 2f 3d 7d a7 40 bd 06 99 87 3d
       0.03350182 0.04292928 -0.04703473 0.06620984
000220 5b a9 8d bc 9d bd 45 3c 20 fd 2b 3e fd ba 1a bc
       -0.017292669 0.012069133 0.16795778 -0.009443996
000230 e0 2a df 3c 1e ee 33 3e ca 0a 0f bd 91 a9 41 bc
       0.027242124 0.17571303 -0.0349224 -0.011820213
000240 2b b9 1e bd bc 96 2e bc e9 62 fe bc 2f 63 79 bd
       -0.03875081 -0.010656055 -0.031053023 -0.060885604
000250 32 6a 88 3c 02 69 23 3d 03 83 56 bd 6e 21 24 bd
       0.0166522 0.039895065 -0.052371036 -0.040070944
000260 df 9a a1 bc 4a c2 3a 3d d1 e0 71 3d 13 35 6d 3d
       -0.019727169 0.045595445 0.059052292 0.057911944
000270 f5 70 9a bc e0 22 93 bd 82 d4 9f bd da be 3b be
       -0.01885269 -0.07184386 -0.078042045 -0.18334523
000280 2e ff 82 be 6a 76 63 be 60 e1 33 3d c0 c0 80 3c
       -0.25585312 -0.2221314 0.043916106 0.01571691
000290 c6 90 f0 3c 76 8f d0 bc bb 6c d8 3d 27 16 f9 3a
       0.029365908 -0.025459033 0.10567614 0.0019003794
0002a0 cf db e5 bc b0 66 a1 3d 57 02 ca 3d c3 a5 0b bd
       -0.028058914 0.07880914 0.098637275 -0.03409363
0002b0 78 50 c6 bc a9 4e 39 bd f2 c8 e5 3a 58 90 0c 3c
       -0.024208292 -0.04524103 0.00175312 0.008579336
0002c0 5d c8 3c bc 20 59 18 bc cf 66 97 bd e2 f6 ea bb
       -0.01152238 -0.009298593 -0.07392656 -0.007170544
0002d0 f4 48 3c 3d ee c5 0e bd 99 95 1a 3c da 05 05 3d
       0.04596801 -0.03485673 0.009435081 0.032476284
0002e0 75 bb ef 3d c8 ff 07 3c 21 60 b9 bb e3 fb 0a 3e
       0.117056765 0.008300729 -0.0056572114 0.1357265
0002f0 0a e0 57 3d 3e be 80 3c 3f 64 90 3c 2a 6b 9b 3d
       0.052703895 0.015715715 0.017625926 0.07588799
000300 e2 f3 54 bd f4 1c 17 3d fa 28 41 bd a5 fe 3f bd
       -0.051990397 0.036892846 -0.04715822 -0.046873707
000310 9f 54 6d bb 2f 50 19 3d 86 3b 49 3b a8 98 8d bd
       -0.0036213768 0.037429985 0.0030705645 -0.069138825
000320 54 04 e7 bc 70 8c 9e 3c f7 26 b5 3c c4 b2 fa bd
       -0.028200306 0.019354075 0.022113306 -0.12241128
000330 84 c8 3f be 32 c7 1d be f3 af 1c be ad 45 05 3d
       -0.18728834 -0.15408018 -0.15301494 0.03253715
000340 81 4a 05 3e 11 65 16 3d e8 f0 d3 39 05 32 ea bb
       0.13016702 0.03671748 0.00040424545 -0.007147076
000350 48 e5 78 3d 6c da c9 bc dc e8 3f 3c 0e ca 89 bc
       0.060765535 -0.024640284 0.011713233 -0.01681998
000360 ea 09 9f 3c 48 d9 45 bd 40 57 17 3c 40 15 33 bd
       0.019413907 -0.04830292 0.009237111 -0.043721437
000370 77 13 12 bd 85 93 b3 3d 65 30 61 bc 41 91 df 3a
       -0.035663094 0.087683715 -0.013744448 0.0017056839
000380 74 1a 97 3d 9d 0a 4c 3c 33 1c a2 bc 94 42 ce 3d
       0.073780924 0.012453702 -0.019788837 0.100712925
000390 f8 3b 38 3b fc 3e a3 3c 81 74 98 3d 1c 5f fd 3d
       0.0028111916 0.019927494 0.07444096 0.12371656
0003a0 3f a3 15 bb 46 18 40 3d e7 2f ca bd 91 15 8f bd
       -0.0022832898 0.04689815 -0.09872418 -0.06986535
0003b0 92 b2 15 bd 44 b0 29 bd 4b 1f 62 bd 17 3e 89 3d
       -0.03654725 -0.041427866 -0.055205625 0.06701296
0003c0 cc b2 30 bd ae d6 7b bd 6f 43 29 bd e3 57 9c b5
       -0.043139264 -0.06148403 -0.041324075 -1.1648484e-06
0003d0 13 bc a3 bd b4 4c 59 3c fb db ea bc 25 04 1b bc
       -0.07994857 0.013262916 -0.028669348 -0.009461437
0003e0 3b 32 a7 3c 19 06 29 bd 0f 92 09 be 9c 15 c2 bd
       0.020409694 -0.04126558 -0.13434623 -0.09476778
0003f0 15 af 5c bc b8 76 3f bd c2 4f 6f bc 5f 51 7e 3c
       -0.013469477 -0.04674408 -0.014606418 0.01552233

net.7.bias f4 [150]
000000 ad 36 93 3d 57 eb 3a 3d 11 92 c3 3c d2 e5 3a 3c
       0.07188163 0.045634594 0.02387336 0.0114073325
000010 31 16 3d 3c e7 f1 0b bb e6 c3 6a bd 38 36 23 3c
       0.011540935 -0.0021353902 -0.05731573 0.009961657
000020 c0 89 0c 3d 49 8f 22 3d 65 03 e3 3c d9 5b 25 bc
       0.034311056 0.03968743 0.02771158 -0.010092699
000030 4b 4b 57 bb dc 88 19 3d 80 98 e2 3b 7c ad 7d bd
       -0.0032851275 0.037484035 0.006915152 -0.061933026
000040 b3 da 77 3d 93 1c 02 3d 57 bb 58 bd 24 97 26 38
       0.060511302 0.03176553 -0.052913036 3.9718245e-05
000050 a7 8a e2 3c fa 29 07 bc ed da 6d 3d 45 19 59 bd
       0.027654005 -0.008249754 0.058070112 -0.053002615
000060 66 a7 4c 3c 69 76 54 bd 67 bc ab 3c a7 b0 ff 3c
       0.012491083 -0.051870737 0.02096386 0.031212164
000070 7f ff 19 3d a1 35 a5 3c 37 02 dd 3b eb 26 5f 3d
       0.037597176 0.020167174 0.006744649 0.054480474
000080 da 61 99 3c f2 ad 76 3d d7 be 68 3c 24 5d 90 bc
       0.018723417 0.06022448 0.014205656 -0.017622538
000090 78 9a 3c 3d c5 ba fd bc bb 13 fa bc a0 2f d4 bc
       0.04604575 -0.030972848 -0.030526986 -0.025901616
0000a0 c8 69 ef 3c 1d 5c 3a bd 6d f8 3e 3d f6 c3 b2 3c
       0.029225245 -0.045498002 0.046623636 0.021821957
0000b0 28 11 3e bc aa ac d6 3a d9 f6 21 3d 73 41 3b bd
       -0.01160077 0.0016378362 0.039542053 -0.045716714
0000c0 40 a7 38 3d ff dc 9c bd 59 61 93 bd 1e b0 e5 3c
       0.045081377 -0.07659339 -0.07196302 0.02803808
0000d0 42 4a 2d 3c 29 65 a2 3c 92 e6 9d 3d 36 ee 9d 3c
       0.0105767865 0.019823628 0.077099934 0.019278627
0000e0 90 48 22 3a 4f b7 c4 bc 5b f1 b1 bc 09 95 25 3c
       0.0006190622 -0.02401319 -0.021721533 0.0101063335
0000f0 8a e7 25 3d e3 68 5f bc 04 5e e5 3c 94 40 5a 3c
       0.040504016 -0.013635847 0.027998932 0.013321061
000100 7e 34 a3 bd b4 4d 93 3d d8 bf 45 3d f3 39 1c bd
       -0.079689965 0.07192555 0.04827866 -0.038141202
000110 9d 8d 94 bc dc fd 71 3b 26 cb 20 3c 2e 9a 22 3d
       -0.018133933 0.0036924994 0.009814059 0.03969782
000120 34 5a 66 3d 01 ce 00 3d 24 8c 6f bd f2 1f 2e bd
       0.05623837 0.03144646 -0.058483258 -0.042510934
000130 f7 e4 1b bd 1d f2 74 3d 6b 42 05 3c 08 d3 69 bc
       -0.038060155 0.05980121 0.008133511 -0.014271505
000140 e9 d1 ed 3b ab 63 74 bd 77 28 5b bd b9 19 29 bd
       0.0072576893 -0.059665363 -0.053505387 -0.041284297
000150 e3 e3 68 bd b2 c8 d7 3b cb fe 59 bc 92 47 6b 3d
       -0.056857955 0.006585204 -0.013305376 0.0574413
000160 f7 0b 7e bd a1 88 a3 3d 2d 34 2b 3d 85 ef 89 3d
       -0.06202313 0.07985044 0.041797806 0.06735138
000170 61 c5 38 3d 2a 28 0f 3c 08 d5 90 ba 5e 46 e1 3c
       0.04511011 0.008737603 -0.0011049816 0.027499374
000180 a4 f0 f5 3c 33 8e 56 bd 47 48 8c bc b7 b9 b9 3c
       0.030021973 -0.052381705 -0.017124308 0.022671564
000190 e4 ca 36 bc 69 38 0b bb b1 08 5a bb 01 3b 23 bd
       -0.011156771 -0.002124334 -0.003326934 -0.039851192
0001a0 a0 fd 9f 3d f4 b5 18 bd c7 aa a1 3a 29 4c 91 bd
       0.07812047 -0.0372829 0.0012334221 -0.070946045
0001b0 12 7e 31 3d 83 0f 23 3d 92 bf 85 3d a8 ce 6d 3d
       0.04333312 0.039809715 0.0653068 0.05805841
0001c0 2b d0 11 3d b0 83 8d bd 38 f7 77 3d bb f2 f1 3c
       0.035598915 -0.06909883 0.0605385 0.029534688
0001d0 ea c0 07 bd 55 c8 75 bd 37 e8 93 bc 6a de 11 3d
       -0.03314296 -0.060005505 -0.018055065 0.0356125
0001e0 08 08 1d bb e2 59 ba 3c 4b e7 5b bc 43 3b 6d 3c
       -0.0023961086 0.022747938 -0.013421844 0.014479461
0001f0 93 13 56 3c b9 02 f8 bc b0 19 85 bb d7 dd ae bc
       0.01306619 -0.030274736 -0.0040619 -0.021346016
000200 56 e0 64 3b 18 a4 2d 3d fc af 42 3c 40 8f 09 3d
       0.0034923754 0.04239282 0.011882778 0.03358388
000210 2f bd 90 ba ff 18 0e 3d a4 19 74 bb 48 e2 f3 3c
       -0.0011042709 0.034691807 -0.0037246728 0.029770985
000220 4c a5 87 3d 9b fa 44 bd 56 d8 8f 3c ff 69 9d 39
       0.06623325 -0.04809056 0.017559212 0.00030024347
000230 a5 28 41 3d 47 50 9c bd 9b 98 a9 bc ba d0 a6 bc
       0.047157902 -0.07632499 -0.02070265 -0.0203632
000240 8c 42 a1 3c e6 a9 3e bc fa 8c 22 bc 8a a7 83 3c
       0.019685052 -0.011637187 -0.009921307 0.0160711
000250 c4 7e ab bc c0 17 60 bc
       -0.02093447 -0.013677537

net.9.weight f4 [10, 150]
000000 4b 9c d3 bd 7f 4a f6 bd 73 2f 21 be 69 94 bb 3d
       -0.10332545 -0.12025928 -0.15740757 0.09159166
000010 66 bb eb 3d e4 76 52 bd 9e d3 79 bd 07 38 72 3b
       0.11510353 -0.051382914 -0.06099283 0.0036959664
000020 b0 25 6d bd 55 f8 3e be 96 25 3a bd 18 e0 db 3d
       -0.05789727 -0.18649419 -0.045446 0.10736102
000030 9a e4 76 3d a2 2f a7 3d 06 c2 45 be 09 1f aa bd
       0.060276605 0.08163382 -0.19312295 -0.08306701
000040 fb 97 c2 bd fa 6f 8b bc cd cc 62 bd 9d 33 d2 bd
       -0.09501644 -0.017021168 -0.055371094 -0.10263751
000050 c2 29 13 be 49 fc 19 bd 56 1e 62 3d 13 34 c1 bc
       -0.14371398 -0.037594113 0.05520471 -0.023584401
000060 77 65 58 3d b1 d5 8e 3d f8 8e 8a 3d fb 32 8f 3d
       0.05283114 0.06974352 0.067655504 0.06992146
000070 d8 00 be 3d f2 ca 6f bc 68 fa 5d 3d 3f 25 be 3d
       0.09277505 -0.014635788 0.054193884 0.09284448
000080 9f 17 01 3d 2f 33 cb bd c6 61 b6 bd a0 40 a1 3d
       0.031516667 -0.09921872 -0.089053676 0.07873654
000090 28 71 a1 bd e5 20 24 3e d0 e5 f0 3d 2b 72 6e 3d
       -0.07882911 0.16028173 0.11762583 0.058214348
0000a0 99 c5 05 3e d6 0e 21 3c 57 f4 23 be 2c 79 29 3d
       0.13063659 0.009830197 -0.16011177 0.041375324
0000b0 8b 08 ca 3c e1 2e c0 3d b0 c9 b9 3c b1 44 ac bc
       0.024662277 0.093839414 0.02267918 -0.021028848
0000c0 05 d3 8f 3d f3 1f b3 be ae 50 e7 3b f7 92 0c 3e
       0.07022671 -0.34985313 0.0070591783 0.13727938
0000d0 7b 21 f7 bc 43 8b e8 3d 9f ed 5a bc 61 bf 23 be
       -0.030167332 0.11354687 -0.013362317 -0.15990974
0000e0 b0 39 a9 bc a9 67 df 3b 24 a1 f9 3d d9 0f b4 bd
       -0.02065739 0.006817777 0.12188938 -0.08792085
0000f0 81 b6 ce 3d 79 56 9e 3d a1 1a af bd a5 52 90 bd
       0.100934036 0.07731337 -0.08550001 -0.07047013
000100 a9 16 33 3e 2d 56 a4 bd c6 ab ce bc d2 d1 f8 bd
       0.17489113 -0.08024249 -0.025228392 -0.12149395
000110 80 cb 08 be 06 14 f1 bd a7 fb 50 3c ea fa 4e 3c
       -0.13358879 -0.11771397 0.012755311 0.012633065
000120 ad 68 2e 3d 5a 02 55 bd fd 73 57 3d 28 56 aa bd
       0.042580295 -0.052004196 0.05260085 -0.08317214
000130 07 df da bb 8a 45 02 be bc a1 0b be 3e e2 9d bc
       -0.006679419 -0.1272184 -0.13635916 -0.01927292
000140 06 1b 27 b9 a3 dc 95 3b 0d 3f 5a bd 51 94 de 3d
       -0.00015936428 0.004573421 -0.053282786 0.10868133
000150 70 e4 28 3e bb b0 cc bd ec 9a 7d bc 95 87 8b bc
       0.16493392 -0.09994646 -0.015478831 -0.017032424
000160 08 33 1b 3e 6c 23 15 3d d9 4c cb 3c 13 d5 bc 3d
       0.15156186 0.036410734 0.024816917 0.09220328
000170 6d 55 8a 3d e7 42 d0 3d 58 d5 93 3c e9 8f 47 3c
       0.06754575 0.101690106 0.018046066 0.012180307
000180 f3 a3 24 3c 78 af 86 bd e2 9a 4e bd 9f c0 8a bd
       0.010048854 -0.06576437 -0.050440677 -0.06775021
000190 bf 83 3d 3c b2 99 89 bd 27 f6 fd bc 86 19 00 3e
       0.011567055 -0.06718768 -0.031001164 0.12509736
0001a0 bb 13 c2 3d 5c 5b ff 3c f5 8d 31 3d 6b 57 20 be
       0.094764195 0.031171493 0.04334827 -0.15658347
0001b0 84 cf 77 bc 6c 68 a6 bd 30 1b 92 be 46 b4 bf 3d
       -0.015125159 -0.08125386 -0.28536367 0.09360556
0001c0 a1 e5 91 bd f2 e2 51 bb 86 6f b8 bd 91 a7 07 3d
       -0.07123876 -0.003202614 -0.090056464 0.03311879
0001d0 60 fa 4d 3d 43 6c 0e 3e 6e 03 c3 bd c6 12 14 bd
       0.050287604 0.13908486 -0.095221385 -0.036150716
0001e0 43 16 90 3c 6b 6c aa 3d 7a 26 73 bc 40 93 2d be
       0.01758874 0.0832146 -0.0148407165 -0.16950703
0001f0 c0 a6 fa bb b3 e2 90 3c f8 35 99 bd c0 28 95 bd
       -0.0076492727 0.017686224 -0.07480997 -0.07283163
000200 fc 90 02 3e 94 61 92 bd b0 88 e0 3d 28 e2 f7 bd
       0.1275062 -0.07147518 0.10963571 -0.12103683
000210 86 4a ef 3d 90 ae 83 bd 80 b8 c3 bd 33 e0 0f 3d
       0.11684136 -0.064297795 -0.09556675 0.035125922
000220 90 c7 a6 3d 02 a4 0f bc 9f 89 27 3e 70 12 9d 3d
       0.08143532 -0.00876713 0.16361092 0.07669532
000230 6c c0 e2 bd c3 63 11 3d be 77 96 3d 05 db bf 3b
       -0.11071858 0.03549553 0.07347058 0.0058549666
000240 27 b5 99 3b 95 a1 cb 3d 14 b8 6d 3d 5e 3f 46 3d
       0.0046907845 0.09942929 0.05803688 0.048400275
000250 8a 4c b1 3b 38 ac a7 bd 83 b0 0e 3e 48 a5 cb 3b
       0.0054107355 -0.08187145 0.13934521 0.0062147714
000260 84 6a 7c bc aa 9a a9 bc 51 42 34 3e 28 d0 c9 3d
       -0.015406255 -0.020703632 0.17603423 0.09854156
000270 83 39 1a 3d f1 e8 a5 3d 92 f3 eb bc 92 fa 9e 3d
       0.037652504 0.08101071 -0.028802667 0.07762636
000280 79 cc 0b 3c 6a ee 18 3e a0 bb c7 3c d9 2f 02 be
       0.008532637 0.14934698 0.024381459 -0.12713565
000290 26 28 8f 3d 29 56 16 3d f6 c4 dc bd 7c 4a d3 bd
       0.069900796 0.036703262 -0.10779755 -0.10316941
0002a0 33 1a 7c 3d b7 6b 0c 3d 7b e4 90 bd dc 3c c7 bd
       0.061548423 0.034282412 -0.07074829 -0.09728405
0002b0 08 d2 ba bd fc 2d 57 bd 3e 5e 88 3d da 61 4f 3c
       -0.091220915 -0.05253409 0.066586 0.012657607
0002c0 94 00 4a bd 6e ef a1 3d da f1 55 bd 88 13 d6 bb
       -0.049316958 0.07906996 -0.0522326 -0.00653309
0002d0 a2 04 05 3e de 7d 5c bd 8c 68 05 be b3 92 70 bd
       0.12990049 -0.053830974 -0.13028163 -0.058733653
0002e0 84 a7 ae 3d d3 d0 18 3c 3c 39 85 3d b2 4c c6 3d
       0.08528045 0.009327131 0.06505057 0.09682597
0002f0 e1 1a 8e 3d 7d 57 0e 3e 0e 2a dc 3d 7d cc b0 3c
       0.069387205 0.13900562 0.10750209 0.021581883
000300 2c d3 03 bd 4d 08 09 be 47 90 78 3d 98 2c 25 be
       -0.03218381 -0.13382073 0.06068447 -0.16130292
000310 3f b1 69 bd 1a 37 dc bc 75 cc 47 bd ae ed 22 3d
       -0.0570538 -0.026881743 -0.04877897 0.03977745
000320 1e 96 fc bb ab ce 98 3b af cf 34 3d 98 0d 56 be
       -0.007708325 0.0046633086 0.044143375 -0.20903623
000330 6f 24 1b bd 6a 9c dc 3b 6e b0 89 bd 1b 6a 55 3d
       -0.037876543 0.006732513 -0.067231044 0.052103143
000340 f9 11 a1 3d 9d ef bd bd 52 ab c8 bd b8 14 4b be
       0.07864756 -0.09274218 -0.09798302 -0.19832122
000350 cd 3f 4b bd d0 b1 af bd 19 f5 9c 3e e4 04 fa bd
       -0.049621392 -0.08578837 0.30655745 -0.12207964
000360 bf 26 09 3d ad 30 c9 bd ba 18 42 3d 0b 9e 6d 3d
       0.033484217 -0.09823737 0.047386862 0.05801205
000370 4c 47 8f bd 75 5a a6 bd 4c d2 f7 3a 3a 47 b4 3c
       -0.06996021 -0.08122722 0.0018907278 0.02200662
000380 58 66 52 bd 09 47 1c be 4e d3 bd be 64 b0 a7 bc
       -0.051367134 -0.15261473 -0.37075275 -0.020469852
000390 93 42 71 bd 0a 48 3f bd 0b bd e6 bd 32 e8 1f 3d
       -0.05890138 -0.04669956 -0.11266526 0.039039798
0003a0 67 ee d7 3d 9b f4 df 3d 5b 0a 31 3e 22 95 bb 3d
       0.105435185 0.10935327 0.17289107 0.09159304
0003b0 dd 69 c0 3d 95 01 21 3e 9d ad f7 bd b8 60 22 3d
       0.09395192 0.1572326 -0.12093661 0.03964302
0003c0 59 0a 4e bd 72 d9 c0 3c ef 6e f0 bd e3 a7 dc bd
       -0.050302837 0.023541186 -0.11739909 -0.10774209
0003d0 49 a1 3e 3c 74 b2 97 bd b0 d7 17 be af b9 5f 3d
       0.011635133 -0.07407084 -0.14828372 0.05462044
0003e0 ad b7 27 3c 9a 1f d1 3c 57 b9 87 3d 0f 70 33 3c
       0.010236663 0.025527764 0.06627148 0.01095201
0003f0 36 02 46 3d 79 01 2c be 63 32 02 be f8 ff 2f be
       0.048341952 -0.16797437 -0.12714534 -0.17187488

net.9.bias f4 [10]
000000 2d 89 fb bc 2e 93 3f bd 3a 77 0f 3d a2 eb 8e bd
       -0.030705059 -0.04677122 0.035025813 -0.06978537
000010 97 b9 18 3d a2 f8 99 bd b3 63 ce bc 8d ad cb bd
       0.037286367 -0.07518126 -0.025194025 -0.099452116
000020 cf c6 a5 bb 40 97 6f bc
       -0.0050591 -0.014623463
