result/model_29_0.pth (torch, 307183 bytes, 8 tensors)

net.0.weight f4 [20, 1, 4, 4]
0.24430938 0.24485308 -0.04328917 0.23919798 -0.016117798 0.07350937 -0.1147293 0.15061238
0.25084496 -0.15778752 0.22219305 0.06060465 0.24795878 0.08593952 0.16076562 0.0133862365
0.20125395 0.079658344 -0.057418775 0.1274304 -0.15850542 -0.060219433 -0.13787284 0.121844776
-0.25009242 -0.16201404 -0.12823328 -0.21299696 -0.026280334 -0.29581025 0.16153349 -0.2747252
0.26252735 0.047812272 -0.16973637 0.0492993 0.082503185 0.2361971 0.029426236 -0.11944359
0.04892176 -0.05147843 0.13924041 0.2637016 0.07926106 -0.13847427 0.17740452 0.12393674
0.11337548 -0.20229395 -0.31884757 -0.15883993 -0.15583289 0.23585089 0.09838459 0.14190404
0.13961649 0.07220488 0.27819252 -0.100455664 0.054698613 -0.13179111 0.122148804 -0.029205598
0.09005029 -0.00656511 0.26016164 -0.10790532 -0.16422981 -0.1563493 0.22422776 0.08510854
0.20965905 -0.24097042 -0.2891413 -0.22963867 -0.18787229 0.08639796 0.08064997 0.21310899
-0.09755865 -0.15881737 0.09990094 -0.1536763 0.19405982 -0.060333923 0.09542936 -0.2508009
-0.08222701 0.06426989 -0.0014139452 -0.118930005 0.21091571 0.16204481 -0.22862631 -0.18306534
0.1939525 -0.12735848 -0.12994245 -0.2881845 -0.20134938 0.0012065003 -0.08738608 -0.23160522
-0.05810257 -0.23612052 -0.27605906 -0.19238593 -0.27215126 -0.21579838 0.18728143 -0.00062398077
0.045450747 -0.2675077 -0.19996075 -0.12215724 -0.004556933 -0.25946775 -0.14838788 -0.19474372
-0.04577143 -0.14033581 -0.067696325 -0.22106755 -0.21406715 -0.19380015 -0.1382278 -0.24754986
0.25308245 0.006351161 0.27334172 0.13551986 -0.21631484 0.18768938 -0.04829914 -0.065258995
-0.24546678 -0.28754133 0.02908877 -0.080186956 0.060814183 -0.24476871 0.13954628 -0.21779537
0.009887666 0.135691 0.16632566 0.14807041 0.32026923 -0.112003766 0.07820927 -0.2383438
0.060983624 -0.12806019 0.15249038 -0.29703927 0.20766334 0.10937812 -0.03130858 -0.24569285
0.3002915 0.1306234 0.102885686 -0.15735802 0.1747896 0.022340178 -0.06358854 0.2686324
0.07698512 -0.16208728 -0.15719993 -0.03682026 0.10978352 -0.11075656 -0.18781628 -0.13190864
-0.21315502 0.1467876 0.18017164 -0.32213768 0.11365516 0.20692776 0.03589385 -0.18638588
0.203426 0.20743418 0.08652184 -0.1381135 -0.026845101 0.07546749 -0.065942444 -0.15334995
0.1986904 0.27416515 0.031200973 -0.008147425 -0.022634216 0.019203544 0.1193882 0.13400216
-0.2788099 -0.13758713 0.17785114 0.09011822 -0.06686509 -0.20477545 -0.20626123 -0.26893586
-0.123586886 0.07855343 0.22646905 0.20086643 -0.2867174 -0.20117803 -0.01983767 0.32310733
-0.03083187 -0.119989485 0.092334434 -0.05790341 -0.21638083 0.140745 -0.12409706 -0.032319177
-0.22120336 0.22546533 0.26798487 0.16991568 -0.17337397 -0.2272002 -0.14820158 0.2554087
0.0925079 0.17898135 0.08475406 0.032540865 -0.045809776 -0.2411314 -0.2713107 -0.28612718
0.068226576 -0.16107464 -0.08621096 -0.18030906 -0.08527926 -0.21603447 -0.20465302 0.032811146
-0.119182274 0.10439392 -0.12953383 -0.23519796 -0.08462307 -0.16844867 -0.12431233 -0.28317034
00000000: 3d2c 7a3e c4ba 7a3e fc4f 31bd 51f0 743e
00000010: 7909 84bc 158c 963d 32f7 eabd 223a 1a3e
00000020: c06e 803e 0d93 21be 9386 633e 953c 783d
00000030: e8e8 7d3e 0f01 b03d be9f 243e f251 5b3c
00000040: 8415 4e3e ea23 a33d f32f 6bbd 1d7d 023e
00000050: 3f4f 22be a7a8 76bd 8a2e 0dbe c189 f93d
00000060: 1d0c 80be 02e7 25be 964f 03be e01b 5abe
00000070: db49 d7bc 7174 97be 0969 253e c8a8 8cbe
00000080: fc69 863e cdd6 433d 5fcf 2dbe 10ee 493d
00000090: 6ef7 a83d a7dd 713e 4a0f f13c d79e f4bd
000000a0: 2f62 483d 0cdb 52bd 0a95 0e3e e503 873e
000000b0: 9f53 a23d 33cc 0dbe 88a9 353e 8cd2 fd3d
000000c0: 6731 e83d 2526 4fbe fd3f a3be efa6 22be
000000d0: a892 1fbe e582 713e dc7d c93d 4b4f 113e
000000e0: a0f7 0e3e 27e0 933d 406f 8e3e b3bb cdbd
000000f0: a70b 603d 40f4 06be 2729 fa3d 9440 efbc
00000100: 496c b83d 2220 d7bb e833 853e 77fd dcbd
00000110: dc2b 28be 081a 20be f69b 653e 634d ae3d
00000120: ddb0 563e f3c0 76be 540a 94be 6626 6bbe
00000130: 9861 40be 6af1 b03d d02b a53d 3e39 5a3e
00000140: d4cc c7bd 05a1 22be dd98 cc3d 525d 1dbe
00000150: 9eb7 463e b420 77bd 7870 c33d fa68 80be
00000160: a266 a8bd ef9f 833d 2154 b9ba 9391 f3bd
00000170: 4afa 573e 13ef 253e 041d 6abe 7b75 3bbe
00000180: 7c9b 463e 436a 02be a20f 05be eb8c 93be
00000190: 882e 4ebe 6f23 9e3a 79f7 b2bd eb29 6dbe
000001a0: f6fc 6dbd 94c9 71be 9d57 8dbe d100 45be
000001b0: 6957 8bbe 40fa 5cbe b4c6 3f3e a492 23ba
000001c0: 902a 3a3d c5f6 88be 83c2 4cbe 932d fabd
000001d0: 5352 95bb f5d8 84be fef2 17be e66a 47be
000001e0: d37a 3bbd 31b4 0fbe 5fa4 8abd 885f 62be
000001f0: 6b34 5bbe 8c73 46be 978b 0dbe b67d 7dbe
00000200: 0694 813e 661d d03b 72f3 8b3e b8c5 0a3e
00000210: a381 5dbe a531 403e 52d5 45bd 82a6 85bd
00000220: a55b 7bbe 9e38 93be 924b ee3c 0f39 a4bd
00000230: 4b18 793d a6a4 7abe 38e5 0e3e c005 5fbe
00000240: e1ff 213c 95f2 0a3e 4651 2a3e c59f 173e
00000250: 54fa a33e 3b62 e5bd 2f2c a03d 6610 74be
00000260: f7c9 793d 3622 03be 7026 1c3e 8815 98be
00000270: b3a5 543e a301 e03d 6d3d 00bd e896 7bbe
00000280: cfbf 993e 24c2 053e bbb5 d23d 7622 21be
00000290: 0bfc 323e c002 b73c b53a 82bd 308a 893e
000002a0: 60aa 9d3d 35fa 25be 05f9 20be d7d0 16bd
000002b0: 2fd6 e03d 56d4 e2bd e952 40be 0f13 07be
000002c0: 4f45 5abe 7d4f 163e ea7e 383e 3bef a4be
000002d0: 09c4 e83d dfe4 533e 6e05 133d f1db 3ebe
000002e0: e84e 503e a069 543e 5d32 b13d a06d 0dbe
000002f0: 42ea dbbc b38e 9a3d d50c 87bd c507 1dbe
00000300: 7f75 4b3e 605f 8c3e 2f99 ff3c c77c 05bc
00000310: 646b b9bc c050 9d3c cd81 f43d dd37 093e
00000320: 2cc0 8ebe a4e3 0cbe 9c1e 363e e78f b83d
00000330: 90f0 88bd a8b0 51be 2536 53be f6b1 89be
00000340: 1f1b fdbd 9fe0 a03d 81e7 673e eeaf 4d3e
00000350: a0cc 92be 9d01 4ebe 9c82 a2bc 536e a53e
00000360: 1e93 fcbc 0cbd f5bd d619 bd3d 202c 6dbd
00000370: f092 5dbe 751f 103e 9926 febd 1d61 04bd
00000380: 2283 62be 62e0 663e 5035 893e 60fe 2d3e
00000390: f288 31be 2ba7 68be 28c2 17be eec4 823e
000003a0: c874 bd3d e346 373e 8993 ad3d 9249 053d
000003b0: 08a3 3bbd 26eb 76be 3ce9 8abe 437f 92be
000003c0: 60ba 8b3d c0f0 24be 5f8f b0bd f0a2 38be
000003d0: e5a6 aebd 2438 5dbe 9090 51be fb64 063d
000003e0: d615 f4bd 7bcc d53d 84a4 04be bcd7 70be
000003f0: dc4e adbd cf7d 2cbe 7697 febd b4fb 90be

net.0.bias f4 [20]
-0.14781463 -0.03740995 0.23650135 0.15156874 -0.12132132 -0.16261187 -0.18703985 -0.23771252
-0.16261673 0.015538064 0.22523832 0.1123547 -0.13804857 -0.13359527 0.15768053 -0.1876002
0.021014825 0.15351374 -0.12843549 0.048988644
00000000: b85c 17be 2d3b 19bd 692d 723e d634 1b3e
00000010: 5077 f8bd ba83 26be 6087 3fbe e96a 73be
00000020: 0085 26be 5d93 7e3c e0a4 663e 391a e63d
00000030: 9b5c 0dbe 33cd 08be 0177 213e 441a 40be
00000040: 4827 ac3c b532 1d3e 9884 03be 51a8 483d

net.3.weight f4 [40, 20, 5, 5]
-0.044611815 -0.011625197 0.006585781 -0.024417115 -0.004028821 -0.1002322 0.03916063 0.00715244
-0.02315828 -0.002288506 -0.025957838 0.059997138 0.062511615 0.0137056075 -0.10047605 0.021835973
0.06512353 0.017967364 -0.05352622 -0.033982173 0.0032364835 -0.011419189 -0.028111903 -0.028841577
-0.052117236 0.033563565 0.008486437 -0.07430563 -0.07545027 0.011886544 0.068369485 -0.007666463
-0.102037214 -0.007949126 0.0029017157 -0.0099108955 -0.054528594 -0.03436117 0.076791056 -0.0041103465
0.025082763 -0.07690246 -0.008044226 0.059083942 0.027007181 0.047578804 -0.051738966 -0.035878554
0.02516215 0.007432791 -0.06153707 -0.05222339 0.020769803 0.017079392 0.032710556 -0.08813802
-0.039249215 0.01628697 0.009355964 -0.039619077 -0.04910976 0.046646766 0.025824465 -0.011919661
-0.05980853 -0.034597825 -0.014858655 0.016052525 -0.030841261 -0.038773976 -0.0013491759 0.009175929
0.08712743 0.039895967 -0.0013351665 -0.048371214 -0.018707525 0.05413381 -0.0032484054 -0.025086982
-0.03825958 0.0005774319 0.008966396 0.03425354 0.016552363 0.005229227 -0.0040397127 -0.046331313
-0.029158102 0.0006284692 0.008627383 -0.0613769 -0.02687959 0.05610473 -0.027107498 -0.014571622
-0.061015457 0.045917053 0.041017458 0.039879143 0.0064659957 0.08642153 0.0065044314 -0.006996135
0.030432478 0.045031793 0.006828233 -0.04380958 0.0027640543 -0.023175886 0.009529426 -0.09380334
-0.12111878 -0.011649831 0.018207703 -0.030145233 -0.027951263 -0.004536942 -0.017597698 -0.037721854
-0.014975982 0.028335948 0.021741534 -0.028591303 0.02568376 0.0045493194 -0.059730873 0.0067122695
0.08877575 0.045644406 0.043790236 -0.046977125 0.107093394 0.032295737 -0.04028279 -0.0021160904
-0.048752155 0.027751377 6.8413456e-06 0.012661119 0.013410806 0.005418248 -0.0005716506 0.03430396
0.015005363 -0.018789798 0.03054242 -0.0026390157 0.0810027 0.09289386 0.042257827 0.041585065
0.004965379 -0.0188158 0.011075055 0.03496722 0.014784726 -0.0208801 -0.0011590639 0.012496802
0.013818738 -0.09372864 -0.041178614 0.076790355 0.06910131 0.02137001 -0.10226438 -0.031477384
0.015804417 0.016008565 0.0012124872 -0.07441024 -0.0027591784 -0.030706808 -0.011523262 -0.0071226205
0.052871305 -0.067615844 0.014276854 0.010028254 0.026275616 0.0016467599 -0.06707942 0.037576098
0.060688455 -0.016470717 -0.05403647 -0.039041564 0.051521055 0.040777735 0.017691987 -0.0803247
-0.021221664 0.07120555 0.058414485 -4.7898673e-05 -0.06396332 -0.013806138 -0.022688529 0.056724403
-0.058301877 -0.06580775 -0.09101822 -0.054492947 0.031287964 -0.029067736 -0.060550112 -0.061806567
0.006705406 0.018421404 -0.08045859 -0.07132463 -0.08527026 0.022055453 0.022388246 -0.09136963
-0.04300188 -0.050328903 0.005653657 0.048534997 0.013484005 0.02116537 -0.017017577 -0.046539735
-0.025564997 -0.082550965 -0.06547986 0.063960664 0.0015000958 -0.008513296 -0.123858586 -0.02173969
0.061508317 0.06661953 0.042927977 -0.09933277 0.09034225 0.10333905 0.008231186 -0.06315228
0.056774464 0.048380654 0.057261087 0.010568031 -0.04732366 0.074089125 0.01950933 0.00023276004
-0.0181194 -0.019080555 0.026914937 -0.008970478 -0.047125194 0.054238018 0.0131853325 -0.04395183
00000000: e1ba 36bd 9c77 3ebc 89cd d73b 6706 c8bc
00000010: 3304 84bb 8a46 cdbd e666 203d 045f ea3b
00000020: 6fb6 bdbc c2fa 15bb 88a5 d4bc 8fbf 753d
00000030: 1706 803d 7c8d 603c 63c6 cdbd 5be1 b23c
00000040: 7c5f 853d 4b30 933c 4f3e 5bbd e430 0bbd
00000050: 2f1b 543b 8d17 3bbc ef4a e6bc 2c45 ecbc
00000060: e278 55bd f379 093d b20a 0b3c 8d2d 98bd
00000070: ac85 9abd c7bf 423c 4d05 8c3d f436 fbbb
00000080: e3f8 d0bd 0d3d 02bc b62a 3e3b 4f61 22bc
00000090: 6059 5fbd 4cbe 0cbd a144 9d3d 16b0 86bb
000000a0: 5e7a cd3c 097f 9dbd eecb 03bc 0102 723d
000000b0: 2a3e dd3c fee1 423d 3dec 53bd 64f5 12bd
000000c0: da20 ce3c c58e f33b 4b0e 7cbd 32e8 55bd
000000d0: 6f25 aa3c 15ea 8b3c 81fb 053d b581 b4bd
000000e0: c9c3 20bd 406c 853c c249 193c 9d47 22bd
000000f0: 5127 49bd ae10 3f3d d48d d33c af4a 43bc
00000100: caf9 74bd 73b6 0dbd b771 73bc 9680 833c
00000110: d0a6 fcbc 76d1 1ebd d5d6 b0ba a356 163c
00000120: de6f b23d f469 233d c100 afba e520 46bd
00000130: 8640 99bc 6abb 5d3d 33e3 54bb 3783 cdbc
00000140: 14b6 1cbd cd5e 173a cae7 123c 714d 0c3d
00000150: d298 873c ef59 ab3b 915f 84bb e7c5 3dbd
00000160: f9dc eebc dbbf 243a de59 0d3c 5866 7bbd
00000170: 9632 dcbc 13ce 653d 8b10 debc d0bd 6ebc
00000180: 58eb 79bd 8513 3c3d ec01 283d 5058 233d
00000190: b4e0 d33b c5fd b03d 2023 d53b d63f e5bb
000001a0: 884d f93c 4273 383d 5fbf df3b ad71 33bd
000001b0: 2325 353b 5bdb bdbc 4f21 1c3c f71b c0bd
000001c0: 1f0d f8bd efde 3ebc 5228 953c 23f3 f6bc
000001d0: 0cfa e4bc a1aa 94bb 0c29 90bc 3b82 1abd
000001e0: d25d 75bc ca20 e83c 4d1b b23c 4f38 eabc
000001f0: c066 d23c 7512 953b 5ca8 74bd 99f2 db3b
00000200: 0fd0 b53d a1f5 3a3d 645d 333d 166b 40bd
00000210: c853 db3d 8948 043d 91ff 24bd 1bae 0abb
00000220: 57b0 47bd db56 e33c b68e e536 9570 4f3c
00000230: ffb8 5b3c 8f8b b13b d3da 15ba 4f82 0c3d
00000240: 0ed9 753c 10ed 99bc 1934 fa3c 56f3 2cbb
00000250: bee4 a53d 233f be3d 8b16 2d3d 1a55 2a3d
00000260: 9eb4 a23b 9823 9abc 2674 353c ca39 0f3d
00000270: a33b 723c be0c abbc bbeb 97ba 63bf 4c3c
00000280: fd67 623c cdf4 bfbd e8aa 28bd 4344 9d3d
00000290: fd84 8d3d 2910 af3c fd6f d1bd 6eee 00bd
000002a0: 4478 813c 6524 833c 52ec 9e3a 6564 98bd
000002b0: 55d3 34bb d88c fbbc 10cc 3cbc df64 e9bb
000002c0: 958f 583d 2d7a 8abd 77e9 693c 8c4d 243c
000002d0: f63f d73c 18d8 d73a ef60 89bd 65e9 193d
000002e0: 7594 783d 99ed 86bc 5855 5dbd 0cea 1fbd
000002f0: be07 533d 8e06 273d c9ee 903c 4781 a4bd
00000300: 0ed9 adbc 37d4 913d 0744 6f3d cfe6 48b8
00000310: 33ff 82bd 2433 62bc 4bdd b9bc d957 683d
00000320: f3cd 6ebd 37c6 86bd c367 babd ff33 5fbd
00000330: cf27 003d 761f eebc 6503 78bd e228 7dbd
00000340: 06b9 db3b 7ce8 963c 79c7 a4bd a612 92bd
00000350: 2da2 aebd a3ad b43c 8e67 b73c 0020 bbbd
00000360: bd22 30bd ae25 4ebd 5042 b93b a2cc 463d
00000370: 04ec 5c3c ff62 ad3c 7268 8bbc 73a0 3ebd
00000380: af6d d1bc 7b10 a9bd 4e1a 86bd cffd 823d
00000390: dd9e c43a 5a7b 0bbc 92a9 fdbd 6f17 b2bc
000003a0: 25f0 7b3d d26f 883d 3fd5 2f3d fb6e cbbd
000003b0: 5c05 b93d 6da3 d33d 19dc 063c fc55 81bd
000003c0: 578c 683d cb2a 463d 9a8a 6a3d 8925 2d3c
000003d0: 74d6 41bd 0abc 973d 08d2 9f3c 0c11 7439
000003e0: 236f 94bc d34e 9cbc b77c dc3c e9f8 12bc
000003f0: 5906 41bd af28 5e3d 4b07 583c d606 34bd

net.3.bias f4 [40]
0.047629777 -0.00037898953 0.03646491 0.0055492586 -0.025110431 0.044622175 -0.011563397 0.031085866
-0.02483418 -0.02132256 0.0005633409 0.03635293 -0.030713225 0.017983649 0.0073443907 -0.015423207
0.0034046653 0.0031802463 -0.037649527 -0.010316586 0.02681071 -0.0197489 0.010343287 0.051100105
-0.027317384 -0.01583075 -0.03207589 -0.007957899 0.023529967 -0.008249817 0.033009503 0.015313469
-0.016575933 0.034294266 0.07446531 0.019112078 0.008625431 -0.03450309 0.028609635 -0.02159555
00000000: 7117 433d 1db3 c6b9 3b5c 153d 8ed6 b53b
00000010: 64b4 cdbc bec5 363d 6774 3dbc c9a7 fe3c
00000020: 0d71 cbbc a6ac aebc 2bad 133a cfe6 143d
00000030: 4d9a fbbc 7252 933c 37a9 f03b 9eb1 7cbc
00000040: ce20 5f3b ae6b 503b 6436 1abd e606 29bc
00000050: 22a2 db3c 72c8 a1bc e476 293c 584e 513d
00000060: b5c8 dfbc 7daf 81bc 0262 03bd d961 02bc
00000070: ebc1 c03c 3e2a 07bc f934 073d 58e5 7a3c
00000080: 40ca 87bc 2578 0c3d 4581 983d ef90 9c3c
00000090: ae51 0d3c 1d53 0dbd c15e ea3c 27e9 b0bc

net.7.weight f4 [150, 360]
-0.0011231998 0.015878474 -0.0027619747 -0.021033602 0.05355108 -0.008762808 0.063272186 0.08778524
-0.0386472 0.07243096 0.05682526 0.01648511 0.028035264 0.008011218 -0.06732135 0.01125401
0.016919859 0.0039525325 0.058043543 0.0122094 0.026523167 -0.026903305 -0.013578142 -0.020085376
-0.021700753 0.06544535 -0.029146703 -0.009948237 0.03435204 -0.024951812 -0.011460674 -0.060806103
0.044913445 -0.0846498 0.002326989 -0.022401841 -0.007779282 0.018231146 -0.025483059 -0.007955596
0.035220787 0.028122606 0.045565374 -0.0064166407 -0.0071668993 0.028545618 -0.04700905 -0.058188386
-0.04168605 0.035944957 0.0054310607 -0.041077133 -0.033837967 -0.014694607 0.017361067 -0.017139014
0.031024966 0.03618668 -0.008643648 -0.007030011 0.03492366 -0.020677458 -0.004753234 -0.029973155
-0.04487829 -0.014657211 0.021360029 -0.0070512616 0.040698193 -0.0004635789 0.03526319 -0.05443423
0.0055805994 -0.07903143 -0.027589928 0.009460655 0.015911615 0.013484084 -0.03521719 -0.032351136
-0.053584866 0.063760124 0.036156546 0.05209285 -0.012240916 0.061279956 -0.01006137 0.03130767
0.0510338 0.07825668 0.005498668 -0.022042036 0.022006128 0.048796345 -0.019940458 -0.01792946
0.037272643 -0.006419343 -0.023847837 -0.053197257 0.001664079 -0.047371045 0.026847161 -0.009085908
0.033506233 -0.07177458 -0.03921137 0.030365044 -0.012980011 0.022114685 0.016271096 -0.027781969
0.06779849 -0.033234473 0.016293122 0.018261906 0.07021399 0.026110541 -0.035551324 0.009000791
0.05956222 0.0016780521 0.02192654 -0.060664304 -0.07868697 -0.12926891 -0.03829344 -0.025841305
0.0632558 0.018344184 -0.03347778 0.055193238 0.027299235 0.07547386 -0.01254833 -0.023818308
0.022794222 0.051191997 0.037430547 0.01796241 0.032635532 0.09213511 -0.014148043 0.006614011
-0.0215777 -0.011527283 -0.03731532 -0.061967473 -0.0024723953 0.03716858 -0.010168822 -0.03319439
0.029180108 0.052829836 0.05438211 0.041548505 -0.0024515146 -0.025893236 -0.028735252 -0.08302605
-0.057615753 -0.0027354101 0.03216751 0.0009447028 0.014302829 -0.032498907 0.030582003 -0.028324338
-0.032050427 0.018188918 0.063804716 -0.018236803 -0.02037524 -0.041071367 0.019348934 0.0026849979
-0.024901776 0.02198289 -0.055929422 0.0061225183 0.04772563 -0.015901342 0.044245593 0.02665487
0.052487135 0.022377685 -0.018770617 0.056809936 0.060598258 0.0110774655 -0.0075021465 -0.02468575
-0.012539001 0.03545298 -0.037260998 -0.017867958 -0.025804318 0.041304752 0.03274794 -0.031273447
0.030482726 -0.011466059 0.04262621 -0.029489359 -0.096242934 -0.005843442 0.0013560273 0.040578183
0.07181196 -0.03436393 0.010086792 -0.0066965404 0.008438021 -0.010732284 0.03769655 -0.024925794
0.0055395886 -0.0352043 -0.007944567 -0.05639844 -0.032978386 -0.017718716 -0.051646944 -0.0104948785
0.017482907 -0.02243571 0.0029424955 0.10443066 -0.017561527 0.030236617 0.034001485 0.08876458
0.024376553 -0.0006208857 -0.026432237 -0.044126607 0.0041952594 -0.039981827 -0.03737608 0.031036062
0.04011614 -0.042409014 -0.057492983 0.0041619577 -0.06341923 -0.034436848 0.012042232 -0.0025591194
0.00059278065 0.0010798307 -0.06172209 -0.044967037 -0.023222897 -0.045316998 -0.02378264 0.0020188112
00000000: 5538 93ba 9313 823c 3f02 35bb a94e acbc
00000010: 6158 5b3d e191 0fbc d994 813d bfc8 b33d
00000020: 874c 1ebd af56 943d 9bc1 683d c80b 873c
00000030: 36aa e53c 7c41 033c c7df 89bd bd62 383c
00000040: 849b 8a3c 3f84 813b 11bf 6d3d ef09 483c
00000050: 1d47 d93c 5264 dcbc db76 5ebc 168a a4bc
00000060: c7c5 b1bc 3608 863d 11c5 eebc eefd 22bc
00000070: bab4 0c3d be67 ccbc 8dc5 3bbc d20f 79bd
00000080: 29f7 373d e05c adbd 6680 183b 1184 b7bc
00000090: 59e9 febb 7c59 953c d9c1 d0bc 3058 02bc
000000a0: ac43 103d 6161 e63c c2a2 3a3d af42 d2bb
000000b0: 4fd8 eabb 80d8 e93c 908c 40bd f256 6ebd
000000c0: febe 2abd 053b 133d 0af7 b13b 7f40 28bd
000000d0: ae99 0abd a6c1 70bc cc38 8e3c 1e67 8cbc
000000e0: 1228 fe3c 7c38 143d 169e 0dbc 025c e6bb
000000f0: 1d0c 0f3d c663 a9bc 04c1 9bbb 438a f5bc
00000100: 4cd2 37bd cc24 70bc 3afb ae3c 450e e7bb
00000110: 26b3 263d 820c f3b9 2270 103d 6df6 5ebd
00000120: 76dd b63b 3bdb a1bd 4604 e2bc dd00 1b3c
00000130: 1359 823c 59ec 5c3c e63f 10bd a082 04bd
00000140: ce7b 5bbd ab94 823d e318 143d 505f 553d
00000150: 1f8e 48bc b100 7b3d 72d8 24bc 793c 003d
00000160: d108 513d 0a45 a03d 2c2e b43b 8091 b4bc
00000170: 3246 b43c adde 473d 2c5a a3bc cee0 92bc
00000180: 33ab 183d 5a59 d2bb 8a5c c3bc 5ee5 59bd
00000190: 3a1d da3a 2408 42bd 94ee db3c 0fdd 14bc
000001a0: d53d 093d 8dfe 92bd 1a9c 20bd 1dc0 f83c
000001b0: 1daa 54bc db29 b53c f64a 853c 0397 e3bc
000001c0: efd9 8a3d df20 08bd 2779 853c fe99 953c
000001d0: 5acc 8f3d c6e5 d53c 449e 11bd 0e78 133c
000001e0: 84f7 733d 16f2 db3a 4a9f b33c 227b 78bd
000001f0: a226 a1bd 125f 04be 95d9 1cbd 25b1 d3bc
00000200: 428c 813d 8b46 963c ff1f 09bd 4e12 623d
00000210: a5a2 df3c 0a92 9a3d 8397 4dbc 9d1e c3bc
00000220: f3ba ba3c b3ae 513d c650 193d e725 933c
00000230: d6ac 053d 55b1 bc3d 31cd 67bc 58ba d83b
00000240: b7c3 b0bc eedc 3cbc f3d7 18bd 9bd1 7dbd
00000250: e907 22bb 153e 183d 219b 26bc d7f6 07bd
00000260: 1f0b ef3c 1964 583d c6bf 5e3d c42e 2a3d
00000270: 97a9 20bb 0d1e d4bc 3166 ebbc 9009 aabd
00000280: 7ffe 6bbd 9144 33bb 14c2 033d efa5 773a
00000290: 6a56 6a3c 931d 05bd 1c87 fa3c 7108 e8bc
000002a0: 4f47 03bd ed00 953c 0cac 823d 5965 95bc
000002b0: fae9 a6bc 733a 28bd a881 9e3c caf6 2f3b
000002c0: cffe cbbc 7615 b43c 4016 65bd 689f c83b
000002d0: f37b 433d 8843 82bc de3a 353d 505b da3c
000002e0: c0fc 563d 6851 b73c d6c4 99bc 89b1 683d
000002f0: e135 783d 427e 353c 91d4 f5bb c539 cabc
00000300: 6270 4dbc 2537 113d fd9e 18bd d35f 92bc
00000310: 9463 d3bc 2c2f 293d b422 063d 9618 00bd
00000320: e9b6 f93c 23dc 3bbc d298 2e3d ab93 f1bc
00000330: 041b c5bd 587a bfbb babc b13a 4f35 263d
00000340: 2612 933d 31c1 0cbd 1243 253c a76e dbbb
00000350: a03f 0a3c 76d6 2fbc b367 1a3d 2e31 ccbc
00000360: 7085 b53b 6232 10bd ee29 02bc 0d02 67bd
00000370: 5814 07bd d726 91bc bf8b 53bd b6f2 2bbc
00000380: 5038 8f3c 18cb b7bc e2d6 403b bedf d53d
00000390: 31dd 8fbc c8b2 f73c 2445 0b3d 34ca b53d
000003a0: 56b1 c73c efc2 22ba 6b88 d8bc 1abe 34bd
000003b0: 6378 893b fcc3 23bd a917 19bd 573f fe3c
000003c0: d250 243d 13b5 2dbd c37d 6bbd 0861 883b
000003d0: f1e1 81bd a70d 0dbd c84c 453c e6b6 27bb
000003e0: d664 1b3a 1b89 8d3a 4dd0 7cbd 5b2f 38bd
000003f0: f23d bebc 519e 39bd d0d3 c2bc 084e 043b

net.7.bias f4 [150]
0.050722472 0.016128996 0.017307157 0.009179995 -0.002883063 -0.016106978 -0.057410415 0.013159399
0.03420447 0.008368769 0.033001255 -0.02065406 -0.021424863 0.051037468 -0.008442762 -0.046577297
0.051463146 0.037174188 -0.04449444 -0.030097572 0.03049586 0.003690865 0.051961813 -0.053026292
-0.010628309 -0.059094936 0.029956663 0.04147284 0.030515272 0.02452685 0.017198114 0.047682416
-0.020105837 0.031940483 0.011762548 -0.058362816 0.025358729 -0.03167162 -0.041213017 -0.012111273
0.0013897477 -0.020604994 0.029227953 0.0062181335 -0.010736764 -0.013477501 0.03851249 -0.046411376
0.030164499 -0.065625735 -0.053108457 0.013446637 -0.004786759 -0.0021539682 0.05101717 0.0051669804
-0.0051568625 -0.042663794 -0.023166358 -0.018706001 0.0017641885 -0.027269423 0.026933223 0.022836385
-0.055383217 0.057113767 -0.0052908645 -0.04738343 -0.019194992 -0.025380211 0.009961681 0.04271633
0.041986074 0.017921586 -0.058406502 -0.037925933 -0.030365488 0.05468175 0.021769442 -0.018894112
0.017301083 -0.058676694 -0.031963393 -0.033913095 -0.043708008 0.029207464 -0.039277308 0.04010774
-0.05773711 0.04360207 0.026725698 0.04502399 0.026687732 -0.0113743115 0.01738794 -0.00017534543
0.00497457 -0.051745567 -0.01601824 0.021521494 -0.011165537 -0.0045591113 -0.03027297 -0.044614412
0.046825647 -0.018206773 0.02726096 -0.055511 0.02899907 0.040827487 0.059845686 0.041088257
0.03093162 -0.050589472 0.050901465 0.025777888 -0.032589577 -0.050042238 -0.026781034 0.02760206
-0.016473794 0.040156294 -0.007991161 0.021976352 0.019055767 -0.025816081 -0.004182611 0.0019924627
-0.004931212 0.021527346 -0.008191971 0.025473824 -0.016453512 0.03560891 -0.008654322 0.019625327
0.04854213 -0.044027317 0.0046169586 -0.004876541 0.033459026 -0.050421257 0.004797244 -0.010939222
0.007872059 -0.057634518 0.018498512 -0.00282937 -0.01714005 -0.037579358
00000000: 5ec2 4f3d f520 843c bdc7 8d3c b167 163c
00000010: c5f1 3cbb c8f2 83bc 2f27 6bbd 859a 573c
00000020: fd19 0c3d 291d 093c 532c 073d b432 a9bc
00000030: 3283 afbc aa0c 513d 8353 0abc d6c7 3ebd
00000040: 05cb 523d f643 183d cd3f 36bd 2f8f f6bc
00000050: 74d2 f93c 70e2 713b e9d5 543d 1932 59bd
00000060: 5c22 2ebc 880d 72bd ad67 f53c 6ddf 293d
00000070: 2afb f93c 88ec c83c 0fe3 8c3c a34e 433d
00000080: ffb4 a4bc 06d4 023d b4b7 403c d90d 6fbd
00000090: 1cbd cf3c 1aba 01bd fbce 28bd 5c6e 46bc
000000a0: 3228 b63a cecb a8bc 766f ef3c 7cc1 cb3b
000000b0: 41e9 2fbc bdd0 5cbc 46bf 1d3d db19 3ebd
000000c0: 8a1b f73c c966 86bd 4188 59bd 494f 5c3c
000000d0: 3fda 9cbb 9729 0dbb 61f7 503d c64f a93b
000000e0: e6fa a8bb 3bc0 2ebd 60c7 bdbc 543d 99bc
000000f0: 583c e73a 2064 dfbc 10a3 dc3c 5f13 bb3c
00000100: 83d9 62bd 20f0 693d fd5e adbb 2115 42bd
00000110: d13e 9dbc 29ea cfbc 5236 233c 52f7 2e3d
00000120: 97f9 2b3d 4ad0 923c a83b 6fbd 3958 1bbd
00000130: 0bc1 f8bc f8f9 5f3d d455 b23c d3c7 9abc
00000140: 00bb 8d3c f956 70bd 0cec 02bd 75e8 0abd
00000150: 2b07 33bd 7e44 ef3c 3ee1 20bd 0348 243d
00000160: bf7d 6cbd 1698 323d daef da3c 136b 383d
00000170: 3ba0 da3c 525b 3abc 2771 8e3c eedc 37b9
00000180: b801 a33b 29f3 53bd af38 83bc d84d b03c
00000190: a8ef 36bc 9964 95bb 05ff f7bc 9abd 36bd
000001a0: 40cc 3f3d 5f26 95bc 6052 df3c 815f 63bd
000001b0: 758f ed3c b93a 273d c020 753d 294c 283d
000001c0: 4f64 fd3c e836 4fbd 0e7e 503d 262c d33c
000001d0: a67c 05bd 17f9 4cbd e663 dbbc b71d e23c
000001e0: 0df4 86bc ed7a 243d 5ced 02bc c007 b43c
000001f0: d71a 9c3c 3f7c d3bc 490e 89bb fa93 023b
00000200: 0196 a1bb 1e5a b03c 9e37 06bc 7bae d03c
00000210: 84c9 86bc a6da 113d dbca 0dbc 4bc5 a03c
00000220: 1dd4 463d fd55 34bd db49 973b 64cb 9fbb
00000230: 550c 093d 8586 4ebd 3332 9d3b 6c3a 33bc
00000240: cff9 003c 2c12 6cbd 318a 973c f46c 39bb
00000250: 4a69 8cbc d0ec 19bd

net.9.weight f4 [10, 150]
-0.021320846 -0.09071933 -0.10936634 0.04093636 0.097537614 -0.053205654 -0.0606806 0.018344767
-0.057991337 -0.075541995 -0.040923964 0.014846189 0.02339004 0.082539245 -0.10386233 -0.07348165
-0.00018046366 -0.00049863075 -0.10019838 -0.08205695 -0.10524001 -0.011677586 0.052025888 -0.03101246
0.019065982 0.037650656 0.037552755 0.056490727 0.08665027 -0.015465925 0.064514875 0.08588702
0.027279438 -0.04383119 -0.054103035 0.07450133 -0.060128517 0.07642099 0.07628214 0.022689281
0.0109806275 0.020182332 -0.09259933 0.038498756 0.03554372 0.09078759 -0.038557675 -0.01567186
0.061468314 -0.06680901 0.019588135 0.08754748 -0.020745777 0.03640805 -0.010019468 -0.082282476
-0.023385251 0.011616382 0.061943572 -0.079278566 0.104335524 0.060551412 -0.084168695 -0.07023265
0.072032355 -0.04067495 -0.041168336 -0.115969606 -0.041922625 -0.08443553 0.035109624 0.012635519
0.01401733 -0.06439394 0.05783959 -0.045611084 -0.003114663 -0.11583936 -0.094417505 -0.024962837
0.028102437 0.003142877 -0.02734239 0.08639996 0.06228979 -0.06768358 0.0033565445 -0.033879805
0.07175236 0.012996897 0.017060388 0.09394237 0.06554163 0.07833886 -0.009525828 -0.040539708
-0.009530702 -0.05607537 -0.049933176 -0.064042665 -0.0020643617 -0.06681347 -0.019001814 0.08259588
0.082277045 -0.0041503073 0.025711847 -0.07539887 -0.012156622 -0.07707006 -0.09517951 0.07202631
-0.046541065 -0.00578764 -0.079596154 0.02710884 0.050562214 -0.04196447 -0.088338174 -0.007056321
0.0065561663 0.042735763 -0.005266409 -0.10345412 -0.01081182 0.030154787 -0.074783996 -0.07017101
0.112506524 -0.08525528 0.04551241 -0.08745455 0.11669464 -0.0785687 -0.036001008 -0.0014453746
0.079297334 -0.013690056 -0.052309208 0.0648133 -0.08518886 0.061508562 0.09191889 0.024923421
-0.007960494 0.06301207 0.08597082 0.04148113 -0.0066539245 -0.03445794 0.06049955 0.019682763
-0.04906781 -0.031161146 0.10819481 0.09164521 0.037773218 0.0701361 -0.028694885 0.07482841
-0.0075623365 0.11803933 0.012225577 -0.073089615 0.094055586 -0.020508148 -0.060811866 -0.01432147
0.10088627 0.027795425 -0.07775519 -0.0752761 -0.051119413 -0.066375 0.015636493 0.028091924
-0.017257914 0.099394985 -0.008030987 -0.0051364102 0.1009991 -0.02980675 -0.098211095 -0.039704893
0.08409098 -0.0024842436 0.074737616 0.062817015 0.040273424 0.11446762 0.11199774 0.03910117
-0.028482975 -0.09579663 0.06263397 -0.11740584 -0.02447839 -0.061520416 -0.01748346 0.047636185
-0.05436602 0.010199891 0.04953971 0.021406095 -0.02646054 -0.07099151 -0.096429415 0.042794563
0.01494617 -0.080885135 -0.060642112 -0.13564408 -0.05102285 -0.08487625 0.09358737 -0.09449414
0.029024607 -0.072771564 0.04893667 0.064257346 -0.06585223 -0.08262697 0.06333134 0.043227017
-0.051441938 -0.096097894 -0.096834406 -0.004915751 -0.04506558 -0.046707626 -0.07864022 0.039237175
0.0737359 0.080640055 0.09643596 0.07521338 0.09409224 0.06511472 -0.09433378 0.022910392
-0.0066407453 0.010774244 -0.11449133 -0.055689424 0.0074768336 -0.036866087 -0.06979988 0.057385832
0.010017446 0.03060535 0.06742049 0.03843822 0.05272117 -0.08042252 -0.08048696 -0.044355795
00000000: 0ea9 aebc 0ecb b9bd 76fb dfbd e2ac 273d
00000010: cdc1 c73d 2cee 59bd 398c 78bd c447 963c
00000020: 5388 6dbd c3b5 9abd e39f 27bd 6e3d 733c
00000030: 789c bf3c 560a a93d c6b5 d4bd 8c7d 96bd
00000040: d83a 3db9 8bb6 02ba cf34 cdbd 790d a8bd
00000050: 1388 d7bd 5853 3fbc 1919 553d d80d febc
00000060: 4330 9c3c 9337 1a3d ebd0 193d d262 673d
00000070: b275 b13d cb64 7dbc 6020 843d 89e5 af3d
00000080: 2179 df3c 5588 33bd 259b 5dbd 2794 983d
00000090: 5249 76bd 9c82 9c3d d039 9c3d dfde b93c
000000a0: 17e8 333c 6b55 a53c b8a4 bdbd dfb0 1d3d
000000b0: 4b96 113d d8ee b93d a7ee 1dbd 4662 80bc
000000c0: 33c6 7b3d 2ad3 88bd 4c77 a03c 184c b33d
000000d0: 0cf3 a9bc 9c20 153d b228 24bc b783 a8bd
000000e0: 6d92 bfbc a352 3e3c 8bb8 7d3d cd5c a2bd
000000f0: ddad d53d c204 783d a360 acbd 23d6 8fbd
00000100: b385 933d c79a 26bd 21a0 28bd 7981 edbd
00000110: 0fb7 2bbd 89ec acbd 1ccf 0f3d 3505 4f3c
00000120: f1a8 653c f8e0 83bd 35e9 6c3d b0d2 3abd
00000130: 601f 4cbb 303d edbd f75d c1bd dd7e ccbc
00000140: 1537 e63c baf8 4d3b 26fd dfbc 76f2 b03d
00000150: 9423 7f3d b09d 8abd 79f9 5b3b 8dc5 0abd
00000160: e7f2 923d f0f0 543c 3ac2 8b3c db64 c03d
00000170: b13a 863d 2070 a03d 3812 1cbc f70c 26bd
00000180: a926 1cbc 4aaf 65bd bb86 4cbd cd28 83bd
00000190: 3e4a 07bb 80d5 88bd b1a9 9bbc 0728 a93d
000001a0: de80 a83d 4dff 87bb a7a1 d23c b96a 9abd
000001b0: 912c 47bc e8d6 9dbd 7aed c2bd 8882 933d
000001c0: d8a1 3ebd 3ea6 bdbb 4f03 a3bd 5c13 de3c
000001d0: 531a 4f3d f0e2 2bbd a5ea b4bd b638 e7bb
000001e0: 1cd5 d63b b20b 2f3d d791 acbb c1df d3bd
000001f0: 0f24 31bc 2c07 f73c 5a28 99bd d2b5 8fbd
00000200: d269 e63d 529a aebd 396b 3a3d 5f1b b3bd
00000210: 99fd ee3d a0e8 a0bd cb75 13bd b972 bdba
00000220: a466 a23d 424c 60bc 2e42 56bd d6bc 843d
00000230: 7f77 aebd 67f0 7b3d f93f bc3d 342c cc3c
00000240: bb6c 02bc 790c 813d 7811 b03d 1ee8 293d
00000250: 2a09 dabb c523 0dbd 60ce 773d bf3d a13c
00000260: 54fb 48bd a945 ffbc 3e95 dd3d 7cb0 bb3d
00000270: 17b8 1a3d 84a3 8f3d 8911 ebbc a33f 993d
00000280: 7acd f7bb 9bbe f13d c94d 483c 02b0 95bd
00000290: 37a0 c03d b400 a8bc dd15 79bd 99a4 6abc
000002a0: 769d ce3d 3bb3 e33c 1d3e 9fbd 5b2a 9abd
000002b0: 9762 51bd 9eef 87bd 1a18 803c 0921 e63c
000002c0: 7860 8dbc 998f cb3d 6794 03bc 554f a8bb
000002d0: 9ed8 ce3d 492d f4bc e622 c9bd 99a1 22bd
000002e0: e437 ac3d b1ce 22bb 0910 993d 35a6 803d
000002f0: bff5 243d 006e ea3d 125f e53d 8c28 203d
00000300: 2155 e9bc 0631 c4bd 3d46 803d 7972 f0bd
00000310: e886 c8bc d5fc 7bbd 7939 8fbc 291e 433d
00000320: e7ae 5ebd 721d 273c 27ea 4a3d d65b af3c
00000330: c6c3 d8bc ff63 91bd c97c c5bd 5a49 2f3d
00000340: c8e0 743c 1ba7 a5bd dd63 78bd 48e6 0abe
00000350: 56fd 50bd 99d3 adbd bcaa bf3d 2586 c1bd
00000360: 03c5 ed3c 4209 95bd d171 483d 5b99 833d
00000370: 89dd 86bd 5438 a9bd ddb3 813d d00e 313d
00000380: c8b4 52bd f9ce c4bd 1e51 c6bd 4f14 a1bb
00000390: b096 38bd 7f50 3fbd 200e a1bd 29b7 203d
000003a0: d902 973d 9d26 a53d 3780 c53d 7909 9a3d
000003b0: 6fb3 c03d de5a 853d 1232 c1bd 93ae bb3c
000003c0: 9c9a d9bb 7486 303c 6e7a eabd 981a 64bd
000003d0: 3a00 f53b e500 17bd 3df3 8ebd 680d 6b3d
000003e0: 3720 243c 12b8 fa3c c113 8a3d 6571 1d3d
000003f0: 27f2 573d 90b4 a4bd 59d6 a4bd 6cae 35bd

net.9.bias f4 [10]
-0.031024573 -0.024356581 0.03392694 -0.07929159 0.029777724 -0.065467514 -0.017619839 -0.08737043
-0.04256876 0.0014697989
00000000: 3f27 febc 7487 c7bc faf6 0a3d a163 a2bd
00000010: 6af0 f33c d513 86bd 7b57 90bc 45ef b2bd
00000020: 955c 2ebd 44a6 c03a
