result/model_29_4.pth (torch, 307183 bytes, 8 tensors)

net.0.weight f4 [20, 1, 4, 4]
000000 62 ce b9 3e ab 48 c2 3e 26 1d bd 3d 2b 68 a4 3e
       0.3629027 0.37946066 0.09234075 0.32110724
000010 55 eb 87 3d 03 bc 27 3e 20 f4 f1 bc 9b f1 4a 3e
       0.06636683 0.16380315 -0.029535353 0.19818728
000020 e9 b7 8b 3e de 6e d2 bd 68 0c 8c 3e 26 4e 99 3d
       0.2728875 -0.102750525 0.27353215 0.07485609
000030 25 7a 83 3e 2a 2e 11 3e cf 96 5d 3e 3d fa 6b bc
       0.25679126 0.14177766 0.2163956 -0.014402923
000040 0b f4 94 3e 9f 0a 49 3e 69 43 c1 3c 67 21 2c 3e
       0.2909244 0.19632958 0.023591714 0.16809617
000050 f1 24 00 be ac 92 07 3d d7 fa a6 bd cb 00 08 3e
       -0.12514092 0.03309886 -0.08153313 0.13281552
000060 83 f4 8a be 77 c6 18 be 6e ea 1d be e9 7e 6c be
       -0.27139673 -0.14919458 -0.15421459 -0.23095287
000070 d7 91 b3 bc cb d9 96 be 73 da bc 3d e3 7f 92 be
       -0.021920128 -0.29463038 0.092213534 -0.28613195
000080 18 7a 91 3e 60 e1 1e bd a6 5c d7 be bc a2 95 be
       0.28413463 -0.038789153 -0.42062873 -0.2922572
000090 4d bf 30 3e 88 0c cb 3e 90 65 6e 3b cd f3 d3 be
       0.17260475 0.39657998 0.0036376454 -0.41396943
0000a0 94 cc 91 3d e4 89 53 3e ed 61 9a 3e da 16 4d 3e
       0.07119098 0.2065807 0.30152836 0.20028248
0000b0 e1 9b 62 bc ac 43 d1 bc 6c d6 9f 3e f2 3a 77 3e
       -0.01383111 -0.025544964 0.31218278 0.2414358
0000c0 0c 5a b5 3d 6e fd 9e be 52 49 f8 be 5a f5 8c be
       0.08855066 -0.31052727 -0.4849344 -0.27530938
0000d0 01 cd 12 be b0 25 41 3e b1 b7 1e 3c 77 99 09 3e
       -0.14336015 0.18862033 0.00968735 0.13437448
0000e0 a5 53 42 3e ab 31 33 3e 8e 54 c5 3e 22 8d 84 3b
       0.1897722 0.17499416 0.38541073 0.0040451447
0000f0 15 ba bd 3d c0 9e 99 bd 5f 4a 32 3e 19 56 05 3d
       0.09264008 -0.07500982 0.17411183 0.032552812
000100 82 32 d2 3d ba 87 1a 3d 57 02 a2 3e 1e 0b 7a bd
       0.1026354 0.037727095 0.3164241 -0.06104576
000110 2a d8 38 be 22 0e 2c be dd 94 4f 3e db a6 94 3d
       -0.1805121 -0.16802266 0.2027163 0.07258388
000120 45 13 44 3e 4b 3c 87 be a2 c0 a6 be 03 0b 85 be
       0.19147976 -0.26413187 -0.32568842 -0.25984964
000130 4d d0 32 be e3 d8 d3 3d 9a ad c6 3d a5 42 6a 3e
       -0.17462273 0.10344102 0.097010806 0.22876985
000140 fb 89 e2 bc 02 3e ec bd f2 ce ba 3d 5a 60 32 be
       -0.027653685 -0.115352646 0.09121503 -0.17419568
000150 e7 e0 8e 3e e1 c1 23 bd f5 32 47 3d 1e a0 93 be
       0.27905962 -0.03997982 0.04863258 -0.28833097
000160 21 cf 90 3a a7 d9 5e 3d 7a 1c 66 bd ba 81 26 be
       0.0011048057 0.05440679 -0.0561795 -0.16260424
000170 75 38 9a 3e 97 4c 2c 3e b5 45 7c be f4 a1 55 be
       0.30121198 0.16826092 -0.24635966 -0.20862561
000180 25 7a af 3e 11 16 df 3a 6a 4a e5 bc d9 e4 85 be
       0.34272876 0.0017020126 -0.027989585 -0.2615116
000190 e5 ea 0a be 60 6e b4 3b c2 bf c3 bd ab d2 5b be
       -0.13566168 0.005506322 -0.09558059 -0.21467082
0001a0 9f d6 b5 bd 56 b6 96 be e2 be a8 be 35 d7 14 be
       -0.08878826 -0.29435986 -0.32958132 -0.1453522
0001b0 a2 84 9f be 16 67 79 be 61 05 37 3e 90 51 01 3e
       -0.31155878 -0.2435573 0.17873146 0.1262877
0001c0 72 db 9d 3d 7a 34 64 be 59 04 24 be 1a 25 d8 bd
       0.077078715 -0.22285643 -0.16017283 -0.105539516
0001d0 df ab 30 ba e1 ae 6f be 6b 0d 06 be 55 09 46 be
       -0.0006739478 -0.23406555 -0.13091056 -0.19339497
0001e0 90 fd 4d bd 47 2b 11 be 75 6c a4 bd 2d 4f 68 be
       -0.050290644 -0.14176665 -0.08028499 -0.22686453
0001f0 72 36 3f be a9 78 32 be b4 34 fe bd 10 4e 5c be
       -0.18673113 -0.1742884 -0.12412396 -0.21514153
000200 b6 c2 97 3e 90 66 9e 3d bf 21 af 3e 71 9e 60 3e
       0.2964074 0.07734406 0.34205434 0.2193544
000210 af b2 63 be fe a7 3c 3e ad a8 3d bd 18 96 c2 bc
       -0.22236131 0.18423459 -0.04630344 -0.02375321
000220 f4 21 8e be d5 3c a3 be 11 79 81 bc d5 5b a8 bd
       -0.2776028 -0.3188235 -0.0158048 -0.082206406
000230 c9 fb 2f 3d 20 71 86 be 48 4e c4 3d a6 37 68 be
       0.04296473 -0.26258183 0.095852435 -0.22677478
000240 9a d3 08 3e aa c7 7b 3e 9b b0 52 3e cb 25 ae 3d
       0.1336197 0.24587885 0.20575182 0.08503302
000250 44 10 d4 3e 12 bc 3c bd cd 93 61 3d 7b ee a9 be
       0.4141866 -0.046077795 0.055072594 -0.3318976
000260 34 cf 32 3e ee cb b4 bd fd 01 cb 3d f0 11 ce be
       0.17461854 -0.08827959 0.099124886 -0.4024806
000270 52 bf 9a 3e 2a a5 99 3d c9 b3 2b be 59 8b bb be
       0.3022409 0.07502206 -0.16767801 -0.3662975
000280 1b 70 cb 3e c1 ca 51 3e 2d 0b f4 3d 8b 63 26 be
       0.39733967 0.204875 0.11916194 -0.1624891
000290 90 fa a3 3e 33 00 a6 3d fa 22 ee bd a0 e9 65 3e
       0.32027102 0.08105507 -0.11627765 0.22452402
0002a0 61 cb 4f 3e 29 ef 45 be 1e aa 89 be f9 d7 d3 bd
       0.20292427 -0.19329514 -0.26887602 -0.10343928
0002b0 99 61 15 3e ac 8f 3c be ad 21 87 be 97 57 26 be
       0.14588012 -0.18414181 -0.2639288 -0.1624435
0002c0 e2 fb 31 be 0a 37 82 3e 32 f9 58 3e a9 4e c4 be
       -0.17381242 0.25432616 0.2118881 -0.38341263
0002d0 0c e0 01 3e 41 3e 91 3e d6 30 af bc 03 b0 9d be
       0.12683123 0.28367808 -0.021385591 -0.3079835
0002e0 cb 4b 76 3e 50 79 84 3e 74 84 87 3b 06 16 81 be
       0.2405235 0.25873804 0.0041356627 -0.25212115
0002f0 26 9b 46 3d b0 cf 2f 3e cf c9 8b bd 84 ee 5f be
       0.048487805 0.1716907 -0.06825601 -0.2186833
000300 3e ee 53 3e fb 1b af 3e 8f bf b5 3d eb d3 91 3c
       0.20696351 0.34201035 0.088744275 0.017801246
000310 ca ab 3b bd a8 f5 87 3d cd d3 4f 3e 0b 9c 6b 3e
       -0.045818128 0.06638652 0.2029564 0.23008744
000320 a5 a6 ab be be 21 2c be 58 c9 20 3e eb 42 f2 3d
       -0.33525577 -0.16809747 0.15701807 0.1182917
000330 6a f3 f7 bd 87 01 86 be be 36 85 be e1 30 95 be
       -0.121069744 -0.2617304 -0.26018327 -0.29138854
000340 f3 93 3c be 89 2d 3d 3d 25 e3 b3 3e 36 95 b4 3e
       -0.18415813 0.046186004 0.35134235 0.3527009
000350 73 69 bf be 38 97 99 be 8e 5b 49 3b ee 14 f1 3e
       -0.3738514 -0.29998183 0.0030724737 0.4708628
000360 74 b5 0d be 6a e4 74 be b6 25 a7 3d 48 1f b5 3d
       -0.1383875 -0.23915258 0.0816149 0.08843857
000370 3a 87 96 be 8c ce 26 3d 93 a8 fd bd 49 6e a6 3d
       -0.29400045 0.040724322 -0.123856686 0.08126504
000380 b0 1c 72 be 38 de 52 3e 18 ed 91 3e d0 6e 54 3e
       -0.23643756 0.20592582 0.285012 0.20745397
000390 19 1d 0e be 5c cd 1b be e1 4d 53 bd 9e 2e b3 3e
       -0.13878287 -0.15215057 -0.051587943 0.34996504
0003a0 1c dc 20 3e 0e f7 7c 3e 7d 08 d2 3d ab f6 81 3d
       0.15708965 0.24703619 0.10255525 0.06345876
0003b0 f6 d4 f9 3b 37 ad 6c be 41 18 a2 be 5f ac a0 be
       0.007624264 -0.23112951 -0.3165913 -0.3138151
0003c0 08 4c 01 3e 8f ce b5 bd de 35 5e bc bc f5 03 be
       0.1262666 -0.088772886 -0.013562648 -0.12886709
0003d0 19 19 84 bd 4f f1 30 be 09 ef 2a be 23 e6 02 3d
       -0.064500995 -0.17279552 -0.16692747 0.031957757
0003e0 a0 66 02 be 7b 29 9f 3d ff 6a 10 be ed d3 73 be
       -0.12734461 0.07771584 -0.14103316 -0.23811312
0003f0 cb 6a 97 bd 6b f3 27 be 2c 67 d2 bd 8d 38 78 be
       -0.07393416 -0.1640145 -0.10273585 -0.24240322

net.0.bias f4 [20]
000000 cc 38 77 bd 55 4d 5b be 7f 87 a5 3e c4 3c 33 3e
       -0.0603569 -0.21416219 0.32329938 0.17503649
000010 64 d9 e6 bd 4d 3c 2c be 43 5b e4 be 9a 82 ad be
       -0.11271933 -0.16819878 -0.44600877 -0.33888704
000020 ff 12 2c be f2 70 5b 3d 74 c4 5c 3e ce ab 0d 3e
       -0.16804121 0.05357451 0.21559316 0.1383507
000030 e5 e6 ce bd 6d c1 0a be 31 04 2b 3e f0 8a b3 be
       -0.101026334 -0.13550349 0.16700818 -0.35066938
000040 d6 22 6d 3d f3 1f 0b 3e 7f 9c ab be 8d 87 b4 3d
       0.05789455 0.13586406 -0.33517835 0.08814917

net.3.weight f4 [40, 20, 5, 5]
000000 d7 84 e9 bd cd c8 a1 3c 18 6d 47 bd 3a 8d 87 bd
       -0.1140229 0.01974907 -0.048688024 -0.06618734
000010 b7 c8 56 bc f2 3e bb bd a2 9d a9 3d 97 e7 9e bd
       -0.013109378 -0.09142865 0.08282019 -0.07759016
000020 9f cd 8e bd 44 2f 13 3c 86 7f 06 3d b9 3e 97 3d
       -0.06972813 0.008983437 0.03283646 0.0738501
000030 f5 53 a4 3c 74 84 cc 3c 52 70 78 bd c6 e2 ab 3d
       0.020059565 0.024965502 -0.060653992 0.08392863
000040 0b 27 4e 3d b4 bc 50 3c b8 2f de 3b c3 9c 7a bd
       0.050330203 0.012740303 0.006780591 -0.061184656
000050 d9 67 5d 3c 13 14 7a bd 09 c8 85 bd 8f 1f 86 bd
       0.013513529 -0.0610543 -0.06532294 -0.06548988
000060 11 be 0d be b1 d1 b6 3c c1 e2 8e bb 69 47 96 bd
       -0.13842036 0.022316786 -0.0043605273 -0.07337839
000070 3c 3f 8d bd 64 ea c2 ba 5f be 66 3d 8c d3 2f bd
       -0.068968266 -0.0014870879 0.056333896 -0.042926356
000080 15 8e 0f be 91 f4 d4 3b 72 a9 ab bb 8b f6 46 bc
       -0.14019044 0.006498881 -0.0052387053 -0.012143741
000090 30 0f a9 bd 29 cd 69 bc 22 5a c7 3d cd 90 5a 3c
       -0.0825485 -0.014270105 0.09733988 0.013340187
0000a0 a8 96 ae 3c 45 78 b3 bd 4f c3 8b bb 85 c7 71 3d
       0.021312073 -0.08763174 -0.004265226 0.059028167
0000b0 90 35 1c 3d e1 1f 21 3d dc 9a 50 bd c4 6a 10 bd
       0.03813702 0.039337043 -0.050928935 -0.03525807
0000c0 ff 1b 24 3d 30 25 0a 3d 72 4f f0 bd 3f bc 01 be
       0.04006576 0.03372687 -0.11733903 -0.12669466
0000d0 8b 37 c2 bd 6c 25 61 bd bb a9 00 bc 60 ab c2 bd
       -0.0948325 -0.05496733 -0.007852967 -0.095053434
0000e0 73 67 88 bd 33 14 f1 bc da 66 01 bd 1c 6f 19 bd
       -0.066603564 -0.029428577 -0.031592228 -0.037459478
0000f0 6e e7 79 bd cd ae ca bc 84 99 de bc 07 61 3c bd
       -0.061011724 -0.024741555 -0.027172811 -0.04599097
000100 13 de 45 bd 7f 37 aa bd 69 5a 82 bd eb 94 f4 3b
       -0.04830749 -0.08311366 -0.063649006 0.0074640415
000110 e8 a6 9e bc 8b b7 b6 bc 2e b5 46 bd ea 9c e4 3b
       -0.019366696 -0.022304317 -0.04851263 0.0069767134
000120 a5 49 cb 3d 68 4e 3c 3d 5a 09 ad bb 06 59 81 bd
       0.09926156 0.04597321 -0.005280656 -0.06315808
000130 b1 10 8f 3c 18 2e 53 3d 6b 81 50 bb 03 d9 f4 bb
       0.017464014 0.05155763 -0.003181542 -0.007472159
000140 b2 6a b0 bb fa 0f f3 3c c4 25 0d 3d 8d 88 ac 3d
       -0.005383813 0.029670704 0.034459844 0.084244825
000150 5d 62 a3 3d 8d 38 d9 3b 7a 6a 56 bd e2 fc 8c bd
       0.07977746 0.006629056 -0.052347638 -0.06884171
000160 52 e9 f2 ba 76 ff 89 3c c5 e2 29 bd 84 3f 41 be
       -0.001853267 0.016845446 -0.04147603 -0.18871886
000170 7c a9 0d bd 98 27 d9 3d 1c f9 31 3d 0d 26 05 be
       -0.03458546 0.10603255 0.04345046 -0.13002796
000180 d4 af bb bd 68 b6 be 3d 72 1d cd 3d 27 06 92 3d
       -0.09164396 0.09312135 0.10015382 0.0713008
000190 08 73 b2 bc 7b eb 48 3d 51 78 83 bc fd 37 09 3d
       -0.021783367 0.049052697 -0.016048582 0.03350066
0001a0 5f 18 11 3d a8 68 4e 3b ff 95 1a bd 25 44 f4 bc
       0.035423633 0.0031495485 -0.037740704 -0.02981765
0001b0 10 0a 79 3d 40 30 a7 bb a6 d9 1d 3c 65 d3 01 be
       0.060800612 -0.0051021874 0.009634411 -0.12678297
0001c0 fb b5 02 be 8d be 76 3d c7 97 a4 3d 3f 89 8b bd
       -0.12764733 0.060240317 0.08036762 -0.06813287
0001d0 3b 28 6f bd 9f a3 f9 bc 1f e2 b3 3c 68 f4 4a 3c
       -0.058387976 -0.030473528 0.021958409 0.012387373
0001e0 4f c8 d1 bd eb 22 80 bb 8c 3e 29 3d d1 59 51 3d
       -0.10243284 -0.0039104125 0.041319415 0.051111046
0001f0 1b 2c 88 3d 5d 43 35 3c 01 ad 61 bd f0 fc 13 3d
       0.066490375 0.011063424 -0.05509663 0.036129892
000200 f6 26 53 3d dc 98 1c 3c 94 56 00 3d ad b7 cf bd
       0.051550828 0.009557929 0.031332567 -0.10142455
000210 ee 72 e5 3d e4 ae 57 bc 3d ed 83 bd ad c5 58 bc
       0.11203562 -0.013164256 -0.06441734 -0.013230723
000220 8a f4 80 bd 0f 54 04 bb cc 8e 7a bd 21 9c 3e bc
       -0.06296642 -0.0020191704 -0.061171338 -0.011633904
000230 c7 46 84 3d 78 0e 4f 3d 25 f0 15 bd dc 5c 80 bc
       0.06458812 0.050550908 -0.036605973 -0.015669279
000240 92 64 b2 bc da 75 13 3d c0 5c 2c 3d cc a8 aa bc
       -0.021776471 0.036001064 0.04208064 -0.020832442
000250 ec c0 21 3d da a4 88 3d c4 30 71 3d df 7f 5b 3d
       0.039490625 0.06672068 0.058884397 0.053588744
000260 eb 80 dc 3c c2 03 5e 3c 5d f0 6b 3c 59 74 f1 3c
       0.026916942 0.013550701 0.014400569 0.029474424
000270 7d 31 0d 3c 94 42 a3 bc 6b c0 ed 3b ed c1 4d ba
       0.008617756 -0.019929208 0.007255604 -0.00078490266
000280 93 6d b5 ba 70 a7 f7 bd 8f 26 c7 bc d6 5e 9d 3d
       -0.001384186 -0.12092483 -0.024310378 0.07684104
000290 ec 8b 8b 3d 8e 1d f9 3c 8b 48 f6 bd 8f 8d e7 bc
       0.06813797 0.0304096 -0.12025555 -0.028265743
0002a0 f2 14 2d 3c 6f eb 81 3c 7f 44 f5 3a 24 25 c1 bd
       0.010564076 0.015859334 0.001871243 -0.09430912
0002b0 7c 30 d6 bc 52 ee 20 bd 5c 9b 11 bc 19 95 b3 3b
       -0.026146166 -0.03928978 -0.008887138 0.0054804203
0002c0 3e f8 82 3d 93 88 08 bd d3 57 0c 3d be 11 8a 3b
       0.06395005 -0.033333372 0.034263443 0.004213541
0002d0 f9 43 be 3c ae 57 27 bc d7 5c 9b bd 51 cc 0a 3d
       0.023225771 -0.010213776 -0.07586067 0.033886258
0002e0 c1 7a 34 3d 9d e6 d0 bc 87 2b 9f bd 22 98 e7 bc
       0.04406238 -0.02550059 -0.07771974 -0.028270785
0002f0 7c d6 47 3d 00 b7 17 3d fc 3a 88 3c b0 4f 94 bd
       0.048788533 0.037039757 0.016629688 -0.07241762
000300 3b 9f f4 bb 14 bc 8a 3d 06 06 73 3d f9 e5 b5 ba
       -0.007465271 0.06774154 0.059331916 -0.0013877741
000310 f2 db 74 bd 78 4e a8 bc 7f 00 dc bc b0 7f 6f 3d
       -0.05978007 -0.02054523 -0.026855705 0.05847138
000320 5f f0 6e be 28 01 6d be 3f e9 82 be a0 d3 24 be
       -0.23333882 -0.23144972 -0.25568578 -0.16096354
000330 eb 33 9e bc e0 b8 17 be df 55 0d be ec 88 fd bd
       -0.019311866 -0.14816618 -0.13802288 -0.123796314
000340 7c 08 b7 3c bc 85 13 3d 24 5e b1 bd 79 07 d3 bd
       0.022342913 0.03601621 -0.08660534 -0.1030416
000350 33 b7 c0 bd 96 ca 90 3d 19 7b a5 3d b8 df 05 be
       -0.094099425 0.0706989 0.0808012 -0.13073623
000360 45 6f d9 bd 06 6e be bd 69 d6 e8 3c d8 30 ea 3d
       -0.10616926 -0.09298329 0.028422551 0.114350975
000370 c8 d5 9c bd db 16 da bc 7e 06 4b 3c 9d 74 5d 3d
       -0.07657963 -0.026622226 0.012391685 0.05406629
000380 8a 29 cf 3d 77 da f6 bd 5f 5c 4a bc 3f 8f 5d 3d
       0.10115345 -0.120533876 -0.012351125 0.05409169
000390 44 ad 94 bd 82 be 14 bd 5a 02 19 be 5e c5 cc 3d
       -0.0725961 -0.036314495 -0.14942303 0.09998582
0003a0 2a 68 8d 3d b6 d7 3d 3c b1 f8 93 3c 96 7b 07 be
       0.06904633 0.011587074 0.018062921 -0.13230738
0003b0 9d 36 0d 3e 4c 0f d7 3d c0 84 a1 bc f8 28 16 bd
       0.13790365 0.105009645 -0.01971662 -0.036660165
0003c0 2e b8 2a 3e e9 4e 6d 3d 26 af 01 3d 92 f5 d2 bc
       0.16671821 0.057936583 0.031661175 -0.025751863
0003d0 9f ee 5d bd 07 0f 2a 3e 1a 27 81 3c 1e 22 5e bd
       -0.054182645 0.16607295 0.015765715 -0.054231755
0003e0 df 1c 4c bd 75 ef 96 bd 23 7a b6 bd 1d 14 b8 bd
       -0.04983222 -0.073698916 -0.089100145 -0.08988211
0003f0 27 54 0d bc c7 a8 69 3d 51 8f 06 bc ce 11 e8 bd
       -0.0086260205 0.057045724 -0.00821288 -0.11331521

net.3.bias f4 [40]
000000 63 ba 6a 3d ba f9 8d 3c 23 69 4a 3d d9 ee f1 bc
       0.05730666 0.017330993 0.049416672 -0.029532837
000010 9b 6a 53 bd 53 32 57 3d 2f 5d 98 bb a6 6b 15 3d
       -0.05161534 0.052538227 -0.00464978 0.036479615
000020 47 36 16 bd 98 3e 9e bc ba 3d 60 3c c6 2b 9b 3c
       -0.036672857 -0.019316956 0.013686592 0.018941771
000030 ef 56 23 bd ab 01 b0 3c 72 70 cd 3b cc a2 61 bc
       -0.03987783 0.02148517 0.006269508 -0.013771724
000040 24 a7 4c bb bb e4 8d 3c cb 62 25 bd 08 f5 92 bc
       -0.0031227553 0.017320981 -0.04037742 -0.017939106
000050 51 55 61 3c df a0 af bc 0e 99 50 3c db d9 6c 3d
       0.013753251 -0.021439014 0.012731804 0.05782495
000060 39 bb 31 3c 5c 32 66 bc 95 6c bf bc 09 3b 53 3c
       0.01084786 -0.014050093 -0.023367206 0.012892493
000070 23 fa cb 3c 04 72 37 bc 9e 35 4a 3d da b5 c9 3c
       0.024899548 -0.011196617 0.04936754 0.024622846
000080 fc e3 88 bc d4 8c 32 3d 39 07 e1 3d 43 8a eb 3c
       -0.016710274 0.043591335 0.10987706 0.028752452
000090 e0 3e 0d 3c ff dc 3e bd cd 74 ed 3c 96 f4 a5 bc
       0.008620948 -0.046597477 0.028986359 -0.02025823

net.7.weight f4 [150, 360]
000000 96 6c 83 3d 19 d3 a5 3d 28 c1 67 3b d1 d6 2b 3d
       0.064171955 0.08096904 0.0035362933 0.04195291
000010 80 55 89 3d 7c 95 9a bc a7 9c dd 3d 33 e0 d9 3d
       0.06705761 -0.018870108 0.10820895 0.10638466
000020 86 bd 34 bd 6c 14 c7 3d 2d 4a ae 3d 15 3a 30 3d
       -0.044126056 0.09720692 0.08510242 0.04302414
000030 3b 73 ec 3c c5 9b 2e bd 2c e2 a2 bd bc 33 6c 3c
       0.02886354 -0.042629022 -0.07953295 0.014416631
000040 18 d6 82 3c 24 ea 0a 3c 99 b0 8f 3d f4 19 7b bd
       0.015971228 0.008478675 0.07016105 -0.061304048
000050 2f 8a e1 3c b5 76 89 bc c3 a2 4d bd 49 98 0a 3d
       0.027531711 -0.016780237 -0.05020405 0.033836637
000060 09 73 a9 3d a1 d4 1b 3c 0d 5c 24 bc 00 e0 11 bc
       0.08273894 0.009511144 -0.010031712 -0.008903503
000070 7d 1b 28 3d 2d 91 9a bc 7d 5a 1c 3c 3b 51 55 bd
       0.04104184 -0.018868053 0.009543058 -0.05207942
000080 a7 d8 06 3d 94 e5 6c bd 6c b8 d3 3c 94 cb 2f bc
       0.03292146 -0.05783613 0.025844775 -0.010729689
000090 0d e7 73 bc 8a 0e 82 3d 57 d7 c7 bc 4d aa d8 3c
       -0.01488663 0.06350429 -0.024394674 0.026448393
0000a0 99 f1 a0 3d 60 23 24 3d 0a 9f e7 3d 7e a2 e1 3c
       0.07858581 0.0400728 0.11309631 0.027543303
0000b0 e7 6d c1 bc b7 d7 a8 3b 50 da b4 bc 55 9a 00 3c
       -0.023611976 0.0051526683 -0.022076756 0.007849296
0000c0 fd 1c 5f bd 55 fa 21 3d c2 f9 c0 3c ba c4 46 bd
       -0.054471005 0.039545376 0.023556594 -0.048527457
0000d0 0a f3 94 bc 3c db 88 bc 08 e7 0a 3d 87 5d 0a bd
       -0.018182296 -0.016706102 0.033911735 -0.0337806
0000e0 1c d2 d2 3b fe 32 af 3c e6 d2 23 bc ef aa 07 3d
       0.0064337384 0.02138662 -0.009999013 0.033122
0000f0 dc ce 86 3d 38 9c 95 bd 36 74 8f bb 04 bf 1e bd
       0.06582424 -0.07305187 -0.004377867 -0.038756385
000100 98 bc 4a bd 73 74 ff bc 84 e2 20 3d f9 5d 49 3c
       -0.049496263 -0.031183457 0.039278522 0.012290471
000110 2e 94 af 3d 3e 36 56 bb 24 f4 57 bc 16 21 5a 3d
       0.08573185 -0.003268614 -0.013180766 0.05325421
000120 ae 68 84 bc cc c3 1e bd 1a fb 61 3c 1e ba a7 3d
       -0.016163196 -0.038760945 0.013792777 0.08189796
000130 88 29 11 3d 20 9b 50 3d a3 38 fb 3b 55 99 10 bd
       0.035439998 0.05092919 0.0076666637 -0.03530248
000140 8a bc 31 bd 91 b6 a8 3d 3c 6a df 3c 4e f2 64 3c
       -0.043392695 0.08237947 0.027272336 0.013973786
000150 4b e8 47 bc 57 8e 2e 3d 19 db 8f 3c 93 82 d2 3c
       -0.012201379 0.042616215 0.017560529 0.025697028
000160 7d 18 2d 3d de d5 06 3e 4e ee 26 bd 27 29 f3 3c
       0.042259682 0.13167521 -0.04075461 0.029682709
000170 02 ba 38 3d f7 cd 02 3d 82 5e 45 3c ea 8d 31 b9
       0.045099266 0.031934705 0.012046458 -0.00016932903
000180 49 ba 07 3d 45 2a 37 3d b1 89 96 bc b3 cd 41 bc
       0.03313664 0.044718046 -0.018376203 -0.011828828
000190 07 24 f7 3c 20 a9 13 bd 97 b2 17 3d 83 79 ff 3b
       0.030168546 -0.036049962 0.03703555 0.0077964677
0001a0 03 75 86 3c 04 70 3d bd bb 57 48 bc 7e cc 0f 3d
       0.016413217 -0.046249405 -0.012227948 0.03510713
0001b0 52 63 ae 3c 2b 5c 68 3d 95 15 2f 3c 72 1a fd 3b
       0.021287594 0.056728523 0.010686298 0.0077241
0001c0 c4 d0 66 3d b1 0a 6a 3d 8d c2 c1 3c 5e 96 05 3d
       0.05635144 0.057139102 0.02365234 0.032614104
0001d0 08 06 0a 3e 4c 91 68 3d c1 6d ea bc 9c a1 b8 3c
       0.13478863 0.05677919 -0.028616788 0.022537999
0001e0 f6 9f ab 3d ab b0 5e 3c 7e 87 37 3d 95 aa cb bc
       0.083801195 0.013591926 0.04480695 -0.024861613
0001f0 ea d8 fc bd 80 5d 80 be 97 ca fc 3c c8 1b a8 3c
       -0.123460606 -0.25071335 0.030858321 0.02052106
000200 bb 47 a0 3d 14 cb 78 3d 6a 61 25 bd d2 04 1b 3d
       0.078261815 0.060740545 -0.040376104 0.037846394
000210 0a de f4 3c 47 77 34 3d b6 a1 f5 bc 64 fa 84 3d
       0.029891033 0.044059064 -0.029984336 0.06493071
000220 77 6e 41 bc d9 17 61 3c e4 b3 2f 3e db 91 37 bc
       -0.011806122 0.013738596 0.17158467 -0.011204208
000230 05 98 f5 3c 00 d6 30 3e 45 c9 14 bd 5a c9 05 bc
       0.029979715 0.17269135 -0.036324758 -0.008165682
000240 c3 7b 24 bd 9b 71 51 bc 03 66 eb bc 3b 9b 77 bd
       -0.04015709 -0.012783433 -0.028735166 -0.060450774
000250 56 31 7c 3c e5 2f 2b 3d 5a 81 3b bd 31 85 31 bd
       0.015392622 0.041793723 -0.045777656 -0.04333991
000260 46 fb 87 bc a8 bb 45 3d bc 38 7b 3d e0 d5 55 3d
       -0.016599309 0.048274666 0.061333403 0.05220592
000270 34 40 a0 bc d4 17 a1 bd 80 9d a3 bd c0 d7 3d be
       -0.019561864 -0.07865873 -0.07989025 -0.18539333
000280 1b c6 84 be 75 72 5b be a4 d0 2d 3d 03 bb d8 3b
       -0.25932392 -0.2143038 0.042435303 0.0066140904
000290 a9 bb df 3c d0 5a c8 bc 25 99 d2 3d 14 d4 48 3b
       0.027311163 -0.024457365 0.10283116 0.0030643987
0002a0 cf de ee bc 32 31 a2 3d 3e 9c cb 3d 5c 71 43 bd
       -0.029158978 0.079195395 0.0994191 -0.04771553
0002b0 f0 61 10 bd c2 0f 57 bd 9d 91 11 3c 9e 51 09 3c
       -0.03524965 -0.052505262 0.008884815 0.008381275
0002c0 ee 56 ee bb 57 ca f4 bb ff ef 92 bd 25 d6 95 bb
       -0.0072735464 -0.00747041 -0.07174682 -0.004572647
0002d0 8a b9 28 3d fc 4d 24 bd bd f4 f6 3a 1d de 09 3d
       0.04119257 -0.040113434 0.0018841248 0.03365909
0002e0 41 03 01 3e 95 f0 a3 3b a2 2d 1b bc e4 2f 08 3e
       0.12598898 0.005003045 -0.009471329 0.13299519
0002f0 4d a5 55 3d d7 a2 45 3c 29 85 12 3c 72 6e 99 3d
       0.052159596 0.01206275 0.008942881 0.07491769
000300 c8 39 65 bd 94 5f 14 3d 7e ea 29 bd 97 92 44 bd
       -0.055963308 0.036223963 -0.041483395 -0.04799136
000310 ff 0d 24 bc d9 11 2a 3d 5b 71 e6 3b 59 68 7a bd
       -0.010013103 0.041520927 0.007032556 -0.06113467
000320 ee 30 aa bc 47 5f 8f 3c 30 93 d9 3c a7 58 f8 bd
       -0.020775285 0.017501486 0.026559442 -0.12126284
000330 a0 f7 38 be 66 a7 1b be db 7b 23 be ca 22 23 3d
       -0.18063211 -0.15200576 -0.15965216 0.0398281
000340 ed 74 f8 3d 96 0d ed 3c 50 c1 c9 3b 76 ce 22 3b
       0.12131677 0.028937142 0.006157078 0.0024842299
000350 51 d3 8b 3d 7e 64 e6 bc 98 d2 49 3c dd e7 5f bc
       0.06827415 -0.02812409 0.012318276 -0.01366612
000360 67 4a 95 3c 89 00 37 bd 1c 98 11 3c 08 43 3b bd
       0.018223954 -0.044678245 0.008886363 -0.045718223
000370 8f dd 1c bd a5 ce c3 3d df b1 36 bc e0 7e 62 39
       -0.038297232 0.09560899 -0.011150806 0.00021600304
000380 d0 5e 64 3d 44 40 68 3c 8e 0b b9 bc 02 de c9 3d
       0.055754483 0.014175478 -0.022588518 0.09856798
000390 b6 13 d3 3b 75 c6 a5 3c e8 8e 99 3d 60 d8 f6 3d
       0.0064415587 0.020236233 0.0749796 0.12052989
0003a0 74 10 f2 39 b9 9c 6c 3d 56 1b d7 bd 24 9e 95 bd
       0.00046170095 0.05776665 -0.10503261 -0.073055536
0003b0 5a af c9 bc 5b 8f 1b bd 33 b1 4d bd a3 cc 83 3d
       -0.024619747 -0.03797851 -0.05021782 0.06435516
0003c0 5d 14 2e bd 02 6e 6a bd 3f c8 30 bd d8 4f 7d 3b
       -0.04249989 -0.057233818 -0.04315972 0.0038652327
0003d0 7e b5 99 bd eb c8 a7 3c a6 81 de bc 84 95 20 bc
       -0.0750532 0.020481547 -0.02716143 -0.009801272
0003e0 44 81 a9 3c 27 fe 20 bd 56 9a 09 be 32 98 c8 bd
       0.020691521 -0.03930488 -0.1343778 -0.09794654
0003f0 62 e1 37 bc 4f 2d 40 bd 86 ea b6 bc b8 1b 79 3c
       -0.011223169 -0.04691821 -0.022328626 0.015204363

net.7.bias f4 [150]
000000 2b bb 95 3d f4 29 3d 3d 99 97 cb 3c ee 70 3a 3c
       0.0731109 0.046182588 0.02485256 0.011379464
000010 72 a8 5b 3c 9d 9e 00 ba 03 c4 6a bd 5d 1a 2b 3c
       0.01340686 -0.0004906448 -0.057315838 0.010443297
000020 c0 89 0c 3d cc 3f 1d 3d 58 df ec 3c 91 56 1d bc
       0.034311056 0.03839092 0.028915092 -0.009603159
000030 ce 60 13 bb 29 f6 1b 3d 84 ff 04 3c 54 2e 4a bd
       -0.002248812 0.038076553 0.00811756 -0.04936059
000040 91 e5 79 3d 44 97 12 3d d0 4e 55 bd 09 06 a9 ba
       0.061009947 0.03578879 -0.052077115 -0.0012895475
000050 61 8a e6 3c 04 f2 be 3b c3 7c 78 3d ce 1c 59 bd
       0.028142156 0.0058271904 0.060665857 -0.053005986
000060 4f 17 4a 3c 1d 3f 6c bd 06 9b 9c 3c f0 07 f6 3c
       0.012334659 -0.057677377 0.01911689 0.030033082
000070 19 84 1b 3d a1 35 a5 3c 48 f3 db 3b 72 d6 5c 3d
       0.037967775 0.020167174 0.006712351 0.05391545
000080 97 e1 93 3c fe 06 83 3d 26 ac 7f 3c a0 73 79 bc
       0.018051906 0.06397818 0.015605008 -0.015225321
000090 f7 0e 46 3d 3f 90 e2 bc 37 ee f2 bc 5f 07 db bc
       0.048354115 -0.027656673 -0.029654605 -0.026736913
0000a0 c3 ff f3 3c d5 d1 39 bd 44 cd 3c 3d 74 bd bc 3c
       0.029785043 -0.045366127 0.046094194 0.023039557
0000b0 e2 d4 3c bc 1a f2 39 3b 0e b6 19 3d d8 2e 31 bd
       -0.011525365 0.0028373064 0.037527137 -0.043257564
0000c0 ac 7a 3c 3d de 66 89 bd e0 42 91 bd 90 39 f9 3c
       0.046015427 -0.067090735 -0.070928335 0.030422956
0000d0 70 40 22 3c ca f7 38 bc 30 c2 9b 3d dc 57 9c 3c
       0.009903058 -0.011289546 0.07605398 0.019084863
0000e0 ee 65 9b 3a 9e 33 bd bc 06 43 a3 bc 26 7e 0d 3c
       0.0011855939 -0.023095902 -0.01992942 0.008636033
0000f0 c8 3f 28 3d 29 99 55 bc 11 5e e5 3c d1 a7 51 3c
       0.04107645 -0.0130370045 0.027998956 0.012796358
000100 88 5c a1 bd a1 12 93 3d 0f c7 3f 3d b1 89 17 bd
       -0.07878977 0.071812876 0.046820696 -0.036996547
000110 a5 1d 94 bc 6d 0a 4f ba ec 4f 49 3c 8e c1 28 3d
       -0.018080542 -0.0007897977 0.012287121 0.041200213
000120 5b 20 60 3d ff d1 fc 3c 24 8c 6f bd 21 e6 2e bd
       0.054718357 0.030861853 -0.058483258 -0.042699937
000130 22 1c 14 bd 90 c3 6e 3d 88 8f 2b 3c 08 d3 69 bc
       -0.036159642 0.05829197 0.010471232 -0.014271505
000140 a3 91 a7 3b ab 63 74 bd f6 33 57 bd d9 59 1a bd
       0.005113797 -0.059665363 -0.05253979 -0.03768334
000150 fd 59 62 bd ea af e9 3b 42 4e 58 bc ca a9 6a 3d
       -0.0552616 0.0071315663 -0.013202252 0.05729083
000160 97 f4 79 bd 1c 4b 9d 3d 52 1f 2b 3d 67 b8 85 3d
       -0.061024275 0.076803416 0.041777916 0.065293126
000170 21 3f 3c 3d 93 ef 1b 3c b8 c8 91 ba 21 30 e5 3c
       0.045958642 0.009517568 -0.0011122441 0.027977051
000180 9c 34 ec 3c 33 8e 56 bd 47 48 8c bc be da b1 3c
       0.02883368 -0.052381705 -0.017124308 0.02171075
000190 2a f5 37 bc d1 45 23 bb 40 36 8f bb ab d3 21 bd
       -0.011227885 -0.002491344 -0.004370481 -0.039508503
0001a0 34 6a a3 3d 70 8c 0b bd eb 39 84 3b dd 71 80 bd
       0.07979241 -0.03406948 0.0040352247 -0.06271718
0001b0 c6 40 2d 3d 90 c3 27 3d b8 84 84 3d 7d 02 79 3d
       0.0422981 0.040957987 0.064706266 0.06079339
0001c0 b5 df 13 3d 5c 90 92 bd 27 ac 7e 3d bb f2 f1 3c
       0.036102016 -0.071564406 0.062175896 0.029534688
0001d0 1f a6 07 bd 44 4b 8f bd ab 5f a3 bc 2e ec 0c 3d
       -0.03311741 -0.06996778 -0.019943079 0.034404926
0001e0 d5 ee 63 ba 2b 98 cd 3c 49 e7 5b bc a5 3f 58 3c
       -0.00086949515 0.025096973 -0.013421842 0.013198768
0001f0 25 00 53 3c a2 64 e7 bc 22 1b 85 bb 67 9e c4 bc
       0.012878452 -0.028246228 -0.0040620724 -0.024001313
000200 c2 77 c4 3b 3a 44 22 3d 39 63 27 3c af 15 09 3d
       0.0059957216 0.039615847 0.010216528 0.033467945
000210 2c 5f b0 b9 ff 18 0e 3d 52 7f 69 bb 9b 69 2f 3d
       -0.00033640245 0.034691807 -0.0035628867 0.042825323
000220 04 34 84 3d 9b fa 44 bd 38 75 8c 3c 80 ce 27 b9
       0.06455234 -0.04809056 0.017145738 -0.00016003288
000230 8a 9a 42 3d e5 74 5e bd 84 8f a9 bc fd 50 5f bc
       0.04751066 -0.054310698 -0.020698316 -0.013630149
000240 b9 89 b0 3c c2 7e 3b bc 67 87 22 bc 79 65 84 3c
       0.021550046 -0.011443796 -0.009919978 0.016161667
000250 43 75 ab bc db 7c 55 bc
       -0.020929938 -0.013030256

net.9.weight f4 [10, 150]
000000 bd 6b c9 bd 27 be ec bd 27 cc 1b be d6 c1 b1 3d
       -0.098350026 -0.11559706 -0.15214597 0.086795494
000010 77 3b f6 3d bf 31 60 bd 9e d3 79 bd 20 9e 6f 3b
       0.12023061 -0.05473494 -0.06099283 0.0036562756
000020 b1 25 6d bd da c9 36 be ef e7 1b bd ac 07 d0 3d
       -0.057897273 -0.17850438 -0.038062986 0.10157713
000030 e9 d4 6f 3d 70 7e ad 3d ed 4e 4b be 7b bd 08 bd
       0.058552656 0.08471382 -0.19854327 -0.033383828
000040 ae 41 cb bd e5 44 3a bc 7d c6 52 bd 93 98 c2 bd
       -0.09924637 -0.011368965 -0.051458824 -0.095017575
000050 2d 23 10 be 34 7d 29 3c 2c 76 59 3d 35 f0 c5 bc
       -0.14075918 0.010344792 0.053091213 -0.024162391
000060 c9 c7 80 3d 2b 3d 94 3d 00 4a 7b 3d 6f 2d 94 3d
       0.06288106 0.07238229 0.06134987 0.07235228
000070 6a 2c b9 3d f2 ca 6f bc e5 d9 5e 3d fa 39 bf 3d
       0.090416744 -0.014635788 0.05440702 0.0933723
000080 ea d2 0f 3d ea 79 c8 bd 96 54 ad bd c1 8a 99 3d
       0.035113253 -0.09788878 -0.08463399 0.07497168
000090 e3 9a a8 bd d0 69 2b 3e bd b0 e6 3d 4d 20 7a 3d
       -0.08232667 0.16739583 0.11264179 0.06106596
0000a0 9c 7e 04 3e a1 57 3f 3c 83 49 22 be b4 9b 2f 3d
       0.12938923 0.011678607 -0.15848355 0.0428731
0000b0 38 f8 e0 3c 32 d8 c1 3d 8b d3 ce 3c c1 5a 9d bc
       0.02746211 0.09465064 0.025247356 -0.019208314
0000c0 33 b0 97 3d 37 7a b3 be da a4 0d 3c f4 b3 0f 3e
       0.07406654 -0.3505418 0.008645261 0.1403349
0000d0 55 af e2 bc 90 34 a1 3d d1 ac 3a bc 2b c2 27 be
       -0.027671495 0.078713536 -0.011393742 -0.16382663
0000e0 79 10 84 bc 0a e3 5f 3c 05 3d ff 3d 85 8e aa bd
       -0.016121136 0.01366497 0.124628104 -0.08327965
0000f0 2c ac d4 3d 55 68 a1 3d 91 ea ad bd 57 55 90 bd
       0.10384402 0.07881228 -0.084920056 -0.07047527
000100 9f 05 37 3e c5 d1 a0 bd 57 63 e0 bc 55 59 f3 bd
       0.17873238 -0.0785251 -0.027391119 -0.11882273
000110 d1 74 08 be 16 53 e9 bd e1 e3 54 3c 00 bf 4e 3c
       -0.13325812 -0.113928005 0.012993784 0.01261878
000120 7a f1 2f 3d 09 78 57 bd fe 73 57 3d dd 8f ae bd
       0.0429549 -0.05260471 0.052600853 -0.085235335
000130 e1 0b ca 3a 41 ee 01 be cd 75 14 be 3e e2 9d bc
       0.0015414917 -0.12688543 -0.14498062 -0.01927292
000140 a0 5c da 39 a3 dc 95 3b ac 4f 5c bd 9d bf e9 3d
       0.0004164921 0.004573421 -0.05378692 0.114135005
000150 73 8a 28 3e 84 94 d2 bd eb 5e 3f bc 44 15 65 bc
       0.16459064 -0.10282233 -0.011680345 -0.013982121
000160 d9 46 1e 3e bd 8b 1f 3d f5 8e bb 3c b0 be c1 3d
       0.15456714 0.038951624 0.022895316 0.09460199
000170 ef 24 8f 3d 46 c8 d5 3d bb 59 86 3c e3 96 ac 3b
       0.069894664 0.1043859 0.016400209 0.0052670105
000180 55 df c0 3b 78 af 86 bd e2 9a 4e bd 2f a9 8d bd
       0.0058859983 -0.06576437 -0.050440677 -0.06917035
000190 aa c5 24 3c 10 9a 8b bd dc de eb bc 9e e0 03 3e
       0.010056892 -0.068164945 -0.028792791 0.12878653
0001a0 ae 43 c4 3d a2 0d 1f 3d 09 ce f0 3c 7c 95 1f be
       0.095832214 0.03883136 0.02939512 -0.15584368
0001b0 bd 6a 7e bc ed 4e 98 bd 30 09 90 be 67 46 c9 3d
       -0.015528378 -0.07436929 -0.2813201 0.09827881
0001c0 de 67 93 bd ae 09 66 3c b8 c4 b2 bd 8f a7 07 3d
       -0.071975455 0.014040394 -0.087289274 0.03311878
0001d0 d7 fa 4d 3d 46 21 5f bc bb 24 c9 bd be 64 05 bd
       0.050288048 -0.013618773 -0.09821459 -0.03256678
0001e0 f4 69 ac 3c 9f c2 aa 3d 80 26 73 bc 57 7c 2f be
       0.021046616 0.08337902 -0.014840722 -0.17137276
0001f0 c7 54 0f bc 25 dd a7 3c 2a 30 99 bd f3 7d a0 bd
       -0.00874824 0.020491192 -0.0747989 -0.07836523
000200 83 59 02 3e 42 0b 93 bd fe 46 cc 3d 60 bb 01 be
       0.12729459 -0.07179882 0.09974478 -0.12669134
000210 06 1e f2 3d 90 ae 83 bd d3 6d c7 bd 81 28 34 3d
       0.11822133 -0.064297795 -0.09737744 0.04398394
000220 ba 2b af 3d 05 a4 0f bc 10 f2 26 3e d5 a0 9a 3d
       0.08553262 -0.008767133 0.16303277 0.075502075
000230 d7 5c e4 bd dd 47 65 3d 42 77 96 3d 4f 47 97 3c
       -0.1115052 0.055976737 0.073469654 0.01846662
000240 90 6c 94 3b da 93 ca 3d 4d 12 6e 3d 17 6a 4f 3d
       0.004529543 0.09891482 0.05812292 0.050638285
000250 27 c3 b0 3b ba 8e a7 bd 5f 37 0b 3e 02 d1 ca 3b
       0.0053943577 -0.0818152 0.13595341 0.0061894665
000260 a5 a2 a3 bb 00 1f af bc aa bf 30 3e f7 b2 ca 3d
       -0.004993754 -0.021377087 0.17260614 0.09897416
000270 6d 39 1a 3d b6 1f af 3d 92 f3 eb bc cc b4 9f 3d
       0.03765242 0.0855097 -0.028802667 0.07798156
000280 c3 fe 5f 3c ec 21 17 3e 3c 3c dd 3c 1b fd 02 be
       0.01367158 0.14759034 0.027006261 -0.12791865
000290 b9 b4 89 3d 7f 4f 24 3d fb f8 d6 bd c0 a0 db bd
       0.06723923 0.040114876 -0.10496708 -0.1072402
0002a0 86 d8 85 3d f7 52 15 3d 59 b1 80 bd 21 7c 02 be
       0.06535439 0.036456075 -0.062838264 -0.12742664
0002b0 a5 70 bd bd 4a 3a 55 bd 17 40 8b 3d 18 67 a7 3c
       -0.09250001 -0.052057542 0.067993335 0.020434901
0002c0 1d b0 36 bd b7 a8 a3 3d 94 6d 55 bd 86 13 d6 bb
       -0.04460155 0.07991164 -0.052106455 -0.006533089
0002d0 9c ad 06 3e e8 22 5a bd dc 7e 04 be c3 10 71 bd
       0.13152164 -0.053255945 -0.12939018 -0.058853876
0002e0 65 d5 b7 3d c4 86 1d 3c d7 bd 97 3d 33 af c6 3d
       0.08976249 0.00961465 0.07409256 0.09701385
0002f0 0c 11 94 3d b1 e1 0d 3e 75 48 d1 3d 74 cc b0 3c
       0.07229814 0.13855626 0.10218898 0.021581866
000300 f3 5f fe bc 44 7c 09 be 9b 3d 7d 3d 3c 0d 24 be
       -0.031051612 -0.1342631 0.06182633 -0.16020674
000310 b8 d2 55 bd 91 a8 e1 bc d3 f2 58 bd e6 23 25 3d
       -0.05220291 -0.027546199 -0.05296595 0.04031744
000320 77 92 5f bb 76 ca f1 ba 93 c0 38 3d 3e 9a 03 3c
       -0.00341144 -0.0018447179 0.045105528 0.00803238
000330 dd ee 1c bd a2 e3 f9 3b c4 9d 80 bd 4a 2c 48 3d
       -0.038313735 0.007626013 -0.062800914 0.048870362
000340 56 89 ab 3d 04 c0 ba bd 36 ae cd bd 41 24 4b be
       0.08375804 -0.09118655 -0.10042994 -0.19838049
000350 2b f2 4f bd aa 44 b0 bd 82 19 9c 3e c1 57 f6 bd
       -0.05076806 -0.08606847 0.3048821 -0.120284565
000360 f9 d6 f4 3c e5 f6 c0 bd ed d7 44 3d c5 47 73 3d
       0.029887663 -0.094220914 0.048057485 0.059394617
000370 38 47 8f bd eb a0 a5 bd 37 ce 89 38 2a 12 92 3c
       -0.06996006 -0.08087333 6.5710796e-05 0.017830927
000380 58 66 52 bd ef 9a 18 be 31 eb c0 be a9 e2 9d bc
       -0.051367134 -0.14902852 -0.37679437 -0.019273119
000390 03 e9 60 bd 0a 48 3f bd 50 b6 e2 bd 32 e8 1f 3d
       -0.054909717 -0.04669956 -0.110699296 0.039039798
0003a0 7d 6e d9 3d ca b1 e0 3d cb 7f 2c 3e 0d b6 bc 3d
       0.10616777 0.109714106 0.16845624 0.09214411
0003b0 49 43 ba 3d e3 67 24 3e 55 6a 01 be 17 73 28 3d
       0.09094865 0.16055255 -0.12638219 0.041125383
0003c0 55 ca 49 bd 93 10 ca 3c cf 87 e7 bd 91 21 ed bd
       -0.049265224 0.024666106 -0.113052 -0.11578668
0003d0 73 a2 3e 3c b3 0c 95 bd 88 6e 18 be af b9 5f 3d
       0.011635411 -0.07277813 -0.14885914 0.05462044
0003e0 ad b7 27 3c ba f5 df 3c 35 b9 87 3d d3 8e 4b 3c
       0.010236663 0.027338851 0.06627122 0.012424189
0003f0 52 ba 45 3d a9 2d 38 be e9 43 05 be a6 a2 34 be
       0.048273392 -0.17986168 -0.13014187 -0.1764017

net.9.bias f4 [10]
000000 dd 67 eb bc 15 50 3d bd 70 5f 0e 3d 01 91 90 bd
       -0.02873605 -0.04621895 0.034758985 -0.07058907
000010 6f 06 18 3d 1d 1b 9a bd 33 35 d0 bc 71 23 cc bd
       0.03711551 -0.07524703 -0.025415992 -0.099676974
000020 4b b2 b4 bb d4 ad 68 bc
       -0.0055144182 -0.0142016
