result/model_21_1.pth (torch, 307183 bytes, 8 tensors)

net.0.weight f4 [20, 1, 4, 4]
000000 3c 4a e4 3e a9 62 03 3f b6 10 3e 3e 32 5c ac 3e
       0.44587886 0.5132242 0.18561062 0.3366409
000010 e6 d3 28 3e 44 d7 fb 3d 76 34 9c bd 6c a8 5c 3e
       0.16487083 0.12296918 -0.07627194 0.21548623
000020 98 b8 a6 3e 36 cc 9e bd 8b e9 aa 3e 5c c4 40 3c
       0.3256271 -0.07753794 0.33381304 0.011765566
000030 ab 49 de 3e 4c 85 95 3e 4f 1a 13 3e 39 1b 9c be
       0.4341558 0.2920326 0.14365505 -0.3048952
000040 14 4e bf 3e f7 f1 80 3e a8 8b ca 3d 17 38 8b 3e
       0.37364256 0.25184605 0.098899186 0.2719123
000050 34 52 1b be 44 22 eb 3b c3 d1 49 bd f7 f2 48 3e
       -0.15168077 0.0071757156 -0.04927231 0.19623934
000060 70 1a 94 be 9d 5a 4f be f0 9c 59 be f8 df 4a be
       -0.2892642 -0.2024941 -0.21251273 -0.19812
000070 a1 97 00 3c 00 01 92 be 8d 0e 4f 3d 5f 41 62 be
       0.007848651 -0.28516388 0.050550986 -0.2209525
000080 9e 8c 4d 3e 94 77 8f 3d 4f 1f da be 5d eb a6 be
       0.20073172 0.070052296 -0.42602012 -0.32601443
000090 63 9c 86 3d 72 e4 35 3f e9 e0 dc 3e 6d 15 b6 be
       0.06572797 0.71051705 0.43140343 -0.35563222
0000a0 1e 5d 77 be bc 7e 23 3e 75 7f 0e 3f 79 ff 94 3e
       -0.24156615 0.15966314 0.55663234 0.2910116
0000b0 57 5a 5c be f4 24 a6 be 45 b6 36 3e 00 e4 83 3e
       -0.21518837 -0.32450068 0.17842968 0.25759888
0000c0 a1 e9 ee 3d 91 1f 75 be 78 fc d4 be 71 3d 1f be
       0.11665655 -0.23937823 -0.41598868 -0.15550782
0000d0 f2 22 11 be a7 10 92 3e d7 b7 3c 3e eb ce 8e 3e
       -0.14173487 0.2852833 0.18429504 0.2789224
0000e0 92 d9 24 3e b0 6d 29 3e 2f 36 ae 3e f3 83 8a bd
       0.16098621 0.16545749 0.34025714 -0.067634486
0000f0 39 39 bf 3b 0b 91 7b be c7 1b fa bc d6 4c a5 bd
       0.005835679 -0.24567048 -0.030530823 -0.08071296
000100 ee cf 99 3d c0 72 b0 3c cd 7a 8a 3e 82 f3 ca bd
       0.075103626 0.021539092 0.27046815 -0.09909727
000110 41 b0 45 be 93 67 37 be d6 e4 38 3e 55 b3 88 3d
       -0.19305517 -0.17910604 0.18056044 0.0667483
000120 65 a3 68 3e 3a 1b 80 be 10 a8 b3 be 00 a5 8f be
       0.2271858 -0.25020772 -0.3508916 -0.28055573
000130 23 f7 fc bd 11 da 1f 3e 3d 7d 11 3e bc 30 81 3e
       -0.12351825 0.1561053 0.14207931 0.25232494
000140 9f 04 e6 bd 99 54 15 bd 80 37 3f 3e 51 da 37 be
       -0.1123135 -0.03645763 0.18673515 -0.17954375
000150 96 87 61 3e 16 dd d3 3d d7 fa 12 3e 5b f5 aa be
       0.22024378 0.10344903 0.143535 -0.33390316
000160 e8 04 d0 3c cc 5a 83 3e 50 50 b6 bd dc 5f 79 be
       0.025392964 0.2565521 -0.08902037 -0.24352974
000170 92 a4 a2 3e 38 55 99 3e 6a ae ad be 4a b0 97 be
       0.31766182 0.2994783 -0.3392213 -0.29626685
000180 81 cc b1 3e f3 aa 18 3b a9 d6 3a bd e8 ac 78 be
       0.34726337 0.0023295253 -0.045614872 -0.24284708
000190 87 af f7 bd 61 25 e2 bc 0a 2a 0a be ca 07 55 be
       -0.12094026 -0.027605714 -0.13492599 -0.20803753
0001a0 b7 19 4f bd 4b 3e 92 be cd 78 a1 be c4 46 30 bd
       -0.050561633 -0.2856315 -0.31537476 -0.043036237
0001b0 9a 1b 35 be c5 32 02 be 40 64 8f 3e 89 75 91 3e
       -0.1768631 -0.1271468 0.28006172 0.28409985
0001c0 3e 60 c9 3d a0 3c 4a be ad 49 0b be cd 80 9e bd
       0.0983281 -0.19749689 -0.13602324 -0.077394105
0001d0 11 38 ef 3c 88 57 57 be 8a 5d fc bd 9d 88 3e be
       0.02920154 -0.21029484 -0.12322529 -0.18606801
0001e0 06 a7 76 bc 9d f4 fb bd ef 8e a3 bd c8 15 5b be
       -0.01505447 -0.12302516 -0.07986247 -0.21395028
0001f0 aa 7b 0b be fb 08 0c be 7b c6 cf bd cd 8d 39 be
       -0.13621393 -0.13675301 -0.10145279 -0.18120499
000200 36 c7 a3 3e 7f 17 9d 3d be a8 a2 3e 6e 36 50 3e
       0.31987923 0.07670497 0.31769365 0.20333263
000210 8c db 5a be 1d cc 37 3e ec 46 85 bd bb 93 41 bd
       -0.21372813 0.17948957 -0.06507668 -0.047260027
000220 59 9f 93 be d4 89 a9 be 6b 29 23 bd 9a 22 be bd
       -0.2883251 -0.33112967 -0.03983442 -0.092839435
000230 64 f4 87 3d c4 70 6e be ed 5a d7 3d a1 60 45 be
       0.06638411 -0.23285204 0.105153896 -0.19275142
000240 e6 57 e3 bd 71 b6 cd 3d fb be 8f 3e 5e 7f d4 3e
       -0.1110075 0.100445636 0.28075394 0.41503423
000250 3c 7e 86 3e 67 69 e3 bd d1 02 4e 3e 97 66 69 be
       0.26268184 -0.11104088 0.20118262 -0.22793041
000260 5a 18 b5 bd da 7d 12 be 36 fe 6f 3e 03 33 dd be
       -0.08842535 -0.14305821 0.23436818 -0.4320298
000270 d3 9c a1 bb 5d c9 3f 3d 5a d8 81 bc e1 96 97 be
       -0.004932025 0.046822894 -0.015850235 -0.296073
000280 32 0b d2 3e e4 6f ed 3d 07 1d 6d 3d 99 66 33 be
       0.41024166 0.11593607 0.05788901 -0.17519607
000290 60 e7 b1 3e 83 21 48 3c c0 df 0b be 20 af 88 3e
       0.34746838 0.012215021 -0.13659573 0.2669611
0002a0 d2 79 83 3e 78 ec 2e be 4e 75 86 be 0c 18 d8 bd
       0.2567888 -0.17082393 -0.2626137 -0.105514616
0002b0 2e 63 4c 3e 94 27 eb bd be f4 85 be cf a8 42 be
       0.19959709 -0.11482158 -0.26163286 -0.19009708
0002c0 b3 91 77 be 02 99 b3 3e b0 3a 7a 3e 7b 75 bc be
       -0.24176674 0.35077673 0.2443645 -0.3680838
0002d0 e1 75 35 3c 16 5d bf 3e 76 9c 4a bc 8d 12 92 be
       0.011075468 0.37375706 -0.012366405 -0.28529778
0002e0 23 16 34 3e 6c 93 9c 3e 45 d9 e6 bb d3 cd 6e be
       0.1758657 0.30581224 -0.0070449435 -0.23320703
0002f0 f6 71 63 bd 72 32 33 3e 2e f4 95 bd c8 6b 4d be
       -0.055528603 0.17499712 -0.07321964 -0.20060647
000300 93 97 52 3e 44 e7 8c 3e 9b 94 cc 3b 7a bb 3b bd
       0.20565633 0.27520192 0.006243301 -0.04583309
000310 3d 19 3a bb cb 74 4d 3d ee ba 30 3e 89 64 3e 3e
       -0.002839639 0.05016021 0.17258808 0.18593039
000320 31 a4 9c be ef 61 0e be 8c aa 44 3e d5 e1 0e 3e
       -0.30594018 -0.13904546 0.19205683 0.13953336
000330 df a5 a0 bd 18 71 69 be 78 9b 7d be a7 59 90 be
       -0.078441374 -0.22797048 -0.24766338 -0.281934
000340 1c 8d 52 be c7 08 96 3c 3e 0a 98 3e 1e df 98 3e
       -0.20561641 0.018314732 0.29695314 0.29857725
000350 16 6b c3 be 17 a6 97 be 07 62 57 3c cc 86 f4 3e
       -0.38167638 -0.29618904 0.01314593 0.47759092
000360 9f 8c 12 be 12 88 78 be b4 d2 fa 3d 59 1f cc 3d
       -0.14311455 -0.24270657 0.1224722 0.099669166
000370 c3 6b 95 be c0 ba 0b 3d 1e 8a af bd b3 bc f0 3d
       -0.29183778 0.034113646 -0.08571266 0.117547415
000380 3e 0b 66 be 18 13 64 3e 10 f1 8a 3e 16 78 3e 3e
       -0.22465226 0.22272909 0.2713704 0.18600497
000390 58 8e 1a be 27 3f 27 be 50 3c a0 bd 87 ca af 3e
       -0.15093362 -0.16332684 -0.07824004 0.34334204
0003a0 45 e9 22 3e 43 67 8e 3e 45 66 f0 3d ab 2f 49 3d
       0.15909298 0.27813157 0.11738256 0.049117725
0003b0 7c d9 7b bc e0 13 78 be 17 56 a0 be 85 ae 96 be
       -0.015371677 -0.24226332 -0.3131568 -0.29430023
0003c0 b5 1a 1a 3e 48 88 a1 bd 83 3f f7 bb 5e be ed bd
       0.1504925 -0.07887322 -0.007545413 -0.11608575
0003d0 17 d6 d0 bc d8 2f 1f be 6b aa 2b be f7 b9 04 3d
       -0.025492711 -0.15545595 -0.16764228 0.032403912
0003e0 32 6d a0 bd f0 ca af 3d bb 24 10 be f7 a7 51 be
       -0.07833327 0.08583629 -0.14076512 -0.2047423
0003f0 f4 b1 1a bc 3e 0c f4 bd 07 22 a2 bd f7 f6 54 be
       -0.009441841 -0.119163975 -0.079166465 -0.20797335

net.0.bias f4 [20]
000000 ae f8 f9 3d 0e 9a 1c be 91 75 c6 3e b9 48 18 3e
       0.12205635 -0.15293142 0.3876157 0.14871491
000010 91 1e db bd 6c 94 d0 bd 93 99 cc be e0 07 b3 be
       -0.106991895 -0.10184559 -0.39960918 -0.34966946
000020 9d bb 1d be b8 e1 d4 3d 26 41 75 3e d3 69 0c 3e
       -0.154036 0.10394615 0.23950633 0.13712244
000030 34 30 f9 bd e4 e9 07 be d9 0a 0f 3e 3c 3c af be
       -0.12167397 -0.13272816 0.13968982 -0.34225643
000040 4d 96 3e 3d d8 41 04 3e 30 c1 c9 be 62 29 03 3e
       0.046530057 0.12915742 -0.39405203 0.12808755

net.3.weight f4 [40, 20, 5, 5]
000000 4f f2 3e 3b 5f b0 4d bd 83 82 63 bd af 0b 9b bd
       0.0029136126 -0.05021703 -0.055544388 -0.07570588
000010 7c 85 7e bd 1a bb 7f 3d cc 92 ff 3c 21 21 80 bd
       -0.06213902 0.062434293 0.031197928 -0.06256319
000020 28 bc 1c bd 59 a0 b0 bd 88 b7 06 3e 95 05 dd 3c
       -0.038265377 -0.08624334 0.13155949 0.0269802
000030 d6 1a e5 3c 0b 23 81 bd a8 32 a6 be e2 b5 bb 3d
       0.027966898 -0.06305512 -0.32460523 0.09165551
000040 4b 61 05 3c 27 4f b7 bd 86 04 64 be c8 71 32 be
       0.008140872 -0.08950644 -0.2226735 -0.17426217
000050 f1 f0 de 3a d1 1d 02 bd d1 8f 39 bd d2 f7 ca bd
       0.0017009062 -0.031766716 -0.04530317 -0.09910549
000060 28 62 fc bd 5f 9e 67 39 2b 4b af bc 9c 03 ff bd
       -0.12323409 0.00022088875 -0.021398148 -0.1245186
000070 40 9e be bd 11 ec 5b ba b3 02 9c 3c 35 b0 9b bd
       -0.093075275 -0.00083893636 0.019044256 -0.07601968
000080 47 82 df bd 0b a5 c6 3c b3 f6 5f 3c f2 75 b2 bd
       -0.1091352 0.02424862 0.0136696575 -0.087139025
000090 76 32 d4 bd 21 10 87 3c 00 40 8b 3d 61 ec 1d 3c
       -0.10361187 0.016487183 0.067993164 0.009638877
0000a0 aa 95 9f 3c 75 64 aa bd b7 9d 74 3b bb 45 83 3d
       0.019480545 -0.08319942 0.003732545 0.064097844
0000b0 89 a2 b4 3c 6c 65 82 3d 69 33 3e bd 91 7c 96 bc
       0.022050159 0.06367001 -0.046435747 -0.018369945
0000c0 40 95 4f 3d 59 95 37 3c bc 99 cb 3d 80 13 64 bd
       0.050679445 0.011205041 0.09941432 -0.05568266
0000d0 61 8c e0 bd 3a 99 78 bd 93 68 49 3d da 47 82 bd
       -0.10964275 -0.060693003 0.049171995 -0.06361361
0000e0 a3 22 51 be bd 8e c4 bd 6c 97 d1 ba c9 6a 19 bc
       -0.20423369 -0.09597538 -0.0015990562 -0.0093638385
0000f0 9d f1 81 bd ec ad c4 bc fa e2 d2 3c a7 c3 1e bc
       -0.06344912 -0.024008714 0.025742996 -0.009690202
000100 8e 41 f7 bc c5 ba f2 3c 43 2b c7 3d 1a cc a2 3d
       -0.030182626 0.029630074 0.097250484 0.079490855
000110 5a a4 ce bc 85 72 bc bc 0d e0 cf 3d 98 27 35 3e
       -0.025224853 -0.023003826 0.10150156 0.17690885
000120 bc 96 fe 3d 0d 6d c2 3b ed 69 bc bc 8c 6b ab 3d
       0.12431094 0.00593341 -0.022999728 0.08370122
000130 31 e5 1b bc a9 4a 51 3d fa 4d 93 3d fe 81 55 3d
       -0.009515093 0.051096592 0.07192607 0.052125923
000140 12 be 03 3c 09 28 a2 3d 73 92 99 3d e3 a5 fa 3d
       0.008040922 0.07917792 0.07498636 0.12238672
000150 17 71 f8 3d e9 a8 b4 3c 05 ac d1 bc 0e ba a3 3c
       0.12130945 0.022053199 -0.02559472 0.019986179
000160 4f d7 0a 3e c6 9e 9e 3d 0d e0 b0 bd 73 27 72 3d
       0.13558696 0.077451274 -0.08636484 0.059119653
000170 2d 58 15 3e cc f0 24 3e 87 1b cf 3c 1a fe 49 bd
       0.14584418 0.16107482 0.02528168 -0.049314596
000180 35 d4 38 3d a4 7b c5 3d 3a a9 32 3d ea f8 e6 bc
       0.04512425 0.09642723 0.04361842 -0.028194863
000190 18 28 d0 3c 82 bb 1e 3e 42 6c d2 3d 73 f5 50 3d
       0.025409743 0.15501216 0.10274555 0.05101533
0001a0 15 ae 29 3d 1d 2a 97 3d ba 15 29 bd f9 dd 09 3d
       0.041425783 0.07381079 -0.041280486 0.033658955
0001b0 d3 f4 d8 3d e8 37 83 3d 8b b9 06 be 50 9e e5 bd
       0.105935715 0.06407148 -0.13156717 -0.11211836
0001c0 3c 37 e2 3c 7a aa 31 3e 37 95 25 3e bf 7e bb bd
       0.027614228 0.17350188 0.16170202 -0.09155034
0001d0 0e 5c 23 3d 05 9f 6d 3e 3a fa 08 3e 3b 9b 4d 3d
       0.039882712 0.23205192 0.13376704 0.050196867
0001e0 2a b1 23 3d 8a b3 00 3e f1 b8 24 3e 52 eb 94 3d
       0.03996388 0.12568489 0.16086175 0.07271446
0001f0 20 ee ef bb d8 e0 8a 3d 46 7f 8a bc 76 15 b1 bc
       -0.007322088 0.06781167 -0.016906392 -0.021616679
000200 41 57 8c bc dd 11 f6 3c 25 36 84 3d b4 45 21 3e
       -0.01713145 0.030037815 0.0645564 0.15749246
000210 e9 3c 42 3d ee 32 a5 bd 44 b5 d2 3b b2 74 b2 3d
       0.04742137 -0.08066355 0.0064303 0.08713664
000220 1d ba f3 3d b5 01 d5 bd 83 7b b0 bd f8 ca 6c 3d
       0.11900733 -0.10400716 -0.08617308 0.057810754
000230 de 0f f6 bc ea 7f af bd f3 04 bd bd cb b3 07 bc
       -0.030036863 -0.085693195 -0.092294596 -0.008282612
000240 8c 99 33 bc 6f f1 be bd 8a 5b 52 bd 13 50 e2 bc
       -0.010961901 -0.093233936 -0.05135683 -0.027626073
000250 3c 1b 0b 3d 57 e3 b5 3d 7a 28 7d 3c f9 76 c8 3c
       0.03396152 0.08881252 0.015451545 0.024470793
000260 b1 ef 3c 3d d5 4a 30 bb 69 7d 3e 3b 8f 8f 9d 3c
       0.046127025 -0.0026900072 0.002906645 0.019233493
000270 87 b0 70 3c 94 ca 7c bb 44 5a 51 3a 8c 3c ee bb
       0.014690525 -0.0038572894 0.0007986168 -0.0072704013
000280 a6 3d 33 bd 4a 15 04 be 7d 9e 28 bd c5 f6 15 3d
       -0.043759964 -0.12898746 -0.04116677 0.03661229
000290 d0 9c 81 3d f7 ec 11 bd 96 1c 10 be 91 01 89 bd
       0.06328738 -0.035626378 -0.14073405 -0.06689752
0002a0 33 4e 53 b8 91 19 b3 3c 1b b9 aa bc c7 48 c1 bd
       -5.037915e-05 0.021862777 -0.020840218 -0.09437709
0002b0 02 b8 97 bc fe ba e5 bc 2a 31 8a ba 10 96 ea bc
       -0.018520359 -0.028043266 -0.0010543216 -0.028636009
0002c0 4f 4e 4b 3d 4a af 44 bd 6d 8b 57 3c 47 26 41 3c
       0.049635228 -0.04801873 0.0131558 0.011788911
0002d0 ec 50 4f bb 0f 46 bd bc fd 64 7c bd 30 26 ca 3c
       -0.0031633927 -0.023104696 -0.061619747 0.024676412
0002e0 60 cc 6e 3d b0 d6 75 bd cf 48 9c bd f2 83 18 bd
       0.058300376 -0.060019195 -0.07631075 -0.037235208
0002f0 96 af 05 3c ad 7d 3d 3d 83 b4 80 38 0b 75 a0 bd
       0.008159539 0.046262432 6.1371386e-05 -0.07834824
000300 d7 b4 2f bd 52 a6 31 3d 62 a3 67 3d 8f eb a4 3b
       -0.04289707 0.043371506 0.0565523 0.0050329636
000310 03 c2 97 bd 46 63 f9 bc 41 0b 03 bd bf 29 76 3d
       -0.07410052 -0.030442845 -0.031993154 0.060098406
000320 c6 28 04 be 60 48 14 be 8d 3a 75 be 94 81 ec bd
       -0.12906179 -0.14480734 -0.23948117 -0.115481526
000330 c4 3d 0b 3d 62 e7 aa bd 62 18 21 be 54 d9 6c bd
       0.03399445 -0.08344914 -0.15731958 -0.057824448
000340 67 a1 a7 3d 42 fb b6 3d 35 55 44 be 5a df 1f be
       0.08185082 0.089346424 -0.19173129 -0.15612546
000350 21 bb db bc 6e 4c dc 3d a3 c5 d6 3d ee 79 fd bd
       -0.026822628 0.10756765 0.10486915 -0.12376772
000360 1e e9 45 bd f4 88 93 3d 36 04 f5 3d a1 78 d5 3d
       -0.04831802 0.07203856 0.11963694 0.10423399
000370 5a 50 d4 3c f6 3b 81 3d c3 43 9a 3d f0 af 46 3d
       0.02591722 0.06310265 0.07532456 0.04850763
000380 f0 a7 3e bb a8 25 3b be 2d d9 f0 bd 06 a2 24 3d
       -0.0029091798 -0.18276083 -0.11760173 0.04019358
000390 94 aa 43 bd f2 3f 50 3c 37 18 c2 bc c0 cb a3 3d
       -0.047770098 0.012710558 -0.023693187 0.079978466
0003a0 9b 1b 52 3d d3 12 c4 3d da ff e5 3d 7c c4 fa bc
       0.051295858 0.09573903 0.112304404 -0.03061127
0003b0 ff aa 86 3d a0 a3 9d 3d a0 92 e4 3c c2 59 0f 3d
       0.06575584 0.076972246 0.027901947 0.03499771
0003c0 98 87 75 bd 6d 64 a1 bd fe 0f 7d 3d 80 f0 c2 3d
       -0.059943765 -0.07880483 0.06178283 0.09518528
0003d0 33 22 f3 bb 1a 52 60 bd a6 b7 30 bd b6 a1 4f 3d
       -0.0074198483 -0.0547658 -0.04314389 0.05069133
0003e0 ae 2c df 3c 93 97 4a bc f5 42 1b 3d 22 c7 e2 bc
       0.027242985 -0.01236524 0.037905652 -0.027682845
0003f0 56 0c 88 bc 0c 4c a6 3c bc 40 03 bd ff 2a 98 bd
       -0.016607445 0.020299934 -0.032044157 -0.07430076

net.3.bias f4 [40]
000000 8d 60 49 3d cd 11 1c 3c 7f 81 92 3c 31 68 f1 bc
       0.049164344 0.009525728 0.017884014 -0.029468628
000010 09 b6 05 bd 2b f0 07 3d de 2c 8f bc 2e 46 c2 3c
       -0.032644305 0.033188026 -0.017477449 0.023715105
000020 4a 24 2b bc ac 29 d9 bb ca 1f 9d 3c 7a 3f 31 3d
       -0.010445664 -0.006627282 0.019180197 0.043273427
000030 1a de 43 bd af dd 26 3c 98 76 41 bb b9 2e c7 bc
       -0.047819234 0.010184689 -0.002952015 -0.024314271
000040 2b a0 61 bb e3 53 3a bb 96 7a 2f bd 13 5e 42 bb
       -0.0034427743 -0.0028431348 -0.042841516 -0.0029658123
000050 52 93 24 3d 8a 73 d0 bc 07 1b d6 3a 31 80 8b 3d
       0.040179558 -0.025445718 0.0016334959 0.0681156
000060 ef 80 48 3a 38 2e ee bc 1a 8d ae bc ad 07 bc bc
       0.0007648607 -0.029074773 -0.021307517 -0.022952879
000070 f0 f8 6c 3d 7d 5b 3a bb cf 8b 89 3c 1e 54 0d 3d
       0.057854593 -0.002843588 0.016790299 0.03450405
000080 39 36 47 bc ce 8b 12 3d 19 f8 b5 3d 7f 45 fb 3b
       -0.012158924 0.03577786 0.088852115 0.0076681967
000090 80 4c c5 3b c6 f3 49 bd 5d 36 e2 3c f5 47 a8 bc
       0.0060210824 -0.049304746 0.027613813 -0.020542124

net.7.weight f4 [150, 360]
000000 c9 ec 92 bd 6d 6b 47 3c 98 15 35 bc 17 e0 16 3c
       -0.071740694 0.012171608 -0.011052512 0.009208701
000010 47 77 0c 3d b4 91 f9 bc eb 29 eb 3d f8 f7 8d 3d
       0.03429344 -0.030464984 0.114826046 0.06932062
000020 43 08 8a bc 99 b5 89 3d b9 a1 7c 3d bb 4c 35 3d
       -0.016849643 0.0672409 0.06167767 0.04426263
000030 26 f9 4b 3d cf 69 25 bc 0a c0 69 3d 3f c7 64 3d
       0.049798153 -0.0100960275 0.05706791 0.05585408
000040 51 22 0f 3d 30 3a f3 3d 8f 08 7e 3d 89 0d 42 bd
       0.034944836 0.11876333 0.06201988 -0.04737619
000050 e9 f0 6e bd c5 06 2b bd d9 1e 81 bd 25 d6 96 3c
       -0.05833522 -0.041754503 -0.06304712 0.018412659
000060 d2 3f c2 ba 3c 78 b4 3d 7d dc ee 3c 00 e0 11 bc
       -0.0014820045 0.088119954 0.029157871 -0.008903503
000070 31 b4 1d 3d e3 d1 c9 bc 86 6b 0d 3c a0 6a 55 bd
       0.038501922 -0.024636215 0.008631593 -0.05210364
000080 2b da 06 3d fc 59 54 bd 3c c1 d3 3c 98 d0 29 bc
       0.032922905 -0.05184363 0.025848977 -0.010364674
000090 73 70 aa 3c 4a ee bb 3c e6 45 83 bb ff 54 06 3d
       0.020805573 0.022940774 -0.0040061353 0.032795902
0000a0 aa fe 58 3d 88 7f 68 3d 56 56 8b 3d 74 e5 f5 3c
       0.05297724 0.05676225 0.06803577 0.030016638
0000b0 2b c1 da 3b 49 d6 63 bc ce f1 26 bd 7b 3a b8 39
       0.0066758594 -0.01390607 -0.040757947 0.00035138786
0000c0 e3 67 d5 bb 73 ee 64 3d 54 ef 60 3d 97 d6 78 bd
       -0.0065126284 0.055891465 0.05491574 -0.060751524
0000d0 23 39 d4 bd 2d 27 ca bd 5a 79 f2 bc f1 d8 01 bd
       -0.103624605 -0.098707534 -0.02959888 -0.031701032
0000e0 d8 64 74 3d 41 43 81 3d 4e 70 1a 3c d1 17 75 3d
       0.059666485 0.06311656 0.00942619 0.059837166
0000f0 91 cb 79 3d 3f db d3 bc 9b 33 06 bd 3a 23 cb bd
       0.06098515 -0.02586138 -0.03276406 -0.09918828
000100 72 22 99 bd 57 f7 8f bc 32 5c 3a 3c 98 dc 92 3c
       -0.07477273 -0.017573996 0.01137452 0.017927453
000110 54 fd 8e 3d 49 7d ce 3b be 1a 67 3c 53 cc 9a bd
       0.06981912 0.0063015562 0.014105497 -0.07558503
000120 0f fa ee bc 18 d0 01 be 10 8a 88 bd c4 72 29 ba
       -0.029171972 -0.12677038 -0.06666958 -0.000646394
000130 45 48 e1 bc 4c 72 a8 b8 db e0 e1 bc cd 99 fc bd
       -0.027500281 -8.032154e-05 -0.02757304 -0.12334023
000140 1c bd ce bd 32 c6 bb 3d 04 4a 2c 3d 78 23 28 3d
       -0.100946635 0.09168662 0.042062774 0.04104945
000150 bb 46 25 bb 84 dd c0 3d 12 d9 4c 3c f8 95 02 3d
       -0.002521916 0.09417251 0.0125029255 0.031881303
000160 3b fe ad 3d 4e a0 f4 3d ae e6 47 bc 0a c3 84 bd
       0.08495756 0.11944638 -0.012200994 -0.06482513
000170 71 37 f4 3c df 28 1a 3d 54 f6 66 bd ab 65 c4 3c
       0.029811593 0.037636634 -0.05638726 0.02397426
000180 15 d1 1e 3d 1a a1 ae bc 84 c4 5c bd 27 5a 81 bd
       0.038773615 -0.021317054 -0.05389835 -0.06316023
000190 f7 03 ca 3c 04 b3 52 3d 4c 52 57 bc a6 22 3c bd
       0.024660094 0.051440254 -0.01314218 -0.04593148
0001a0 6c 2d 4a 3d 0f 6b 75 bd aa a1 c8 bd e1 76 57 bc
       0.049359724 -0.059916552 -0.0979646 -0.0131509015
0001b0 c6 7e f2 bc 79 b5 2a bd cc 06 72 3b 5c 1f 92 3c
       -0.029601466 -0.041676972 0.003693032 0.017837219
0001c0 bd ad 90 3d 66 f8 87 3c ca 8b 7b 3d 01 68 40 3d
       0.07064388 0.016597938 0.06141261 0.046974186
0001d0 92 ab 5b 3d 7e 41 df 3c f2 9b 3f bc 1c 7c b7 3c
       0.05363042 0.027252909 -0.011694895 0.022398047
0001e0 b0 e4 db 3d 3b cd b4 bc 8d 7a 82 3b 1e 29 61 bd
       0.10736978 -0.022070518 0.0039818943 -0.054970853
0001f0 22 00 b6 bd 0a e0 4d be 7b b3 1d bc cf 45 1f 3c
       -0.08886744 -0.20104995 -0.009625311 0.0097212335
000200 91 16 93 3d 7b dc f4 3c 14 0d 78 bc ed da 58 3d
       0.071820386 0.02989029 -0.015139837 0.05294316
000210 69 1c 49 3c 1d 73 ae 3d 79 36 08 3d 5c 08 c1 bc
       0.01227484 0.0851805 0.033255074 -0.023563556
000220 54 86 20 3d 17 ca 84 3d 45 fe 77 3d 28 7d 3d bc
       0.039190605 0.06483858 0.060545225 -0.011565484
000230 90 b2 8a 3c 6a 21 ad 3d 85 ee 70 bd d2 e0 be 3c
       0.016930848 0.08453639 -0.05882122 0.023300562
000240 d4 d7 4f bd 1b 85 b9 bb 8e 78 79 3c 8d db 93 3a
       -0.05074294 -0.0056616194 0.015226496 0.0011280641
000250 76 17 c4 bb 3a a6 55 3d b5 41 0d bd ee ce c3 bd
       -0.005984242 0.05216048 -0.03448649 -0.09560953
000260 e1 58 63 3b 21 65 7d 3d 5e 51 cf 3d 13 7d e1 3d
       0.0034690427 0.061864022 0.101229414 0.11010184
000270 29 5c 96 3a b9 15 9d bc f2 08 5c ba c3 38 da bd
       0.0011471558 -0.019175397 -0.0008393667 -0.10655358
000280 e5 b4 d4 bd d5 25 e0 bc 89 92 5c 3c 8b a8 d6 bc
       -0.103860654 -0.02736179 0.013462671 -0.026203414
000290 4e 6f 19 3c c8 ca e3 bc f4 e7 e4 3c b8 b8 9d bc
       0.009364916 -0.027806655 0.027942635 -0.01925312
0002a0 28 75 92 bc f7 42 57 3c 02 41 4c 3d 1a 5a 6b bd
       -0.01787813 0.013138524 0.049866684 -0.057458974
0002b0 75 08 cc bc 96 b5 85 bd f5 5e 9b bb 76 c2 50 bc
       -0.024906376 -0.065287754 -0.0047415444 -0.012741676
0002c0 d5 b4 62 bd 8f 33 6d 3c a3 89 9b bd be 3a 78 bc
       -0.055348236 0.014477625 -0.075946115 -0.015150724
0002d0 69 11 8b 3d cd 07 06 3d 8b 80 a1 3d 79 de a5 3d
       0.0679043 0.032722283 0.07885846 0.08099074
0002e0 4f 59 e1 3d 9e 26 a0 3d 38 25 57 bc ea fd b6 3d
       0.110033624 0.07819866 -0.013131432 0.08935149
0002f0 bc 9f 96 3d 98 79 14 bd 6a 81 0a bd 0f 1d ff 3c
       0.07354686 -0.036248773 -0.033814825 0.031141786
000300 1e fe a0 bc 51 5f 8d 3c 7c ab 63 bd 10 33 b5 3b
       -0.019652423 0.017257364 -0.055583462 0.0055297688
000310 2d 0f 16 bd 5a 51 55 3c 7c 30 4e 3d 8b 8d 92 bc
       -0.036635567 0.013019884 0.050339207 -0.017889759
000320 d8 30 93 3d 45 a4 35 3c 2a 3a 45 3d 67 d3 85 bd
       0.071870506 0.011086528 0.048151173 -0.065344624
000330 79 6e 19 be fb 6a f8 bb 7b 6b 02 bd 8a e3 f0 3b
       -0.14983548 -0.0075811124 -0.031840783 0.0073513435
000340 2e f3 09 3d 1d da 52 bd 34 5e 8a 3a 99 de a6 bc
       0.03367918 -0.05147754 0.0010556639 -0.020369815
000350 c0 0c bb 3d c1 ae d4 3a 5b b1 31 bb 4b 9d 23 bd
       0.09133291 0.0016226397 -0.0027113769 -0.03994493
000360 af 42 88 bc 6f 35 28 bd e9 e5 5b 3d 38 b1 39 bc
       -0.01663336 -0.041066583 0.053686056 -0.011333756
000370 ff e1 aa bc 55 eb 25 3d ff df 78 3c 33 8a 8e 3c
       -0.020859716 0.040507633 0.015190124 0.017399883
000380 ab c7 77 bc b8 08 26 bd 5d fa 49 bd 80 72 85 3d
       -0.015123288 -0.04053566 -0.04931103 0.0651598
000390 6f 4a 9f ba 76 69 7f 3c 34 e1 9a 3d 6a b8 cd 3d
       -0.001215292 0.015589109 0.07562485 0.1004494
0003a0 7a 2a 63 3d 8f dc 1e 3d ef 0b 94 bd aa 15 46 bd
       0.05546043 0.03878456 -0.07228839 -0.048360504
0003b0 f1 a7 6c 3c 2d 40 a9 bc 64 58 11 bd 7c ba 89 3d
       0.014444337 -0.020660484 -0.035484686 0.06725022
0003c0 3e 5b 95 3b 7f b8 9e bd b5 35 47 3c 1c e0 8c bd
       0.004557996 -0.077500336 0.012158801 -0.06878683
0003d0 40 8b d9 bd f3 b7 03 3d 89 3d e5 3c fb 44 04 3d
       -0.10622263 0.03215785 0.027983444 0.032292347
0003e0 c5 a6 40 3c 81 88 e9 3c 6f 51 9e bd dd 33 ad bd
       0.011758511 0.028507473 -0.07730376 -0.08457158
0003f0 e2 f2 d9 3b ae e5 2a bd 62 d0 82 3c 7d e1 c4 bd
       0.0066512683 -0.041722946 0.015968505 -0.09613321

net.7.bias f4 [150]
000000 54 50 af 3d 4d e5 1c 3d af b1 fb 3c 7f 31 7e 3c
       0.08560243 0.038304616 0.030724375 0.0155147305
000010 dc 9f 94 3c 71 79 20 bc 66 39 87 bd 17 ce 02 bc
       0.018142633 -0.009794579 -0.06602745 -0.007983706
000020 7a a2 08 3d 77 35 23 3d a3 f4 a8 3c 54 5e 61 bc
       0.033358075 0.03984591 0.020624464 -0.0137554
000030 26 ef 4b 3c 77 1a 4f 3d ee 54 6d ba 8f 6c 44 bd
       0.012447154 0.05056235 -0.0009053488 -0.047955092
000040 b3 b6 88 3d cc b9 4a 3d 0e 70 8f bc 98 83 9a 3b
       0.06675472 0.049493596 -0.017509487 0.004715394
000050 4f 62 e9 3c 3b 49 1c bb 66 cc 5b 3d 7e b8 55 bd
       0.02848926 -0.002384736 0.053661726 -0.0521779
000060 c5 a0 9d 3c 38 7e 3a bd 7d be 0e 3d 90 82 1f 3d
       0.0192417 -0.045530528 0.034849633 0.038942873
000070 16 1e 0d 3d 8e c1 a7 3c 83 d0 9e 3c b9 3b 5d 3d
       0.03445252 0.020478036 0.019386536 0.054012034
000080 9d 62 82 3c 0e 0a 00 3d bb 67 9a ba f3 2a 90 bd
       0.015916163 0.03125959 -0.0011780182 -0.07039442
000090 8f 68 53 3d c4 a7 26 3c dd 34 52 bc 49 7e 8c bc
       0.051613387 0.010171834 -0.012829986 -0.017150061
0000a0 20 06 7b 3c 1d f0 3a bd 33 71 8b 3d 3b e3 08 3d
       0.0153212845 -0.045639146 0.068087004 0.03341983
0000b0 64 cb 03 bc b6 d3 b0 ba 05 87 03 3d e2 30 25 bd
       -0.008044098 -0.0013490829 0.032111187 -0.04032982
0000c0 b4 ed 4c 3d cd ad 89 bd b4 72 86 bd 9b 1f 31 3d
       0.05003138 -0.06722603 -0.06564847 0.043243032
0000d0 fb a3 88 3c d0 f2 92 bb 1e ff 9f 3d 4d 4f 0f 3d
       0.016679754 -0.004484512 0.078123316 0.034987736
0000e0 bb 23 f2 bb 51 03 71 bd 2a 99 95 bc 36 eb 33 bd
       -0.0073895133 -0.058841053 -0.01826151 -0.043925487
0000f0 15 7a 30 3d 00 4b 1e bc 81 fd 5f 3d d7 d8 27 3c
       0.043085176 -0.009661436 0.05468512 0.01024457
000100 79 ab 80 bd 58 38 90 3d cb b5 4d bb d5 43 66 bc
       -0.06282706 0.07041997 -0.0031388875 -0.014054258
000110 7b 2d f6 3b 8e 5b 87 bd 77 c3 2b bb 5a d6 07 3d
       0.007512746 -0.066092595 -0.0026209035 0.033163406
000120 8b f5 de 3c d6 83 04 3d a6 10 8b bd 5b 51 04 bd
       0.027216693 0.03235229 -0.06790285 -0.03230415
000130 07 a2 34 bd 26 20 83 3d 71 56 a7 3c 86 d7 69 bc
       -0.044099834 0.06402616 0.02042696 -0.014272576
000140 c1 3f 99 3c 0e c0 60 bd a0 30 28 bd d4 60 46 bd
       0.018707158 -0.054870658 -0.041061997 -0.048432186
000150 52 b6 14 bd e4 66 b3 3c 18 91 a7 3b fe 36 24 3d
       -0.036306687 0.021899648 0.005113732 0.040091507
000160 26 7e 46 bd 3d d9 97 3d 30 1c 27 3d 93 13 8d 3d
       -0.04846015 0.07414482 0.040798366 0.06888499
000170 78 a1 56 3c 08 4a 70 3b 1d 0e 68 3d d6 3c fc 3c
       0.013100021 0.003666522 0.056654084 0.030790728
000180 24 2f 90 bc 3f c9 96 bd 3f 4e ef 3c 10 17 1d bb
       -0.017600603 -0.073626034 0.029212115 -0.0023970045
000190 d9 c2 8f 3c e8 bd a6 3b fe 5b 2f 3c b8 82 6c bd
       0.017548965 0.0050885566 0.010703085 -0.05774185
0001a0 66 55 96 3d 4a 24 e1 bc cf 4e d7 3c 01 c4 04 bd
       0.07340507 -0.027483124 0.026282696 -0.032413486
0001b0 99 4a 89 3d 50 2f 1f 3d 0b 1a af 3d e7 e7 46 3d
       0.067036815 0.03886348 0.08549889 0.048561003
0001c0 ff a1 34 3d a2 4d 88 bd 04 58 8c 3d a2 f8 ff 3c
       0.044099804 -0.06655432 0.06852725 0.031246487
0001d0 62 c8 a8 3b 89 88 58 bd 2d 7f fc bc 56 fd dc 3c
       0.0051508406 -0.052864585 -0.03082236 0.026976269
0001e0 fe 01 84 3c 89 77 6d 3d 27 a8 4b bc b2 5f ae 3c
       0.016114231 0.057975326 -0.012430227 0.021285865
0001f0 c4 8a cf 3a 04 dc 13 bd 85 2f 9c bb 42 4e 6e bb
       0.0015834202 -0.036098495 -0.004766407 -0.0036362563
000200 df ec 96 bb 73 6a 0d ba 2e 38 32 3c b0 46 69 3d
       -0.004605874 -0.00053945853 0.010877652 0.05695218
000210 25 48 65 bc e5 15 11 3d c4 b0 4e bc 33 f4 a4 3c
       -0.013994251 0.03542127 -0.012615386 0.020135975
000220 51 a6 a3 3d ca 6c 3c bd 72 f9 9a 3b 7d 03 f8 bc
       0.07990707 -0.046002187 0.004729443 -0.0302751
000230 c6 b3 36 bb 76 62 49 bd f0 ef ae bc 42 92 05 3d
       -0.002787815 -0.049166165 -0.021354645 0.032610185
000240 95 f3 51 3c fd 91 a8 bc e2 22 ce bc 5f 29 c7 3b
       0.012814422 -0.020577425 -0.025163118 0.00607793
000250 fd de e2 bc 08 78 42 bd
       -0.02769422 -0.047477752

net.9.weight f4 [10, 150]
000000 0b e4 c7 bd 02 05 37 be d1 0b 34 be 9d 74 5a 3c
       -0.097602926 -0.17873004 -0.17582633 0.013333467
000010 69 b1 01 3e 89 cb 04 be 00 5c a2 bd 0c d1 34 bb
       0.12665333 -0.12968268 -0.07927704 -0.0027590422
000020 8d cf 6d bd fe a2 4a be 9a d7 2b bd f7 f4 bd 3c
       -0.058059264 -0.19788739 -0.04195366 0.023188097
000030 5d 19 1a 3d de 58 df 3d 69 89 3c be b4 bc af bd
       0.037621845 0.10905622 -0.18411793 -0.08580914
000040 e4 a2 8e bd a6 f9 57 3d e9 08 57 be 84 89 de bd
       -0.06964663 0.052728318 -0.20999493 -0.10866073
000050 85 b0 01 be 7b 66 82 bc 91 5d 9c 3d 62 83 c3 bc
       -0.12664993 -0.015918007 0.07635034 -0.02386636
000060 34 3c e1 3d bd 0e 40 3d 9d bb 8b 3d 54 d5 b2 3d
       0.10997811 0.046889056 0.06822894 0.08732095
000070 96 b6 c6 3d 47 70 15 bd e9 60 88 3d eb 5d cb 3d
       0.09702794 -0.03648403 0.06659109 0.09930023
000080 c6 bf ee 3c c4 5e 36 bd 3e 1a 5c bd 0d 25 a5 3d
       0.02914418 -0.04452397 -0.053735964 0.080637075
000090 60 5a 1b be 88 9f 4b 3e 0b 28 15 3e f7 19 fa 3c
       -0.15171194 0.19885075 0.14566056 0.03052996
0000a0 78 ae 7c bc be 32 56 ba ee fc 28 be 72 f1 82 3d
       -0.015422456 -0.00081710133 -0.16502735 0.06393708
0000b0 3e ad 1c 3d d8 3a c5 3d 35 68 0f bc d7 b5 8a bc
       0.038251154 0.09630364 -0.008752872 -0.016932411
0000c0 dd 57 a2 3d ac 6c 07 bd 6b 75 f4 bc 59 52 0b 3e
       0.07926915 -0.033062622 -0.029841146 0.13605632
0000d0 b4 61 94 bd c3 3a 5c 3d 2d 26 dc bc d8 63 54 be
       -0.07245198 0.053766977 -0.026873672 -0.20741212
0000e0 3c b7 ff bc d7 3a 13 bc c4 85 bc 3d 18 8a 48 bd
       -0.031215303 -0.0089861965 0.09205201 -0.04895982
0000f0 6e 3b e8 3d cb 13 97 3d b4 01 1b be 5d ab 82 bd
       0.1133946 0.07376822 -0.15137368 -0.06380341
000100 e6 f2 e4 3b fd 6f 80 bd 27 4f 2d bd 68 0a 26 be
       0.0069869636 -0.0627136 -0.042311814 -0.16214907
000110 a0 37 d9 bd d0 50 a3 bc 57 c5 1e 3d 55 32 5d bc
       -0.10606313 -0.019935995 0.038762417 -0.01350077
000120 a3 af 73 3b 4c 3c af bd 2f 4d 6c 3d b4 0b 14 be
       0.0037183545 -0.085564226 0.057690796 -0.1445759
000130 d7 4a 82 bb 17 8c 6a be d1 e1 07 be e0 f7 9d bc
       -0.0039762068 -0.22905003 -0.13269736 -0.019283235
000140 17 2e a0 bc 63 05 79 3d bd 24 ba bd 19 c1 d3 3d
       -0.019553227 0.060796153 -0.090890385 0.10339565
000150 10 08 fa 3d a5 d2 e3 bd 97 71 1c bd 04 5f 02 bd
       0.12208569 -0.11124162 -0.038194265 -0.031828895
000160 8d f0 0e 3e 63 2d 3f bd 12 e4 44 3d 80 77 b4 3d
       0.1395895 -0.046674144 0.048069067 0.08811855
000170 ba 6b 34 3d ad 6e e5 3d df a3 eb bb 7d d1 35 bd
       0.04404805 0.1120275 -0.007191166 -0.044389237
000180 e6 02 dd 3b 3a 66 c9 bd 83 08 06 be 24 fe b4 bc
       0.0067447303 -0.09833951 -0.13089184 -0.02209384
000190 24 ef e8 3c 87 f1 18 be 70 d0 e5 bc a8 09 30 3e
       0.028434344 -0.14935885 -0.028053492 0.17191184
0001a0 46 6a cf 3d 40 32 10 3c 2b ad 4b 3c af 2f 87 3d
       0.10127692 0.008801043 0.012431423 0.06600892
0001b0 7d bf ee bc 56 2e 21 be 79 be 2f be 56 f4 bd 3d
       -0.029144043 -0.15740332 -0.17162503 0.09275119
0001c0 d6 fc 68 bd 98 8a b3 bc 23 de 08 be 13 82 02 3d
       -0.05688175 -0.021916673 -0.13365988 0.03186233
0001d0 5d 29 03 3e 73 b3 20 bd 9e 1b 08 be 55 2a a2 bd
       0.12808748 -0.039233636 -0.13291785 -0.079182304
0001e0 2a 65 00 bc 33 8b 96 3d a8 1c 02 bc 80 24 3a be
       -0.007836619 0.07350769 -0.0079414025 -0.18177986
0001f0 f4 3d 13 bd 35 a4 0c 3d c1 f3 99 bd d5 da b5 bd
       -0.035947755 0.034336288 -0.075171955 -0.088796295
000200 6f 93 0d 3e c8 0f 58 bd 92 98 8d 3d ce f9 14 be
       0.13825773 -0.052749425 0.06913866 -0.14548418
000210 fb ba 20 3e 8c 1d f7 bd 30 0c 80 bc 2c 70 46 bc
       0.15696327 -0.120661825 -0.015630811 -0.012111705
000220 98 fa a6 3d a7 fd 71 bc b6 b0 6e 3e 00 97 25 3d
       0.08153266 -0.014769948 0.23309597 0.040427208
000230 6e f7 8f bd e1 2f 3f 3e 08 ac 94 3d b9 18 a5 bc
       -0.07029615 0.18670608 0.07259375 -0.02015339
000240 4d ad 30 bb 01 e2 d6 3d 6e ac 70 3d e7 c4 07 3d
       -0.0026958764 0.104923256 0.05875819 0.033146765
000250 d2 b6 86 bd 85 c8 a5 bc 1a a6 e1 3d 21 f6 2f 3c
       -0.06577839 -0.020237217 0.110180095 0.010739834
000260 8f 3a 6e 3d 47 70 a2 bd a5 a9 33 3e 6e bb c2 3d
       0.058161315 -0.079315715 0.17545183 0.095084056
000270 8d 61 17 3c 3f 16 90 3d 21 ae e4 bc 2c a2 8d 3d
       0.0092395665 0.07035493 -0.027915062 0.069156975
000280 c7 b1 46 bb 4a 0e 31 3e 81 53 d3 3c 8a bc f7 bd
       -0.0030318366 0.17290607 0.025796654 -0.12096508
000290 2a 2e 7d 3d 8b 55 77 bc 95 b4 ff bd a3 46 68 be
       0.061811604 -0.015096079 -0.12485615 -0.22683196
0002a0 e0 4e e4 3d 6f 19 b6 3c b2 74 b0 bd b0 2a 9a bd
       0.11147857 0.022228925 -0.08616008 -0.07527673
0002b0 26 c5 05 bc ab ee 66 bd 26 c1 3b 3d 82 0a f6 bc
       -0.00816468 -0.056379955 0.045838498 -0.030034307
0002c0 6a e5 88 bd 20 43 09 3e 39 76 a3 bd 55 35 02 bc
       -0.06684382 0.13404512 -0.079815336 -0.007947286
0002d0 5b 7e 20 3e a0 ad 66 bd 6b 2b 12 be f3 63 1a bd
       0.15673201 -0.056317925 -0.14274375 -0.037692975
0002e0 8b f9 be 3c 65 80 a0 3c 7d d9 95 3d 6d fd b4 3d
       0.02331235 0.019592473 0.07316873 0.088374
0002f0 15 3c ec 3c af 41 24 3e 1e 3f a6 3d 77 df b0 3c
       0.028837243 0.16040681 0.081175074 0.021590931
000300 c0 6b 55 bd 03 db 36 be e8 ba 85 3d 47 6f 20 be
       -0.05210471 -0.17856984 0.0652979 -0.15667449
000310 7b 37 b9 bd e7 74 b2 bd 4f 42 1e bd 22 db 01 3e
       -0.09043785 -0.087137036 -0.038637456 0.12681249
000320 d7 9e 0e bd 47 eb 84 3b 59 1a 28 3d be c9 56 3d
       -0.03481945 0.0040563676 0.041040752 0.05243849
000330 fb 05 54 bd 00 af b3 bc 22 66 86 bd cb 35 0a 3d
       -0.051763516 -0.021934032 -0.06562449 0.033742707
000340 d6 fb 27 3d c4 42 22 bd 64 d9 ef bd 2a 13 4e be
       0.041011654 -0.039614454 -0.11711386 -0.20124498
000350 25 0f 8a bd c8 4a c5 bd d6 0b a3 3d 76 5c 21 be
       -0.0674117 -0.09633404 0.07961242 -0.15757927
000360 27 55 f0 3c db 6f 1d be 32 56 53 3d fc 77 64 3b
       0.029337479 -0.153747 0.051595874 0.0034861555
000370 16 10 91 bd 44 8e 9c bd d1 3b 5f 3c fb 30 96 3c
       -0.07083146 -0.076443225 0.013625101 0.018333903
000380 c2 69 29 bd 75 84 48 be ce c2 5e bd 4c cf 04 bc
       -0.041360624 -0.19581778 -0.054385 -0.008106064
000390 7d b0 4c bd f4 34 0e bd 79 a5 c5 bd ea 91 98 3c
       -0.049973 -0.03471847 -0.09650702 0.018624265
0003a0 a8 09 aa 3d 9c f5 14 3e 7f 5b 96 3e c0 a0 21 3e
       0.08302623 0.14546818 0.2936668 0.15783978
0003b0 77 85 b2 3d d6 80 8e 3d f2 68 79 be 0b 36 66 3c
       0.08716863 0.06958167 -0.2435644 0.014050971
0003c0 03 35 98 bd e1 02 a0 3b 03 0b ae bd 55 30 1f be
       -0.07431986 0.0048831557 -0.08498194 -0.15545781
0003d0 90 9e 76 bd 51 81 1c bd 90 64 01 bd de d0 c8 3d
       -0.06020981 -0.038209263 -0.031590044 0.09805463
0003e0 7b 9a 9f 3c 6b 0f 9a 3c e8 03 ea 3d 2a b8 5e 3c
       0.019482842 0.01880618 0.11426526 0.013593713
0003f0 f1 43 28 3d 40 03 92 bd 3b 4c 24 be 66 09 52 bd
       0.04108042 -0.07129526 -0.16044705 -0.051278494

net.9.bias f4 [10]
000000 1e ae 1d bd 87 31 87 bd 91 c4 66 3d b2 9a 8e bd
       -0.03849613 -0.066012435 0.056339804 -0.069630995
000010 43 3b 53 3d d5 6c 98 bd 79 9c bd bc ff db cf bd
       0.05157019 -0.07442633 -0.023145901 -0.10149383
000020 13 97 aa bc 3e b8 37 bc
       -0.02082399 -0.01121336
