result/model_17_4.pth (torch, 307183 bytes, 8 tensors)

net.0.weight f4 [20, 1, 4, 4]
0	0x3ee92e1d	0.45542994
1	0x3f1b3869	0.6063295
2	0x3e651945	0.22372921
3	0x3ee09e5c	0.4387082
4	0xbcdb80cf	-0.02679482
5	0xbe84b5f6	-0.25920075
6	0xbef5e6d3	-0.48027667
7	0x3e8fc101	0.28076938
8	0xbccf8175	-0.025330285
9	0xbebee713	-0.3728567
10	0x3ed9aea4	0.42516053
11	0x3ea11409	0.31460598
12	0x3e4a97be	0.19784448
13	0x3ec999c8	0.39375138
14	0x3ed6fb82	0.4198876
15	0xbdd336f5	-0.103132166
16	0x3eda8676	0.4268071
17	0x3e85d034	0.2613541
18	0x3d990d91	0.07473291
19	0x3e7af050	0.24505734
20	0xbd82eeb0	-0.06393182
21	0x3cb46b6e	0.022023883
22	0xbd2d7eca	-0.042357244
23	0x3e5f9535	0.21834262
24	0xbe8cc170	-0.2749133
25	0xbe69c72c	-0.22829884
26	0xbe81f132	-0.2537933
27	0xbe6567ad	-0.2240283
28	0xbc56cf72	-0.013110982
29	0xbe8de08f	-0.27710387
30	0x3d8df410	0.06931317
31	0xbe4e41a0	-0.20142221
32	0x3e85202e	0.26001114
33	0xbd188d93	-0.03724439
34	0xbec454c5	-0.38345924
35	0xbe828fd3	-0.25500354
36	0x3e4e516a	0.20148245
37	0x3f4ce4c6	0.8003658
38	0x3ed85bc0	0.422575
39	0xbec66d42	-0.38755232
40	0xbe82e04d	-0.25561753
41	0x3de7ea77	0.113240175
42	0x3f229782	0.6351243
43	0x3e6f52bf	0.23371409
44	0xbe3df30a	-0.18549743
45	0xbea95215	-0.33070436
46	0x3e022538	0.1270951
47	0x3e0d1ee4	0.13781315
48	0x3db8c15a	0.09021254
49	0xbe6d84c7	-0.23195182
50	0xbeb78ef8	-0.35851264
51	0xbdee22ee	-0.11627756
52	0xbe298665	-0.16555174
53	0x3e959be3	0.29220495
54	0x3e554134	0.20825654
55	0x3e9095c2	0.28239256
56	0x3e2c0bca	0.16801372
57	0x3e153690	0.14571595
58	0x3e879b7d	0.26485816
59	0xbdc183a3	-0.09448936
60	0x3c15d6f9	0.009145492
61	0xbe6df460	-0.23237753
62	0xbd2c2cc7	-0.04203489
63	0xbd9de34b	-0.07709368
64	0x3d686e94	0.05674608
65	0x3c0cfb67	0.008604861
66	0x3e757fbe	0.23974511
67	0xbdea0586	-0.11426835
68	0xbe55d0a1	-0.20880367
69	0xbe3a605e	-0.18200824
70	0x3e229468	0.15876925
71	0x3d89bf0e	0.06725894
72	0x3e7f858f	0.24953292
73	0xbe67dc33	-0.22642593
74	0xbeba7730	-0.36419058
75	0xbe96940e	-0.29409832
76	0xbdf0749a	-0.1174099
77	0x3e4b8f52	0.19878891
78	0x3e2c8b33	0.16849975
79	0x3e7c39e9	0.24631466
80	0xbe527b81	-0.20554926
81	0xbdc7ee7a	-0.09762283
82	0x3e4a2abc	0.19742864
83	0xbe35b5f9	-0.17745198
84	0x3d9ab12e	0.075533256
85	0x3dca1f08	0.098692
86	0x3e6fa747	0.23403655
87	0xbe9473f9	-0.2899473
88	0xbda5b4fc	-0.08091161
89	0x3eab76fb	0.33489212
90	0x3c2cafbe	0.010539947
91	0xbe697e6e	-0.22802135
92	0x3e8a03fb	0.26956162
93	0x3eb74ef0	0.35802412
94	0xbe95d591	-0.292645
95	0xbe8b20e9	-0.27173546
96	0x3e90a301	0.28249362
97	0xbc893d92	-0.016752992
98	0xbdb14b51	-0.086569436
99	0xbe824a0a	-0.25447112
100	0xbe04cf29	-0.1296965
101	0xbd7516e5	-0.059836287
102	0xbe1f6aad	-0.15568037
103	0xbe408a3a	-0.18802729
104	0xbd7fc40e	-0.06244283
105	0xbe9205a8	-0.2851994
106	0xbe7b35b7	-0.2453221
107	0xbca96824	-0.020679541
108	0xbe151601	-0.14559175
109	0xbdb9fc26	-0.090812966
110	0x3eb49b11	0.35274556
111	0x3e84025a	0.25783044
112	0x3e005e88	0.12536061
113	0xbe45b6a1	-0.19307949
114	0xbe0fd0ca	-0.1404449
115	0xbd6acfd4	-0.057327107
116	0x3d347c8f	0.0440641
117	0xbe5bab34	-0.21452028
118	0xbe01bae9	-0.12668957
119	0xbe235430	-0.15950084
120	0xbc8b55b8	-0.017008647
121	0xbe0909ad	-0.13382597
122	0xbd85d641	-0.06535006
123	0xbe3de428	-0.18544066
124	0xbe142b68	-0.14469683
125	0xbe03b7bb	-0.12863056
126	0xbd9ba96c	-0.07600674
127	0xbe2db215	-0.16962464
128	0x3eae45a8	0.34037519
129	0x3dabcefb	0.08389088
130	0x3eadc238	0.3393724
131	0x3e5cb77c	0.21554369
132	0xbe4a9d4c	-0.19786566
133	0x3e3d5fff	0.18493651
134	0xbd96a79d	-0.073561884
135	0xbd6d67a2	-0.05796016
136	0xbe954564	-0.29154503
137	0xbeaed81c	-0.34149253
138	0xbd9e4305	-0.07727627
139	0xbdd77dcf	-0.10522043
140	0x3d866cf3	0.06563749
141	0xbe61a42e	-0.22035286
142	0x3dd112b2	0.10208644
143	0xbe39ce3a	-0.18145075
144	0xbda8b892	-0.08238329
145	0x3da8942a	0.08231385
146	0x3e47913f	0.19489
147	0x3e9c7b9e	0.30563062
148	0x3e83f758	0.25774646
149	0xbe989f31	-0.29808953
150	0x3dd0fd35	0.102045454
151	0xbe190a0f	-0.14945243
152	0xbe112195	-0.14172967
153	0xbe6df335	-0.23237307
154	0x3ea8ca1b	0.32966694
155	0xbe8abe17	-0.27098152
156	0xbc73a40a	-0.014870653
157	0x3d889187	0.06668382
158	0x3db58550	0.08863318
159	0xbe49827d	-0.19678684
160	0x3edfe5a6	0.43729895
161	0x3da7e802	0.08198549
162	0xbb8cc61c	-0.0042960774
163	0xbe78d793	-0.24300985
164	0x3ed746f3	0.42046317
165	0xbd53a4ff	-0.051671024
166	0xbe4e32a3	-0.20136504
167	0x3e2b9f86	0.16760072
168	0x3eb5804a	0.3544944
169	0xbe210d60	-0.15727758
170	0xbe79103a	-0.24322596
171	0xbdee0af6	-0.116231844
172	0x3e7eaf5c	0.24871582
173	0xbd85b7d9	-0.06529207
174	0xbe563640	-0.20919132
175	0xbe24fc53	-0.16111879
176	0xbe93c822	-0.28863627
177	0x3e67ef28	0.22649825
178	0x3e87a8b7	0.26495907
179	0xbeba304b	-0.3636497
180	0x3c7f6e75	0.0155903
181	0x3ebd775f	0.37005135
182	0x3d9ba69f	0.0760014
183	0xbe88cf76	-0.2672078
184	0x3e55f2f0	0.20893455
185	0x3e954952	0.291575
186	0x3d49354c	0.049123093
187	0xbe5229fc	-0.20523828
188	0xbdb6470c	-0.0890027
189	0x3dec5b42	0.115408435
190	0xbd3b6554	-0.04575093
191	0xbe2d4006	-0.16918954
192	0x3e67a93f	0.22623156
193	0x3e91ad42	0.28452498
194	0xbbcd661f	-0.0062682773
195	0xbd61982b	-0.05507676
196	0x3aa120da	0.0012293116
197	0x3d3724f2	0.04471297
198	0x3e16728d	0.14692135
199	0x3e2ecb67	0.1706978
200	0xbe971087	-0.29504797
201	0xbe0c6e95	-0.13714059
202	0x3e295f0f	0.16540168
203	0x3de39c58	0.111138046
204	0xbd7f05e6	-0.062261485
205	0xbe5de77b	-0.21670334
206	0xbe823c02	-0.25436407
207	0xbe9497a0	-0.2902193
208	0xbe4dccaf	-0.20097612
209	0xbc4d0ea8	-0.012515701
210	0x3e7387f5	0.23782332
211	0x3e8bbdba	0.27293187
212	0xbeb9a113	-0.36255702
213	0xbe91536e	-0.28383964
214	0x3c4985c4	0.012299959
215	0x3eeb3803	0.4594117
216	0xbde1864f	-0.110119455
217	0xbe4cd661	-0.20003654
218	0x3e39c93b	0.1814317
219	0x3d80b63c	0.062847584
220	0xbe8bda4c	-0.27314985
221	0x3dbc86ad	0.09205375
222	0xbd3f29a7	-0.046670582
223	0x3cd56803	0.026050573
224	0xbe54fd06	-0.20799646
225	0x3e79dc5d	0.24400468
226	0x3e858696	0.26079243
227	0x3e0f022d	0.13965674
228	0xbe331997	-0.1749023
229	0xbe5d0968	-0.2158562
230	0xbde75a06	-0.112964675
231	0x3ea5af94	0.32360518
232	0x3e13ba67	0.14426576
233	0x3e8b7262	0.27235705
234	0x3e0e6461	0.13905479
235	0x3d3bc4f5	0.04584213
236	0xbc0b4cd7	-0.008502207
237	0xbe5ddb9a	-0.21665803
238	0xbe92ebfd	-0.2869567
239	0xbe950bfd	-0.2911071
240	0x3e36e44c	0.17860526
241	0xbdad31dc	-0.084567755
242	0xbc947205	-0.018120775
243	0xbda704d7	-0.0815522
244	0xbc410ead	-0.011783284
245	0xbe1ccffb	-0.15313713
246	0xbe3f56e8	-0.18685496
247	0x3d6a3d40	0.05718732
248	0xbd3f7cdb	-0.04674993
249	0x3dbcdf76	0.09222309
250	0xbe1249d4	-0.14285976
251	0xbe2d6d3d	-0.16936202
252	0x3d01d9b9	0.031701777
253	0xbd8d063a	-0.06885953
254	0xbd81b760	-0.06333804
255	0xbe58e1b6	-0.21179852

net.0.bias f4 [20]
0	0x3e6828a6	0.22671756
1	0xbdd13d1f	-0.10216736
2	0x3ef95d4a	0.48703986
3	0x3e0c95cc	0.13729018
4	0xbdcce316	-0.10004251
5	0xbddc67d3	-0.107619904
6	0xbed89948	-0.42304444
7	0xbeb32574	-0.34989512
8	0xbe186f8f	-0.14886306
9	0x3d6d38e1	0.057915572
10	0x3e6a13b5	0.2285908
11	0x3e1cd068	0.15313876
12	0xbdfefa5a	-0.124500945
13	0xbdd3f2e6	-0.103490636
14	0x3df69cf9	0.12041659
15	0xbebcd079	-0.36877802
16	0x3cd12ffe	0.02553558
17	0x3dfd6904	0.12373546
18	0xbedcc458	-0.43118548
19	0x3e02c13e	0.12769029

net.3.weight f4 [40, 20, 5, 5]
0	0xbd60f415	-0.054920275
1	0xbd398d05	-0.045300502
2	0xbe47c961	-0.19510414
3	0xbe59ad0f	-0.21257423
4	0xbe2175c1	-0.15767576
5	0x3d68efbe	0.05686926
6	0xbc651cc4	-0.013983909
7	0xbe493975	-0.19650824
8	0xbda91b8c	-0.08257207
9	0x3b1ac206	0.0023614182
10	0xbd895b36	-0.0670685
11	0xbc948152	-0.018128071
12	0x3ca85521	0.020548405
13	0xbd8d6265	-0.06903533
14	0xbe0db9ef	-0.1384046
15	0xbe0dae0f	-0.1383593
16	0xbd9410da	-0.07229777
17	0xbd3a3d96	-0.04546889
18	0xbc0af1a0	-0.008480459
19	0xbd9be516	-0.07612054
20	0xbe36f9d2	-0.17868736
21	0xbd2485ce	-0.04016667
22	0xbcbef47e	-0.023309942
23	0x3c4638fd	0.012098548
24	0xbd58c379	-0.052920792
25	0xba1c24f1	-0.00059564324
26	0xbcfef2e3	-0.031121677
27	0xbe0c3afa	-0.13694373
28	0xbd998c7a	-0.07497497
29	0x3c3b3df0	0.011428341
30	0xbc9b2f5f	-0.018943487
31	0xbdbfcf68	-0.093657315
32	0xbe015f64	-0.12634045
33	0x3a9a6f12	0.0011782369
34	0x3b35d1b0	0.0027743392
35	0xbdd834b0	-0.10556924
36	0xbdfdced6	-0.123929664
37	0x3cbce831	0.023059936
38	0x3d89c0a0	0.067261934
39	0x3b92c036	0.0044784797
40	0x3cbac195	0.022797385
41	0xbd82d7c5	-0.06388811
42	0x3c3af7ac	0.011411589
43	0x3d87cfa9	0.06631405
44	0x3c873b0e	0.016507652
45	0x3c6c7f46	0.014434641
46	0xbd876568	-0.066111386
47	0xbcc3bcdc	-0.023893766
48	0x3d1ecf33	0.03877182
49	0xbc58ae09	-0.013225087
50	0x3d528793	0.051398825
51	0x3cef50e7	0.029213382
52	0xbdc486c8	-0.0959602
53	0xbe0c08ca	-0.13675228
54	0xbd36a1f1	-0.044588033
55	0xbe076e69	-0.13225712
56	0xbe53047c	-0.2060718
57	0xbe0252b4	-0.12726861
58	0xbd44f510	-0.048085272
59	0xbcfa992d	-0.030590618
60	0x3c315167	0.0108226305
61	0x3d61c2ff	0.055117603
62	0x3d2088f5	0.039193112
63	0x3d22602c	0.039642498
64	0xbba88086	-0.0051422743
65	0x3db937c2	0.09043838
66	0x3df2cd00	0.11855507
67	0x3db90adb	0.09035274
68	0x3b4b84a6	0.0031054406
69	0x3d46d9c3	0.048547518
70	0x3d90a0df	0.07061934
71	0x3d9b45bd	0.07581661
72	0x3d77cb1c	0.060496435
73	0x3b0659c2	0.0020500277
74	0x3d3bc054	0.045837715
75	0x3cd2314f	0.025658278
76	0xbc5c097b	-0.013429995
77	0x3d8726a7	0.06599169
78	0x3d954e23	0.07290294
79	0x3d0cca49	0.0343726
80	0xbc8aa048	-0.016922131
81	0x3d5029e8	0.050821215
82	0x3db1ec17	0.08687609
83	0x3e045b67	0.12925492
84	0x3e0bbf8a	0.13647285
85	0xbcac8f4d	-0.021064425
86	0xbd10c372	-0.03534264
87	0x3d282290	0.041048586
88	0x3ddee27c	0.10883042
89	0x3daf54e1	0.08561111
90	0xbd989a2e	-0.074512824
91	0x3dc3e2ce	0.09564744
92	0x3df14d02	0.11782266
93	0x3dedb6f5	0.11607162
94	0xbc9ffd0b	-0.01952984
95	0x3b32b04f	0.0027265733
96	0x3d089070	0.03334087
97	0x3d81bd18	0.06334895
98	0x3c0306df	0.007997244
99	0xbc918a0b	-0.01776602
100	0x3d3f1e6d	0.046659876
101	0x3e34e0a2	0.17663816
102	0x3e050f37	0.12994085
103	0x3da12aaa	0.07869466
104	0x3daaacb4	0.08333722
105	0x3beed007	0.0072879824
106	0xbd927519	-0.07151241
107	0x3d8db819	0.069198795
108	0x3e0ee917	0.13956104
109	0x3ddf2105	0.1089497
110	0xbde62576	-0.11237614
111	0x3ccb7110	0.024834186
112	0x3e137679	0.14400662
113	0x3e72e81c	0.23721355
114	0x3e0dc5f4	0.13845044
115	0x3d81e222	0.063419595
116	0x3dec6b2c	0.11543879
117	0x3e715ace	0.23569795
118	0x3e201e86	0.15636644
119	0x3cb33ade	0.021878656
120	0x3b99e7d4	0.0046968255
121	0x3dd8f38b	0.10593327
122	0x3db2fc0b	0.0873948
123	0x3d57da0d	0.052698184
124	0xbce75426	-0.028238367
125	0x3e2daeef	0.16961263
126	0x3dad7532	0.08469619
127	0x3d70bfb2	0.058776565
128	0x3dc10d79	0.09426398
129	0x3dd245ec	0.10267243
130	0x3e569fbe	0.20959374
131	0x3e157f00	0.14599228
132	0x3d903131	0.070406325
133	0xbcba3d52	-0.022734318
134	0xbcbd60a1	-0.023117365
135	0x3d1e6a11	0.03867537
136	0x3c7a25d2	0.015267806
137	0xbdc7c5e9	-0.09754545
138	0xbd99a8fa	-0.07502933
139	0x3c6682f9	0.014069312
140	0xbd5ba294	-0.053621843
141	0xbdbf5366	-0.09342079
142	0xbd576e8a	-0.052595653
143	0xbcb15684	-0.0216477
144	0x3cdfb92b	0.027309975
145	0x3c0540f1	0.008133159
146	0x3cf16e69	0.029471593
147	0x3cd75607	0.026286138
148	0x3db151b6	0.08658163
149	0x3deaa41b	0.11457082
150	0x3ca87cc8	0.020567313
151	0x3d1e2351	0.0386079
152	0x3d3d0a4d	0.0461524
153	0x3d10f135	0.035386283
154	0x3d27eec5	0.040999193
155	0x3bd0fc57	0.0063777375
156	0x3cba5706	0.022746574
157	0x3d017980	0.031610012
158	0xbba15d93	-0.004924485
159	0x3bb63227	0.005560178
160	0xbd2d1c8e	-0.04226356
161	0xbdefc36b	-0.11707195
162	0xbd7994b5	-0.060932834
163	0x3d0b5730	0.034018695
164	0x3d304bd0	0.04304105
165	0xbd25d2a7	-0.040484097
166	0xbe0a8bea	-0.13529935
167	0xbda8138c	-0.08206853
168	0xbc953dd2	-0.018217955
169	0x3af742cf	0.0018864515
170	0xbd21e5c8	-0.039525777
171	0xbdc1510d	-0.09439287
172	0xbc82cfdf	-0.015968261
173	0xbd170e43	-0.036878835
174	0xbc59a7d5	-0.013284643
175	0xbd0265e1	-0.03183544
176	0x3d41d2aa	0.047320046
177	0xbd32e720	-0.04367745
178	0x3d1796c2	0.03700901
179	0x3cf9636a	0.030442912
180	0xbbf0b965	-0.0073463195
181	0xbb743e0c	-0.0037268428
182	0xbd381b71	-0.044948045
183	0x3cacacb3	0.021078443
184	0x3d463093	0.048386168
185	0xbd80273d	-0.06257484
186	0xbd656825	-0.056007523
187	0xbd22c57c	-0.039739117
188	0x3c522be2	0.012827845
189	0x3cc8bba6	0.02450354
190	0xbc2a7afa	-0.010405296
191	0xbdabd361	-0.08389927
192	0xbd3b8535	-0.045781333
193	0x3d0f3c51	0.03496963
194	0x3d40075a	0.04688201
195	0xbca16a38	-0.01970397
196	0xbdb3d9f9	-0.08781809
197	0xbd1de627	-0.03854957
198	0xbd1cb24f	-0.038255986
199	0x3d575c60	0.05257833
200	0xbdde6fac	-0.108611435
201	0xbe150866	-0.14553985
202	0xbe5a0f8f	-0.21294998
203	0xbdc7afbc	-0.097503155
204	0x3bb8b336	0.005636598
205	0xbe0ad3ca	-0.13557354
206	0xbe1d9312	-0.15388134
207	0xbdd247c5	-0.10267595
208	0x3d29536c	0.041339323
209	0x3d4f107c	0.05055283
210	0xbe44bea3	-0.19213347
211	0xbe58bffe	-0.21166989
212	0xbcbe8778	-0.023257956
213	0x3de82c53	0.11336579
214	0x3e0c26ad	0.13686629
215	0xbdb15008	-0.08657843
216	0xbb5c0729	-0.0033573604
217	0x3dc06ea4	0.09396103
218	0x3df60a8d	0.12013731
219	0x3deb6d99	0.114955135
220	0xbc65d46b	-0.014027695
221	0x3d2c711c	0.042100057
222	0x3d0ba6cd	0.03409462
223	0x3bcf6e70	0.006330304
224	0xbd0924f0	-0.033482492
225	0xbb0bb6a5	-0.0021318581
226	0xbda42cde	-0.0801637
227	0x3cfcb71e	0.030849036
228	0xbc4525af	-0.01203291
229	0xbd7b1933	-0.06130333
230	0x3d3c9b46	0.046046518
231	0x3dadbdb8	0.084834516
232	0x3d3fa36a	0.046786703
233	0x3dd9b4f2	0.10630216
234	0x3da091fc	0.07840344
235	0xbd6cd868	-0.05782357
236	0x3c653d78	0.013991706
237	0x3df36c14	0.11885849
238	0x3d8e8d14	0.06960502
239	0x3dbd0bc7	0.09230762
240	0x3c9566a8	0.018237427
241	0xbd4b3486	-0.049610637
242	0x3dd11205	0.10208515
243	0x3e07056d	0.13185664
244	0x3cd0be3d	0.025481338
245	0x3cd6d3a8	0.026223972
246	0x3cd3f8b4	0.025875427
247	0x3d2e0153	0.04248173
248	0x3d4ac8a2	0.049507745
249	0x3b8deb8b	0.0043310574
250	0x3d9923b0	0.0747751
251	0x3d9cfe0a	0.076656416
252	0x3beeed35	0.007291461
253	0x3d278803	0.040901195
254	0xbd11842f	-0.03552645
255	0x3cf99235	0.030465225

net.3.bias f4 [40]
0	0x3d310499	0.043217275
1	0x3c107714	0.008817453
2	0x3c26c9ec	0.010179978
3	0xbc256021	-0.01009372
4	0xbd101acb	-0.0351818
5	0x3ce20d98	0.027594373
6	0xbd3684b7	-0.04456016
7	0x3c801882	0.015636686
8	0xbc2dd7f2	-0.010610567
9	0xbc1ad123	-0.009449276
10	0x3cb8fb42	0.022580747
11	0x3d93bcdc	0.072137564
12	0xbd3b2177	-0.04568621
13	0x3ba281c1	0.0049593155
14	0xbb416721	-0.0029510933
15	0xbccb7aeb	-0.024838885
16	0xbccef0e9	-0.02526136
17	0x3ba10e28	0.0049150176
18	0xbd0a1c53	-0.03371842
19	0xbc109de2	-0.008826705
20	0x3cd6ce05	0.026221285
21	0xbcb44dc6	-0.022009742
22	0xb9ca505d	-0.00038588318
23	0x3d312db8	0.04325649
24	0xbb586d88	-0.003302427
25	0xbca55a09	-0.020184534
26	0xbcf0ba5d	-0.02938574
27	0xbd41c551	-0.047307316
28	0x3d506c54	0.05088456
29	0x3ae08656	0.0017129879
30	0x3bf0899a	0.007340622
31	0x3cbbbdc7	0.022917641
32	0xbc7edaf3	-0.015555131
33	0x3cde2401	0.027116777
34	0x3d95d669	0.07316286
35	0x3b8e72c4	0.004347177
36	0x3c1b09d1	0.00946279
37	0xbd50a5b1	-0.050939266
38	0x3ce208df	0.02759212
39	0xbcc1cb8a	-0.023656625

net.7.weight f4 [150, 360]
0	0xbce20e89	-0.027594822
1	0xbbc1d3d3	-0.005915144
2	0xbd0a88bb	-0.033821803
3	0xbbbcdffd	-0.005764006
4	0x3c46c1e3	0.012131187
5	0xbd23bd92	-0.03997571
6	0x3de2b90d	0.11070452
7	0x3d9b1a5c	0.07573387
8	0x3ac7ad4d	0.0015234143
9	0x3d9a20a2	0.075257555
10	0x3da02b47	0.078207545
11	0x3cb14fd7	0.021644516
12	0x3d367574	0.044545606
13	0x3c6d5424	0.014485393
14	0x3d61791d	0.055047143
15	0x3dbff0a3	0.0937207
16	0x3d7be371	0.061496202
17	0x3daa0e5f	0.08303522
18	0x3d236d52	0.039899178
19	0xbd08654d	-0.033299733
20	0xbccc27b0	-0.024921268
21	0xbd3b791a	-0.04576979
22	0xbd95c302	-0.073125854
23	0xbcc70136	-0.02429257
24	0x3c5afda0	0.013366133
25	0x3d9ff5ec	0.07810578
26	0xbc8e8870	-0.017399043
27	0x3be64407	0.0070271525
28	0x3dd17bb5	0.10228673
29	0x3d2f395a	0.042779304
30	0xbd311502	-0.043232925
31	0xbdc045e3	-0.0938833
32	0x3db0ac39	0.08626599
33	0xbd6744e5	-0.056462187
34	0xbd27e01d	-0.040985215
35	0xbcf4ea47	-0.029896868
36	0x3c6f62bc	0.014610942
37	0xbbbc7241	-0.005750925
38	0xbc36de38	-0.0111613795
39	0x3d29beb4	0.041441634
40	0x3c378781	0.01120174
41	0x3d2ff5df	0.04295909
42	0x3d7f9c0d	0.06240468
43	0xbc9dc9e1	-0.019261302
44	0xb9cb4be4	-0.0003877572
45	0x3d111346	0.03541877
46	0xbd880012	-0.066406384
47	0xbdc18fb4	-0.09451237
48	0x3c396285	0.011314993
49	0x3d95b231	0.07309378
50	0x3dc69731	0.09696806
51	0xbd459131	-0.04823417
52	0xbd27baa3	-0.040949475
53	0x3cb7eff8	0.022453293
54	0x3c85617a	0.016281832
55	0x3c02e688	0.007989533
56	0x3cbf1d7e	0.023329493
57	0x3c62a9be	0.013834415
58	0xbc18baf5	-0.009321918
59	0x3cad1847	0.02112974
60	0x3d05db6d	0.032679964
61	0xba85a176	-0.0010195214
62	0x3c572754	0.013131935
63	0xbdebcff7	-0.115142755
64	0xbdc1d970	-0.09465301
65	0xbd84ba35	-0.06480829
66	0x3cc69e7e	0.024245497
67	0x3a1f53ba	0.0006077845
68	0x3d9d8c91	0.076928265
69	0x3d2e4540	0.04254651
70	0x3d5ddf14	0.054167822
71	0xbd8bf9fe	-0.068347916
72	0xbd18f5d3	-0.03734381
73	0xbd95cc71	-0.07314385
74	0xbd4ae98b	-0.04953913
75	0xbcb84964	-0.022495933
76	0xbcdcd62e	-0.026957598
77	0x3c53686e	0.012903316
78	0xbd792baa	-0.060832657
79	0xbdd9e7d9	-0.106399246
80	0xbd93f7b2	-0.072249785
81	0x3dad6fb5	0.08468572
82	0x3bf5726b	0.0074904463
83	0x3cd6309a	0.026146222
84	0x3cf2c1d2	0.029633436
85	0x3daa0209	0.083011694
86	0xbcbd02ed	-0.023072684
87	0x3d5dd5ae	0.05415886
88	0x3d724309	0.05914596
89	0x3d8d24b2	0.06891765
90	0x3d2a0f28	0.04151836
91	0xbc6bde7c	-0.014396306
92	0x3cf93afb	0.030423632
93	0x3c72de43	0.014823499
94	0xbdd8bfa8	-0.105834305
95	0xbdd41950	-0.103563905
96	0xbb48f681	-0.0030664506
97	0xbda20880	-0.079117775
98	0xbda316cd	-0.07963333
99	0xbd953d67	-0.07287102
100	0x3de99ab8	0.114064634
101	0x3d95942a	0.07303651
102	0x3d0aa7b2	0.033851333
103	0x3c5c8d35	0.013461401
104	0x3d231d29	0.03982273
105	0xbd7619ab	-0.060083073
106	0xbd331adc	-0.043726787
107	0x3ca9ba78	0.020718798
108	0xbd22e1d7	-0.03976616
109	0xbc9f5c75	-0.019453267
110	0x3d44529e	0.047930352
111	0x3c4794f1	0.0121815065
112	0x3d72af6b	0.059249323
113	0xbd0f4894	-0.034981325
114	0x3d45b6f2	0.048270173
115	0x3b186960	0.0023256168
116	0x3d376690	0.044775546
117	0x3d9e5791	0.07731546
118	0x3b498660	0.003075026
119	0x3d4295d2	0.04750616
120	0x3da66ec1	0.081265934
121	0xbb3c70ec	-0.002875383
122	0x3d3760ae	0.044769935
123	0xbca91308	-0.020638958
124	0xbbfed3a7	-0.007776696
125	0xbe10695d	-0.14102693
126	0xbc38a016	-0.011268636
127	0xbd9ca39a	-0.07648392
128	0x3d07b281	0.03312922
129	0x3d17e5bb	0.037084322
130	0xbcc128dd	-0.023579055
131	0x3dc42f6b	0.09579357
132	0x3d6124ec	0.054966852
133	0x3e0b115a	0.13580838
134	0x3d4447de	0.0479201
135	0xba173f69	-0.0005769642
136	0x3da5d70c	0.080976576
137	0x3de148a5	0.11000184
138	0x3d98706a	0.07443316
139	0xbb254814	-0.0025219964
140	0x3d5a0f5b	0.0532373
141	0x3d0ecca9	0.034863148
142	0xbdbe6bd2	-0.09297909
143	0x3cf6abb0	0.030111164
144	0x3d25b735	0.040457923
145	0x3c3db045	0.01157767
146	0xbd55ccbc	-0.052197203
147	0x3c14e21f	0.009087115
148	0x3d4db349	0.050219808
149	0x3d0f48b3	0.03498144
150	0xbcb43d9f	-0.02200204
151	0xbd3a6f98	-0.04551658
152	0xbcb04216	-0.021515887
153	0x3cf8db97	0.030378146
154	0x3d4fd657	0.05074152
155	0x3d4877a1	0.048942212
156	0xbb14e71f	-0.0022720767
157	0xbd24326d	-0.040087152
158	0x3c19be67	0.009383774
159	0x3cf17725	0.029475758
160	0x3d116fbd	0.035506953
161	0x3d25325b	0.040331226
162	0x3cd07910	0.025448352
163	0x3b988630	0.0046546683
164	0x3ccb14e1	0.02479023
165	0xbd8fbe88	-0.07018763
166	0x3cacc20a	0.021088619
167	0xbd024a2d	-0.03180902
168	0x3c60d1bc	0.01372188
169	0x3d185e99	0.03719959
170	0x3d1d4cb0	0.038403213
171	0x3bd6d1af	0.006555758
172	0x3cd221ec	0.02565094
173	0xbd001a84	-0.031275287
174	0x3d0cbf18	0.03436193
175	0xbcc7ec75	-0.024404744
176	0xbd438857	-0.047737446
177	0x3d471ba6	0.048610352
178	0xbdaffe0e	-0.08593379
179	0xbc781a39	-0.015142971
180	0x3d6b60f6	0.057465516
181	0x3c598dcc	0.013278436
182	0x3dc199ef	0.09453189
183	0x3d9f4c88	0.07778269
184	0x3e39678a	0.18105903
185	0x3d834e39	0.06411404
186	0x3d138757	0.036017742
187	0x3de98ac8	0.114034235
188	0x3db5cd25	0.08877019
189	0xbd01bec2	-0.03167606
190	0xbd825739	-0.06364293
191	0xbdfb33c0	-0.1226573
192	0x3d5f1f4c	0.054473206
193	0x3d3b03db	0.045657974
194	0xbdfe3d84	-0.12414077
195	0x3d02aa48	0.031900674
196	0x3ccea538	0.025225267
197	0x3decef63	0.11569097
198	0x3d91759c	0.0710251
199	0x3ce77bac	0.028257214
200	0x3d8507c4	0.06495622
201	0xbcbc580b	-0.0229912
202	0x3d2fab3e	0.04288792
203	0xbd0bc02f	-0.034118827
204	0xbdaec75b	-0.08534118
205	0x3daf5b5f	0.085623495
206	0x3c124da6	0.008929646
207	0x3d526a92	0.051371165
208	0xbb125ff5	-0.0022335027
209	0xbe1b2264	-0.15149838
210	0x3d6ee090	0.05831963
211	0x3d09f247	0.03367832
212	0x3c9af926	0.018917631
213	0x3d1ffa59	0.03905711
214	0x3d78893a	0.060677744
215	0x3cc65db8	0.02421461
216	0xbc7f26d5	-0.015573223
217	0xbd145eb5	-0.036223132
218	0xbd3c9163	-0.04603709
219	0x3c41b84c	0.011823725
220	0x3be418a6	0.006960946
221	0xbbbf6a5b	-0.005841536
222	0xbc7f67b1	-0.015588687
223	0x3c54a8e8	0.0129797235
224	0xbc2140f4	-0.009842146
225	0x3c13c0fe	0.009018181
226	0xbc4572ff	-0.012051343
227	0x3dc6b5f4	0.097026736
228	0x3d1835d8	0.037160724
229	0x3cd85135	0.02640591
230	0x3a5674fc	0.0008180884
231	0x3e0655a8	0.13118613
232	0xba3db449	-0.00072366424
233	0xbca42c27	-0.020040585
234	0xbd421670	-0.04738468
235	0xbda5873b	-0.08082434
236	0x3d7ddc7f	0.06197786
237	0x3c51369e	0.012769369
238	0x3d1a5931	0.037682716
239	0x3e415f1e	0.1888394
240	0xbc10555e	-0.008809416
241	0xbdbd3519	-0.09238643
242	0x3d27ad53	0.04093678
243	0x3c003265	0.007824515
244	0xbd5a47c5	-0.0532911
245	0xbcb18e43	-0.021674281
246	0x3c6bff16	0.014404079
247	0x3c2cb9fc	0.010542389
248	0xba376c87	-0.0006997068
249	0x3c6c0af9	0.014406913
250	0xbd19d2aa	-0.03755442
251	0xbcd11a92	-0.025525365
252	0x3d71c634	0.05902691
253	0xbc696ba7	-0.014246858
254	0x3c1d479d	0.0095995935
255	0x3d06d250	0.032915413

net.7.bias f4 [150]
0	0x3d91272b	0.07087549
1	0xba7b0f3e	-0.00095771614
2	0x3c3d3e49	0.0115504945
3	0x3cecff8e	0.028930452
4	0xba2c23f5	-0.00065666373
5	0xbc5c9ade	-0.013464658
6	0xbd901eac	-0.070371
7	0x3c30f385	0.010800247
8	0x3d051eb9	0.032500003
9	0xbc2de17a	-0.01061284
10	0x3cac1c82	0.021009687
11	0xbc76609c	-0.015037682
12	0x3ba067a6	0.0048951684
13	0x3d52282b	0.05130784
14	0xbc06f163	-0.008236262
15	0xbd2283fe	-0.03967666
16	0x3dacdfbd	0.08441112
17	0x3d7b62be	0.061373465
18	0xbc036cdd	-0.0080215605
19	0xbbfc8336	-0.0077060713
20	0x3d677cc4	0.05651547
21	0xbc3f93be	-0.011692939
22	0x3cdf1a82	0.02723432
23	0xbd57754f	-0.05260211
24	0x3cf530d4	0.02993051
25	0xbcfce401	-0.03087044
26	0x3d214bfe	0.039379112
27	0x3d34bfbf	0.044128176
28	0x3d2f7ca3	0.042843472
29	0xb931eaf9	-0.0001696757
30	0x3c038568	0.008027412
31	0x3d5a2ca7	0.05326524
32	0x3bb37c39	0.005477455
33	0x3d6f83d3	0.058475327
34	0x3b776193	0.0037747368
35	0xbd768bf4	-0.060192063
36	0x3cf0006c	0.029297076
37	0x3c7db975	0.015486111
38	0x3c05d7ae	0.008169098
39	0x3c07aea1	0.008281381
40	0x3d0e26b0	0.034704864
41	0xbd3edff6	-0.046600305
42	0x3d5f823b	0.054567557
43	0x3a699aa8	0.000891129
44	0xbc05a753	-0.008157569
45	0xbd298f7c	-0.041396603
46	0x3d4b63d4	0.04965575
47	0xbd0fa9fb	-0.035074215
48	0x3d0e6728	0.034766346
49	0xbd68535d	-0.056720126
50	0xbd5d6f7e	-0.054061405
51	0x3cc540e2	0.02407879
52	0x3c1058da	0.008810246
53	0xba96f0bd	-0.0011515837
54	0x3d901ddd	0.07036946
55	0x3d5beb21	0.053691033
56	0xbcc61665	-0.0241806
57	0xbd06661d	-0.032812227
58	0xbc3d7a1c	-0.011564758
59	0xbd0fceac	-0.035109207
60	0x3d1db949	0.03850678
61	0xbc30b9a0	-0.010786444
62	0x3d7af41f	0.06126797
63	0x3d1d4e1d	0.038404573
64	0xbd91574c	-0.07096729
65	0x3be0231f	0.0068401243
66	0xbb32ca0a	-0.002728107
67	0xbcb50a02	-0.022099499
68	0x3d091388	0.033465892
69	0xbce54fe9	-0.027992206
70	0x3d572fb8	0.052535743
71	0x3d6593c2	0.056049116
72	0x3cf3525f	0.029702364
73	0xbc236f94	-0.009975333
74	0xbd8ce146	-0.06878905
75	0xbd032e5c	-0.032026634
76	0xbc4d30cd	-0.012523842
77	0x3d0812ed	0.033221174
78	0x3d12e154	0.03585942
79	0xbd26e6b9	-0.040747378
80	0x3cd7a0f7	0.026321871
81	0xbd74e618	-0.059789747
82	0xbccff420	-0.025384963
83	0xbd13763a	-0.03600142
84	0xbd80f196	-0.06296079
85	0x3cd19813	0.02558521
86	0x3c3454be	0.011006532
87	0x3d30981c	0.043113813
88	0xbd31f7c0	-0.043449163
89	0x3d31c417	0.043399896
90	0x3d1b4797	0.03791007
91	0x3d710652	0.05884392
92	0x3d525fb3	0.051360797
93	0xbba6f1bc	-0.005094735
94	0xbc6d6444	-0.014489237
95	0x3c201450	0.009770468
96	0xbc6d9855	-0.014501651
97	0xbd4b896b	-0.0496916
98	0xbc9017d6	-0.01758949
99	0xbb1d0a29	-0.0023962355
100	0xbce942c0	-0.028474212
101	0xbcb27eb8	-0.02178894
102	0xbc3440da	-0.01100179
103	0xbd66391f	-0.05620682
104	0x3d860714	0.06544319
105	0xbb9679c3	-0.004592152
106	0x3cd49367	0.025949193
107	0xbd6aa2b4	-0.057284072
108	0x3d45689a	0.04819546
109	0x3d29f5c8	0.04149416
110	0x3da17395	0.07883374
111	0x3d6fa768	0.05850926
112	0x3d2891ff	0.041154858
113	0xbdc73514	-0.09726921
114	0x3d9117ff	0.07084655
115	0x3d90d43a	0.07071729
116	0xbd06ecdf	-0.03294074
117	0xbd4c7983	-0.04992057
118	0xbd094b04	-0.033518806
119	0x3d2d0a01	0.04224587
120	0x3c2b0f1e	0.010440616
121	0x3d95f41b	0.0732195
122	0xbc5dfe06	-0.013549333
123	0x3d068af7	0.03284737
124	0x3badb27e	0.005300819
125	0xbc7d7aff	-0.015471219
126	0x3d643524	0.05571474
127	0xbb0997e4	-0.0020995075
128	0xbcedc649	-0.029025214
129	0x3b1fb040	0.0024366528
130	0x3c7603c4	0.015015546
131	0x3d17383e	0.03691887
132	0xbbc38723	-0.0059670373
133	0x3db9951c	0.090616435
134	0xbc55efde	-0.013057677
135	0x3d5160af	0.051117595
136	0x3da573b4	0.08078709
137	0xbc27af59	-0.010234677
138	0xbb9a8f47	-0.004716787
139	0xbd02ca20	-0.031931043
140	0x3c2ad0fe	0.010425804
141	0xbc794c73	-0.015215981
142	0xbc9404a0	-0.018068612
143	0xbc4e8481	-0.012604834
144	0x3c8c0a5d	0.017094785
145	0xbcc10a60	-0.023564517
146	0xbd088a47	-0.033334997
147	0xbba19c58	-0.0049319677
148	0xbcb40461	-0.021974744
149	0xbd4fb62e	-0.05071085

net.9.weight f4 [10, 150]
0	0xbd379bb8	-0.04482624
1	0xbd9bc47d	-0.076058365
2	0xbd67cdca	-0.05659274
3	0x3cd51aab	0.026013693
4	0x3e2db6e7	0.16964303
5	0xbe31011d	-0.17285581
6	0xbc8be018	-0.01707463
7	0x3bafdc51	0.00536684
8	0xbd74b47a	-0.05974243
9	0xbd5f16e8	-0.054465204
10	0xbd28e737	-0.04123613
11	0xbd19dd32	-0.037564464
12	0x3d6f3567	0.058400538
13	0x3e006ecd	0.12542267
14	0xbe28cc51	-0.1648419
15	0xbd81b4a4	-0.063332826
16	0xbda2118e	-0.079135045
17	0xbd4b1975	-0.049584825
18	0xbe50b8e6	-0.20383033
19	0xbe1323f9	-0.14369191
20	0xbe30144e	-0.17195246
21	0xbcda9d44	-0.026686318
22	0x3d3c47e2	0.04596699
23	0xbcde0aad	-0.0271047
24	0x3d927a34	0.07152215
25	0x3dbede07	0.09319692
26	0x3db6f50d	0.089334585
27	0x3dd9fe83	0.106442474
28	0x3de631b4	0.11239949
29	0xbd257345	-0.040393133
30	0x3de9c4ca	0.11414488
31	0x3dc27cee	0.09496485
32	0x3cfa7109	0.030571477
33	0xbe567f7f	-0.20947073
34	0xbd66b85d	-0.056328166
35	0x3d7c51cd	0.06160145
36	0xbe0a0793	-0.13479452
37	0x3e6ec604	0.23317724
38	0x3dad19f2	0.08452214
39	0x3c76bb13	0.01505925
40	0x3d1773d7	0.036975708
41	0xbba81bdb	-0.0051302738
42	0xbe43dc81	-0.19127084
43	0x3c620f5b	0.013797606
44	0x3d282cd8	0.04105839
45	0x3d896613	0.06708922
46	0xbc6f08c4	-0.014589492
47	0x3c25f302	0.010128738
48	0x3db7ad0e	0.089685544
49	0xbd438d39	-0.047742102
50	0x3b47a3ff	0.003046274
51	0x3e23f18c	0.16010112
52	0xbd3d50cd	-0.046219636
53	0x3d30fc6a	0.04320947
54	0xbcd19aae	-0.025586452
55	0xbe4093ee	-0.1880643
56	0xbb1daa93	-0.002405797
57	0xbcd8b8e8	-0.026455358
58	0x3d9d0e78	0.07668775
59	0xbd538f53	-0.051650357
60	0x3e096f49	0.13421358
61	0x3dbba82d	0.09162936
62	0xbe3e1720	-0.18563509
63	0xbddc1f63	-0.10748174
64	0xbc20b6b6	-0.009809187
65	0xbaf2dd77	-0.0018529136
66	0xbd2d327a	-0.042284466
67	0xbe39a9c0	-0.1813116
68	0xbe2c5934	-0.16830903
69	0xbd9e126c	-0.077183574
70	0x3d4ec44a	0.050480165
71	0x3d886323	0.06659534
72	0x3b4ab26b	0.00309291
73	0xbd5a4933	-0.053292464
74	0x3d3d1738	0.04616472
75	0xbe4b83ec	-0.19874543
76	0x3db8f078	0.09030241
77	0xbd97203d	-0.07379196
78	0xbe1ee223	-0.15515952
79	0xbd3a1ec0	-0.04543948
80	0xbcb876e5	-0.02251763
81	0xbc067d98	-0.008208655
82	0xbdb78211	-0.08960355
83	0x3dec18c1	0.11528159
84	0x3d3c69f8	0.045999497
85	0xbe2d3cc2	-0.16917709
86	0x3d5ac5c1	0.05341125
87	0xbd001122	-0.03126634
88	0x3e1250d6	0.14288649
89	0x3c4c4087	0.012466556
90	0x3d63d277	0.055620637
91	0x3dc4a5b9	0.096019216
92	0x3d9c30d7	0.07626503
93	0x3e062b8b	0.13102548
94	0x3b0c64f5	0.002142248
95	0xbd07e1bd	-0.033174265
96	0x3bdbc9bd	0.0067073987
97	0xbd621b17	-0.055201616
98	0xbd161cfe	-0.036648743
99	0xbcb50310	-0.022096187
100	0x3c10a79d	0.008829025
101	0xbd36983c	-0.044578776
102	0xbd1d9412	-0.03847129
103	0x3d6a7a35	0.057245452
104	0x3e01da19	0.12680854
105	0x3c475642	0.012166562
106	0xbb206353	-0.0024473264
107	0xbd8b582c	-0.06803927
108	0xbcaec6ba	-0.021334995
109	0xbe3ab77a	-0.18234053
110	0xbe03cdd3	-0.12871484
111	0x3e06b87d	0.13156314
112	0x3ba7f52c	0.0051256623
113	0x3bc48f73	0.005998546
114	0xbe432c59	-0.19059886
115	0x3d40799f	0.046990987
116	0x3d3e99de	0.046533458
117	0xbd2b4d40	-0.04182172
118	0xbe20f77e	-0.15719411
119	0xbde5f55f	-0.112284414
120	0x3c6d0800	0.014467239
121	0x3dc1d579	0.09464545
122	0xbcc9c32b	-0.024629196
123	0xbe9119e1	-0.28340057
124	0xbceb5a47	-0.028729571
125	0x3d89f38f	0.06735908
126	0xbd58ee6f	-0.052961763
127	0xbe0829fa	-0.13297263
128	0x3d9afb5e	0.07567476
129	0xbd984749	-0.074354716
130	0x3d4c5edd	0.049895156
131	0xbe1ec0ad	-0.15503187
132	0x3e4385e8	0.1909405
133	0xbdfe5a1b	-0.1241953
134	0xbc6f2ec5	-0.014598553
135	0x3cb28ebb	0.021796575
136	0x3dae3552	0.08506264
137	0xbd6fd9d6	-0.058557354
138	0xbd60fd5b	-0.05492912
139	0x3d1ebdf6	0.03875538
140	0xbdabfd47	-0.08397918
141	0x3e12a8ff	0.1432228
142	0x3d8e6f23	0.069547914
143	0x3d00c25d	0.03143536
144	0xbc2c06fa	-0.01049971
145	0x3e00624a	0.12537494
146	0x3d76fabf	0.060297724
147	0x3d2b6287	0.04184201
148	0x3b95dcc9	0.004573439
149	0xbd3afbcf	-0.0456503
150	0x3d6e1555	0.058125813
151	0x3c0a242a	0.008431474
152	0xbd470f1c	-0.048598394
153	0xbdb1cd3e	-0.08681725
154	0x3e11dede	0.14245173
155	0x3d9c5cda	0.076348975
156	0x3cb41964	0.021984763
157	0x3d911d85	0.070857085
158	0xbd25bb1b	-0.04046164
159	0x3d0906ff	0.033453938
160	0xbb659390	-0.003503058
161	0x3e18ee00	0.1493454
162	0x3d7090ca	0.05873183
163	0xbe0f5493	-0.13997106
164	0x3dbda6ef	0.09260356
165	0xbcf8963f	-0.03034508
166	0xbe5b9d74	-0.21446782
167	0xbe43d5f0	-0.1912458
168	0x3e03c134	0.1286667
169	0x3cfa8dc9	0.030585187
170	0xbdce651d	-0.100778796
171	0xbda0f6bf	-0.07859563
172	0xbbc0a874	-0.005879456
173	0xbd851024	-0.06497219
174	0x3d513ee7	0.05108538
175	0xbdaa98d5	-0.08329932
176	0xbd60a720	-0.054846883
177	0x3e11fb1f	0.14255951
178	0xbdd002fe	-0.10156821
179	0x3d31df6a	0.043425955
180	0x3e4665e7	0.1937481
181	0xbd921aea	-0.0713404
182	0xbe2bb811	-0.16769435
183	0xbeddd562	-0.4332686
184	0x3d6ced24	0.057843342
185	0xbb9c0bac	-0.0047621336
186	0x3dc25995	0.09489743
187	0x3da33717	0.07969492
188	0x3cff381d	0.031154687
189	0x3e15cc40	0.14628696
190	0x3dbc8f42	0.09207012
191	0x3cb0d93d	0.021587962
192	0xbd6fe449	-0.05856732
193	0xbd845303	-0.06461146
194	0x3d8b4c88	0.068017066
195	0xbd76719a	-0.060166933
196	0xbdaf982a	-0.08573945
197	0xbd68b813	-0.05681617
198	0xbced02c2	-0.02893198
199	0x3ce2b48f	0.027673988
200	0xbcab8c91	-0.02094105
201	0xbce375db	-0.027766159
202	0x3d54a1df	0.051912185
203	0x3cea4b94	0.028600492
204	0xbb9e0005	-0.0048217797
205	0xbd9d5d91	-0.07683862
206	0xbd6a59bf	-0.057214495
207	0x3d89a628	0.06721145
208	0x3b6535c7	0.003497468
209	0xbd598401	-0.053104404
210	0xbda3ea69	-0.080036946
211	0xbe442044	-0.19152933
212	0xbdff346d	-0.12461171
213	0xbe12a171	-0.14319398
214	0x3da20b4f	0.07912313
215	0xbd2d7743	-0.042350065
216	0x3cf0e77a	0.029407252
217	0xbe1e36c6	-0.15450582
218	0x3db7f3b5	0.0898203
219	0x3e07a569	0.13246693
220	0xbe0edc80	-0.13951302
221	0xbe731e46	-0.23742017
222	0x3cbdb983	0.023159748
223	0x3cdc93e5	0.02692599
224	0xbd2ec0f2	-0.042664476
225	0xbe4ecbc8	-0.20194924
226	0xbd8c57c5	-0.06852678
227	0x3c176cd9	0.00924226
228	0xbd2d9fd2	-0.042388745
229	0xbd3efa15	-0.046625216
230	0xbda6b22c	-0.08139452
231	0x3d066009	0.03280643
232	0x3d8feec4	0.07027963
233	0x3e11f1e2	0.14252427
234	0x3d9763d1	0.07392085
235	0x3e10f4f4	0.14155942
236	0x3da42a3f	0.0801587
237	0x3d8c6f10	0.06857121
238	0xbeb6301c	-0.3558358
239	0x3cb66588	0.02226521
240	0xbd97de35	-0.074154295
241	0x3b60bb2a	0.0034291246
242	0xbe148ba9	-0.14506401
243	0xbe2eacf5	-0.17058165
244	0x3b799ab8	0.0038086604
245	0xbd66fb44	-0.05639197
246	0xbd00eb48	-0.03147438
247	0x3d735ff9	0.0594177
248	0x3c148ee7	0.009067274
249	0x3c9a0b38	0.018804178
250	0x3d8ab01b	0.06771871
251	0x3cfe0d28	0.031012133
252	0x3d8ff22f	0.07028615
253	0xbccdb810	-0.025112182
254	0xbe259d53	-0.16173296
255	0x3e05f2ab	0.13080852

net.9.bias f4 [10]
0	0xbd0b8f70	-0.03407234
1	0xbd46b58d	-0.048512984
2	0x3d1c0719	0.038092706
3	0xbd962db7	-0.07332938
4	0x3d1ae37a	0.037814595
5	0xbd746f49	-0.059676442
6	0xbd2d903a	-0.042373873
7	0xbdc75ee8	-0.09734899
8	0xbc90f1e4	-0.017693467
9	0x3b8bb62a	0.004263659
