result/model_13_0.pth (torch, 307183 bytes, 8 tensors)

net.0.weight f4 [20, 1, 4, 4]
0	0x3e66371f	0.22481965
1	0x3f02d85c	0.5111139
2	0x3e8cd942	0.27509505
3	0x3ea904d4	0.33011496
4	0xbe8b0699	-0.2715347
5	0xbec1b95c	-0.3783673
6	0xbf081c98	-0.5316863
7	0x3e881a17	0.26582405
8	0xbdf70444	-0.120613605
9	0xbea80e88	-0.32823586
10	0x3f04cd5f	0.5187587
11	0x3e8ad3d7	0.27114746
12	0x3e616c04	0.22013861
13	0x3eeba6b9	0.46025637
14	0x3eaa04b5	0.33206716
15	0xbe9865b9	-0.29765108
16	0x3ecd453b	0.4009188
17	0x3e4495a6	0.19197711
18	0x3d5f0ab0	0.05445355
19	0x3ea0396a	0.31293803
20	0x3ce54afa	0.027989853
21	0x3ccb63ec	0.02482792
22	0x3d31ef71	0.04344124
23	0x3ebbe009	0.36694363
24	0xbe969dba	-0.2941721
25	0xbeb07896	-0.34467
26	0xbebc7022	-0.368043
27	0xbe6db4ff	-0.23213576
28	0xbd63f588	-0.05565408
29	0xbe94b189	-0.290417
30	0x3d276f1a	0.04087744
31	0xbe212e99	-0.15740432
32	0x3e0cf1fa	0.13764182
33	0xbe25ce84	-0.1619206
34	0xbea619cc	-0.32441556
35	0xbde09622	-0.109661356
36	0x3e5be38b	0.2147352
37	0x3f1d5cd9	0.614698
38	0x3e142ae7	0.14469491
39	0xbec1f933	-0.37885436
40	0xbe48d239	-0.19611444
41	0x3dbef2a9	0.093236275
42	0x3f02bb8f	0.5106744
43	0x3e571dab	0.21007411
44	0xbd6b2427	-0.057407524
45	0xbe21a2ec	-0.15784806
46	0x3d8c04df	0.068368666
47	0x3d641a89	0.05568937
48	0x3d9d5913	0.07683005
49	0xbe7251ed	-0.23664065
50	0xbeaa232b	-0.33229956
51	0xbdfdfdbf	-0.12401914
52	0xbe40fc9a	-0.1884636
53	0x3e8a95b1	0.2706733
54	0x3e5a400b	0.21313493
55	0x3e8d52fe	0.2760238
56	0x3e437a3e	0.190896
57	0x3e24da78	0.16098964
58	0x3e704b36	0.2346619
59	0xbddb71cd	-0.10715065
60	0x3d026631	0.03183574
61	0xbe51d9c5	-0.20493229
62	0xbd557a2e	-0.052118473
63	0xbdb8dae8	-0.09026128
64	0x3daba3c5	0.08380846
65	0x3b918eb8	0.004442062
66	0x3e3da370	0.18519378
67	0xbd9a131a	-0.075231746
68	0xbe499ffe	-0.19689938
69	0xbe28a08e	-0.16467497
70	0x3e277600	0.16353607
71	0x3e011333	0.1260498
72	0x3e6ea88d	0.23306485
73	0xbe68d54d	-0.22737618
74	0xbebc5a34	-0.3678757
75	0xbe9bae65	-0.3040649
76	0xbe19237c	-0.14954942
77	0x3e327afa	0.17429724
78	0x3e3300c7	0.17480765
79	0x3e6cbf5d	0.23119874
80	0xbe5e6da6	-0.21721515
81	0xbe1e3384	-0.15449339
82	0x3e36c97d	0.17850299
83	0xbe200a2c	-0.1562888
84	0x3ae1abb9	0.0017217315
85	0x3cfcc525	0.030855725
86	0x3e88dab6	0.26729363
87	0xbe93f7ea	-0.2890008
88	0xbe382bf5	-0.17985518
89	0x3eb91ae0	0.36153316
90	0x3dbb98df	0.09160017
91	0xbe496b0d	-0.19669743
92	0x3e2a50ef	0.16632436
93	0x3ec107b8	0.377012
94	0xbe74926f	-0.23883985
95	0xbe4fcdb0	-0.20293307
96	0x3e80dd30	0.25168753
97	0xbc891d33	-0.016737556
98	0xbd321370	-0.04347557
99	0xbe6aacf3	-0.22917537
100	0xbe0b862d	-0.13625403
101	0xbc534bc4	-0.012896482
102	0xbdebcc7d	-0.115136124
103	0xbe5778fe	-0.21042249
104	0xbc8ea0f6	-0.017410737
105	0xbe59aa9d	-0.2125649
106	0xbe419989	-0.18906225
107	0xbd74e525	-0.05978884
108	0xbe32256d	-0.1739709
109	0xbdcd1002	-0.10012819
110	0x3ec561ea	0.38551265
111	0x3e2ea536	0.1705521
112	0x3dfef910	0.12449849
113	0xbe4a255a	-0.19740811
114	0xbe05676c	-0.13027734
115	0xbd289493	-0.041157316
116	0x3d393661	0.045217875
117	0xbe5cb54f	-0.21553539
118	0xbdd078b2	-0.10179271
119	0xbe04a2fb	-0.12952797
120	0x3a7ea9b2	0.00097146176
121	0xbdeba43a	-0.11505933
122	0xbc26f522	-0.01019028
123	0xbe108fa4	-0.14117295
124	0xbdefce8d	-0.11709318
125	0xbddaeb61	-0.10689426
126	0xbd31a572	-0.04337067
127	0xbe1c0ca9	-0.15239204
128	0x3ea601cf	0.32423255
129	0x3d8f533f	0.069983
130	0x3eafe1f8	0.34352088
131	0x3e593b14	0.21213943
132	0xbe5fb44d	-0.21846123
133	0x3e18b4ae	0.14912674
134	0xbdaafcf0	-0.08349025
135	0xbdaad530	-0.083414435
136	0xbe97ff42	-0.29686934
137	0xbeb17fba	-0.3466776
138	0xbd596454	-0.053074196
139	0xbdcdf040	-0.1005559
140	0x3d9534d1	0.072854646
141	0xbe31ac75	-0.17350943
142	0x3e2dfa0c	0.16989917
143	0xbe2a0cf8	-0.1660651
144	0xbd9d2603	-0.07673266
145	0x3da0f9e4	0.07860163
146	0x3e1f4e23	0.1555715
147	0x3e6ef092	0.23333958
148	0x3e7570b0	0.23968768
149	0xbe75e7c8	-0.24014199
150	0x3d9f4c37	0.07778209
151	0xbe1e09af	-0.15433381
152	0xbdce6657	-0.100781135
153	0xbe6ce6d6	-0.23134932
154	0x3e8abf5c	0.2709912
155	0xbe81b498	-0.25333095
156	0x3d3416e8	0.043967158
157	0x3d72482c	0.05915086
158	0x3da9a111	0.08282674
159	0xbe3fa7d4	-0.18716365
160	0x3ecc88fc	0.3994826
161	0x3db3ae1d	0.08773444
162	0xbba3d08d	-0.0049992264
163	0xbe8587ff	-0.2608032
164	0x3eb7987d	0.35858527
165	0xbc57d223	-0.013172659
166	0xbe4e7b39	-0.20164193
167	0x3e20149b	0.1563286
168	0x3e627780	0.22115898
169	0xbded06ff	-0.115736
170	0xbe584b78	-0.21122539
171	0xbde65f62	-0.112486616
172	0x3e48e0e4	0.19617039
173	0xbc83f87e	-0.016109701
174	0xbe1c4753	-0.15261583
175	0xbe11855b	-0.14211027
176	0xbe8495d0	-0.25895548
177	0x3e489bc0	0.19590664
178	0x3e35a9f7	0.17740618
179	0xbec4b09d	-0.38415995
180	0x3bcb2453	0.0061993985
181	0x3ec6fce0	0.38864803
182	0x3c28ba9d	0.010298398
183	0xbe861c9c	-0.26193702
184	0x3e60d831	0.2195747
185	0x3e90c172	0.28272587
186	0x3ca34087	0.01992823
187	0xbe27b594	-0.1637786
188	0xbda906ee	-0.08253275
189	0x3dde56cc	0.10856399
190	0xbb89c1b1	-0.004203998
191	0xbdec156c	-0.115275234
192	0x3e5f5886	0.21811113
193	0x3e84b3b1	0.25918344
194	0xbcdf4851	-0.027256163
195	0xbdc0d2f1	-0.09415234
196	0x3bc787a9	0.00608917
197	0x3d19e296	0.037569605
198	0x3e051d6b	0.12999503
199	0x3e1a907c	0.15094179
200	0xbe90f26b	-0.2830995
201	0xbdfc7f31	-0.12328947
202	0x3e505030	0.20343089
203	0x3e050dc2	0.1299353
204	0xbd15632d	-0.036471535
205	0xbe46ef32	-0.19427183
206	0xbe7b2200	-0.24524689
207	0xbe9436ab	-0.28947958
208	0xbe3a6d7d	-0.18205829
209	0xbd605b8e	-0.054774813
210	0x3e8c5a28	0.27412534
211	0x3e84a814	0.25909483
212	0xbeafca0c	-0.34333837
213	0xbea6bba7	-0.32565042
214	0x3d1f1745	0.03884055
215	0x3ee5953c	0.4484042
216	0xbdfeae10	-0.124355435
217	0xbe3aab01	-0.18229295
218	0x3e722b9f	0.23649453
219	0x3cae69d9	0.021290706
220	0xbe9ba9a3	-0.3040286
221	0x3e002977	0.12515818
222	0xbc976a39	-0.018483268
223	0xbd14847b	-0.036259156
224	0xbe5c7c21	-0.21531726
225	0x3e5eb776	0.21749672
226	0x3e6dbb19	0.23215903
227	0x3dde6208	0.10858542
228	0xbe24bbff	-0.1608734
229	0xbe664076	-0.22485527
230	0xbe0ee54b	-0.13954656
231	0x3e8a67eb	0.27032408
232	0x3e2aacf2	0.16667536
233	0x3eade7da	0.3396595
234	0x3e6cc610	0.2312243
235	0x3d5d7d86	0.054074787
236	0xbcf1ad4c	-0.02950158
237	0xbe4ccab3	-0.19999199
238	0xbe861575	-0.26188245
239	0xbe937520	-0.28800297
240	0x3e3606ef	0.17776082
241	0xbda9a46b	-0.08283313
242	0xbcafde77	-0.021468384
243	0xbdabcd1d	-0.08388732
244	0xbc305cb5	-0.010764291
245	0xbe126e40	-0.1429987
246	0xbe197dad	-0.14989348
247	0x3db8541a	0.09000416
248	0xbd8653cc	-0.06558952
249	0x3ddada7b	0.10686203
250	0xbddaf3bb	-0.10691019
251	0xbe26e48a	-0.16298118
252	0xbc2dfdb8	-0.010619573
253	0xbdad5f8f	-0.08465492
254	0xbd8019af	-0.06254899
255	0xbe51f65e	-0.20504138

net.0.bias f4 [20]
0	0x3e85c76f	0.26128718
1	0xbdba3584	-0.090922385
2	0x3ed04947	0.40680906
3	0x3e061625	0.13094385
4	0xbdf9c6c0	-0.12196112
5	0xbe21a76a	-0.1578652
6	0xbeca5964	-0.39521325
7	0xbebc08ca	-0.36725456
8	0xbe0faed6	-0.14031538
9	0xbc09f7ca	-0.008420894
10	0x3e45eb5a	0.19328061
11	0x3e0883f8	0.13331592
12	0xbe06cb83	-0.13163571
13	0xbdc27f23	-0.09496906
14	0x3df9af11	0.121915944
15	0xbeb73567	-0.3578293
16	0x3a7b3af8	0.0009583677
17	0x3dea8227	0.11450606
18	0xbed45993	-0.4147459
19	0x3ddc8f7c	0.10769555

net.3.weight f4 [40, 20, 5, 5]
0	0xbe589b2f	-0.21152948
1	0x3cd356d1	0.025798233
2	0xbda99b3f	-0.08281564
3	0xbe6033fb	-0.21894829
4	0xbde36839	-0.11103863
5	0x3b4b5c44	0.0031030336
6	0x3d0e7105	0.034775753
7	0xbdc14400	-0.09436798
8	0xbdbeed32	-0.09322585
9	0xbd43ff57	-0.047850933
10	0xbe2a75b8	-0.16646469
11	0xbda5cbdf	-0.08095526
12	0x3d9054f6	0.07047455
13	0x3e148633	0.14504318
14	0xbc853915	-0.01626257
15	0xbe44eda4	-0.19231278
16	0xbd981c3d	-0.07427261
17	0xbd4848b1	-0.04889745
18	0xbc2e6562	-0.010644289
19	0x3cdb2e01	0.026755335
20	0xbe1b5373	-0.15168552
21	0xbc482e05	-0.012218003
22	0xbd0b47a5	-0.034003872
23	0x3dc45e9b	0.09588357
24	0x3d88e660	0.066845655
25	0x3c62b37d	0.013836739
26	0xbc9b0725	-0.018924305
27	0xbdbd1287	-0.092320494
28	0xbcbfbbf4	-0.023405053
29	0x3d046d66	0.032330893
30	0xbd1dbe07	-0.038511302
31	0xbe0c98d2	-0.13730171
32	0xbe25d83f	-0.16195773
33	0xbbdcb79b	-0.0067357547
34	0xbc5fa6ea	-0.013650635
35	0xbd91ebee	-0.07125078
36	0xbded04d8	-0.115731895
37	0xbdbb57db	-0.091476165
38	0x3ccfcff7	0.02536772
39	0xbcdf90b6	-0.027290683
40	0x3c07f1ad	0.008297366
41	0xbd6d4b3e	-0.057933085
42	0xbc503fd5	-0.012710531
43	0x3d3e6e29	0.046491776
44	0x3ca361bc	0.019944064
45	0x3cf37898	0.02972059
46	0xbd8447b0	-0.06458986
47	0xbc485628	-0.0122275725
48	0x3d41bb8b	0.047297996
49	0xbbe9a181	-0.0071298485
50	0xbdbbc5ea	-0.091686085
51	0xbe11bbc7	-0.14231788
52	0xbddb9dd8	-0.10723466
53	0xbe38b590	-0.1803801
54	0xbe3ba16d	-0.18323298
55	0xbe0eb8e7	-0.13937722
56	0xbe1b3116	-0.15155444
57	0x3d36c5c4	0.044622198
58	0x3d668131	0.05627555
59	0x3ce78159	0.02825992
60	0xbd2e6a46	-0.04258182
61	0x3da17990	0.07884514
62	0x3e0cb68e	0.13741514
63	0x3dbfa5f4	0.09357825
64	0x3e0bb516	0.13643298
65	0x3d12bed7	0.03582653
66	0x3e0f74ad	0.14009352
67	0x3dce6786	0.10078339
68	0xbdf5c01c	-0.119995326
69	0xbd23561c	-0.039877042
70	0x3da0c048	0.07849175
71	0x3db99bb9	0.09062905
72	0x3c4571db	0.012051071
73	0xbe28a9c2	-0.16471007
74	0xbdf53388	-0.119727194
75	0xbcf2203e	-0.02955639
76	0xbd4c5f9f	-0.04989588
77	0x3da3b150	0.07992804
78	0x3d9c04ad	0.07618079
79	0xbbc35baa	-0.005961855
80	0x3b4e4eb5	0.0031480019
81	0x3d80a2c9	0.06281049
82	0x3e157ebb	0.14599125
83	0x3e47bf82	0.19506648
84	0x3d7e4b80	0.06208372
85	0xbd11b342	-0.035571344
86	0xbcc82902	-0.024433617
87	0x3e0036f7	0.12520967
88	0x3da825d4	0.0821034
89	0x3d6c99f0	0.057763994
90	0xbddd14ec	-0.10795006
91	0x3cbd4b27	0.023107124
92	0x3ccdb665	0.025111387
93	0x3d44e018	0.048065275
94	0xbca784c5	-0.020449052
95	0xbd8c6d9a	-0.06856842
96	0x3c7417d8	0.014898263
97	0x3d1250b6	0.035721503
98	0x3d0e6a23	0.03476919
99	0xbbc8e2b7	-0.006130542
100	0x3d868702	0.065687194
101	0x3e37e7a6	0.1795946
102	0x3e42130a	0.18952575
103	0x3d90f125	0.07077245
104	0x3af30897	0.0018541989
105	0xbd43ea71	-0.047831003
106	0xbd964ac0	-0.07338476
107	0x3e339f0f	0.17541145
108	0x3e74f567	0.23921739
109	0x3de73c5a	0.11290808
110	0xbe149d05	-0.14513023
111	0xbbeefb0e	-0.0072931116
112	0x3be66c31	0.0070319404
113	0x3db5435e	0.0885074
114	0x3e069888	0.13144124
115	0x3d5b8805	0.053596515
116	0x3e2035e9	0.15645565
117	0x3e3a4bf4	0.18193036
118	0x3d7130ef	0.058884557
119	0x3ca162a6	0.01970036
120	0x3cf47739	0.029842006
121	0x3d5131f4	0.05107303
122	0x3ddb467f	0.107068054
123	0xbd19b27d	-0.037523735
124	0xbd9359dd	-0.071948744
125	0x3e248618	0.16066778
126	0x3dfe39ff	0.124134056
127	0x3e060f1b	0.130917
128	0x3e110c89	0.14164938
129	0x3de3d41b	0.1112444
130	0x3e44ba2d	0.19211645
131	0x3e4558ec	0.19272202
132	0x3dae3d17	0.08507746
133	0x3d47f2ff	0.048815724
134	0xbce54612	-0.027987514
135	0x3c79fd09	0.015258082
136	0xbd6a31ae	-0.057176284
137	0xbcf802d5	-0.030274788
138	0x3d4e3325	0.050341744
139	0xbb508cfe	-0.003182232
140	0xbcd187c7	-0.025577439
141	0xbe1cb35c	-0.15302795
142	0x3d0bbb14	0.03411396
143	0x3d69519d	0.056962598
144	0x3cabfe39	0.020995246
145	0xbdc6845a	-0.09693213
146	0xbc73e8f1	-0.0148870805
147	0xbd3d0e85	-0.046156425
148	0x3cfc63ed	0.030809367
149	0x3dd5b19c	0.10434267
150	0x3d0b0d69	0.033948336
151	0x3d578e8d	0.05262618
152	0x3d9d6255	0.07684771
153	0x3d76a034	0.060211375
154	0x3d082562	0.033238776
155	0x3ca53f2f	0.02017173
156	0x3d3802a3	0.04492439
157	0x3d9a336c	0.07529339
158	0x3b1a9914	0.0023589777
159	0xbc511e15	-0.01276352
160	0xbd098da8	-0.03358236
161	0xbdd0304f	-0.10165464
162	0xbd584f68	-0.052810103
163	0x3c6ec58c	0.014573466
164	0x3d58fe7c	0.05297707
165	0xbd008d78	-0.031384915
166	0xbe060ef6	-0.13091645
167	0xbd9984a2	-0.07496001
168	0x3c06a708	0.008218534
169	0xbabe316e	-0.0014510581
170	0xbcb9a746	-0.02266277
171	0xbdc7cd04	-0.097559005
172	0x3c164b2f	0.009173199
173	0xbbc6bf5b	-0.006065292
174	0xbc21a551	-0.009866075
175	0xbc9a82eb	-0.018861255
176	0x3d44e2b1	0.048067752
177	0xbcb5a1fd	-0.022171969
178	0x3d90f588	0.07078081
179	0x3cfe8620	0.031069815
180	0xba20916b	-0.00061251846
181	0xbba7b6ee	-0.0051182425
182	0xbd1f6d7a	-0.038922764
183	0x3d2a98cc	0.041649625
184	0x3d4e4905	0.050362606
185	0xbd661c16	-0.05617913
186	0xbd307920	-0.043084264
187	0xbd5203a8	-0.051273018
188	0x3bff8851	0.0077982326
189	0x3c370ff5	0.011173238
190	0xbc18a819	-0.009317421
191	0xbd9e6342	-0.07733776
192	0xbd6366f4	-0.055518106
193	0x3d486eef	0.04893392
194	0x3d2972a6	0.041369103
195	0xbc4867b0	-0.012231752
196	0xbdb6ef71	-0.089323886
197	0xbca3c6e8	-0.019992307
198	0xbc798979	-0.01523053
199	0x3d615efa	0.055022217
200	0xbdc245de	-0.09485982
201	0xbe11af8e	-0.14227125
202	0xbe09f501	-0.13472368
203	0x3d5a4ee9	0.05329791
204	0x3dc6f220	0.097141504
205	0xbe00fec1	-0.12597181
206	0xbe616243	-0.2201014
207	0xbe37ae78	-0.17937648
208	0x3dc88f7d	0.09792993
209	0x3d9373de	0.07199834
210	0xbe05bfa1	-0.13061382
211	0xbe5ea544	-0.21742731
212	0xbe3aa2e8	-0.18226206
213	0xbc1cae7d	-0.009563086
214	0x3d8fa617	0.07014101
215	0xbdc57d62	-0.096430555
216	0xba44bd58	-0.0007505021
217	0x3dc82958	0.09773511
218	0x3dc090cc	0.09402618
219	0x3de14912	0.11000265
220	0xbc656f51	-0.014003591
221	0x3d8dcc0c	0.069236845
222	0x3daf9e11	0.08575071
223	0x3d251c0c	0.04030995
224	0xbd12adeb	-0.035810392
225	0xbd4255da	-0.047445156
226	0x3c4e65cf	0.012597515
227	0x3c4bf666	0.012448883
228	0x3d1e68a5	0.038674016
229	0x3b98cf41	0.0046633785
230	0x3d7d2f63	0.06181277
231	0xbc8fa0ed	-0.01753279
232	0x3c675a2f	0.014120623
233	0x3dfa8737	0.122328214
234	0x3d216c64	0.03941001
235	0x3c41b0ba	0.01182192
236	0xbd2bdaf3	-0.041956853
237	0x3e0b51fb	0.13605492
238	0x3db43582	0.08799268
239	0xbd40b634	-0.047048762
240	0xbc610220	-0.013733417
241	0xbd84d34e	-0.06485616
242	0x3df4ef18	0.11959666
243	0x3e1c1edb	0.15246145
244	0x3da8e14c	0.08246097
245	0xbcdb2803	-0.026752478
246	0x3d8a05fb	0.06739422
247	0x3d62ef15	0.055403788
248	0x3b376e16	0.00279892
249	0x3d1884a1	0.03723586
250	0x3a950551	0.0011369382
251	0x3cd311ec	0.025765382
252	0xbcb13ee6	-0.021636438
253	0xbc856861	-0.016285123
254	0xbd30ea9d	-0.043192495
255	0xbd953aac	-0.072865814

net.3.bias f4 [40]
0	0x3d2aefa2	0.041732438
1	0xbc1043a7	-0.008805192
2	0x3cd45f5d	0.025924379
3	0xbd6af4a8	-0.05736223
4	0xbcd47261	-0.025933446
5	0x3c8c58b3	0.017132139
6	0xbca00b3e	-0.01953661
7	0x3c63cdb6	0.013904026
8	0xbcd7e733	-0.026355362
9	0x39f151b0	0.00046027964
10	0x3c462fc1	0.012096346
11	0x3d750252	0.059816666
12	0xbd32409b	-0.043518644
13	0xba61112d	-0.0008585628
14	0x3c619872	0.013769256
15	0xbc365bf2	-0.01113032
16	0xbbda630b	-0.006664639
17	0x3bde5d62	0.0067860344
18	0xbcc7a2b7	-0.02436958
19	0xbce03669	-0.027369695
20	0x3d127343	0.035754453
21	0xbd14a86e	-0.03629344
22	0x3b92ddd3	0.00448201
23	0x3ceb5f3b	0.028731933
24	0xbc031871	-0.008001433
25	0xbcda6bf1	-0.026662799
26	0xbd2bfaab	-0.041987102
27	0xbd839db8	-0.06426567
28	0x3d4f1505	0.050557155
29	0xbcde8dc0	-0.027167201
30	0x3be63e98	0.0070265047
31	0x3cb4bd45	0.022062907
32	0xbcd5615f	-0.026047407
33	0x3ce70307	0.028199686
34	0x3d349b5b	0.04409347
35	0x3b1757dd	0.0023093142
36	0xbbabbf80	-0.0052413344
37	0xbd0da95b	-0.034585338
38	0x3d43a16f	0.047761377
39	0xbd2476a2	-0.0401522

net.7.weight f4 [150, 360]
0	0xbe0bc697	-0.13649975
1	0x3d246a59	0.040140484
2	0xbcd2e2a3	-0.025742834
3	0xbdd47e8c	-0.103756994
4	0xbc756304	-0.01497722
5	0xbd9c659b	-0.07636567
6	0xbd29aa43	-0.04142214
7	0x3d070bed	0.032970358
8	0xbd29e5b6	-0.041478835
9	0x3d46295d	0.04837929
10	0x3dd40827	0.103531174
11	0x3d9a6996	0.0753967
12	0xbc78a28f	-0.015175476
13	0xbccff1ff	-0.025383947
14	0x3c5e0d95	0.013553043
15	0x3cebe98c	0.028797887
16	0x3c893ed8	0.016753599
17	0x3d61f277	0.055162873
18	0xbc035f8e	-0.0080183875
19	0xbd2aea09	-0.0417271
20	0x3dc6878a	0.09693821
21	0xbd389224	-0.045061246
22	0xbd89075e	-0.06690858
23	0x3cc63130	0.024193376
24	0x3ce158fb	0.02750825
25	0x3d80d9c4	0.062915355
26	0xbd9b612c	-0.075868934
27	0xbc11e000	-0.008903503
28	0x3d1db431	0.038501922
29	0xbcc9d1e3	-0.024636215
30	0xbb44c1cb	-0.0030022736
31	0xbd244446	-0.040104173
32	0x3d1f6f5f	0.03892457
33	0xbd5459fc	-0.05184363
34	0x3cd3f173	0.025871968
35	0xbb8ff0a8	-0.004392702
36	0xbcbcc8fc	-0.023045056
37	0xbca54940	-0.02017653
38	0x3c0464c1	0.008080662
39	0x3d0085c6	0.031377576
40	0x3c9e3d35	0.019316295
41	0x3d51c7a9	0.0512158
42	0x3d798ead	0.06092708
43	0xbb2beb83	-0.0026232905
44	0xbc1bb7c0	-0.009504259
45	0x3c434a71	0.011919604
46	0xbd70f7cf	-0.05883008
47	0xbd63da14	-0.055627897
48	0xbd5e47e3	-0.054267775
49	0x3d315cdd	0.043301452
50	0x3c71420d	0.01472522
51	0xbd0cfcf1	-0.03442091
52	0xbcae56c8	-0.021281615
53	0x3aaa3552	0.0012985861
54	0x3d276347	0.040866163
55	0xbd088f44	-0.033339754
56	0x3ce67f44	0.028136857
57	0x3dccd875	0.100022234
58	0x3d23e6e6	0.040015124
59	0x3d1f60ef	0.038910802
60	0x3d44cc61	0.048046473
61	0xbd0db52b	-0.034596603
62	0xbc2b3aec	-0.01045106
63	0xbe02a5c2	-0.12758544
64	0xbd99d31f	-0.07510971
65	0xbdad7fe6	-0.0847166
66	0x3bb669e9	0.0055668247
67	0xbd7ba1aa	-0.06143347
68	0x3d96ce88	0.073636115
69	0xbd225328	-0.039630085
70	0xbc26bfca	-0.010177562
71	0x3ce91189	0.028450744
72	0x3db16873	0.086625
73	0xbdaa69ac	-0.083209366
74	0xbdd0520e	-0.10171901
75	0xbb14fdef	-0.0022734364
76	0x3c390625	0.011292969
77	0xbcd36a4d	-0.025807524
78	0xbe00dd1f	-0.12584351
79	0xbde97607	-0.11399465
80	0xbdc9331c	-0.098242015
81	0x3db51cf0	0.0884341
82	0x3d2d80f8	0.042359322
83	0x3d85ddeb	0.06536468
84	0x3ac999b2	0.0015380888
85	0x3d9cf462	0.076638
86	0x3cd05f8a	0.025436182
87	0x3c89ae0b	0.016806623
88	0x3d712bca	0.05887965
89	0x3dc19edc	0.09454128
90	0xbc65dd27	-0.014029778
91	0xbd2cc60a	-0.042181052
92	0x3d24dbf1	0.040248815
93	0xbc8b2020	-0.016983092
94	0xbe13d489	-0.14436544
95	0xbd2cf078	-0.042221516
96	0xbc3c9944	-0.011511151
97	0xbdacab69	-0.084311314
98	0xbdf10d22	-0.11770083
99	0xbcfb335d	-0.03066414
100	0x3e073a62	0.13205865
101	0x3d2911b9	0.041276667
102	0xbb60b728	-0.0034288857
103	0x3cdc9451	0.026926192
104	0x3da45abf	0.08025121
105	0xbda9b634	-0.082867056
106	0xbd07e1de	-0.033174388
107	0x3cfd0b89	0.03088929
108	0xbd8d662b	-0.069042526
109	0xbd8e81bf	-0.06958341
110	0x3cb74cd4	0.022375502
111	0x3d85644a	0.06513269
112	0x3de7841b	0.11304494
113	0xb9fb8cf8	-0.0004797948
114	0x3dc42cc4	0.09578851
115	0x3d30758f	0.043080863
116	0x3d9da8e5	0.0769823
117	0xbd976a0d	-0.073932745
118	0xbd4cbcea	-0.04998485
119	0x3d258f03	0.04041959
120	0x3d3f3d90	0.04668957
121	0xbc479b01	-0.012182952
122	0x3d5e84f2	0.054326005
123	0xbd232068	-0.039825827
124	0xbd387521	-0.045033578
125	0xbdd1f39f	-0.10251545
126	0xbdc1fabb	-0.09471651
127	0xbd8c9eb2	-0.06866206
128	0xbc95fd3d	-0.01830923
129	0x3d2ab45e	0.041675918
130	0xbcf8e887	-0.030384315
131	0xbbc755a7	-0.0060832086
132	0x3d0e8406	0.034793876
133	0x3dc993ce	0.09842645
134	0x3c82ce52	0.015967522
135	0xbe019793	-0.12655477
136	0xbdc04c4b	-0.09389552
137	0x3d36017b	0.044435006
138	0xbc5513d2	-0.013005214
139	0xbcc41065	-0.023933599
140	0x3cfae4ef	0.030626742
141	0x3cf47c7e	0.029844519
142	0xbd35cac8	-0.04438284
143	0x3d09a25e	0.03360211
144	0x3c637e83	0.013885143
145	0x3c87c234	0.016572095
146	0xbaa5292f	-0.0012600775
147	0x3a2585cc	0.0006314188
148	0x3d79bb73	0.06096978
149	0x3d330283	0.043703567
150	0x3d910136	0.07080309
151	0x3c72365f	0.014783471
152	0x3d799ce5	0.060940642
153	0x3c54bd16	0.012984535
154	0x3d3155a3	0.04329456
155	0x3dc363ae	0.09540497
156	0xbd906b77	-0.07051747
157	0xbd226545	-0.03964736
158	0x3d184cd1	0.037182633
159	0xbd62b73f	-0.05535054
160	0x3ca1cc4b	0.019750735
161	0xbda9f58b	-0.08298787
162	0x3d895292	0.06705202
163	0x3d3755bf	0.04475951
164	0x3cfa3fd2	0.03054801
165	0x3bf6f00e	0.007535941
166	0x3d0095b8	0.031392783
167	0xbc733aff	-0.014845609
168	0xbc474242	-0.012161793
169	0x3d2f2504	0.04275991
170	0x3d5c0279	0.053713296
171	0x3cee77ee	0.029109921
172	0xbd8f86f9	-0.07008166
173	0x3de0406b	0.10949787
174	0x3d68f925	0.056878228
175	0xbbaf9365	-0.005358147
176	0x3d032157	0.032014217
177	0x3d4e2250	0.05032569
178	0xbd863e1f	-0.065548174
179	0xbd6c5318	-0.057696432
180	0x3c6db244	0.014507834
181	0x3cfe246e	0.03102323
182	0x3da8276b	0.082106434
183	0xbbe026e1	-0.006840572
184	0x3d7be83a	0.061500765
185	0x3d37b1b5	0.04484721
186	0xbd9a2b56	-0.07527797
187	0x3cfda735	0.03096352
188	0x3d9b05be	0.075694546
189	0x3cdbdcbe	0.026838657
190	0x3c2b79f9	0.010466092
191	0x3a3a5334	0.0007107735
192	0xbb082fa8	-0.0020780358
193	0x3d47d910	0.04879099
194	0xbd053e36	-0.032530032
195	0x3bad5dc1	0.0052907174
196	0xbb8c9b8e	-0.0042910045
197	0x3d21db91	0.039516035
198	0x3c84cb05	0.016210089
199	0xbbc4a583	-0.006001176
200	0x3d3ea7bb	0.04654668
201	0xbd58036f	-0.05273765
202	0x3cf62754	0.03004805
203	0xbd0c72f3	-0.03428931
204	0xbd9c749c	-0.07639429
205	0x3caba2b6	0.02095161
206	0xbc200e98	-0.009769104
207	0x3d406e59	0.046980236
208	0x3d9521f1	0.072818644
209	0xbd80bdd2	-0.06286205
210	0x3d68f296	0.056871973
211	0x3d43dbbe	0.047816984
212	0x39872d25	0.00025782842
213	0x3d1519fc	0.036401734
214	0x3d08f413	0.033435892
215	0xbd79609f	-0.06088316
216	0xbdcce5a3	-0.10004737
217	0xbdefb049	-0.117035456
218	0x3b0b80f5	0.0021286581
219	0xbd8c2923	-0.06843784
220	0xbd7d7d30	-0.061886966
221	0xbd5f8d6f	-0.05457824
222	0xbda23b17	-0.07921427
223	0xbac9e485	-0.0015403187
224	0xbcbc9e13	-0.023024594
225	0x3d07495f	0.033028957
226	0x3db612b0	0.08890283
227	0x3de969f8	0.11397165
228	0x3da218f3	0.07914915
229	0x3d0b1153	0.03395207
230	0x3d0c26f3	0.034216832
231	0x3d26caf8	0.04072091
232	0xbd65f269	-0.056139383
233	0xbd279571	-0.040914003
234	0xbe16bba5	-0.14720018
235	0xbd93a583	-0.07209303
236	0x3d7d287b	0.061806183
237	0xbd1bd56e	-0.03804534
238	0xbbc38e5b	-0.005967898
239	0x3de94620	0.113903284
240	0x3b4c1e59	0.0031146018
241	0xbca0b38b	-0.019616863
242	0x3db36cef	0.08761012
243	0x3c54de72	0.012992488
244	0xbd8a5bd9	-0.067558
245	0xbcb03f14	-0.021514453
246	0x3d060896	0.032723032
247	0x3d15dad1	0.036585633
248	0xbbc33d82	-0.00595826
249	0xbc1d63f2	-0.009606348
250	0xbd68a7b9	-0.056800578
251	0xbc9e8240	-0.019349217
252	0x3b95f068	0.004575778
253	0xbcfd7bcb	-0.030942818
254	0x3d70ea5d	0.058817256
255	0x3c3b016e	0.011413915

net.7.bias f4 [150]
0	0x3dc2803c	0.09497115
1	0x3b1d4995	0.0024000157
2	0x3c68f625	0.014218842
3	0x3cd601d7	0.026123924
4	0xbc898a10	-0.016789466
5	0xbc33d1f5	-0.010975351
6	0xbd8b208e	-0.06793319
7	0x3c231e40	0.009955943
8	0x3db4f802	0.08836366
9	0xbc2c260f	-0.010507121
10	0x3cbc7170	0.02300331
11	0xbc4aea59	-0.012384974
12	0xbb8ccda2	-0.0042969743
13	0x3d870b23	0.06593921
14	0x3bd43fd2	0.0064773345
15	0xbd237d98	-0.039914697
16	0x3d177a5f	0.036981937
17	0x3d8c42e3	0.06848695
18	0xbd1f8b6a	-0.038951315
19	0x3b3341ce	0.0027352455
20	0x3d8c5d89	0.06853778
21	0xbac4098a	-0.0014956456
22	0x3cf9ad65	0.030478189
23	0xbc5e99cd	-0.013586474
24	0x3ceb59b8	0.028729305
25	0xbce056f1	-0.027385207
26	0x3d6cd794	0.05782278
27	0x3d4e9ca2	0.050442345
28	0x3d201c82	0.039089687
29	0x3ccbe04d	0.024887228
30	0x3c30c4cf	0.01078911
31	0x3d2669fe	0.040628426
32	0x3b7c3a35	0.0038486843
33	0x3dbcf40e	0.09226237
34	0x3b3905ba	0.0028232173
35	0xbd76d6bd	-0.060263384
36	0xbc2aec78	-0.010432355
37	0x3b8de64e	0.004330433
38	0xbcd0a734	-0.025470354
39	0xbbbc8eac	-0.0057543125
40	0x3c0b062c	0.008485358
41	0xbd5ed756	-0.05440458
42	0x3c99e016	0.01878361
43	0xbcab7bc4	-0.02093304
44	0xbc34157d	-0.010991451
45	0xbd2159fe	-0.039392464
46	0x3d380b41	0.044932608
47	0xbcf62241	-0.03004563
48	0x3d24c74f	0.040229138
49	0xbd67dd20	-0.056607366
50	0xbd571db8	-0.052518576
51	0x3d06b683	0.0328889
52	0x3d0573ea	0.032581247
53	0x3aeba1df	0.0017977318
54	0x3d8a43bf	0.06751203
55	0x3d4d28ab	0.050087612
56	0x3b14af19	0.0022687374
57	0xbc395fad	-0.011314315
58	0xbc88e50c	-0.01671078
59	0xbd104774	-0.035224393
60	0x3c92c3f6	0.017915707
61	0xbc9da669	-0.01924439
62	0x3d8859ed	0.06657777
63	0x3cba62dc	0.022752218
64	0xbd9be744	-0.0761247
65	0x3d2a519f	0.041581746
66	0xbb32c9da	-0.0027280957
67	0xbc500aa8	-0.012697853
68	0x3c81e910	0.015858203
69	0xbbde5562	-0.006785081
70	0x3d4599e5	0.04824247
71	0x3d820c3b	0.06349989
72	0x3ce3a8b2	0.027790401
73	0xbc40b1c0	-0.011761129
74	0xbd657b83	-0.056025993
75	0xbd3d52c1	-0.0462215
76	0xbc227baa	-0.009917179
77	0x3daa9a79	0.083302446
78	0x3cf3e484	0.02977205
79	0xbc69d458	-0.014271818
80	0x3cdf7fae	0.027282562
81	0xbd66f53f	-0.05638623
82	0xbc792d0d	-0.015208495
83	0xbd1c9a8a	-0.038233317
84	0xbd2dfd93	-0.042478155
85	0x3d096a9f	0.033548947
86	0xbd6b018b	-0.05737452
87	0x3d6fa861	0.058510188
88	0xbd5f25f4	-0.054479554
89	0x3d939381	0.072058685
90	0x3d1055a6	0.03523793
91	0x3d6f2a4b	0.058389943
92	0x3b16d7d5	0.002301683
93	0xba47759e	-0.0007608774
94	0xbadb0e46	-0.0016712628
95	0xbc8ae20e	-0.016953494
96	0xbcf4c529	-0.02987917
97	0xbd8affb7	-0.06787055
98	0xbc70fdd6	-0.014708957
99	0xbb1d0fe8	-0.002396578
100	0xbc40507b	-0.011737938
101	0xbcb7ecfb	-0.022451868
102	0xbc52798f	-0.012846365
103	0xbd6a36c2	-0.057181127
104	0x3d51bf5f	0.051207896
105	0x3c58ba7a	0.013228053
106	0x3cb0dfb2	0.021591041
107	0xbd6042c6	-0.05475118
108	0x3d0edd47	0.034878995
109	0x3d5db68c	0.05412917
110	0x3d5539b1	0.052056972
111	0x3d4e4a58	0.05036387
112	0x3d61b838	0.055107325
113	0xbd49b741	-0.04924703
114	0x3d99c4cf	0.075082414
115	0x3ce76a56	0.028248947
116	0xbd19c543	-0.03754164
117	0xbce661f5	-0.028122881
118	0xbd052cc3	-0.03251339
119	0x3cdcecd6	0.0269684
120	0x3c22c480	0.009934545
121	0x3d88d155	0.06680552
122	0xbc1c5a48	-0.009543009
123	0x3cc24772	0.023715708
124	0x3c8b54c0	0.017008185
125	0xbcacce40	-0.021094441
126	0x3d7d094e	0.06177645
127	0x3cfb3716	0.030665915
128	0xbcdc4268	-0.026887134
129	0x3d32e10c	0.043671653
130	0x3c0bd418	0.008534454
131	0x3d6d0f7f	0.057876106
132	0xbcf0c0f9	-0.029388892
133	0x3d97329b	0.07382699
134	0xbc51efbd	-0.012813506
135	0x3c783ec7	0.015151686
136	0x3d7a35f3	0.061086606
137	0xbd306a16	-0.04306992
138	0x3b013f3c	0.0019721529
139	0xbd0dc821	-0.034614686
140	0x3d6b9954	0.057519272
141	0xbd50f8fa	-0.051018693
142	0xbc961bbf	-0.018323777
143	0x3bbe81e3	0.0058138235
144	0x3cbdd602	0.023173336
145	0xbd71ad8d	-0.0590034
146	0xbc34f37b	-0.011044378
147	0xbce182c3	-0.027528172
148	0xbb321998	-0.00271759
149	0xbc8b92dd	-0.017037803

net.9.weight f4 [10, 150]
0	0xbc6d2996	-0.014475247
1	0xbd8aa8c3	-0.0677047
2	0xbd875983	-0.0660887
3	0x3d908051	0.070557244
4	0x3e1e2ab8	0.15445983
5	0xbe4a1e0e	-0.19738027
6	0xbd1cc28e	-0.03827148
7	0x3c07b419	0.008282685
8	0xbd97090c	-0.073747724
9	0xbd85d9bf	-0.065356724
10	0xbd2d023d	-0.042238463
11	0xbbef8d3a	-0.0073105367
12	0xbbd1dc6f	-0.0064044516
13	0x3dfbf691	0.12302888
14	0xbdeb9e2e	-0.1150478
15	0xbd836b00	-0.06416893
16	0x3cb71f06	0.02235366
17	0x3c21fc97	0.009886882
18	0xbe02b67c	-0.12764925
19	0xbe378193	-0.17920522
20	0xbe5d0861	-0.21585228
21	0xbc8a090e	-0.01685002
22	0x3d0dab9a	0.03458748
23	0xbac29e23	-0.0014848154
24	0x3e26885a	0.16262951
25	0x3dbaf1af	0.09128129
26	0x3d81c19c	0.06335756
27	0x3dadc696	0.08485143
28	0x3deca624	0.11555126
29	0xbd08fdb3	-0.03344507
30	0x3dcf9fa1	0.10137869
31	0x3dba82d6	0.09106986
32	0x3d36b322	0.044604428
33	0xbdf3e6ba	-0.11909242
34	0xbd6a3118	-0.057175726
35	0x3d7cd88e	0.06172996
36	0xbd369601	-0.04457665
37	0x3e5bfd61	0.21483375
38	0x3dd86710	0.105665326
39	0xbc77c388	-0.015122302
40	0x3bbeb3fb	0.005819795
41	0xbae9cb35	-0.001783705
42	0xbd8a59df	-0.06755423
43	0x3b9fb7c4	0.0048742015
44	0x3d10a9b4	0.03531809
45	0x3da15eca	0.07879408
46	0xbc66c8d8	-0.014085971
47	0xbbd1fc93	-0.006408283
48	0x3db5d1cc	0.08877906
49	0xbd236a03	-0.039896023
50	0x3b342860	0.0027489886
51	0x3e45ab61	0.19303657
52	0x3ccf2130	0.02528438
53	0x3d4131aa	0.047166504
54	0xbc69a009	-0.014259347
55	0xbe828b29	-0.25496796
56	0xbb2fc0db	-0.0026817832
57	0xbca05aa0	-0.019574463
58	0x3e187fb8	0.14892471
59	0xbd38815e	-0.04504525
60	0x3e012866	0.12613067
61	0x3dae8ade	0.085225806
62	0xbe4abb55	-0.19798024
63	0xbd90c179	-0.07068152
64	0xbbbad19e	-0.005701258
65	0x3c6382d9	0.013886177
66	0xbd2d3296	-0.04228457
67	0xbe5dd70e	-0.21664068
68	0xbe34a161	-0.17639686
69	0xbdc26e15	-0.09493653
70	0x3d90bf74	0.07067767
71	0x3d7f2d76	0.062299214
72	0xbad241f1	-0.0016041381
73	0xbd63d18f	-0.055619773
74	0x3d516250	0.05111915
75	0xbd542842	-0.051796205
76	0x3e135313	0.14387159
77	0xbeafb3b3	-0.34316787
78	0xbe55f906	-0.20895776
79	0xbc9d838b	-0.019227764
80	0xbd2e81b2	-0.042604156
81	0xbc161d9f	-0.009162336
82	0xbe1baa51	-0.1520169
83	0x3d60696e	0.054788046
84	0x3e2f477a	0.1711711
85	0xbda89f80	-0.08233547
86	0x3c171aef	0.00922273
87	0xbd5762f5	-0.052584607
88	0x3d2be340	0.04196477
89	0xbcd61722	-0.026134077
90	0x3dbcb02f	0.09213292
91	0x3e646d48	0.22307312
92	0x3d00d96e	0.031457357
93	0x3e0a7fc6	0.13525304
94	0xbb289253	-0.0025721982
95	0xbd8ddbd7	-0.06926697
96	0x3cc33d81	0.023833038
97	0xbd8e5ee1	-0.069516905
98	0xbd1b51c9	-0.037919793
99	0xbcb512de	-0.022103723
100	0xbad3cad8	-0.0016158475
101	0xbd4b31ef	-0.049608167
102	0xbd64290a	-0.0557032
103	0x3d8fe0f8	0.07025331
104	0x3de3b624	0.11118725
105	0x3c442bac	0.011973303
106	0x3d566a74	0.052347615
107	0xbdb10455	-0.086434044
108	0xbc91d018	-0.017799422
109	0xbe0841b2	-0.13306311
110	0xbd8cb646	-0.068707034
111	0x3e189dda	0.14903966
112	0x3cdbb629	0.02682026
113	0x3bf3ac95	0.007436345
114	0xbe7615cd	-0.24031754
115	0x3d01a1c9	0.03164843
116	0x3d3b42b7	0.04571792
117	0xbd725048	-0.059158593
118	0xbe68be77	-0.22728907
119	0xbd74e71f	-0.059790727
120	0x3cf5c394	0.030000485
121	0x3da04964	0.07826498
122	0xbc9c4ada	-0.01907866
123	0xbe94820c	-0.29005468
124	0x3ae4804b	0.0017433254
125	0x3e0d7724	0.1381498
126	0xbe1dea23	-0.15421347
127	0xbe55c6a0	-0.2087655
128	0x3daa306b	0.08310016
129	0xbd85a1b3	-0.06524982
130	0x3de5828a	0.11206539
131	0xbe4c246e	-0.19935772
132	0x3d950b88	0.0727759
133	0xbe32f0db	-0.17474692
134	0xbc752cc3	-0.014964285
135	0xbdf8ff3c	-0.12158057
136	0x3db04beb	0.0860823
137	0xbc6f8be4	-0.014620755
138	0xbde5b5f8	-0.112163484
139	0x3d19ce2c	0.037550136
140	0xbe39f39c	-0.18159336
141	0x3d897d05	0.06713299
142	0x3d8a792e	0.067613944
143	0x3db10e8b	0.08645352
144	0x3c18d1b5	0.009327342
145	0x3d5072dd	0.050890792
146	0x3d19e36e	0.03757041
147	0x3c99bf14	0.018767871
148	0xbd97b730	-0.07407987
149	0xbdfb9a19	-0.12285251
150	0x3dc6c9cf	0.09706461
151	0x3ae32cb7	0.0017332052
152	0xbd522513	-0.051304888
153	0xbdcf2c75	-0.101159014
154	0x3e21ac0a	0.15788284
155	0x3de0f0d1	0.10983432
156	0x3d6fad21	0.058514718
157	0x3d929bdc	0.07158634
158	0xbc286b0c	-0.010279428
159	0x3d09e677	0.033667054
160	0xbb20214c	-0.002443391
161	0x3e4a7da2	0.19774488
162	0x3d97815d	0.07397721
163	0xbdea3250	-0.114353776
164	0x3e0fa128	0.1402632
165	0xbccf1afc	-0.025281422
166	0xbd023339	-0.03178713
167	0xbe4b64a8	-0.19862616
168	0x3e103256	0.14081702
169	0x3c886bfc	0.016653053
170	0xbd9c5623	-0.07633617
171	0xbd8f8b74	-0.070090204
172	0xbb87d61c	-0.004145397
173	0xbd212c70	-0.03934902
174	0xbc7e63f3	-0.015526759
175	0xbdecff46	-0.11572127
176	0xbe01f68e	-0.1269171
177	0x3e39ff3f	0.18163775
178	0xbdad9bd9	-0.08476991
179	0x3c19287e	0.009348033
180	0x3e50116d	0.20319147
181	0xbe022184	-0.12708098
182	0xbe35f6f9	-0.17769994
183	0xbde149fa	-0.11000438
184	0x3cc0fb0e	0.023557212
185	0xb9fd1405	-0.00048270836
186	0x3d586734	0.052832797
187	0x3e12d96d	0.14340754
188	0x3d5f6760	0.054541945
189	0x3e45073d	0.19241042
190	0x3d38ff42	0.045165308
191	0x3cb63453	0.022241747
192	0xbc248f92	-0.010043995
193	0xbd25a1e0	-0.04043758
194	0x3d8ff6a8	0.07029468
195	0xbd856d64	-0.06515005
196	0xbde43ea4	-0.1114476
197	0xbd170096	-0.036865793
198	0x3ba10f77	0.0049151736
199	0x3cdfa56b	0.027300557
200	0xbca52e38	-0.02016364
201	0xbc0f8a72	-0.008761035
202	0xbd3e0b7d	-0.046397675
203	0x3d1b4de7	0.03791609
204	0x3c03cf92	0.008045094
205	0xbd7a2c0e	-0.06107717
206	0xbe0e2df0	-0.13884711
207	0x3ddfb046	0.10922293
208	0x3cecdff7	0.028915389
209	0xbd24840b	-0.04016499
210	0xbdb8abe8	-0.090171635
211	0xbe479494	-0.19490272
212	0xbdbd5d02	-0.092462555
213	0xbdad031b	-0.08447858
214	0x3da30855	0.079605736
215	0xbd53f502	-0.05174733
216	0x3cf0e781	0.029407265
217	0xbe2a3b06	-0.16624078
218	0x3dad21d8	0.08453721
219	0x3d69310a	0.056931533
220	0xbe354f79	-0.17706098
221	0xbe6ceb1f	-0.23136567
222	0x3c67f507	0.01415754
223	0x3cca92a9	0.024728136
224	0xbd937bb2	-0.072013274
225	0xbd72d459	-0.05928454
226	0xbd827aa9	-0.06371052
227	0xbbe41ee8	-0.006961692
228	0xbdaf694a	-0.08565004
229	0xbd0e33e2	-0.034717448
230	0xbdb3b25d	-0.087742545
231	0x3cd6d9df	0.026226936
232	0x3d9f04ff	0.07764625
233	0x3d80eb96	0.062949345
234	0x3eaef94d	0.34174576
235	0x3ceb921f	0.0287562
236	0x3d565aca	0.052332677
237	0x3df60159	0.12011976
238	0xbd493825	-0.04912581
239	0x3d3920d9	0.04519734
240	0xbda5ba59	-0.080921836
241	0x3d208c06	0.039196037
242	0xbdbeaefa	-0.09310718
243	0xbe39e296	-0.18152842
244	0x3c4b0432	0.012391137
245	0xbd384779	-0.044990037
246	0x3beb5b34	0.007182503
247	0x3d7311c9	0.059343133
248	0x3c23c429	0.009995499
249	0x3bdf04ff	0.0068060155
250	0x3d89da56	0.067310974
251	0x3d0ef6e0	0.034903407
252	0x3d3b2d96	0.04569777
253	0xbc1f1c66	-0.009711361
254	0xbe51a5bf	-0.20473383
255	0x3dc3e8d9	0.095658965

net.9.bias f4 [10]
0	0xbd1ce856	-0.03830751
1	0xbd2c9ae4	-0.042139903
2	0x3d045dae	0.032315902
3	0xbd808bcf	-0.062766664
4	0x3d24ba6b	0.040216845
5	0xbd745af0	-0.059657037
6	0xbd0ed3d5	-0.034869988
7	0xbdc08da1	-0.094020136
8	0xbd1284cb	-0.035771172
9	0x3bd9f921	0.006652013
