result/model_17_1.pth (torch, 307183 bytes, 8 tensors)

net.0.weight f4 [20, 1, 4, 4]
00000000: 8fe8 e93e a3e9 1b3f e815 683e 84e5 dc3e
00000010: 1ee5 e0bc e588 86be 798a f9be 2f9d 8f3e
00000020: b49b bebc 59bb bebe c9f9 db3e 90e3 a43e
00000030: 32e6 4e3e 3534 c63e f9a9 d63e fe2d cdbd
00000040: 8a69 da3e a31f 853e 56ab 993d 6362 7b3e
00000050: f23a 85bd 3ec1 b93c c416 2abd 94bd 5e3e
00000060: 6b91 8dbe 8f40 6abe 8134 82be b709 66be
00000070: 5d3d 62bc 0408 8ebe ffcf 8d3d 3620 4dbe
00000080: d68d 853e 3310 07bd 0c31 c5be 06e6 82be
00000090: 43dd 4a3e 5c5f 4d3f bfbb d73e 3987 c7be
000000a0: f915 84be 99be ea3d ff4d 233f 4829 713e
000000b0: a0ac 3ebe 71b2 a7be e256 033e b35a 0b3e
000000c0: acf4 b63d b82c 71be 3d08 babe 832e f1bd
000000d0: 7aa6 28be f639 973e 5fef 5a3e 718c 933e
000000e0: dbe6 2c3e 797a 1b3e f055 873e 08d1 c0bd
000000f0: a2bb ed3b f0c8 70be d8c1 48bd 48e2 9cbd
00000100: e7db 6f3d c495 193c 8d45 763e 88d3 e9bd
00000110: 6345 54be 96ca 38be 8e45 253e c116 8c3d
00000120: 3253 7f3e cfb7 67be 4e40 b9be 6690 95be
00000130: ccce f0bd f3fb 493e ed77 2a3e 2aa8 7b3e
00000140: 67b8 54be 6944 c8bd 9a48 4a3e fb57 39be
00000150: 8278 933d 3958 d83d 7fa4 703e b669 96be
00000160: 7b38 a3bd 90ce b33e 467a 663b f7c7 6dbe
00000170: 5fbc 8b3e 0dce ba3e 70d5 98be 656a 8cbe
00000180: aa6d 913e 5667 80bc 117b b2bd 4b58 81be
00000190: 1c51 01be 186a 74bd 81f8 22be e676 42be
000001a0: a781 83bd d088 92be 08cf 7abe fee1 93bc
000001b0: 68ed 15be 59b8 b3bd 73d0 b63e d36c 843e
000001c0: f3a5 013e 3d1d 44be 7da6 0ebe 1622 66bd
000001d0: 4ebf 3b3d 1132 5abe b37b 00be b52b 23be
000001e0: dbee 85bc 7071 08be dffd 82bd a7bf 3dbe
000001f0: 017c 13be eaba 02be b938 98bd d0d3 2cbe
00000200: 49f5 ae3e 3ccb ac3d 540f ad3e 51d5 5b3e
00000210: 9d19 4abe 849a 3d3e e2e8 97bd a247 6ebd
00000220: 3743 95be 688a aebe d5bc 9ebd 57b0 d6bd
00000230: 5ade 863d 9d87 61be a1a2 d03d 0384 39be
00000240: 4840 a5bd a2e4 a63d 2f03 493e 8270 9c3e
00000250: 660f 863e 85fe 97be 5097 ce3d 477d 17be
00000260: b8f1 0bbe 4a30 6ebe 7c6d a73e da6a 8abe
00000270: 4de1 47bc 8aca 873d 4f08 b43d 11da 48be
00000280: 665c e03e 8ba6 a33d 166b a9bb 1651 7abe
00000290: e902 d93e 2f8f 50bd 6950 4dbe ceee 293e
000002a0: e2f6 b33e f50f 20be 7242 77be 9ead eebd
000002b0: 4317 803e b9df 81bd 4334 55be 6124 26be
000002c0: 6142 94be 45c3 6d3e e4d1 893e dcba b9be
000002d0: 5654 553c 9ed4 bf3e 0ec6 9c3d f2c6 89be
000002e0: 6ac7 573e 99fa 953e 2bd4 493d b653 52be
000002f0: 1dcf b8bd 2071 f13d 25a2 25bd 0077 2bbe
00000300: 12ca 673e f875 913e 4f00 e1bb ce22 62bd
00000310: 17d5 b83a b1cf 373d 9835 163e 19fc 2e3e
00000320: 0c2b 97be e464 0cbe 9b07 2a3e ae90 e43d
00000330: 692f 7fbd f606 5ebe 1e1c 82be a571 94be
00000340: 9f0b 4bbe d9e5 26bc 7b2f 773e bac7 8d3e
00000350: 6b5d b8be bda3 90be 1998 7c3c 8417 ee3e
00000360: eb84 debd 63c0 49be 9f39 3d3e edc4 8e3d
00000370: c94e 8abe c404 cb3d cd24 21bd b959 043d
00000380: 19f9 54be 5ae8 793e 2dce 853e 5027 0f3e
00000390: dabb 33be 7e9e 5cbe 1546 e6bd 6371 a53e
000003a0: 6dc3 133e 71d5 8b3e 82c1 0d3e c8e6 363d
000003b0: ce61 0fbc b799 5ebe ee15 93be 38d0 94be
000003c0: a730 363e d98b aabd 7bbe 7cbc 43b9 a3bd
000003d0: 67c8 46bc 441e 1cbe 128e 3dbe e799 723d
000003e0: fcbd 48bd a88f b93d cb9b 11be db8d 2dbe
000003f0: 50fa 023d 4536 89bd b839 74bd 3546 59be
0.4568524 0.60903376 0.22664607 0.43143857 -0.027453002 -0.26276317 -0.4873846 0.2804961
-0.023267604 -0.3725231 0.42964008 0.32204866 0.20205 0.38711706 0.41926554 -0.10018538
0.42658645 0.260007 0.07503383 0.2454925 -0.065053836 0.022675153 -0.041525617 0.21752006
-0.27650008 -0.2287619 -0.25430682 -0.22464643 -0.013808575 -0.2774049 0.06924438 -0.20031819
0.26084775 -0.032974433 -0.38513982 -0.2556612 0.19810967 0.8022363 0.42135426 -0.38970354
-0.25798014 0.11462135 0.6379089 0.23550904 -0.18620539 -0.32753327 0.12826112 0.13608818
0.08933386 -0.23552215 -0.3633441 -0.117764495 -0.16469756 0.29536408 0.21380375 0.28818086
0.1688494 0.15183438 0.26432753 -0.094148695 0.0072550336 -0.23514152 -0.04901299 -0.07660347
0.058559325 0.009374086 0.24049969 -0.114172995 -0.20729594 -0.1804603 0.16139814 0.068402775
0.2493408 -0.22628711 -0.36181873 -0.2921173 -0.117581934 0.19725017 0.1664731 0.24575868
-0.20773469 -0.09778673 0.19754258 -0.18099968 0.072007194 0.10563702 0.2350025 -0.29377526
-0.07969757 0.35118532 0.0035168095 -0.23220812 0.27292153 0.3648533 -0.2985034 -0.27424923
0.2840398 -0.015674274 -0.08714879 -0.25262675 -0.12628597 -0.05967149 -0.15915109 -0.18990669
-0.064212136 -0.28620005 -0.24493039 -0.018052097 -0.14641345 -0.08775396 0.3570591 0.25864276
0.12660961 -0.19151779 -0.13930698 -0.05618485 0.04583674 -0.21308161 -0.12547188 -0.15934642
-0.016349247 -0.13324523 -0.06396078 -0.18530141 -0.14402772 -0.12766615 -0.07432694 -0.16877675
0.34171513 0.084372014 0.33800757 0.21468093 -0.19736333 0.18515974 -0.07417466 -0.058173783
-0.29152843 -0.3408997 -0.077508606 -0.10482853 0.06585379 -0.22024389 0.10187269 -0.18116765
-0.08068901 0.08149077 0.1963012 0.30554587 0.26183623 -0.2968637 0.10087454 -0.14793883
-0.13666427 -0.23260608 0.32700717 -0.27034646 -0.012199712 0.06630428 0.08790647 -0.19614436
0.43820494 0.0799075 -0.0051702363 -0.24444994 0.42385033 -0.0509178 -0.20050205 0.16595003
0.35149294 -0.15631087 -0.2414644 -0.116542086 0.25017747 -0.063415 -0.20820718 -0.16224815
-0.28956893 0.2321902 0.26917946 -0.36275375 0.013020596 0.37466902 0.076549634 -0.26909596
0.21072164 0.29292753 0.049274605 -0.20539746 -0.09023879 0.11789155 -0.040437836 -0.16744614
0.22635677 0.28410316 -0.006866492 -0.055208974 0.0014101592 0.044875804 0.14668882 0.17088355
-0.2952503 -0.13710362 0.16604464 0.11160408 -0.062301073 -0.21682343 -0.25412077 -0.28992954
-0.19828652 -0.010186636 0.24139206 0.27691442 -0.36008772 -0.28249922 0.015417122 0.46502316
-0.10865196 -0.19702296 0.18479012 0.06971154 -0.27013233 0.09913018 -0.039341737 0.03231213
-0.20798148 0.24405041 0.26133862 0.1397984 -0.17552128 -0.21544835 -0.11243836 0.3231307
0.14430018 0.2731128 0.13843349 0.044653684 -0.008751346 -0.21738325 -0.2872767 -0.29065108
0.17791997 -0.08327455 -0.015426273 -0.0799432 -0.012132741 -0.1524592 -0.18511227 0.059228804
-0.04900931 0.090606034 -0.14219587 -0.16948645 0.031976998 -0.06699804 -0.059625357 -0.21218188

net.0.bias f4 [20]
00000000: 0ee0 683e 91ca d1bd 9a76 f93e b54e 0c3e
00000010: 4df0 cfbd 0c5a dabd a748 d8be 3fa7 b3be
00000020: ddd1 18be a4a2 633d 502b 6a3e 6db3 1c3e
00000030: f20a ffbd 91fb d7bd 345e f53d 1ffa bcbe
00000040: e37e cc3c 9d0b fc3d 6ed3 dcbe 8b3d 033e
0.2274172 -0.102437146 0.48723298 0.137019 -0.101532556 -0.10661706 -0.4224293 -0.35088536
-0.14923806 0.055575028 0.22868085 0.1530282 -0.124532595 -0.10546029 0.119808584 -0.36909577
0.024962848 0.123069026 -0.43130058 0.12816446

net.3.weight f4 [40, 20, 5, 5]
00000000: a96f 62bd 8d85 35bd ebf7 46be 44f6 56be
00000010: 8a1f 1dbe acbc 853d e5e0 4bbc d8a7 49be
00000020: d26b b2bd 767a 6139 a214 8dbd c9cf b8bc
00000030: 8700 ae3c 8901 95bd 08cc 0ebe 387f 07be
00000040: 997e 97bd 5691 54bd 0be0 9bbc bd0a 9ebd
00000050: 4338 36be 6d59 0abd aa23 b1bc a58a 1d3c
00000060: b76c 39bd ab19 17bb ba15 0cbd 68e8 0bbe
00000070: 5853 91bd 48e7 703c fc2f 73bc 6ceb c0bd
00000080: 7f70 01be 7ffb 0e3b d989 a53b ccae dfbd
00000090: 5eaa 01be 8ffa ab3c 3475 8c3d eca8 ce3b
000000a0: 2046 af3c c7d3 85bd fa55 213c a472 893d
000000b0: 5ea9 9b3c 09e4 663c 71f4 86bd 428c c7bc
000000c0: 24c3 213d 04b2 73bc ac45 6a3d 5e4a fb3c
000000d0: 457a c4bd 7fc0 11be 1d6e 30bd 93e1 07be
000000e0: d11d 53be 5945 ffbd ea73 40bd c695 16bd
000000f0: e68f 053c 89a7 5b3d 7631 183d d93d 1b3d
00000100: 2b9e c3bb 9fe9 b73d 24cc f63d d1f8 b93d
00000110: 43d7 bd3a b629 473d 9e68 973d 1196 9b3d
00000120: f017 7e3d a57f 6f3b 0d93 453d 66d9 c73c
00000130: 3c21 55bc e676 833d 3874 8f3d c5a5 fb3c
00000140: f3de 9ebc 251c 433d a336 b33d 3658 083e
00000150: 9e0a 103e 7aa4 b3bc 6127 10bd e9ad 2c3d
00000160: a84e e43d 5581 ac3d a32e 93bd 091e c73d
00000170: fa75 f43d 1b5a f33d d7d8 82bc 3810 7d3b
00000180: 4d6f ff3c 1153 803d 1f9c 2a3c 065f 5abc
00000190: c3e5 263d 33f5 323e 1279 023e 9378 a63d
000001a0: 8516 b73d b29b e23b 1358 90bd 7774 903d
000001b0: 7ae1 0e3e ab02 df3d 7a1c dabd 33cd a33c
000001c0: 0590 103e ca86 753e 4622 103e edb5 7a3d
000001d0: 1655 e43d c4fd 713e 66df 243e cb70 003d
000001e0: 69b5 f6b9 5da2 e03d 54c4 af3d 19fb 5c3d
000001f0: bb88 d5bc e884 293e 1b0e bd3d b481 633d
00000200: 75d2 c13d b4d3 c73d e635 503e 7736 143e
00000210: 500b 8b3d d8cb c8bc 99a6 cbbc 21d0 0d3d
00000220: 689a 763c fe40 c6bd e2b3 9bbd c1ff 3e3c
00000230: 6d7c 3bbd 7974 bcbd d652 51bd 17a2 b6bc
00000240: 97da dd3c b4f9 573c a5b9 e73c 657a cc3c
00000250: f800 ae3d 98a9 f43d 0c9e a23c d8cf 1c3d
00000260: edbb 423d 8c4a 153d 5c3b 2b3d acc7 aa3b
00000270: 47c8 bb3c b872 013d 8fb4 77bb dd27 8e3b
00000280: e821 28bd 0e36 f1bd 6da6 76bd 304c 073d
00000290: 2849 323d 8d80 2fbd aeb2 0abe 85ff a9bd
000002a0: 1ea0 9abc 0ac9 f63a 76a9 27bd 2caf c2bd
000002b0: 7671 8bbc 8ae7 14bd 8d44 5dbc ef6e 01bd
000002c0: 22dc 423d 39e9 2fbd 5da4 1b3d 8ca7 f73c
000002d0: cc46 dcbb 5db6 4cbb eece 35bd 6686 b73c
000002e0: 247e 463d 4238 80bd 42d7 63bd f3f3 1bbd
000002f0: 0bc4 4b3c f9ed cd3c edd4 38bc eafd abbd
00000300: 2054 3bbd 3dde 0e3d dcaa 403d 1811 a3bc
00000310: 71f2 b2bd 8a36 1dbd 7679 1dbd 55e9 543d
00000320: 23b4 e3bd 0e6e 14be 5934 5dbe 6966 bbbd
00000330: 12a0 f43b ca51 03be a397 1fbe d885 cfbd
00000340: 8aca 333d 2d30 583d b8a0 4abe 0887 5abe
00000350: 8425 c0bc 3bce ed3d 83e6 0d3e 0595 b9bd
00000360: 4a55 94bb 93ed bc3d 3d1a f93d cdf6 f33d
00000370: 9671 64bc 249a 2d3d 12c1 0f3d 39ec 023c
00000380: 7574 06bd c643 27bb f93f a1bd b2f9 f63c
00000390: 799f 46bc a60d 6bbd be77 4e3d 792a ae3d
000003a0: 1720 413d 1d4a d43d bbfc a73d 32c3 68bd
000003b0: 7698 4a3c 892e f33d a7df 953d aaa9 b63d
000003c0: e2ae 923c cf12 50bd 7100 ce3d f1e7 053e
000003d0: fe33 e93c e694 d53c ca10 da3c 4009 2e3d
000003e0: 55be 433d 1661 fb3b 9d40 9c3d 75d9 a03d
000003f0: 2069 363c fa03 2b3d 78f7 1bbd 1b27 e53c
-0.05528227 -0.044316817 -0.1943051 -0.2099238 -0.15344062 0.06530127 -0.012443756 -0.19692934
-0.08711971 0.00021503292 -0.06888701 -0.022560017 0.021240486 -0.072756834 -0.13945019 -0.13232124
-0.073971935 -0.051896416 -0.01902773 -0.07716892 -0.177949 -0.03377669 -0.021623451 0.009615575
-0.045269694 -0.002305607 -0.034200408 -0.13662875 -0.07095975 0.014703579 -0.014842983 -0.09419903
-0.1264057 0.0021817384 0.005051833 -0.10922012 -0.12662646 0.0209935 0.06858292 0.006306758
0.021395743 -0.06534534 0.009847159 0.06711319 0.019001659 0.014092454 -0.06589592 -0.024358872
0.03949274 -0.014873985 0.05719535 0.03067511 -0.095936336 -0.14233588 -0.043073762 -0.13269643
-0.20616843 -0.12464399 -0.046985544 -0.03676393 0.008151984 0.05362657 0.037156545 0.03790078
-0.005969783 0.089801066 0.120506555 0.09080661 0.0014483709 0.048623763 0.07393001 0.07596982
0.062034547 0.0036544588 0.04823594 0.024395656 -0.013008412 0.064191625 0.07004589 0.030718694
-0.01939342 0.047634263 0.087506555 0.133149 0.1406655 -0.021929014 -0.035193805 0.04215804
0.11147815 0.084231056 -0.071866296 0.097225256 0.11936565 0.11882421 -0.015972538 0.0038614403
0.031181002 0.06265844 0.010413199 -0.013328319 0.04074646 0.17476349 0.12741497 0.081284665
0.08939842 0.006915533 -0.07048049 0.07053464 0.139532 0.10889181 -0.10649963 0.019995308
0.14117439 0.23977199 0.14075574 0.061208654 0.11149041 0.2363196 0.16100845 0.031357568
-0.00047055937 0.10968468 0.085823685 0.053950403 -0.026066175 0.16554606 0.09231206 0.055543616
0.094639696 0.09757176 0.2033306 0.14473902 0.06789267 -0.024511263 -0.024859713 0.034622315
0.015051462 -0.09680365 -0.07602669 0.011657656 -0.04577296 -0.09201903 -0.05110439 -0.022294087
0.02708177 0.013182092 0.028286764 0.024960706 0.084962785 0.1194641 0.019850753 0.038284153
0.0475425 0.036448047 0.041804656 0.005211791 0.022922648 0.031603545 -0.003779683 0.004338248
-0.04104796 -0.11777888 -0.06021731 0.033031642 0.0435268 -0.042847205 -0.13544723 -0.083006896
-0.018875178 0.0018828225 -0.040933095 -0.09506068 -0.017021876 -0.036353625 -0.013505113 -0.031599935
0.047573216 -0.042947028 0.037998546 0.03023126 -0.006722307 -0.0031236627 -0.044386797 0.022402953
0.04846014 -0.0626073 -0.055625208 -0.038074445 0.012436877 0.025137888 -0.011281234 -0.0839804
-0.045734525 0.03487991 0.047037944 -0.019905612 -0.08737648 -0.03838209 -0.038445912 0.051980335
-0.11118343 -0.14495108 -0.21602 -0.091503926 0.007465371 -0.12824169 -0.15585189 -0.101329505
0.04389433 0.05278032 -0.19787872 -0.21340573 -0.023455389 0.11611601 0.13857464 -0.09061626
-0.004526769 0.09225001 0.12163208 0.11912308 -0.013943097 0.042383328 0.035096236 0.00799089
-0.032825906 -0.0025522574 -0.0787353 0.03014836 -0.012122982 -0.057386063 0.050407164 0.08504195
0.047149744 0.103656985 0.082025014 -0.056826778 0.012365451 0.1187411 0.07318049 0.089190796
0.017905656 -0.050799187 0.10058678 0.1307676 0.028467175 0.026071977 0.026619334 0.04248929
0.047788937 0.0076714857 0.076295115 0.07853977 0.011133462 0.04175184 -0.0380778 0.027972749

net.3.bias f4 [40]
00000000: b0ba 313d c800 0d3c b498 273c 1d9b 2cbc
00000010: db9f 11bd 76d7 e63c b784 36bd 2482 753c
00000020: 42d9 41bc 1149 1abc ec02 b53c 5b2b 963d
00000030: d97e 3ebd 0e3e 8e3b 1c4e 12bb 0fed c6bc
00000040: cf3a cabc 75c5 8c3b ecbf 06bd c7c6 15bc
00000050: 08eb dc3c 1714 b6bc 9b11 f2b9 14d0 2d3d
00000060: bb6f 49bb 183d a0bc c141 f2bc 1074 40bd
00000070: dfed 4e3d 495e dd3a 9a89 f03b d127 c13c
00000080: 6b65 7fbc d712 e23c 1f8d 943d a4cd 843b
00000090: d109 1b3c 1c3e 53bd df08 e23c 6a5f c2bc
0.04339093 0.008606143 0.010229278 -0.010535029 -0.03555284 0.028178912 -0.04456016 0.014984641
-0.011831583 -0.009416834 0.02209612 0.07332488 -0.04650769 0.0043408936 -0.002232439 -0.02428296
-0.024686245 0.0042959996 -0.032897875 -0.0091416305 0.02696754 -0.022226376 -0.00046170954 0.042434767
-0.0030736763 -0.019560382 -0.02957237 -0.046985686 0.05051982 0.0016889061 0.007340622 0.023578556
-0.015588145 0.027596874 0.07253479 0.0040528346 0.00946279 -0.051572904 0.02759212 -0.023727138

net.7.weight f4 [150, 360]
00000000: 6e25 febc d373 cabb b937 01bd b8a3 e8bb
00000010: cbe8 5f3c 9d00 1fbd 002c e23d 171b 9b3d
00000020: 5154 5a3b 9543 993d 06f3 9e3d 5aa2 b93c
00000030: 068b 343d d2e0 623c f8ec 5a3d c36b c53d
00000040: 9d22 793d 76f7 a23d bc02 213d 9816 0ebd
00000050: ab53 c2bc 7477 3bbd 11a4 93bd 800b afbc
00000060: f4e1 643c 684b a03d d27b 81bc 447a d03b
00000070: c90d d83d 99e4 483d 68ad 3bbd b077 c3bd
00000080: a303 b33d caf3 6abd b3a0 22bd 4c54 e7bc
00000090: ef22 7c3c 4c55 8abb 7da3 1cbc e361 223d
000000a0: aea9 263c d805 283d 13a9 853d 9ca8 8dbc
000000b0: 229d 8eba 9152 0e3d 356b 88bd 4304 bbbd
000000c0: d387 533c 6d7e 903d eb6d c53d feb6 44bd
000000d0: 4219 2dbd a4b3 a03c 7a61 853c 88e6 023c
000000e0: 7e1d bf3c bea9 623c f5ba 18bc 4718 ad3c
000000f0: 6ddb 053d 76a1 85ba 5427 573c a8ca ecbd
00000100: f717 c0bd d1cf 80bd aadd c83c ea8e 4aba
00000110: 5b94 9e3d 5c40 323d 13e6 5f3d e55a 8abd
00000120: 22a9 efbc f14e 97bd 37f8 46bd 44fb aabc
00000130: f4f4 dcbc 89c0 723c 80c7 80bd 7599 dbbd
00000140: cd21 99bd 7585 ad3d 9f92 d73b 0e5f d33c
00000150: 4124 f43c 452b a63d fbfd c7bc ecdd 5c3d
00000160: 78ec 6f3d d21a 8b3d 84c6 293d 28f9 80bc
00000170: 87e5 ff3c 2119 8d3c 3307 d4bd 7a42 d6bd
00000180: 2563 82ba 14b8 9fbd c710 a4bd c4b4 8fbd
00000190: 9eeb e83d adfd 973d 1ca2 1e3d 87f0 693c
000001a0: fbb8 293d 6a74 70bd fe4d 31bd d980 ae3c
000001b0: f2fc 28bd c604 a6bc 40eb 463d 5da3 433c
000001c0: 387c 713d cd43 0bbd 2c1f 4d3d 0fe6 0f3b
000001d0: 1079 3d3d 1fca 983d d766 803b 6996 493d
000001e0: fbe5 a73d 2485 99ba e023 393d cca5 aebc
000001f0: 9cfe b3bb 6c75 0fbe ffd9 38bc 4b19 99bd
00000200: da5e 163d 5c98 173d aab2 c5bc 4dfb c13d
00000210: 6055 613d 90fe 093e f57b 4a3d 1e89 8aba
00000220: d867 a93d f24e e53d 905a 9d3d 44b9 ec3a
00000230: 9f68 5e3d e8c7 0d3d 8f0f bbbd 04f0 e53c
00000240: cb5f 243d 1fd3 3f3c 409c 4bbd 7f63 1c3c
00000250: c6de 3b3d 1af5 0a3d b0b6 a6bc 2eb8 3ebd
00000260: e849 bbbc 1082 fd3c 53a0 4a3d 7378 433d
00000270: 0198 93bb ff38 28bd 7d8e 213c a20c d93c
00000280: 2b31 0b3d c3c0 243d 6d3b c93c 5df7 9b3b
00000290: 2ee9 c73c f81c 93bd 2a1e a13c 3ee8 08bd
000002a0: 333e 5f3c 5f7a 123d b393 153d 79ea e13b
000002b0: 1202 d03c 9306 05bd 7aab 163d 110b babc
000002c0: 5a96 3ebd 3d2a 4b3d e6ea aebd 83cb 7ebc
000002d0: 52cc 683d 3e5b 5a3c 531d c43d ed4f 9c3d
000002e0: 41b3 363e 43b5 753d 073e 223d 620d eb3d
000002f0: 7282 ae3d 085a 09bd f741 7ebd 09a9 f5bd
00000300: c5b0 6a3d eff7 303d 4b76 ffbd 91f0 083d
00000310: 681f cd3c c27a e73d a28d 903d e731 e23c
00000320: e3e7 853d e3b2 ccbc 0156 333d d965 08bd
00000330: b17d abbd 2b37 ae3d c715 283c 8a6e 513d
00000340: 5ec8 fcba 1425 1fbe 168a 6a3d d935 083d
00000350: bd5e 993c 1020 1e3d 6fd9 743d 43d4 9a3c
00000360: 62a3 7dbc 84b3 14bd 9184 37bd df0d 303c
00000370: 8ddf 063c b23f 54bb d763 9dbc e62f 833c
00000380: 1e23 42bc 0101 193c 9b40 43bc f0d4 c83d
00000390: 5a7b 1c3d 04cb d93c 4940 823b 4f0d 083e
000003a0: 1bfb ceba ee97 aabc d249 3ebd 6246 a2bd
000003b0: e8cf 7f3d 6250 5a3c 4ed4 223d cb89 413e
000003c0: af35 ddbb 0a46 b3bd 17ef 353d 6532 003c
000003d0: c547 5abd 438e b1bc 16ff 6b3c fcb9 2c3c
000003e0: 936c 37ba fa0a 6c3c 5ae3 19bd 921a d1bc
000003f0: 4f9e 6d3d b059 67bc f6a3 3a3c 4863 063d
-0.031023707 -0.006178358 -0.031547282 -0.007099595 0.013666342 -0.038818944 0.110435486 0.07573526
0.0033314417 0.074835934 0.07761197 0.022660423 0.044077896 0.013847547 0.053448647 0.096396945
0.060824025 0.07957356 0.03930925 -0.034689516 -0.023721537 -0.045768216 -0.072090276 -0.021367788
0.013969887 0.078268826 -0.015806112 0.0063622314 0.10549504 0.049046133 -0.04581967 -0.09544313
0.08740928 -0.0573614 -0.039704036 -0.028238438 0.015389188 -0.004221594 -0.009560463 0.039644133
0.010172291 0.041021198 0.06526389 -0.017292313 -0.001088057 0.03474671 -0.06661073 -0.09131672
0.012910801 0.07055364 0.09640106 -0.048026077 -0.042260416 0.01961691 0.016281832 0.007989533
0.023329493 0.013834415 -0.009321918 0.02112974 0.032679964 -0.0010195214 0.013131935 -0.11562091
-0.09379571 -0.06289638 0.02451976 -0.00077269843 0.0774314 0.04351841 0.054662775 -0.06755618
-0.029255453 -0.07388104 -0.04857656 -0.020871766 -0.026972272 0.014816412 -0.062880516 -0.10722629
-0.0747715 0.084727205 0.006578758 0.025802162 0.029802443 0.08113722 -0.0244131 0.05392258
0.058575124 0.06792225 0.041449085 -0.015743807 0.031237377 0.017223896 -0.10352936 -0.10461898
-0.000994776 -0.07798782 -0.080110125 -0.070169 0.113730654 0.07421432 0.03872882 0.014278538
0.041436177 -0.05870477 -0.04328727 0.021301674 -0.041256852 -0.020265948 0.048564196 0.011940804
0.058956355 -0.034000207 0.050078556 0.0021957194 0.046258032 0.074604265 0.0039185095 0.049215708
0.08198162 -0.0011712653 0.04520023 -0.021319292 -0.0054929983 -0.14009637 -0.011282443 -0.074755274
0.03671155 0.037010536 -0.024133045 0.0947176 0.05501306 0.13476014 0.04943462 -0.0010569429
0.0827176 0.11196698 0.07683289 0.0018060585 0.054298993 0.034614474 -0.09133827 0.02806855
0.040130418 0.01170805 -0.04970956 0.009545206 0.04586675 0.033925153 -0.020350784 -0.046562366
-0.02286239 0.030945808 0.049469303 0.04772229 -0.0045042043 -0.04106998 0.009860632 0.026495282
0.033982437 0.040222894 0.02456447 0.0047597126 0.02440318 -0.0718326 0.019667704 -0.03342461
0.013625669 0.035761233 0.03651781 0.0068944064 0.025391612 -0.032476973 0.036784627 -0.022710355
-0.046530105 0.04960083 -0.08540897 -0.015551451 0.05683548 0.013327418 0.09575906 0.07632432
0.17841817 0.059987318 0.039609935 0.11477162 0.08520974 -0.033533126 -0.062074628 -0.119951315
0.057297487 0.043205198 -0.124737345 0.033432547 0.02503939 0.11302711 0.07058264 0.027611686
0.065383695 -0.024987644 0.04378319 -0.033300254 -0.08373583 0.08506616 0.010259098 0.05113081
-0.0019285788 -0.15541488 0.057260595 0.033254478 0.018721933 0.038604796 0.059777673 0.018900042
-0.015480848 -0.036304012 -0.04480416 0.010745495 0.00823201 -0.0032386598 -0.019212646 0.01601405
-0.011849193 0.009338618 -0.011917259 0.098062396 0.038203575 0.026586063 0.0039749485 0.13286327
-0.0015791388 -0.020824399 -0.04645712 -0.07923581 0.062454134 0.013324829 0.03975325 0.1890022
-0.0067507843 -0.08753593 0.044417467 0.007824515 -0.0532911 -0.021674281 0.014404079 0.010542389
-0.0006997075 0.014406914 -0.037570335 -0.025525365 0.058012303 -0.014120504 0.01139163 0.032809526

net.7.bias f4 [150]
00000000: 730f 923d 6120 1a3b 7a80 3d3c 7d72 f13c
00000010: f157 f537 cebd 57bc b766 90bd 85f3 303c
00000020: b91e 053d 5adf 2cbc 218e 813c b862 7dbc
00000030: d3d1 b53b 3c2d 503d 329c 07bc bb83 22bd
00000040: e42d a73d 9601 683d 6571 0fbc 656b dabb
00000050: db59 733d 678f 3fbc 2c74 df3c 4f75 57bd
00000060: e1f2 003d 9e3b edbc 8d7a 223d fc5f 3a3d
00000070: 3c77 2e3d dd69 863c d39f 133c 8d79 5b3d
00000080: 3f95 b93b 067e 6a3d 46c2 603c f48b 76bd
00000090: 8742 fe3c 9a7a 9f3c 686f e43b 315c 123c
000000a0: b365 093d 179f 3dbd 2646 5f3d 296f 673a
000000b0: ec83 0dbc a60b 29bd f168 403d 93fa 0abd
000000c0: 8856 103d 5d53 68bd 3e27 5dbd c4ac dc3c
000000d0: 5294 263c bdf0 96ba 7ffc 903d 9de9 5f3d
000000e0: 3a3c cbbc e0f7 01bd ad7d 45bc acce 0fbd
000000f0: 2f38 083d 2ddb 34bc a023 803d a33b 1a3d
00000100: 964c 94bd 4e55 033d 0aca 32bb 5344 aabc
00000110: ab44 073d 4ed4 3fbd fdbd 583d 6bc9 693d
00000120: fa48 f33c b2f9 23bc 68d7 8cbd b1f3 ffbc
00000130: 4569 4cbc 6ce9 083d 1c83 133d 68c2 24bd
00000140: 7af5 d73c 5d1f 73bd a61d c6bc 4786 14bd
00000150: 8c40 81bd e7a3 da3c 2ae3 153c 1380 303d
00000160: d85f 2fbd 17c4 313d 0660 1c3d 5e22 713d
00000170: c002 573d 20fe b2bb 3b84 85bc a6d1 373c
00000180: 7467 9fbc 608d 4bbd e3b2 8fbc 290a 1dbb
00000190: d77d e9bc b87e b2bc 70d9 2cbc 955a 70bd
000001a0: af57 853d aec2 9ebb 0b87 d33c 5359 62bd
000001b0: 8a9f 483d 0a34 2b3d a469 9d3d 5a4b 663d
000001c0: 5229 273d 0013 59bd 9cc1 8b3d 33bb 983d
000001d0: dfec 06bd 42c1 abbd 4458 04bd 3b6e 353d
000001e0: f223 0c3c 564c 923d 04fe 5dbc 57d9 113d
000001f0: 4443 8f3c 18a6 80bc 2d49 663d 13d7 16bb
00000200: 49c6 edbc 9573 1f3b 6349 8c3c 37fe 173d
00000210: da3e 8fbb cdc8 bb3d b4fd 68bc f7f7 523d
00000220: 8107 a63d 7d32 10bc dda7 143b 20ca 02bd
00000230: 9ad7 2a3c 26ff 29bc 9f0c 94bc 8d84 4ebc
00000240: ceec 9c3c bda3 cdbc f46d 11bd 5280 6bbb
00000250: d659 b3bc 3db4 4fbd
0.07131853 0.0023517834 0.011566276 0.029473538 2.9247227e-05 -0.013167812 -0.07050841 0.010800247
0.032500003 -0.010551298 0.015814843 -0.015465431 0.0055486946 0.05082439 -0.008276986 -0.03967641
0.0816305 0.056642137 -0.008755063 -0.0066656345 0.059411865 -0.011691905 0.027277075 -0.05260211
0.031481627 -0.028959092 0.039667655 0.045501694 0.04259418 0.016407901 0.009010273 0.053582717
0.0056635435 0.05724909 0.013718193 -0.060192063 0.031037582 0.01946764 0.0069712885 0.008933113
0.033544254 -0.046294298 0.05451026 0.0008828515 -0.00863741 -0.041270874 0.04697508 -0.033930372
0.035238773 -0.056720126 -0.053992502 0.02693785 0.010167198 -0.0011515837 0.0707941 0.05466615
-0.024808992 -0.031730533 -0.012053889 -0.035109207 0.033256706 -0.011038584 0.06256795 0.03765453
-0.0724117 0.032063775 -0.002728107 -0.020784533 0.03302447 -0.04683333 0.052915562 0.057076853
0.029697884 -0.0100082625 -0.06877023 -0.03124413 -0.01247627 0.033425733 0.036013708 -0.040224463
0.02636217 -0.059356082 -0.02418406 -0.03626087 -0.063111395 0.026689483 0.009148398 0.04309089
-0.042816013 0.043399896 0.038177513 0.058870666 0.052492857 -0.005462423 -0.016298404 0.011219418
-0.01945851 -0.049695373 -0.017541355 -0.0023962355 -0.028502388 -0.02178894 -0.010549888 -0.058680136
0.06510865 -0.004844985 0.02582123 -0.055260967 0.048980273 0.041797675 0.07686165 0.056224205
0.04081089 -0.052996635 0.068240374 0.074575804 -0.03294074 -0.083864704 -0.03231074 0.044294577
0.008553492 0.07143466 -0.013549332 0.035607662 0.01748813 -0.0157042 0.05622213 -0.0023016378
-0.029025214 0.0024330367 0.017124837 0.037107673 -0.004371506 0.09169159 -0.014220644 0.05150601
0.081069 -0.0088011 0.0022683062 -0.031931043 0.01042738 -0.0103757735 -0.018072424 -0.012604845
0.019155886 -0.02510249 -0.03550525 -0.003593464 -0.021893423 -0.050708998

net.9.weight f4 [10, 150]
00000000: af5f 38bd 4f78 88bd bab8 33bd 512f d63c
00000010: aa03 2d3e e6cd 30be 4747 8fbc 4ddc af3b
00000020: 7ab4 74bd 491a 5fbd 05d0 28bd 9796 14bd
00000030: ced5 6b3d 29b0 ff3d 6978 26be ab5a 81bd
00000040: 5e55 9ebd 3612 4ebd 2948 4fbe d8ba 0fbe
00000050: 2ce3 2fbe f565 d7bc 4d91 3b3d ad0a debc
00000060: 5c87 9d3d 8d6e bf3d 543e b63d b2fb d73d
00000070: 94fb e63d abe3 15bc 1f88 e93d 4d87 c13d
00000080: 76c8 fc3c da4b 56be 60ba 63bd cd51 7c3d
00000090: b0a0 0abe f04c 733e bf82 b03d 60b7 5c3c
000000a0: aabb 083d 2d05 2abb f911 44be 1908 603c
000000b0: 8f48 273d 5c25 823d a7f4 55bc fb4e 3b3c
000000c0: 37b5 b73d 398d 43bd 2283 863b faab 253e
000000d0: 314b 3cbd 6afc 303d b48a ddbc 7e37 41be
000000e0: 3580 14bb b29e d0bc 27f3 9f3d 538f 53bd
000000f0: 47f0 063e 6927 bc3d fcb9 3ebe 902f dbbd
00000100: 0bd6 12bc 9587 f63b 7a32 2dbd 56fc 39be
00000110: d149 26be 0e98 47bd 44ae 4f3d ae7a 883d
00000120: 35a3 4a3b 6a2c 63bd 3939 463d 5aac 4bbe
00000130: ab40 bd3d 7467 96bd 64f2 1cbe e52e 36bd
00000140: 5c75 bbbc 94f2 01bc d88d b8bd 65e9 ee3d
00000150: 0e84 3c3d 0c58 2cbe 6617 713d 831d 00bd
00000160: 29e8 133e 8740 4c3c 1c8e 643d 7fbe c63d
00000170: aae1 9c3d b836 063e 1225 ad3c 7558 0cbd
00000180: 236b cb3c e70c 62bd b51c 16bd 1003 b5bc
00000190: efe8 403c 3c98 36bd 67f2 1dbd c61b 833d
000001a0: 3ac6 013e af2c 2d3c b331 10bb 460c b2bd
000001b0: 27fc a0bc b5bf 3cbe 8491 00be 389a 053e
000001c0: 3a1e e33b ea5e 74bc 360f 41be 6937 3a3d
000001d0: d299 3e3d 65de 4dbb 44a3 20be bce6 e2bd
000001e0: 8058 6f3c 81df cb3d c7c9 c9bc c506 93be
000001f0: dda0 ccbc 3636 8b3d eff1 4bbd 7bdc 05be
00000200: 5efb 9a3d 8f46 98bd 1bd0 533d 7d00 1fbe
00000210: 3be9 423e 75ac 00be db6e 80bc 108a b63c
00000220: 7986 af3d 2612 70bd 2ba7 5cbd f6bd 1e3d
00000230: 4bf0 abbd a8b4 133e 4e75 8e3d dc89 003d
00000240: 9f87 28bc 3bcc 003e 5c89 9b3c 910e 2c3d
00000250: 6c53 943b f51e 3bbd 637c 6c3d 7dbe 4a3c
00000260: 1825 47bd 22d1 b1bd 2611 103e 8a6b 9a3d
00000270: e8d5 ae3c 851d 913d 15bb 25bd d184 183d
00000280: 3abd 65bb 557d 193e 0479 6d3d a538 12be
00000290: 8d08 bd3d 3e98 f8bc d899 56be 3daa 4dbe
000002a0: f1b9 033e acba 003d e512 cebd 912a 9ebd
000002b0: 1032 c9bb 2410 85bd e6f6 483d 386e aebd
000002c0: 4788 57bd c4e2 123e ec07 d5bd ae33 083d
000002d0: 1806 463e 5bb5 92bd f977 2cbe ef23 dfbe
000002e0: 298d 533d ac0b 9cbb db92 c23d 4f49 a23d
000002f0: fb0f ed3c ee8e 163e 931d b63d 56d9 b03c
00000300: eaa5 73bd 1c56 84bd 6c82 953d 2175 6abd
00000310: fcc2 a1bd 2384 5abd 777e e7bc 8fb4 e23c
00000320: cfb7 a7bc 2136 dabc 009f 553d 934b ea3c
00000330: 4e54 c7bb ca3e 98bd ed4a 6cbd 9251 8a3d
00000340: c702 3a3b ff83 59bd 335c b7bd 6a71 43be
00000350: 8601 00be 863c 14be 719a a23d d2b5 acbd
00000360: 7ae7 f03c 23a0 1fbe c749 b03d ee97 073d
00000370: 5420 0fbe 005e 70be 8bab bd3c 8a68 dd3c
00000380: 488d 35bd 830f 4fbe 58e9 86bd 45fe 203c
00000390: ca5a 32bd 67fa 3ebd de6b acbd aba2 103d
000003a0: 4212 8f3d 9f6a 113e 7e62 983d 6ea8 113e
000003b0: 304d b13d 446e 8c3d cbba b7be 8865 b63c
000003c0: d005 99bd 8b47 713b 0752 14be d0ce 2ebe
000003d0: 35b0 a83c 17df 60bd bdf8 17bd e85f 733d
000003e0: 058f 143c 380b 9a3c 668c 8a3d 2a0d fe3c
000003f0: 03fb 8e3d 141b bbbb 19c7 24be ef6a 073e
-0.045013126 -0.06663572 -0.04387734 0.02614561 0.16895929 -0.17266044 -0.017490042 0.005366838
-0.05974243 -0.054468427 -0.041214008 -0.036276426 0.057576947 0.12484772 -0.1625687 -0.06316122
-0.07731126 -0.050310336 -0.2024237 -0.14036119 -0.17176503 -0.026293734 0.045792866 -0.0271047
0.076918334 0.09347258 0.08898607 0.10546054 0.112784535 -0.009148519 0.11402916 0.09449635
0.030857306 -0.20927373 -0.055597663 0.06160145 -0.1353786 0.23759818 0.08618688 0.013471454
0.033382095 -0.0025943026 -0.19147481 0.013673806 0.04084068 0.06354782 -0.013058818 0.011432405
0.08970111 -0.047742102 0.0041049877 0.16178885 -0.045970146 0.04320947 -0.027043678 -0.18868825
-0.0022659425 -0.025466297 0.078100495 -0.051650357 0.13177596 0.091872044 -0.18625635 -0.10702431
-0.008962165 0.007523487 -0.042284466 -0.18162665 -0.16239096 -0.048728995 0.050703302 0.06664024
0.0030920033 -0.05546228 0.048394416 -0.19889966 0.0924085 -0.07343951 -0.1532684 -0.044478316
-0.02288311 -0.00793137 -0.090114295 0.1166561 0.046024375 -0.16830462 0.058860205 -0.031278145
0.14444031 0.012466556 0.05579959 0.09704303 0.076602295 0.13106811 0.02113584 -0.034264047
0.02483136 -0.055188086 -0.03664847 -0.022096187 0.011774286 -0.044578776 -0.03856125 0.06401782
0.12673274 0.010569735 -0.002200228 -0.08693747 -0.019651486 -0.18432505 -0.1255551 0.13047111
0.0069310935 -0.014915207 -0.18853459 0.045463 0.046533413 -0.0031413075 -0.15687281 -0.11079165
0.014608502 0.09954739 -0.024632348 -0.28716102 -0.02497905 0.06797449 -0.049791273 -0.13072388
0.07567476 -0.07435333 0.051712137 -0.1552753 0.19034283 -0.12565787 -0.01567786 0.02228263
0.085705705 -0.058611058 -0.05387036 0.03875538 -0.083954416 0.14424384 0.06955968 0.031381473
-0.010286241 0.12577908 0.018986396 0.04200608 0.004526546 -0.04568382 0.057735812 0.0123745175
-0.04861936 -0.08682467 0.14069042 0.07540043 0.021342233 0.070857085 -0.04046162 0.03723604
-0.0035055415 0.14989217 0.057976738 -0.1427942 0.092301466 -0.030346032 -0.20957124 -0.20084472
0.128639 0.031428024 -0.100621976 -0.07722963 -0.006140001 -0.06497219 0.049063586 -0.08517116
-0.0526202 0.14344317 -0.104019016 0.03325241 0.19338262 -0.07163497 -0.16842641 -0.43582103
0.051648293 -0.0047621336 0.09500667 0.07924139 0.028938284 0.14702961 0.088923596 0.021588009
-0.0594844 -0.064617366 0.073002666 -0.05724061 -0.078985184 -0.05334867 -0.028258545 0.027673988
-0.020473389 -0.026637139 0.052153587 0.02860049 -0.006083048 -0.07433851 -0.057688642 0.067538396
0.0028383003 -0.053104397 -0.089531325 -0.19086233 -0.12500581 -0.14476213 0.079396136 -0.08433117
0.029407252 -0.15588431 0.08607822 0.033103876 -0.13977176 -0.23473358 0.023153087 0.027027387
-0.04432419 -0.20220761 -0.065874755 0.009826248 -0.043543614 -0.04662552 -0.084190115 0.035311382
0.06985904 0.14200829 0.07440661 0.14224407 0.086573005 0.06856969 -0.358847 0.02226521
-0.07471812 0.0036816325 -0.14484416 -0.1707108 0.020591835 -0.054900255 -0.03710245 0.059417635
0.009067302 0.018804178 0.0676506 0.031012136 0.069814704 -0.005710015 -0.16091575 0.13224386

net.9.bias f4 [10]
00000000: 79b5 09bd edfb 43bd 0c83 1d3d 765a 98bd
00000010: f5b0 1a3d acab 71bd 37c4 30bd 93a3 c7bd
00000020: cf81 89bc 4dac 653b
-0.03362033 -0.047847677 0.038455054 -0.07439129 0.037766416 -0.05900161 -0.043155875 -0.09747996
-0.01678553 0.0035045326
