result/model_21_0.pth (torch, 307183 bytes, 8 tensors)

net.0.weight f4 [20, 1, 4, 4]
000000 c3 63 e4 3e 3d 51 04 3f 4c 57 3d 3e 36 27 af 3e
       0.44607362 0.5168646 0.18490332 0.34209603
000010 81 cf 22 3e 2c 43 00 3e 1d 18 a0 bd f4 a3 66 3e
       0.15899469 0.12525624 -0.07817099 0.2252348
000020 f0 f9 a6 3e 65 37 a7 bd a1 f9 a8 3e 6c 92 8d 3c
       0.32612562 -0.081648625 0.33002952 0.017281733
000030 0e 0c e0 3e 01 7a 95 3e 07 0e 15 3e 69 96 98 be
       0.43759197 0.29194644 0.14556132 -0.29802254
000040 cb 67 bd 3e 6f 94 7f 3e 73 a7 c8 3d ab af 8b 3e
       0.3699325 0.24958967 0.097975634 0.27282462
000050 b9 97 1a be f3 66 18 3c 21 2b 4a bd 29 d3 49 3e
       -0.1509694 0.009301889 -0.049357537 0.19709457
000060 aa a4 94 be d9 b2 50 be 35 29 5b be 3d d5 4d be
       -0.2903188 -0.20380725 -0.21402438 -0.20100875
000070 da 99 bc 3b 29 f9 92 be 42 fb 54 3d 4a d7 62 be
       0.005755645 -0.2870572 0.05199743 -0.22152439
000080 4e 11 51 3e ec a0 89 3d 4a 47 dc be c6 f2 a4 be
       0.20416757 0.067201465 -0.4302314 -0.3221647
000090 09 82 92 3d dc f8 35 3f c3 28 df 3e 83 be b3 be
       0.071537085 0.71082854 0.43585786 -0.35106286
0000a0 ff 65 75 be ac a2 25 3e 23 06 0f 3f 71 62 92 3e
       -0.2396469 0.16175336 0.5586874 0.2859073
0000b0 9c 46 58 be 7e cf a1 be 71 68 36 3e bf 8b 82 3e
       -0.21120685 -0.31603616 0.17813279 0.25497243
0000c0 8e 54 f0 3d 59 8b 74 be b7 27 d5 be 31 df 1d be
       0.117348775 -0.23881282 -0.41631863 -0.15417172
0000d0 a8 6c 0d be f8 86 93 3e 60 d9 3c 3e 43 9d 8e 3e
       -0.1381098 0.2881391 0.18442297 0.27854356
0000e0 46 1f 27 3e 4c 58 2a 3e 2d c2 ac 3e 51 73 8d bd
       0.16320524 0.16635245 0.33741894 -0.069067605
0000f0 56 cf 9d 3b 89 dd 7e be ba 5d 14 bd 2f a8 aa bd
       0.004815976 -0.24889196 -0.036222197 -0.0833286
000100 78 76 9c 3d ce 69 9f 3c 27 88 89 3e 0f 39 d5 bd
       0.076397836 0.019459631 0.26861688 -0.10411274
000110 16 b6 42 be 80 69 35 be df e6 3b 3e f9 e3 84 3d
       -0.19014773 -0.17716026 0.18349789 0.06488795
000120 4c 20 69 3e cc b4 7e be e4 04 b1 be 78 b8 8e be
       0.22766227 -0.24873656 -0.34574044 -0.27875113
000130 19 19 01 be 5d 37 1c 3e 0e 5a 0e 3e 73 cc 7c 3e
       -0.1260723 0.15255494 0.1390154 0.24687366
000140 09 47 e2 bd 7c f8 06 bd 10 83 3c 3e c9 e0 38 be
       -0.11048705 -0.032951817 0.18409371 -0.18054499
000150 97 b4 61 3e db fa e2 3d ac ea 0e 3e f7 31 ac be
       0.22041546 0.11083003 0.13956708 -0.3363187
000160 c4 c1 c6 3c a3 e5 84 3e 4e d6 c2 bd e1 a1 7d be
       0.024262317 0.2595645 -0.095135316 -0.24768783
000170 1f 2b a2 3e 29 03 99 3e 72 57 af be b7 41 99 be
       0.31673524 0.29885224 -0.34246403 -0.2993295
000180 5b 88 af 3e c9 0d 5e 3a ee 2f 38 bd 8b 7e 78 be
       0.34283718 0.0008470682 -0.044967584 -0.24267022
000190 d0 13 fd bd af 50 f2 bc 74 10 0b be 09 79 54 be
       -0.123572946 -0.029579489 -0.13580495 -0.20749296
0001a0 4d 53 5e bd d5 a5 91 be 4c 60 a1 be 2f 75 30 bd
       -0.05427866 -0.28446832 -0.3151878 -0.043080505
0001b0 ce a7 36 be 0b 4d 01 be 82 da 8f 3e 93 af 93 3e
       -0.1783745 -0.12627046 0.28096396 0.2884489
0001c0 d4 17 cc 3d 1c 17 4a be e9 ad 0b be d1 dc a0 bd
       0.09965482 -0.19735378 -0.1364056 -0.078546174
0001d0 0e 65 f2 3c 16 93 56 be 11 fa fd bd 92 6d 3f be
       0.029589202 -0.20954546 -0.12401212 -0.18694142
0001e0 8c 3f 86 bc 02 a3 fc bd ca 6d a5 bd 88 ab 5a be
       -0.016387723 -0.12335779 -0.08077581 -0.21354496
0001f0 26 34 0c be ad 3a 0d be 38 49 d2 bd 6c 85 37 be
       -0.13691768 -0.13791914 -0.102678716 -0.1792199
000200 4e 94 a2 3e 5d 87 98 3d ab 67 a1 3e 96 48 4e 3e
       0.31753772 0.074476935 0.31524405 0.20144877
000210 9d e7 5b be d8 a5 36 3e cb 40 85 bd 05 23 44 bd
       -0.21475072 0.17836702 -0.06506499 -0.04788496
000220 43 0b 94 be 28 ef a9 be 13 83 22 bd 47 c2 c0 bd
       -0.28914842 -0.33190274 -0.039675783 -0.094120555
000230 ce 80 82 3d 1f 9c 70 be c7 23 d6 3d 6a b2 46 be
       0.06372224 -0.23497055 0.10456043 -0.19403997
000240 05 86 df bd 53 21 d1 3d 0a 85 90 3e a9 4e d3 3e
       -0.10914234 0.10211434 0.282265 0.4127095
000250 09 a8 86 3e d2 bd d8 bd ca 48 55 3e 6d 01 6b be
       0.26300076 -0.1058308 0.20828548 -0.22949763
000260 7c 2c ad bd 39 5c 08 be af 7a 71 3e 21 2d e0 be
       -0.0845575 -0.1331643 0.23581956 -0.4378443
000270 7a f4 b2 bb 93 c5 3f 3d 44 9c bd bc 4f 97 9b be
       -0.005461273 0.04681928 -0.023145802 -0.30388877
000280 33 3f d2 3e b9 bc e4 3d 0c cb 60 3d 1c af 32 be
       0.41063842 0.111688085 0.05488114 -0.17449611
000290 7b 4f b3 3e 79 7b 2a 3c c3 c3 0d be 66 1d 89 3e
       0.35021576 0.010405415 -0.13844208 0.26780242
0002a0 b5 b4 86 3e fa ae 2a be 7a cb 85 be c2 66 d4 bd
       0.26309744 -0.16668311 -0.26131803 -0.10371162
0002b0 7d a6 52 3e 5f f8 e8 bd 08 91 85 be 1e 2b 40 be
       0.20571323 -0.11375498 -0.26087213 -0.18766448
0002c0 b3 58 74 be f3 5f af 3e 41 f5 7c 3e 12 ab ba be
       -0.23861961 0.3425289 0.24702932 -0.3645864
0002d0 e0 87 54 3c f8 f4 bc 3e 70 70 1e bc b0 a5 8e be
       0.012971848 0.36905646 -0.009670362 -0.27860785
0002e0 51 af 2d 3e 3a f7 98 3e 07 a3 4a bb f9 6d 69 be
       0.16961409 0.2987612 -0.0030919926 -0.22795857
0002f0 4a 92 56 bd ed 74 31 3e eb 41 94 bd 3d 94 49 be
       -0.052385606 0.1732976 -0.07239135 -0.19685455
000300 ca 3b 51 3e 7a d4 8b 3e d7 4f af 3b 71 a3 3a bd
       0.20432964 0.27310544 0.005350094 -0.045566026
000310 09 59 8c bb a7 c0 47 3d f0 8d 30 3e b8 21 3e 3e
       -0.0042830748 0.048767712 0.17241645 0.1856755
000320 42 cb 9d be 17 6f 10 be 06 28 44 3e 51 d3 0d 3e
       -0.30819136 -0.14104877 0.19155893 0.13850142
000330 3f 50 a5 bd ab a9 6a be fc ba 7d be 51 08 91 be
       -0.08071946 -0.22916286 -0.2477836 -0.28326657
000340 cc 47 50 be c1 40 99 3c 69 83 96 3e 91 f0 97 3e
       -0.20339888 0.018707635 0.29397133 0.29675725
000350 75 39 c3 be 35 1e 97 be 89 40 53 3c da 53 f3 3e
       -0.38129774 -0.29515234 0.012893804 0.4752491
000360 fb 8d 10 be 1c 2c 75 be 43 c9 fd 3d d5 78 ba 3d
       -0.14116661 -0.23942608 0.12391903 0.09105078
000370 54 91 94 be 9d 4d 1b 3d e0 2f aa bd 81 8c ee 3d
       -0.29017127 0.037915815 -0.08309913 0.11647893
000380 77 49 66 be 7c b2 65 3e 4f 30 8a 3e 7a 53 3c 3e
       -0.22488962 0.22431368 0.26989982 0.18391219
000390 9d 7a 1b be 08 87 26 be c8 0f a1 bd af 2d af 3e
       -0.15183492 -0.16262448 -0.07864338 0.3421454
0003a0 0f c9 21 3e a2 b0 8d 3e ce cf ee 3d 77 53 41 3d
       0.15799354 0.27673823 0.11660729 0.04719874
0003b0 e9 93 8a bc 08 d8 79 be 45 20 a1 be 56 fd 96 be
       -0.016916232 -0.24398816 -0.31469932 -0.29490155
0003c0 ea 4b 1b 3e 52 84 9d bd 97 9c cc bb 8f 8d e9 bd
       0.15165678 -0.07691254 -0.006244253 -0.11403953
0003d0 43 1d df bc b9 05 1f be f4 a9 2b be 53 9a 09 3d
       -0.027235633 -0.15529527 -0.1676405 0.03359444
0003e0 f7 89 a6 bd 31 23 ab 3d 29 2a 11 be d2 d9 4f be
       -0.081317835 0.083563216 -0.14176239 -0.20297936
0003f0 57 09 2b bc 53 03 f7 bd cf 8e a6 bd 90 ea 53 be
       -0.0104392385 -0.12061181 -0.08132707 -0.20694947

net.0.bias f4 [20]
000000 0e dc f9 3d 86 70 1a be 27 ec c5 3e e9 0f 17 3e
       0.12200175 -0.15081987 0.38656732 0.14752163
000010 53 9c dc bd c9 8d d2 bd 33 9d cd be 63 db b2 be
       -0.10772004 -0.102809496 -0.40158996 -0.34933004
000020 17 fd 1b be b3 22 d3 3d 94 6c 75 3e 39 4d 09 3e
       -0.15233265 0.10309353 0.239672 0.13408364
000030 0c e1 f5 bd 99 d1 09 be 43 37 0f 3e 0d 27 af be
       -0.12005815 -0.13458861 0.13985924 -0.3420948
000040 13 b8 39 3d 4d 93 04 3e 68 e3 c8 be 84 20 02 3e
       0.045341562 0.12946816 -0.39235997 0.12707716

net.3.weight f4 [40, 20, 5, 5]
000000 2c bc 66 3a 8d 89 34 bd 6f 0e 64 bd 0c 28 93 bd
       0.00088018435 -0.04407649 -0.055677827 -0.07185373
000010 3f b7 75 bd c8 13 66 3d bc e6 fa 3c e5 53 86 bd
       -0.05998921 0.05617121 0.0306276 -0.0655897
000020 33 7b 22 bd fd 53 c4 bd 61 81 02 3e 7d 21 c6 3c
       -0.039668273 -0.09586332 0.12744667 0.02418589
000030 ee 61 ae 3c 08 39 8f bd 4d fc ad be 7b d2 cb 3d
       0.02128693 -0.069933 -0.33981553 0.09952255
000040 3e 77 a6 3a ad 6f ca bd c4 2d 6d be 31 59 40 be
       0.0012700332 -0.09884582 -0.2316199 -0.18784024
000050 f3 c0 b9 ba c9 54 0a bd d5 ad 52 bd 8c af c2 bd
       -0.0014171883 -0.033772264 -0.05143531 -0.09506139
000060 bb 5e ff bd 2d 91 81 3a 4f 1f a9 bc 9b 39 f1 bd
       -0.1246924 0.0009885185 -0.020644812 -0.117785655
000070 74 73 bd bd 41 ed 3f bb 1f 16 8e 3c 86 2b 95 bd
       -0.092505366 -0.0029285701 0.017344533 -0.07283692
000080 ed 67 df bd 8c 6f d5 3c 66 92 9c 3c 1f 76 ad bd
       -0.10908494 0.026054166 0.019112777 -0.084697954
000090 e9 f8 ca bd 87 38 a1 3c 6d 3a 8a 3d f8 75 9b 3b
       -0.09910757 0.019680275 0.06749425 0.0047442876
0000a0 e0 0a 99 3c 4e 24 b3 bd 17 87 fd 3a bb 3a 7e 3d
       0.018681943 -0.08747159 0.0019342628 0.06206773
0000b0 d5 27 94 3c 94 b8 82 3d 4e 9e 45 bd 08 96 b9 bc
       0.0180854 0.06382862 -0.048246674 -0.022654548
0000c0 88 29 47 3d 39 cb 4c 3c 25 3c c6 3d 43 64 59 bd
       0.04862359 0.012499624 0.096794404 -0.053074133
0000d0 70 d7 c7 bd a3 2d 58 bd ed 25 4b 3d af f6 91 bd
       -0.09757888 -0.052777898 0.049596716 -0.07127129
0000e0 88 3a 50 be 96 d2 bf bd c8 99 22 3a 92 0d 19 bc
       -0.20334828 -0.09366338 0.0006202725 -0.009341614
0000f0 b8 96 76 bd 11 12 e5 bc d1 ff 6b 3c b7 15 c3 bb
       -0.06020233 -0.027962716 0.014404253 -0.0059535163
000100 3b 61 ba bc 78 7d 17 3d a1 70 bb 3d 3f d3 89 3d
       -0.022751441 0.03698489 0.09152342 0.06729745
000110 52 8e 05 bd a3 92 8e bc 97 41 c0 3d ed 55 36 3e
       -0.03260643 -0.017403906 0.0938751 0.17806216
000120 45 13 03 3e 2e e9 ac bb 5a 4d 1d bd e3 88 95 3d
       0.1280032 -0.0052768206 -0.038403846 0.073015
000130 05 e1 3b bc 22 bc 60 3d 8e 6c 92 3d 5e ef 30 3d
       -0.011467223 0.054866917 0.071496114 0.04319703
000140 b8 1c da 3b b8 47 a3 3d 33 ca 94 3d ee ba f6 3d
       0.0066562556 0.07972664 0.07265129 0.12047373
000150 ad 3f e8 3d a2 48 ca 3c a8 34 db bc 31 6f 52 3c
       0.1134027 0.024692837 -0.026758507 0.012843893
000160 bd 38 0a 3e 8e ea 9e 3d 54 47 ad bd 68 b0 6b 3d
       0.13498206 0.077595815 -0.084608704 0.05754128
000170 45 5a 0f 3e 52 a0 1f 3e db b5 e9 3c f1 50 60 bd
       0.13999279 0.15588501 0.028529098 -0.05476469
000180 21 58 31 3d 0c b7 cd 3d 03 7a 47 3d 58 11 00 bd
       0.043296937 0.10044679 0.048700344 -0.03126654
000190 fb 56 bb 3c 9c 76 1c 3e bc ad cb 3d 37 85 3d 3d
       0.022868624 0.15279621 0.099452466 0.04626962
0001a0 61 96 d0 3c 4b b5 91 3d e0 54 27 bd 8d b2 f8 3c
       0.025462331 0.07114657 -0.040852427 0.030358577
0001b0 82 16 d7 3d 99 1d 92 3d dc 13 0a be 33 86 e2 bd
       0.1050234 0.071345516 -0.13484138 -0.11060753
0001c0 a7 66 d6 3c 7e e5 2a 3e 1c 90 21 3e 41 48 ac bd
       0.026171995 0.16689107 0.1577763 -0.08412219
0001d0 54 a2 09 3d a7 70 6b 3e eb 20 0c 3e 8e 91 3c 3d
       0.033602074 0.22992192 0.13684432 0.04603725
0001e0 bb 85 24 3d e5 43 fa 3d 84 85 28 3e 57 97 7b 3d
       0.040166598 0.12219981 0.16457182 0.061423626
0001f0 1c 2e cf b9 3b e1 93 3d 87 a2 04 bc 4b 1f c6 bc
       -0.0003951647 0.07220694 -0.00809539 -0.024184844
000200 76 5a 87 bc 07 52 04 3d 21 ca c2 3d ca cc 1c 3e
       -0.016522627 0.03230479 0.09511209 0.15312496
000210 8a ef 34 3d 1f d7 98 bd 25 fb 26 3c f6 82 d4 3d
       0.044173755 -0.07462906 0.010191713 0.10376541
000220 ca 6f f2 3d 10 63 cf bd f9 fd ad bd 14 8b 75 3d
       0.11837728 -0.101263165 -0.08495707 0.05994709
000230 ab 16 a8 bc 10 f3 a4 bd 06 ce b8 bd 70 c6 78 bc
       -0.020518621 -0.08054173 -0.09023671 -0.01518403
000240 30 a2 e3 bb c8 18 98 bd 1a 8a 34 bd d5 8f 05 bd
       -0.0069468245 -0.07426602 -0.044077016 -0.032607872
000250 52 c4 00 3d d8 30 c3 3d 14 31 76 3c 78 b6 bd 3c
       0.031437226 0.095308006 0.01502635 0.023158297
000260 31 62 39 3d 64 39 42 bb a6 19 fe 3a 8f 86 91 3c
       0.04525966 -0.0029636258 0.0019386306 0.017764358
000270 21 61 6d 3c 79 5b 93 bb 28 7f a5 ba 50 ad 9a bb
       0.014488489 -0.0044969884 -0.0012626396 -0.0047203675
000280 22 3c 3c bd fa 80 01 be 67 e9 24 bd 9b 8d 1d 3d
       -0.045955785 -0.12646857 -0.040261652 0.038465124
000290 29 8e 79 3d 5a 27 10 bd a8 00 0b be c1 45 83 bd
       0.06092659 -0.03519378 -0.13574469 -0.06409789
0002a0 8e 37 ea 3a 16 fc b5 3c f7 15 99 bc 8a 94 c2 bd
       0.001786934 0.02221493 -0.018687231 -0.09500988
0002b0 51 1f 8e bc d4 fb e0 bc fb 22 55 ba 77 14 e6 bc
       -0.017348917 -0.027463831 -0.00081305177 -0.02808593
0002c0 b1 29 55 3d d1 16 3f bd c0 52 67 3c 61 a8 66 3c
       0.052041713 -0.04665262 0.01411885 0.014078231
0002d0 6e 70 74 bb f9 4e a5 bc 77 8f 7a bd 6a b9 cf 3c
       -0.0037298459 -0.020179259 -0.061171975 0.025356967
0002e0 17 48 74 3d e0 41 78 bd 7f e3 91 bd 2f 20 0c bd
       0.059639063 -0.0606097 -0.071234696 -0.03421038
0002f0 f2 32 21 3c 91 ae 3b 3d a1 08 dc 39 31 a7 97 bd
       0.009838806 0.045820776 0.000419681 -0.07404936
000300 16 9b 27 bd d3 3d 31 3d 56 43 63 3d fe 58 d8 3b
       -0.040919386 0.04327185 0.05548414 0.0066024056
000310 f8 9c 94 bd c4 96 01 bd ae 41 05 bd 08 ea 72 3d
       -0.07256502 -0.031637922 -0.03253334 0.05930522
000320 9a 2f 06 be 18 f7 17 be db 82 6a be f9 c1 ef bd
       -0.13104096 -0.14840353 -0.2290148 -0.11706919
000330 c0 cc e6 3c 19 05 b3 bd ed 99 14 be c9 12 66 bd
       0.028173804 -0.08741207 -0.14511843 -0.05617026
000340 c6 4a a9 3d 03 08 ca 3d 2e 26 40 be 55 3d 1f be
       0.08266215 0.09864809 -0.18764564 -0.1555074
000350 19 ba b9 bc 2c 42 dc 3d 40 67 c7 3d fd e8 fc bd
       -0.022671746 0.10754809 0.0973649 -0.123491265
000360 26 4e 58 bd 0a ad 8b 3d 36 ef ec 3d 96 f1 c6 3d
       -0.052808903 0.06820114 0.11569063 0.097140476
000370 8d 26 de 3c df e0 77 3d 95 23 96 3d 80 35 42 3d
       0.027117992 0.06051719 0.073310055 0.047414303
000380 8a 86 8d 39 7b 1d 3e be f1 12 e9 bd 9e 40 20 3d
       0.00026993855 -0.18565933 -0.11380566 0.039124124
000390 95 73 5c bd 1a a3 17 3c e9 67 68 bc 56 9c a1 3d
       -0.053821165 0.009255195 -0.01418493 0.07891147
0003a0 b5 3d 51 3d c3 41 c2 3d 69 71 ec 3d c8 70 88 bc
       0.05108424 0.09485199 0.11545069 -0.01665534
0003b0 b0 67 88 3d 87 66 a1 3d 30 75 d4 3c e0 8e f0 3c
       0.06660402 0.07880884 0.025934786 0.029365003
0003c0 d5 f1 6a bd 77 22 a2 bd 22 c2 7c 3d 00 71 bc 3d
       -0.057359535 -0.0791673 0.061708577 0.092012405
0003d0 04 56 ff bb d5 08 6b bd 8d fd 39 bd 51 85 39 3d
       -0.0077922363 -0.05738147 -0.04540782 0.045293156
0003e0 74 18 08 3d 7a 10 93 b9 55 d0 35 3d b0 b9 2c bc
       0.033226445 -0.000280503 0.044388134 -0.010542318
0003f0 30 98 94 bc f6 3d 94 3c 9e 61 0a bd 4d d7 57 bd
       -0.018138975 0.018095952 -0.0337845 -0.05269556

net.3.bias f4 [40]
000000 7a 9b 4b 3d 5f c6 0b 3c 7c 52 9b 3c 31 68 f1 bc
       0.04970882 0.008531182 0.01896023 -0.029468628
000010 62 b4 02 bd 70 6c 0e 3d d1 82 94 bc 89 5d be 3c
       -0.031910308 0.034771383 -0.018128784 0.02323796
000020 ce 5d 15 bc c9 3f ca bb 8d 87 a0 3c 50 88 2e 3d
       -0.009116603 -0.0061721546 0.019595886 0.042610466
000030 bd d0 3b bd a4 d7 2f 3c dc bf c0 ba 5e 75 c5 bc
       -0.045853365 0.010732565 -0.0014705616 -0.024103817
000040 06 4e 3f bb f2 19 b8 bb f1 ea 2c bd 86 3a 72 bb
       -0.0029190793 -0.0056183273 -0.042216245 -0.0036961152
000050 4b b1 29 3d da 4e cf bc 57 90 10 3a 74 43 91 3d
       0.041428845 -0.025306154 0.00055146724 0.07092944
000060 44 93 50 3a 8b 47 f1 bc 8b 13 b0 bc 42 40 bf bc
       0.00079565146 -0.02945306 -0.021493694 -0.02334607
000070 b3 d9 69 3d a7 89 1c bb be 73 8e 3c 05 ef 09 3d
       0.05709238 -0.0023885758 0.017389175 0.033675212
000080 91 3f 69 bc 27 a2 14 3d 70 5a b7 3d ee ed cd 3b
       -0.014236347 0.036287453 0.089527965 0.006284467
000090 8a 99 8f 3b cc f9 49 bd 5d 36 e2 3c 80 72 ba bc
       0.004382317 -0.04931049 0.027613813 -0.022759676

net.7.weight f4 [150, 360]
000000 be 21 58 bd 38 c9 95 3c 87 a9 b4 bb 27 60 55 bb
       -0.052766554 0.018284425 -0.0055133733 -0.0032558532
000010 e5 64 1b 3d 64 9f ae bc 4f ec c5 3d 50 4b 7b 3d
       0.037938017 -0.021316238 0.09664213 0.06135112
000020 35 8e 33 bc 79 a5 b9 3d f9 05 94 3d 86 3f 48 3d
       -0.010959198 0.090647645 0.07227702 0.048888706
000030 a3 fb 6e 3d 8b 52 78 bc 35 c9 80 3d f8 cf 4d 3d
       0.05834545 -0.0151563985 0.06288377 0.050247163
000040 df 02 05 3d e6 3a f2 3d 28 58 bc 3d 53 e4 1c bd
       0.03247344 0.1182764 0.09196502 -0.038303684
000050 a3 d9 3e bd f7 60 e3 bc d5 f5 7e bd 78 43 9c 3c
       -0.046594273 -0.027756197 -0.062246162 0.01907514
000060 db 5b e8 ba 41 a8 bf 3d 1e 60 1c 3d 00 e0 11 bc
       -0.001772757 0.09358264 0.038177602 -0.008903503
000070 31 b4 1d 3d e3 d1 c9 bc 86 6b 0d 3c a0 6a 55 bd
       0.038501922 -0.024636215 0.008631593 -0.05210364
000080 2b da 06 3d fc 59 54 bd 3c c1 d3 3c 98 d0 29 bc
       0.032922905 -0.05184363 0.025848977 -0.010364674
000090 22 a8 fb 3c 47 17 f2 3c bd 3e 68 ba b0 6c 04 3d
       0.03071982 0.029552115 -0.00088594464 0.032330215
0000a0 c3 19 26 3d 0b 6d 57 3d 09 62 7d 3d e4 4d ba 3c
       0.040551912 0.052594226 0.06186107 0.02274222
0000b0 63 15 31 bb 86 0f 05 bc ec cb 15 bd 99 af 5c bc
       -0.0027020804 -0.008121377 -0.03657143 -0.0134696
0000c0 d5 71 20 bb 5c fc 71 3d ce 40 4a 3d 71 35 83 bd
       -0.0024481912 0.05907856 0.04937821 -0.064066775
0000d0 8e a3 df bd 00 be ba bd c4 be 92 bc 18 70 ce bc
       -0.109198675 -0.09118271 -0.01791323 -0.025199935
0000e0 32 0e 5f 3d d6 56 72 3d ba 2b e3 3b f7 fe 3e 3d
       0.054456897 0.059164844 0.006932703 0.046629872
0000f0 c2 7f 2e 3d bc 68 ac bc 03 c8 0a bd 38 e4 be bd
       0.042602308 -0.021046035 -0.033882152 -0.09320873
000100 4e 49 95 bd ad 22 cd bb a3 86 a4 3c 53 c6 ac 3c
       -0.072893724 -0.006260237 0.020083731 0.021090662
000110 37 53 8d 3d c3 c1 ac 3b 32 85 9b 3c 14 b4 9b bd
       0.069006376 0.0052721216 0.01898441 -0.076027066
000120 08 28 3a bc e8 c1 02 be 81 9e 85 bd bf dd b8 3b
       -0.011362083 -0.12769282 -0.06524373 0.0056416686
000130 77 8f d9 bc 1e 9b d9 bb 7c 90 a3 bc a1 fa e4 bd
       -0.026557667 -0.006640806 -0.019966356 -0.11180616
000140 02 55 c9 bd 92 97 cd 3d 24 65 4e 3d 2a e2 2f 3d
       -0.09830667 0.10038675 0.050389424 0.042940296
000150 4e f9 df 3b fb 00 c3 3d dd b1 ab 3c 66 0e 1a 3d
       0.0068351394 0.095216714 0.020958835 0.037611388
000160 75 a7 b0 3d d5 10 f8 3d e5 8b 7e bc ba 90 65 bd
       0.0862569 0.121125855 -0.015536283 -0.056046225
000170 e4 7d ea 3c 85 f5 28 3d f5 13 63 bd 91 53 93 3c
       0.028624482 0.04124977 -0.055438954 0.017984184
000180 78 79 32 3d 99 30 b6 bc 21 98 7c bd 09 f1 81 bd
       0.043572873 -0.02223997 -0.06166852 -0.06344802
000190 0a c5 38 3c 25 12 59 3d f7 18 12 bc 1b b2 2b bd
       0.0112774465 0.05299582 -0.008917085 -0.0419179
0001a0 82 8e 57 3d dc 60 8b bd a2 a9 b7 bd f0 4f 8f bb
       0.05262614 -0.06805584 -0.08967902 -0.004373543
0001b0 1e 11 2b bc 4c 82 23 bd 4e ed 27 3c 89 92 bd 3c
       -0.010441093 -0.039919183 0.010249449 0.023141162
0001c0 4a e2 84 3d 3f 34 07 3c a7 5e 50 3d b3 05 2b 3d
       0.06488474 0.0082522025 0.050871518 0.041753482
0001d0 a4 a5 66 3d a4 ec c7 3c 80 c0 55 bc 6c 96 b9 3c
       0.05631031 0.024404831 -0.013046384 0.022654735
0001e0 44 66 c2 3d d8 14 16 bd fb 23 d2 bb 00 6b 82 bd
       0.09492162 -0.036640972 -0.0064129806 -0.06368065
0001f0 c6 3b ae bd 2d 8c 4e be a7 d1 97 bb 88 9c 2b 3c
       -0.08507495 -0.2017066 -0.004633147 0.010474332
000200 87 17 9a 3d aa 2e f1 3c 1b 78 e0 bc db fa 24 3d
       0.07524019 0.029441196 -0.02740102 0.040278297
000210 e1 00 12 3c 6d 99 a5 3d fe 30 00 3d e3 bf 38 39
       0.008911342 0.08085904 0.031296723 0.00017619091
000220 e1 fd 3c 3d a6 0d 9f 3d 77 6c 9c 3d d4 b0 1f bc
       0.046140555 0.07766275 0.076378755 -0.009746749
000230 46 ac d2 3c 17 fd a8 3d 58 1f 73 bd f7 97 fd 3c
       0.025716912 0.08251398 -0.059356064 0.030956252
000240 f0 32 4e bd c4 8f 21 bc 57 08 41 3c 90 3a 00 3c
       -0.050341547 -0.009860937 0.0117817735 0.007826462
000250 56 96 7f 3b 49 12 76 3d 5d eb 3d bd 38 b6 bb bd
       0.003899952 0.06007603 -0.046367038 -0.09165615
000260 bc ef 96 3b 25 f9 89 3d eb 47 bb 3d 23 34 d5 3d
       0.0046062153 0.06736974 0.09144577 0.10410335
000270 11 bc 27 3b e1 76 d6 bc 53 62 d8 bc 85 21 dc bd
       0.0025594274 -0.026179733 -0.026414072 -0.10748581
000280 79 78 c2 bd 7a 19 96 bc ff ea ab 3c 03 c8 74 bc
       -0.094956346 -0.018322695 0.020986078 -0.014940265
000290 87 58 1f 3c cb 84 c5 bc 19 35 a6 3c 6b 8d 17 bd
       0.009725696 -0.024111172 0.02028899 -0.0370001
0002a0 f0 c8 b0 bc 60 0c ab 3b 8c 65 2d 3d 18 c3 7d bd
       -0.02158019 0.005219981 0.04233317 -0.061953634
0002b0 3f 39 12 bd bc 01 99 bd 40 57 75 39 13 90 63 bc
       -0.035699125 -0.07471034 0.00023397524 -0.01388933
0002c0 f7 3b 6b bd 24 75 b2 3c 75 e7 8e bd 8c 63 8a bc
       -0.057430234 0.021784373 -0.06977741 -0.01689317
0002d0 7f 15 99 3d 63 00 e0 3c d9 05 9e 3d a1 45 97 3d
       0.07474803 0.027343934 0.07715959 0.073863275
0002e0 f3 e8 d1 3d 85 28 9c 3d 07 1e b4 bc 4e dc c7 3d
       0.1024951 0.07624916 -0.021986974 0.09758817
0002f0 25 a6 8b 3d 74 63 ec bc c9 c4 f7 bc 5f 4a 90 3c
       0.06818799 -0.028856017 -0.030245202 0.017613588
000300 a0 ba 6b bc 00 5e c8 3c a3 c6 56 bd 2a 7b 11 3c
       -0.014387757 0.024458885 -0.05243553 0.008879462
000310 15 d7 ac bc f6 95 c5 3c b5 ad 61 3d b7 c0 27 bc
       -0.021098653 0.024119359 0.0550973 -0.010238818
000320 cd 11 96 3d 92 0d 0d 3c 11 ab 44 3d 6a 6d 81 bd
       0.07327614 0.008609192 0.048014704 -0.06319697
000330 5d 10 2f be 5e 30 8b bc c4 6d ec bc d9 19 ce 3c
       -0.17096086 -0.016990837 -0.028860934 0.02515881
000340 65 d0 36 3d a8 62 6a bd fa 64 55 3c a7 e8 17 bc
       0.044632334 -0.057222992 0.013024563 -0.009271777
000350 c9 ba a5 3d b7 17 ba 3b 68 1c e3 3b 81 77 0d bd
       0.08092267 0.0056790966 0.0069308765 -0.034537796
000360 b3 6b 81 bb 16 0b 19 bd f3 18 7e 3d a4 e9 1e bc
       -0.0039496063 -0.037364088 0.062035512 -0.009699259
000370 df e4 97 bc f7 01 23 3d 12 d5 3d 3c a1 82 de 3a
       -0.018541751 0.039796796 0.011586444 0.0016976186
000380 09 34 eb bc 84 cd de bc 64 50 32 bd 85 77 8a 3d
       -0.028711336 -0.027197607 -0.043533698 0.06761078
000390 4b 20 15 3b 87 8c 84 3c 78 b6 97 3d 00 67 be 3d
       0.0022754844 0.01618029 0.0740785 0.092969894
0003a0 3c b1 52 3d 6d 63 12 3d c7 2b 9a bd 0e a7 66 bd
       0.051438555 0.03573935 -0.07527881 -0.05631166
0003b0 c6 57 85 3c 05 b3 d9 bc ff 6f 11 bd 32 fa a1 3d
       0.016277205 -0.026574621 -0.0355072 0.07909049
0003c0 42 c1 84 3c 06 af 77 bd 35 f0 f7 3c 32 5a 78 bd
       0.016205434 -0.06046965 0.030265907 -0.060632892
0003d0 1e 10 d4 bd fa 8d e6 3c 2f 9e e4 3c 11 c4 f1 3c
       -0.103546366 0.028143872 0.027907459 0.029512437
0003e0 aa d5 1d 3c 04 3f ce 3c 65 34 90 bd 6e d9 a8 bd
       0.009633461 0.025176533 -0.070412435 -0.082445964
0003f0 b4 de ec 3b 9c 73 45 bd e5 d0 26 3c b2 06 ca bd
       0.0072286967 -0.048205957 0.01018164 -0.09864558

net.7.bias f4 [150]
000000 04 b0 ae 3d d8 86 17 3d e6 7d e3 3c 60 4c 82 3c
       0.08529666 0.03699383 0.027769994 0.015905559
000010 48 5f a0 3c 15 0b 15 bc 3f c8 87 bd c1 3d 0d bc
       0.019576684 -0.00909688 -0.06629991 -0.00862068
000020 b5 c6 0b 3d 5b ab 18 3d f1 46 36 bc 9a 59 a1 bc
       0.03412505 0.037272792 -0.011125312 -0.019696046
000030 64 09 65 3c c6 cd 51 3d 58 20 09 3b 43 d7 3e bd
       0.01397929 0.05122163 0.002092382 -0.04659201
000040 ed 45 89 3d e1 1e 46 3d c1 34 45 bc d9 c7 af ba
       0.067027904 0.048369292 -0.012036503 -0.0013411
000050 6d 09 f8 3c 34 83 9c bc 89 eb 77 3d 64 19 52 bd
       0.030277932 -0.019105531 0.06052736 -0.051293746
000060 b2 6a a7 3c bf d4 46 bd 78 f9 11 3d 0e 09 25 3d
       0.020436618 -0.048542734 0.035638303 0.04029184
000070 38 a8 1c 3d c5 5b a9 3c f1 6b 9a 3c f4 33 6b 3d
       0.038246363 0.020673642 0.018850299 0.057422593
000080 10 05 69 3c 0e 0a 00 3d b6 34 42 3a ec 4e 85 bd
       0.014222398 0.03125959 0.0007408367 -0.06509194
000090 8e af 51 3d 4d 3d 65 3c fb 8a 69 bc be 5a 9e bc
       0.051192813 0.013991666 -0.014254327 -0.019330379
0000a0 42 1c 8d 3c 8c 6c 7c bd 4e 31 88 3d 5c 31 f9 3c
       0.017225388 -0.061626956 0.06650029 0.030419044
0000b0 64 cb 03 bc 01 48 18 3a 96 24 09 3d 20 ee 28 bd
       -0.008044098 0.0005809069 0.033482157 -0.04124272
0000c0 3e ca 39 3d 8c d8 5f bd 9d 04 92 bd c5 c4 24 3d
       0.04535889 -0.054649875 -0.07129786 0.040226717
0000d0 68 58 6f 3c dc 37 aa bb 1c 4e 9b 3d 57 ac 0f 3d
       0.01460848 -0.0051946472 0.075832576 0.035076465
0000e0 6f 03 e9 bb fe 11 71 bd 81 7c 8b bc 29 95 33 bd
       -0.007111005 -0.05885505 -0.017027142 -0.043843422
0000f0 23 3f 2b 3d 8c 04 3b bc 3b 7e 57 3d 94 13 bb 3c
       0.04180826 -0.011414658 0.052610617 0.022836484
000100 d6 ab 80 bd 0a e1 96 3d cb b5 4d bb 93 19 a1 bc
       -0.06282775 0.073671415 -0.0031388875 -0.019665515
000110 a5 9f ae 3b fa b1 44 bd f2 42 48 3c 1e 4e 5a 3d
       0.0053290897 -0.048021294 0.012222992 0.053297155
000120 25 ed de 3c 45 6e 13 3d 08 d6 8b bd aa a7 f8 bc
       0.027212689 0.035993833 -0.068279326 -0.030353386
000130 eb e0 34 bd 3a 41 85 3d 13 9c c0 3c ff d9 69 bc
       -0.04415981 0.065065816 0.023511922 -0.014273166
000140 f1 b6 8f 3c f5 d3 3a bd 1e f2 27 bd c3 4f 3e bd
       0.017543288 -0.045612294 -0.041002385 -0.046462785
000150 a9 61 25 bd eb 76 b9 3c b0 89 fb 3a c9 08 24 3d
       -0.04037634 0.022639712 0.0019190814 0.04004744
000160 bb da 43 bd 00 9e 9a 3d 41 a0 23 3d 14 37 85 3d
       -0.04781602 0.07549667 0.039947752 0.06504646
000170 78 a1 56 3c e5 45 df 39 dd 84 5d 3d a9 8d d6 3c
       0.013100021 0.0004258595 0.054081786 0.026190596
000180 4a 51 90 bc cc fa a3 bd df 4e 06 3d 10 17 1d bb
       -0.017616887 -0.0800682 0.03279006 -0.0023970045
000190 23 33 a3 3c 54 3f 08 3c b2 61 0b 3c 31 a9 7f bd
       0.019921845 0.00831588 0.008507179 -0.062417213
0001a0 1f 74 9a 3d 14 7c df bc bc 99 d7 3c 3e c2 17 bd
       0.075416796 -0.027280845 0.026318423 -0.03705048
0001b0 14 39 82 3d fd a1 24 3d b2 46 b1 3d 83 4c 47 3d
       0.06358543 0.040193547 0.08656062 0.04865695
0001c0 ac ec 25 3d e7 77 84 bd 4f e5 86 3d a2 f8 ff 3c
       0.04050891 -0.06468182 0.06586706 0.031246487
0001d0 d2 1e b3 3b 5b fc 58 bd 73 83 f8 bc 7c d8 d6 3c
       0.0054663206 -0.05297504 -0.030336117 0.026226275
0001e0 d9 91 32 3c c7 7c 5c 3d 4a ac 4b bc cf db b2 3c
       0.010899031 0.053829934 -0.012431214 0.021833329
0001f0 e2 1d 15 3c 19 48 0b bd 18 f6 bf bb 33 f6 be ba
       0.009101363 -0.034004305 -0.005858194 -0.0014569223
000200 c5 42 9a bb e0 73 9f 3a 83 89 12 3c d2 bd 5e 3d
       -0.0047076666 0.0012165271 0.008943918 0.054380246
000210 83 5c c8 bb 63 9d 0a 3d f6 25 4d bc ed a7 89 3c
       -0.006114544 0.033841502 -0.012521258 0.016803706
000220 1e 6e 9f 3d cb 6c 3c bd 6b c9 27 3c 7d 03 f8 bc
       0.07784675 -0.04600219 0.010240893 -0.0302751
000230 69 51 94 ba 54 13 60 bd f0 ef ae bc 55 93 4e bc
       -0.0011315766 -0.054705933 -0.021354645 -0.012608369
000240 9a b2 a8 3c 0b 92 a1 bc 45 d9 e6 bc 0b 5b bf 3b
       0.020592976 -0.019722959 -0.028179774 0.0058397106
000250 75 56 0c bd 92 10 3f bd
       -0.03426214 -0.046646662

net.9.weight f4 [10, 150]
000000 04 e4 e0 bd b3 f9 35 be 29 56 38 be 25 fb 29 3c
       -0.109809905 -0.17771034 -0.18001617 0.010374819
000010 a1 c0 02 3e 60 53 f9 bd ab 20 a1 bd 8f 27 99 3c
       0.12768795 -0.12174106 -0.07867559 0.01869562
000020 af 40 6d bd 98 4f 4f be 23 fe 2e bc dd e0 9b 3c
       -0.057923015 -0.20245206 -0.010680708 0.019028122
000030 80 26 1d 3d 8b 0a e3 3d 4b 0d 2b be ab b5 b2 bd
       0.038366795 0.11085995 -0.1670429 -0.08726057
000040 35 7f 97 bd 60 f5 32 3d 23 a2 57 be 5e 6a ed bd
       -0.0739731 0.04369104 -0.21057944 -0.115925536
000050 9c 62 02 be d7 2d c2 bc 6f d7 a2 3d 7a 80 c3 bc
       -0.12732929 -0.023703499 0.07951247 -0.023864973
000060 3f c0 dd 3d 1c fa 44 3d 55 69 95 3d 94 ab bd 3d
       0.10827684 0.048090085 0.07295481 0.092612416
000070 08 16 c5 3d 90 4e 15 bd f1 1d 8c 3d 17 4c cf 3d
       0.09623343 -0.036451876 0.06841648 0.10121935
000080 50 bc fb 3c c3 5e 36 bd 08 40 65 bd b8 d8 a8 3d
       0.030729443 -0.044523966 -0.055969268 0.08244461
000090 65 fd 13 be 34 1b 53 3e ab a0 17 3e 4a 2a 05 3d
       -0.14452131 0.20615846 0.14807384 0.032511033
0000a0 8c d9 57 bc 50 7c d7 3b 32 ae 2b be 14 ff 87 3d
       -0.013174426 0.0065760985 -0.16765669 0.06640449
0000b0 3e ad 1c 3d 2d 78 c8 3d 3f 56 11 bc 18 84 2e bc
       0.038251154 0.09788547 -0.00887066 -0.010651611
0000c0 7a 3c a5 3d 9e 0c a2 3d a3 cb bf bc 56 0d 12 3e
       0.080681756 0.07912563 -0.023412531 0.142629
0000d0 52 43 95 bd 89 d8 5c 3d d9 ed c5 bc 05 1c 58 be
       -0.07288231 0.05391744 -0.024161266 -0.21104439
0000e0 d0 66 05 bd 3a 4b 13 bc 0a 9e b2 3d 0b a4 48 bd
       -0.032568753 -0.008990103 0.0872155 -0.04898457
0000f0 2e b9 e9 3d 89 c8 97 3d a6 aa 15 be 4f d6 8f bd
       0.11412273 0.07411296 -0.14615878 -0.07023298
000100 eb 60 be 3b 69 aa 83 bd 27 4f 2d bd e6 3c 2a be
       0.0058098934 -0.064289875 -0.042311814 -0.16624793
000110 93 13 bc bd f4 01 48 bd 3b 88 23 3d da 93 eb bc
       -0.09183421 -0.048829988 0.03992484 -0.028757025
000120 b4 19 6d 3b a3 3c a5 bd 24 c5 63 3d 86 61 0e be
       0.003617865 -0.08068206 0.05560793 -0.1390439
000130 0f 9e ec ba cd 46 68 be 76 8e 00 be e0 f7 9d bc
       -0.0018052476 -0.22683258 -0.12554345 -0.019283235
000140 33 ff ac bc 04 47 62 3d e5 24 b5 bd 17 12 d5 3d
       -0.021117782 0.055243507 -0.08844928 0.10403841
000150 77 d6 03 3e 22 05 eb bd 30 cc 49 bd 2a 55 02 bd
       0.1287478 -0.114755884 -0.049266994 -0.0318195
000160 b4 72 04 3e b0 8a 3f bd d7 3f 4d 3d 9e b9 b6 3d
       0.12934381 -0.046763122 0.05010971 0.089221224
000170 ba 6b 34 3d 1a cc ec 3d 1e 86 ac bb 22 99 33 bd
       0.04404805 0.11562367 -0.0052650115 -0.04384721
000180 f2 02 dd 3b 6e 3a c5 bd a9 b0 04 be 24 fe b4 bc
       0.006744736 -0.09630285 -0.12958016 -0.02209384
000190 2b 83 1e 3d d8 20 14 be 6d ea ca bc 25 06 3b 3e
       0.03869931 -0.14465654 -0.024769986 0.18264063
0001a0 d1 21 d6 3d 31 6e 2f 3c 39 65 4a 3c 7c d7 8c 3d
       0.10455669 0.010707424 0.012353235 0.06877038
0001b0 53 81 d0 bc f0 58 1b be 25 e6 38 be f8 ca bf 3d
       -0.025452292 -0.15170646 -0.18056543 0.09364885
0001c0 75 e6 54 bd 0c f9 79 bc a5 5b 0c be 13 82 02 3d
       -0.051977593 -0.015257131 -0.13706835 0.03186233
0001d0 f1 4d 07 3e 6f b5 20 bd d4 c5 07 be bf 39 ab bd
       0.13213326 -0.03923553 -0.13259059 -0.083606236
0001e0 90 31 74 bc c2 74 80 3d a5 21 02 bc f3 99 39 be
       -0.014904395 0.0627227 -0.007942592 -0.18125133
0001f0 64 30 af bd 11 f2 0d 3d 18 ca a2 bd 7a d5 af bd
       -0.08554152 0.03465468 -0.079487026 -0.08585639
000200 92 9b 0d 3e f9 31 96 bd 56 43 91 3d 5f 66 21 be
       0.13828877 -0.0733375 0.070929214 -0.15761708
000210 dc 41 1e 3e 5d ba 20 bd 14 0d 80 bc 8f 05 7c 3c
       0.15454811 -0.03924023 -0.015631236 0.015382185
000220 28 0c a6 3d fd f8 71 bc 9a 95 69 3e 01 97 25 3d
       0.08107787 -0.014768836 0.22810975 0.04042721
000230 4c 36 90 bd 23 d3 85 3d 08 ac 94 3d 00 6a 03 3d
       -0.07041606 0.06534412 0.07259375 0.03208351
000240 25 b8 9a bb cc ec dc 3d f8 7f 23 3d 05 2c 10 3d
       -0.004721659 0.10787353 0.039916962 0.03519823
000250 da 33 1b bd b7 d7 a7 bc ea d2 ec 3d f6 73 25 3c
       -0.037891246 -0.020488603 0.11563666 0.010098448
000260 ee 55 0c 3d c1 ee 9c bd 7e cc 37 3e 3a 83 ba 3d
       0.034261636 -0.07662726 0.17949101 0.09107061
000270 75 ab 0f 3c 1c 62 8f 3d c3 8a eb bc 42 ba 8e 3d
       0.008768906 0.07001135 -0.02875269 0.069691196
000280 bd d2 10 bd 37 b1 32 3e bf 84 b8 3c 4b 90 01 be
       -0.035357226 0.17450415 0.022524236 -0.126527
000290 93 1b a2 3d c1 90 b5 bc 00 25 02 be 6f 82 70 be
       0.079154156 -0.02216375 -0.12709427 -0.23487256
0002a0 6a 9d 10 3e 04 9d e4 3c 67 a2 b7 bd 55 c3 b6 bd
       0.14122549 0.027906902 -0.08966523 -0.089239754
0002b0 d1 eb a8 bb f9 0b 67 bd 3e 8a 85 3d de 85 00 bd
       -0.0051550646 -0.056407902 0.06520508 -0.031377666
0002c0 39 8f 86 bd f6 17 0c 3e cc 5b a7 bd fa 34 02 bc
       -0.06570286 0.13681015 -0.08171806 -0.007947201
0002d0 c1 a8 1c 3e 4a 14 83 bd f0 8a 1a be f3 63 1a bd
       0.1529875 -0.06400354 -0.15092063 -0.037692975
0002e0 9a 48 c8 3c be 8f 8c ba 2a 18 98 3d be 89 c9 3d
       0.024448682 -0.0010723991 0.07426484 0.09840725
0002f0 8d 56 2c 3d cf a5 22 3e 56 ad a3 3d 8b ae 84 3e
       0.04207473 0.15883563 0.079920456 0.25914416
000300 f5 e2 3e bd 5f 45 36 be e8 ba 85 3d a2 16 27 be
       -0.04660316 -0.177999 0.0652979 -0.16317227
000310 5a bf b5 bd bf 8d e1 bd f5 64 19 bd 77 68 51 3e
       -0.08874388 -0.11013364 -0.037449796 0.20450006
000320 10 91 72 bd a0 64 4e 3c 3e 63 27 3d 12 33 59 3d
       -0.059220374 0.012597233 0.04086613 0.05302722
000330 62 52 80 bd ce db 1b bd 84 98 9d bd ca 35 0a 3d
       -0.06265713 -0.03805142 -0.07695106 0.033742703
000340 58 27 2e 3d 22 31 22 bd 85 03 f4 bd f7 ce 50 be
       0.04251799 -0.039597638 -0.11914734 -0.20391451
000350 93 de 98 bd 0b d2 ad bd 88 02 a3 3d 0e e7 21 be
       -0.07464328 -0.08487328 0.07959467 -0.15810797
000360 27 55 f0 3c 4e f7 1a be 24 54 8e 3d 9a d6 04 3d
       0.029337479 -0.15133402 0.06949642 0.032431222
000370 52 09 88 bd 18 08 e3 bd d0 3b 5f 3c ff e3 e9 3c
       -0.06642403 -0.11085528 0.0136251 0.0285511
000380 bd b2 2d bd 22 64 5b be 49 a6 5e bd 6a 5f 2c bc
       -0.042406786 -0.21424916 -0.0543578 -0.010520795
000390 13 61 38 bd f4 34 0e bd 5a 04 da bd 72 e4 58 3d
       -0.045014452 -0.03471847 -0.10645361 0.052952237
0003a0 f8 8c a4 3d 24 86 0d 3e de 2c 95 3e fe d6 1f 3e
       0.080347 0.13820702 0.29135793 0.15609357
0003b0 ac cb b4 3d 71 82 8e 3d 6a a2 83 be 6b ba 53 3c
       0.0882791 0.069584735 -0.2570985 0.0129228635
0003c0 cb 24 96 bd 36 9e 9a 3a 03 0b ae bd 85 4e 21 be
       -0.073312365 0.0011796418 -0.08498194 -0.15752609
0003d0 76 b2 72 bd cc 02 1e bd 8e 64 01 bd 8f fd af 3d
       -0.059252225 -0.038576886 -0.031590037 0.08593284
0003e0 ef 44 a5 3c 6b 0f 9a 3c 3b 3d f5 3d 15 02 29 3c
       0.020174472 0.01880618 0.119745694 0.010315438
0003f0 38 6e 17 3d db f5 07 be 74 f4 2a be b8 2a 2a bd
       0.036970347 -0.1327738 -0.16694814 -0.041544646

net.9.bias f4 [10]
000000 62 0a 13 bd d5 f9 7f bd 10 69 56 3d e4 7c 93 bd
       -0.035898574 -0.062494118 0.05234629 -0.07201555
000010 9a 7a 3f 3d b0 43 92 bd bb a6 b8 bc 17 01 d4 bd
       0.04674778 -0.071418166 -0.02254044 -0.1035177
000020 83 5c ae bc 01 33 e2 bb
       -0.021284347 -0.006903053
