result/model_11_1.pth (torch, 307183 bytes, 8 tensors)

net.0.weight f4 [20, 1, 4, 4]
0.10038003 0.44393954 0.3259528 0.3650224 -0.24940851 -0.36783227 -0.60790026 0.33024663
-0.121585496 -0.36902654 0.54328936 0.36292502 0.03546749 0.35995767 0.2171014 -0.2574072
0.36418885 0.17742275 0.02798014 0.2922709 0.009470064 -0.12678091 -0.0788894 0.35884836
-0.26586398 -0.3581701 -0.25029525 -0.12070258 -0.059643086 -0.25798813 0.23140317 -0.1858735
0.08835227 -0.16599597 -0.31037885 -0.080545716 0.19498332 0.57717156 0.24632725 -0.26659322
-0.19721238 -0.046500314 0.3898083 0.34318265 -0.026099497 -0.17074557 -0.07894597 -0.0092112245
0.078380674 -0.24051383 -0.34537846 -0.14814268 -0.19715308 0.24665315 0.1723277 0.26568642
0.18985668 0.15867388 0.25813636 -0.08349656 0.032372985 -0.18396594 -0.0038583328 -0.069861375
0.074902505 -0.009317055 0.1723977 -0.061715566 -0.18687548 -0.15696873 0.18701491 0.16887678
0.22437906 -0.24013749 -0.38243273 -0.2995099 -0.1608173 0.1580209 0.1764757 0.20841727
-0.21080059 -0.18477659 0.21742705 -0.14264648 0.01758653 0.00021802394 0.28915808 -0.29264128
-0.18892546 0.3257637 0.07890983 -0.17591071 0.13509579 0.3518381 -0.21063364 -0.16097516
0.32769385 0.023696605 -0.004026303 -0.25000668 -0.15161438 -0.036006927 -0.12463763 -0.2683612
-0.028920045 -0.21085551 -0.17910957 -0.117108606 -0.12027519 -0.043376904 0.4416274 0.23437756
0.14480987 -0.1887674 -0.12980266 -0.022299541 0.09112016 -0.1885866 -0.079817005 -0.11106655
0.036643207 -0.080811106 0.044883855 -0.10810547 -0.11418794 -0.10245932 -0.04163994 -0.16086845
0.32529813 0.09892223 0.34230322 0.16132739 -0.20410831 0.15271252 -0.062295284 -0.13318245
-0.2973063 -0.34816998 -0.045248765 -0.1304457 0.093495324 -0.1618413 0.19396621 -0.16638984
-0.06942391 0.13268603 0.17270072 0.2280978 0.23016593 -0.23422173 0.06403349 -0.15547468
-0.13455626 -0.25138313 0.24558042 -0.2726812 0.038075566 0.05097665 0.114533916 -0.18131454
0.44104323 0.08264847 -0.020644153 -0.30771592 0.38100892 0.014153119 -0.1648768 0.1663352
0.20337856 -0.079356514 -0.20264064 -0.100307964 0.19356541 -0.024720892 -0.16069557 -0.12805712
-0.25339234 0.19048814 0.19078435 -0.39334455 -0.008349705 0.38565466 0.039810628 -0.250803
0.19951874 0.23889163 0.044789206 -0.14986727 -0.08413302 0.059035458 0.024786126 -0.08603129
0.21016787 0.25958025 -0.019504309 -0.08744756 0.014946969 0.0366237 0.11888543 0.13236572
-0.27821866 -0.1113067 0.20596226 0.09989525 -0.024617258 -0.19053473 -0.25271577 -0.29840302
-0.19097829 -0.053737387 0.2661251 0.25022963 -0.33810902 -0.27865106 0.071362264 0.39788628
-0.11760903 -0.1449988 0.24617578 -0.043440145 -0.30404365 0.15109742 -0.07017179 -0.0798176
-0.21703471 0.19995737 0.2180728 0.09641629 -0.17679763 -0.24596277 -0.15457101 0.21680917
0.17114396 0.37185454 0.30548736 0.078577146 -0.03537017 -0.20091785 -0.25378013 -0.2665547
0.1825252 -0.08618245 -0.05966 -0.094896466 0.035230376 -0.11304344 -0.14608195 0.12606244
-0.058494963 0.13889794 -0.09781001 -0.1712053 0.0028301466 -0.04597261 -0.036073983 -0.20466869
00000000: 0c94 cd3d 0b4c e33e 49e3 a63e 37e4 ba3e
00000010: f264 7fbe 8354 bcbe 5a9f 1bbf 1616 a93e
00000020: d101 f9bd 0cf1 bcbe 0315 0b3f 4fd1 b93e
00000030: 5c46 113d 5f4c b83e d44f 5e3e e0ca 83be
00000040: f676 ba3e 4fae 353e 9b36 e53c 88a4 953e
00000050: 5428 1b3c dbd2 01be c490 a1bd f9ba b73e
00000060: 531f 88be 1262 b7be b326 80be ea32 f7bd
00000070: 4f4c 74bd 0517 84be f4f4 6c3e 9f55 3ebe
00000080: 09f2 b43d d9fa 29be fae9 9ebe 27f5 a4bd
00000090: b5a9 473e 84c1 133f 363d 7c3e e87e 88be
000000a0: 0bf2 49be 1d77 3ebd f494 c73e a3b5 af3e
000000b0: 9dce d5bc edd7 2ebe 6dae a1bd adea 16bc
000000c0: 0c86 a03d 4249 76be 72d5 b0be b7b2 17be
000000d0: 7fe2 49be a592 7c3e ac76 303e 0d08 883e
000000e0: ca69 423e 687b 223e 732a 843e 3f00 abbd
000000f0: 8999 043d 9161 3cbe 15dc 7cbb 7b13 8fbd
00000100: 7c66 993d 90a6 18bc 0689 303e 76c9 7cbd
00000110: 495c 3fbe 69bc 20be d680 3f3e 09ee 2c3e
00000120: a0c3 653e 9ae6 75be 39ce c3be 5d59 99be
00000130: 4aad 24be 3bd0 213e 0cb6 343e 566b 553e
00000140: 1cdc 57be 1336 3dbe 32a5 5e3e eb11 12be
00000150: a011 903c 5b9d 6439 870c 943e 14d5 95be
00000160: ad75 41be 80ca a63e 7a9b a13d f021 34be
00000170: 8d56 0a3e 2024 b43e 58b0 57be acd6 24be
00000180: 7dc7 a73e 621f c23c 14ef 83bb e000 80be
00000190: cd40 1bbe 007c 13bd 0442 ffbd a466 89be
000001a0: bbe9 ecbc 82ea 57be 8068 37be a3d6 efbd
000001b0: d752 f6bd fbab 31bd fd1c e23e ac00 703e
000001c0: 0a49 143e 3e4c 41be fdea 04be 87ad b6bc
000001d0: 359d ba3d d81c 41be 1977 a3bd dc76 e3bd
000001e0: 3017 163d 4b80 a5bd 22d8 373d 6766 ddbd
000001f0: 5edb e9bd 31d6 d1bd a48e 2abd b3ba 24be
00000200: 7a8d a63e bd97 ca3d 5e42 af3e 0233 253e
00000210: c501 51be ac60 1c3e 5729 7fbd fb60 08be
00000220: 8838 98be 5643 b2be c556 39bd 8f93 05be
00000230: 7a7a bf3d bab9 25be 149f 463e 1962 2abe
00000240: 1f2e 8ebd d9de 073e 75d8 303e 7892 693e
00000250: 9eb0 6b3e d2d7 6fbe fe23 833d c134 1fbe
00000260: 1ec9 09be 4ab5 80be 6f79 7b3e df9c 8bbe
00000270: 20f5 1b3d e4cc 503d c290 ea3d 85aa 39be
00000280: 6bd0 e13e 9a43 a93d ed1d a9bc f18c 9dbe
00000290: 9a13 c33e 7ce2 673c 77d5 28be c653 2a3e
000002a0: 7842 503e ab85 a2bd 0781 4fbe 436e cdbd
000002b0: 0336 463e 7883 cabc 618d 24be 6821 03be
000002c0: a4bc 81be 530f 433e f95c 433e 7564 c9be
000002d0: 33cd 08bc 8774 c53e 7810 233d 4069 80be
000002e0: a44e 4c3e 02a0 743e e374 373d ce76 19be
000002f0: ef4d acbd 2acf 713d 460c cb3c 2c31 b0bd
00000300: 3f36 573e b4e7 843e 80c7 9fbc b517 b3bd
00000310: 22e4 743c bc02 163d 347a f33d e18a 073e
00000320: ad72 8ebe c4f4 e3bd c5e7 523e e195 cc3d
00000330: 22aa c9bc 891b 43be f663 81be 48c8 98be
00000340: d08f 43be bc1b 5cbd 8d41 883e 191e 803e
00000350: a01c adbe 5aab 8ebe 6126 923d c0b7 cb3e
00000360: 01dd f0bd 917a 14be 8115 7c3e 4bee 31bd
00000370: 9cab 9bbe 48b9 1a3e 3ab6 8fbd 6977 a3bd
00000380: 593e 5ebe a0c1 4c3e 7a4e 5f3e e775 c53d
00000390: 700a 35be aadd 7bbe dd47 1ebe 3903 5e3e
000003a0: 5d40 2f3e b863 be3e d768 9c3e 0eed a03d
000003b0: 50e0 10bd 69bd 4dbe 78ef 81be dc79 88be
000003c0: e3e7 3a3e 6d80 b0bd 0b5e 74bd 1459 c2bd
000003d0: ba4d 103d 5283 e7bd 8296 15be 8316 013e
000003e0: 6a98 6fbd 433b 0e3e 9d50 c8bd 7150 2fbe
000003f0: fb79 393b c74d 3cbd 50c2 13bd ab94 51be

net.0.bias f4 [20]
0.27195787 -0.14893664 0.38357908 0.13663721 -0.12440834 -0.17355943 -0.3911714 -0.39011812
-0.16871642 -0.011627256 0.21326105 0.13680336 -0.1400134 -0.12365306 0.10766701 -0.36687106
0.010307071 0.11621427 -0.3667334 0.11698914
00000000: 103e 8b3e d982 18be 7a64 c43e a0ea 0b3e
00000010: cdc9 febd 90b9 31be 9e47 c8be 90bd c7be
00000020: ffc3 2cbe 3f80 3ebc 1b61 5a3e 2e16 0c3e
00000030: ac5f 0fbe d13d fdbd 8580 dc3d 86d6 bbbe
00000040: fdde 283c bf01 ee3d 7bc4 bbbe 0198 ef3d

net.3.weight f4 [40, 20, 5, 5]
-0.18223424 -0.06599789 -0.05009914 -0.15099046 -0.15647994 -0.0178604 -0.017164761 -0.15726584
-0.09732956 -0.2610725 -0.036346734 -0.1263594 -0.026643045 0.06434265 -0.06425324 -0.04857215
0.049959272 0.11598852 0.13568436 0.13389952 -0.17100962 -0.16942762 -0.06656757 0.07724961
0.18756554 0.025155619 0.013675209 -0.048837896 -0.011588617 0.071558446 0.015173045 -0.10186989
-0.18733704 -0.048642825 -0.022089368 0.04416322 -0.054415718 -0.06390532 0.057053093 -0.005440542
0.0074036755 -0.10952236 -0.04494639 -0.006228855 0.01859575 0.0646947 -0.076868065 -0.048932813
0.044601046 -0.034257647 -0.057620827 -0.17298356 -0.15630174 -0.18225129 -0.26409942 -0.071409546
-0.1662819 -0.051190663 0.009024959 -0.13033153 0.003802591 0.21294469 0.1778154 0.14202368
0.16322882 -0.12857033 0.05150793 0.101088405 -0.16139871 -0.040161226 0.104196064 0.14927876
0.014201342 -0.17161909 -0.11947097 -0.02876642 -0.022180812 0.084325545 0.029355675 -0.11164754
-0.007108099 -0.0015322425 0.05572582 0.155995 0.0543542 -0.11962056 -0.030867761 0.07553027
0.01497954 0.010561422 -0.08333162 -0.02994438 0.019173875 0.017293314 -0.00018462878 -0.11757597
0.03365386 0.033963952 0.10301215 0.04834405 0.06252971 0.1047904 0.14165187 0.086773954
0.039668925 -0.19221084 -0.20445754 0.11305694 0.11700706 0.07465254 0.026476016 0.025209986
0.04120848 0.1902498 0.16387475 -0.09468687 0.054832354 0.15250362 0.18388008 0.033302136
0.13235573 0.062175985 0.10558584 0.045632113 -0.036365088 0.047988504 0.15945143 0.09599252
0.15549655 0.10388742 0.09679614 0.17219867 0.050133433 0.014167783 -0.056058884 0.019073455
0.020297512 0.017968921 0.027737955 -0.06924742 -0.02215322 -0.054304034 0.04573244 0.06321314
0.050920356 -0.10962537 -0.012847301 -0.019023456 -0.034870666 0.079518326 0.037439812 0.052754786
0.06642254 0.058927074 0.013911916 0.003370881 0.024461456 0.069198176 -0.0015914624 -0.032031987
-0.05100879 -0.10049417 -0.060502023 0.028762935 0.08223692 -0.04573753 -0.18158662 -0.05249444
0.0058159954 0.004119573 -0.053888116 -0.09973118 0.0077559915 0.014290085 -0.013362003 -0.022685492
0.04746359 -0.03498147 0.06992295 0.031754002 -0.007995223 -0.015842732 -0.040316425 0.03995162
0.05552154 -0.056546878 -0.07122126 -0.059074283 0.012652198 0.022376487 -0.012599836 -0.0930984
-0.034111246 0.06211077 0.040985033 -0.021370253 -0.084893525 -0.002841951 -0.0074698343 0.038285017
-0.034972724 -0.17239454 -0.12972677 0.017295875 0.104591176 -0.121028215 -0.18615055 -0.13460903
0.07460392 0.071091376 -0.15928169 -0.12443361 -0.0277187 0.12355021 0.07028746 -0.17378186
-0.113274716 -0.017636923 0.06694514 0.058319997 -0.008811852 0.05712571 0.042325538 0.012852626
-0.030088443 -0.07121128 -0.06503858 0.044388745 0.040391333 0.10964639 -0.018705118 -0.052988257
0.00080506806 0.07065493 0.0693306 -0.01407095 -0.039417293 0.07843123 0.06035448 -0.014565255
-0.094418645 -0.076377384 0.08772363 0.106627464 0.10348884 -0.043576363 -0.032987025 0.014124212
-0.025251728 -0.014142465 -0.057087347 -0.030682437 -0.14140603 -0.043820083 -0.039123815 -0.17272083
00000000: 9d9b 3abe e729 87bd c134 4dbd 3e9d 1abe
00000010: 473c 20be f94f 92bc 1d9d 8cbc 4c0a 21be
00000020: b854 c7bd 4bab 85be 50e0 14bd 5c64 01be
00000030: 8442 dabc 14c6 833d 3497 83bd 97f3 46bd
00000040: 18a2 4c3d 648b ed3d d7f0 0a3e f51c 093e
00000050: 251d 2fbe 6f7e 2dbe 9454 88bd 0b35 9e3d
00000060: 2e11 403e 2813 ce3c fc0d 603c 3f0a 48bd
00000070: 2fde 3dbc 3c8d 923d 5d98 783c 29a1 d0bd
00000080: 48d5 3fbe b33d 47bd c3f4 b4bc 7ee4 343d
00000090: 04e3 5ebd cbe0 82bd 81b0 693d 9346 b2bb
000000a0: 889a f23b 424d e0bd b519 38bd 6c1b ccbb
000000b0: 1d56 983c a87e 843d 016d 9dbd c66d 48bd
000000c0: 96af 363d bf51 0cbd d103 6cbd 9a22 31be
000000d0: 900d 20be 15a0 3abe 0a38 87be 2b3f 92bd
000000e0: cd45 2abe 4dad 51bd 6cdd 133c a175 05be
000000f0: e434 793b 2c0e 5a3e 3d15 363e a86e 113e
00000100: 7525 273e f1a7 03be fbf9 523d 7007 cf3d
00000110: b445 25be 1980 24bd bf64 d53d 88dc 183e
00000120: bfac 683c eabc 2fbe 32ad f4bd 8ea7 ebbc
00000130: 89b4 b5bc dfb2 ac3d 507b f03c 77a7 e4bd
00000140: 0eeb e8bb 87d5 c8ba c240 643d 27bd 1f3e
00000150: 82a2 5e3d a0fb f4bd 63de fcbc 9daf 9a3d
00000160: bf6c 753c d109 2d3c c5a9 aabd eb4d f5bc
00000170: 8812 9d3c b5aa 8d3c e998 41b9 accb f0bd
00000180: a1d8 093d c91d 0b3d 09f8 d23d 6904 463d
00000190: 940f 803d 599c d63d 300d 113e 8bb6 b13d
000001a0: e27b 223d ebd2 44be 515d 51be 668a e73d
000001b0: 66a1 ef3d 6ee3 983d 3be4 d83c 2c85 ce3c
000001c0: 39ca 283d d8d0 423e c8ce 273e 31eb c1bd
000001d0: e497 603d e929 1c3e 0f4b 3c3e d267 083d
000001e0: 4388 073e 3fac 7e3d 643d d83d bde8 3a3d
000001f0: 8ff3 14bd 988f 443d 3c47 233e ba97 c43d
00000200: 7d3a 1f3e edc2 d43d 0e3d c63d d954 303e
00000210: b758 4d3d fd1f 683c 009e 65bd ef3f 9c3c
00000220: f846 a63c 8f33 933c b53a e33c 97d1 8dbd
00000230: ab7a b5bc e86d 5ebd f051 3b3d e475 813d
00000240: dd91 503d 4483 e0bd 7c7d 52bc 14d7 9bbc
00000250: 8bd4 0ebd 81da a23d 7d5a 193d 6715 583d
00000260: 8a08 883d 845d 713d ceee 633c 00ea 5c3b
00000270: 6463 c83c c6b7 8d3d 9e98 d0ba f933 03bd
00000280: 98ee 50bd e3cf cdbd f8d0 77bd 3fa0 eb3c
00000290: d56b a83d 4757 3bbd d8f1 39be 6904 57bd
000002a0: 1b94 be3b 7cfd 863b c9b9 5cbd dc3f ccbd
000002b0: f925 fe3b f620 6a3c 4dec 5abc edd6 b9bc
000002c0: 2e69 423d bb48 0fbd c333 8f3d 7c10 023d
000002d0: 65fe 02bc 9ec8 81bc d622 25bd 4fa4 233d
000002e0: 8e6a 633d b39d 67bd 74dc 91bd e0f7 71bd
000002f0: 2a4b 4f3c e54e b73c 8b6f 4ebc 60aa bebd
00000300: 3cb8 0bbd dd67 7e3d ecdf 273d ab10 afbc
00000310: a8dc adbd 0740 3abb 83c5 f4bb c0d0 1c3d
00000320: 8f3f 0fbd 3288 30be 18d7 04be 14b0 8d3c
00000330: e633 d63d a4dd f7bd 409e 3ebe f3d6 09be
00000340: f1c9 983d 5b98 913d bd1a 23be 0cd7 febd
00000350: 5412 e3bc e407 fd3d dff2 8f3d dff3 31be
00000360: 93fc e7bd 4f7b 90bc 891a 893d f3e0 6e3d
00000370: 965f 10bc a6fc 693d 8b5d 2d3d d293 523c
00000380: 0a7c f6bc 38d7 91bd f232 85bd f9d0 353d
00000390: 6271 253d 498e e03d 7a3b 99bc 370a 59bd
000003a0: 340b 533a 88b3 903d 34fd 8d3d d889 66bc
000003b0: 0774 21bd 8da0 a03d 4236 773d 1ba3 6ebc
000003c0: 905e c1bd bf6b 9cbd 72a8 b33d 805f da3d
000003d0: f5f1 d33d 217d 32bd 671d 07bd 3d69 673c
000003e0: b6dc cebc ccb5 67bc 6cd4 69bd bc59 fbbc
000003f0: becc 10be b07c 33bd 4b40 20bd bbdd 30be

net.3.bias f4 [40]
0.034668613 -0.015520205 0.026986651 -0.018839693 -0.014936197 0.024447255 -0.024351852 0.0063599786
-0.024082292 0.0056929337 0.019923655 0.015816122 -0.033336513 0.00539475 0.004224982 -0.014638872
-0.022762902 0.0038189678 -0.023669397 -0.025316576 0.04047191 -0.036669303 -0.004068059 -0.0015913602
-0.010426616 -0.0007731059 -0.020805955 -0.07273449 0.05127423 -0.026598655 0.0069094175 0.019318454
-0.032666285 0.03755781 0.006594204 -0.003457722 -0.0025681541 -0.02621369 0.03199451 -0.039775923
00000000: ad00 0e3d 7548 7ebc 1c13 dd3c b355 9abc
00000010: f3b6 74bc 9c45 c83c 897d c7bc 5e67 d03b
00000020: 3a48 c5bc ca8b ba3b ef36 a33c d090 813c
00000030: de8b 08bd 71c6 b03b b871 8a3b e1d7 6fbc
00000040: 4479 babc a647 7a3b 53e6 c1bc b564 cfbc
00000050: e0c5 253d 8d32 16bd 5a4d 85bb 3095 d0ba
00000060: 66d4 2abc 42aa 4aba 4071 aabc d2f5 94bd
00000070: ed04 523d 6ce5 d9bc 6568 e23b bc41 9e3c
00000080: 15cd 05bd 38d6 193d 3114 d83b f39a 62bb
00000090: 7a4e 28bb 18be d6bc ad0c 033d 14ec 22bd

net.7.weight f4 [150, 360]
-0.10219949 0.04900677 -0.038742702 -0.08895882 0.01641865 -0.036962137 -0.018147271 0.090658925
-0.02346327 0.033623077 0.15693687 0.069864444 -0.038081676 -0.0029679812 0.03011012 0.09778033
0.0828659 0.032095682 0.022991989 -0.090066984 0.0642416 -0.019147346 -0.032874465 -0.024311688
0.07578042 0.12843497 -0.021683794 -0.094486944 0.009454799 0.060299527 -0.09837064 -0.16671716
-0.020878352 -0.08801176 -0.098214544 -0.07314266 -0.010284328 0.016047148 -0.006883741 0.044402663
0.07436942 0.06504681 0.05653273 0.0047176112 -0.035940513 -0.039122656 -0.10422034 -0.066821486
-0.12867495 -0.028492497 0.020653391 -0.08030037 -0.08455683 -0.11732033 0.10827386 0.05538785
0.07157495 0.09489069 0.091703214 0.029713083 -0.009012112 -0.02272231 -0.021030255 -0.11899539
-0.10795107 -0.06514106 0.023789084 -0.073111914 0.12575427 -0.04080367 0.019874321 0.04318388
0.17610073 -0.0022249462 -0.07099907 0.04019774 0.012740441 0.00508077 -0.1182427 -0.109304726
-0.06388143 0.077484384 0.021949774 0.053999733 0.009624785 0.045156267 0.018769447 0.028644504
0.034867313 0.06798834 0.020590756 0.016811054 0.021300452 -0.027802724 -0.115534484 -0.03350773
0.03655853 -0.008559847 -0.12907664 -0.00747991 0.03175928 -0.045353502 0.022241773 0.0038998902
0.019243704 -0.03993956 0.003462081 0.04797817 -0.069302 -0.06130276 -0.007817167 -0.03145605
0.07779281 -0.062444024 0.056070957 0.048683707 0.051884536 -0.056644276 -0.008072118 0.052496195
0.028801577 -0.061243664 0.049182713 -0.022136856 -0.020383231 -0.0675165 -0.102277435 -0.058776822
-0.019109488 0.018880665 -0.06608912 -0.008588495 0.05088348 0.10033938 -0.01227928 -0.09922115
0.00022949689 0.037675075 0.0031443064 0.032940824 0.05200271 0.021359513 -0.04424739 0.036969334
0.002111607 0.041794565 0.014139958 -0.028947104 0.075538434 0.105207324 0.040558107 -0.014712389
0.016338529 0.053964753 0.08960261 0.07211831 0.006582691 0.03305361 0.06945775 -0.061731707
-0.054489985 -0.076825336 0.06207612 0.06114488 0.03917152 0.003834301 0.04272959 0.012812514
-0.03956865 0.020452678 0.0449347 0.09419533 -0.030432258 0.06437301 0.008011758 -0.01835366
0.035616305 0.074562214 -0.07612914 -0.05944986 0.026472632 -0.063580096 0.13603464 0.034186333
0.113800004 0.09166227 -0.008701478 0.15882906 0.0795261 0.037763007 0.011164099 0.00054980913
0.007931727 0.049729336 -0.0302074 0.005701329 -0.0055478727 0.039460182 0.10556494 0.056301143
0.054655448 -0.017071638 0.033879973 0.0016056901 -0.0059885546 -0.011977465 -0.011948845 0.054590035
0.0116410395 0.0061944546 0.030312384 -0.047881138 0.062043387 0.02509632 0.03429035 0.035666626
-0.052298784 -0.07857046 0.007742146 -0.05161197 -0.0630242 0.017275607 -0.046892665 0.020944519
0.03741072 0.060151946 0.17072937 0.19982494 -0.010510279 -0.037097137 0.0053309146 -0.13571689
-0.05867993 -0.025652168 -0.11465912 -0.12382621 0.0756974 -0.036630005 -0.01390778 0.14897083
0.0063047707 -0.08436408 -0.019829264 0.015834823 -0.05199507 -0.021455714 0.013400202 0.03214272
-0.0018453662 0.016037578 -0.04423037 -0.0067097773 0.007843046 -0.06917948 0.002719253 0.026967479
00000000: f74d d1bd 53bb 483d abb0 1ebd 0b30 b6bd
00000010: 6880 863c 9c65 17bd 96a9 94bc 63ab b93d
00000020: 0b36 c0bc 5ab8 093d 0fb4 203e 1715 8f3d
00000030: 88fb 1bbd 7682 42bb 80a9 f63c 0e41 c83d
00000040: 99b5 a93d c376 033d b259 bc3c 0a75 b8bd
00000050: 1a91 833d e5da 9cbc 60a7 06bd 4e29 c7bc
00000060: c432 9b3d 7584 033e 36a2 b1bc 5f82 c1bd
00000070: 4de8 1a3c a3fc 763d 8c76 c9bd e7b7 2abe
00000080: 1409 abbc 823f b4bd b524 c9bd d2cb 95bd
00000090: 997f 28bc 4f75 833c 0191 e1bb 91df 353d
000000a0: ff4e 983d 4337 853d dd8e 673d 3196 9a3b
000000b0: 5c36 13bd 143f 20bd 7971 d5bd b4d9 88bd
000000c0: 5ec3 03be 1969 e9bc 4d31 a93c 8574 a4bd
000000d0: 222c adbd a445 f0bd afbe dd3d 5fde 623d
000000e0: e395 923d 0d56 c23d e5ce bb3d da68 f33c
000000f0: 8aa7 13bc 2324 babc a447 acbc dbb3 f3bd
00000100: 7315 ddbd ad68 85bd 53e1 c23c b3bb 95bd
00000110: bac5 003e c021 27bd 79cf a23c 95e1 303d
00000120: c053 343e 67d0 11bb f667 91bd 63a6 243d
00000130: 48bd 503c 967c a63b 3b29 f2bd 28db dfbd
00000140: 44d4 82bd 22b0 9e3d 03d0 b33c d32e 5d3d
00000150: 46b1 1d3c c7f5 383d 62c2 993c e1a7 ea3c
00000160: 07d1 0e3d 793d 8b3d f2ad a83c 56b7 893c
00000170: 497e ae3c 8ac2 e3bc 589d ecbd 673f 09bd
00000180: 66be 153d 9a3e 0cbc ab2c 04be 081a f5bb
00000190: 0516 023d 98c4 39bd 6134 b63c 4d95 7f3b
000001a0: f9a4 9d3c aa97 23bd 15e4 623b c284 443d
000001b0: 35ee 8dbd 9a18 7bbd 9313 00bc 0fd8 00bd
000001c0: d651 9f3d 4ec5 7fbd a9aa 653d 9168 473d
000001d0: e184 543d d403 68bd eb40 04bc 4006 573d
000001e0: 49f1 eb3c a3da 7abd d073 493d 5a58 b5bc
000001f0: bcfa a6bc 1746 8abd d576 d1bd f7bf 70bd
00000200: 808b 9cbc a0ab 9a3c bc59 87bd c2b6 0cbc
00000210: 326b 503d bc7e cd3d 092f 49bc 7534 cbbd
00000220: 1aa5 7039 2e51 1a3d b510 4e3b f5ec 063d
00000230: cb00 553d 25fa ae3c c03c 35bd 286d 173d
00000240: e362 0a3b c730 2b3d 48ab 673c 7a22 edbc
00000250: e5b3 9a3d f076 d73d 4220 263d 3b0c 71bc
00000260: 61d8 853c 250a 5d3d 9381 b73d c4b2 933d
00000270: 9db3 d73b 3963 073d dd3f 8e3d 63da 7cbd
00000280: e430 5fbd 9a56 9dbd 8843 7e3d 0e73 7a3d
00000290: 5172 203d e548 7b3b 3905 2f3d 94eb 513c
000002a0: bd12 22bd 608c a73c 730d 383d 7be9 c03d
000002b0: 124d f9bc ffd5 833d c043 033c 6a5a 96bc
000002c0: 67e2 113d 13b4 983d 98e9 9bbd b281 73bd
000002d0: 22dd d83c 4836 82bd aa4c 0b3e f806 0c3d
000002e0: fa0f e93d 6eb9 bb3d a590 0ebc 16a4 223e
000002f0: 94de a23d 62ad 1a3d a0e9 363c 1121 103a
00000300: 13f4 013c fdb0 4b3d 8275 f7bc 37d2 ba3b
00000310: eeca b5bb 00a1 213d 6e32 d83d 079c 663d
00000320: 64de 5f3d d2d9 8bbc bac5 0a3d 0576 d23a
00000330: a33b c4bb 213d 44bc 17c5 43bc cd99 5f3d
00000340: 0fba 3e3c dafa ca3b ad51 f83c 031f 44bd
00000350: 3521 7e3d cc96 cd3c 0a74 0c3d 2b17 123d
00000360: 4037 56bd 8de9 a0bd d4b1 fd3b 1367 53bd
00000370: d512 81bd 9385 8d3c 8612 40bd d793 ab3c
00000380: fc3b 193d e361 763d aed3 2e3e e99e 4c3e
00000390: 4e33 2cbc 2bf3 17bd f4ae ae3b 5ef9 0abe
000003a0: 5e5a 70bd 7f24 d2bc 67d2 eabd 9998 fdbd
000003b0: 3d07 9b3d 5809 16bd 75dd 63bc cf8b 183e
000003c0: 4098 ce3b 13c7 acbd fb70 a2bc 08b8 813c
000003d0: c8f8 54bd e5c3 afbc 858c 5b3c 16a8 033d
000003e0: 37e0 f1ba 3d61 833c e82a 35bd b1dd dbbb
000003f0: 1f80 003c f9ad 8dbd 7f35 323b e7ea dc3c

net.7.bias f4 [150]
0.06705623 0.00080503937 0.012898991 0.033979774 -0.0021403697 -0.00696672 -0.05683267 0.008907402
0.0768613 -0.019302951 0.020365093 0.0010208279 0.0175563 0.08462947 0.0029281212 -0.03769311
0.036980562 0.06464392 -0.024072185 0.013807366 0.023200955 -0.0076196236 0.028964533 -0.027076319
0.019784672 -0.025457613 0.008980728 0.05792157 0.014259372 0.041586775 0.03295036 0.038384356
-0.005205379 0.0739921 0.0027275144 -0.06783401 -0.016840616 -0.0092515275 -0.030826345 0.002227632
-0.044380616 -0.045120947 0.017766757 0.0023184791 -0.011320035 -0.036816332 0.02252872 -0.023222744
0.05479583 -0.056808494 -0.06022625 0.021938536 -0.04152931 -0.025443671 0.056767255 0.053178295
0.010275356 -0.011704089 -0.010652508 -0.03347643 -0.048875775 -0.0137697095 0.06728937 0.05639255
-0.069680855 0.041626908 -0.0027280927 0.009888159 0.018266976 -0.04630287 0.046279356 0.0790535
0.026872505 -0.011171776 -0.070050016 -0.046221867 -0.009939873 0.09520076 0.027752278 -0.011062632
0.039715618 -0.06673984 -0.009675562 -0.021493986 -0.0594299 0.055072032 -0.057945166 0.039176006
-0.055121325 0.063911565 -0.009599212 0.055680543 0.011165747 -0.019809483 -0.0007996008 0.02271082
-0.014115662 -0.02745952 -0.018758016 -0.0023965612 -0.009074447 -0.022350455 -0.016605878 -0.0618798
0.03302281 0.030318089 0.022738164 -0.083369896 0.051464573 0.039147522 0.09306386 0.084978536
0.011010744 -0.052192155 0.09045656 0.027257588 -0.038354836 -0.07748616 -0.022364818 0.028198976
-0.022946253 0.06478101 -0.026236935 0.03490844 0.019314157 -0.012478571 0.06418975 0.039021064
-0.028743705 0.0016471674 0.010564382 0.06914093 -0.028523698 0.07061994 -0.012990463 0.01832677
0.049876813 -0.04798274 0.004635221 -0.0313322 0.010045057 -0.03421779 -0.013361328 -0.009869078
0.006827465 -0.057187498 0.01908588 -0.00842911 0.019876791 -0.019710876
00000000: c754 893d 4709 533a 4a56 533c 602e 0b3d
00000010: 7245 0cbb 1549 e4bb 60c9 68bd 5af0 113c
00000020: 7569 9d3d 3921 9ebc b2d4 a63c 4dcd 853a
00000030: 3bd2 8f3c 3752 ad3d b9e5 3f3b 1764 1abd
00000040: ee78 173d 0864 843d 0833 c5bc 4a38 623c
00000050: ee0f be3c 09ae f9bb 0747 ed3c 28cf ddbc
00000060: 7713 a23c 7c8c d0bc e723 133c 2b3f 6d3d
00000070: 24a0 693c e556 2a3d f5f6 063d ea38 1d3d
00000080: e291 aabb 2c89 973d 19c0 323b 8fec 8abd
00000090: 55f5 89bc b893 17bc 8887 fcbc 77fd 113b
000000a0: 73c8 35bd bed0 38bd 978b 913c a0f1 173b
000000b0: ab77 39bc b9cc 16bd 268e b83c a03d bebc
000000c0: 9871 603d 06b0 68bd cdaf 76bd 72b8 b33c
000000d0: a31a 2abd 3f6f d0bc c884 683d 7cd1 593d
000000e0: f759 283c 82c2 3fbc db87 2ebc 951e 09bd
000000f0: f731 48bd 599a 61bc 02cf 893d e0fb 663d
00000100: d6b4 8ebd fa80 2a3d cdc9 32bb f201 223c
00000110: a0a4 953c 14a8 3dbd 6c8f 3d3d cde6 a13d
00000120: ba23 dc3c d309 37bc 6276 8fbd 2453 3dbd
00000130: d9da 22bc 9ef8 c23d bf58 e33c 0b40 35bc
00000140: d8ac 223d e6ae 88bd 4086 1ebc 2814 b0bc
00000150: c46c 73bd 3693 613d e957 6dbd 0577 203d
00000160: e6c6 61bd 11e4 823d 0346 1dbc 4811 643d
00000170: 8af0 363c 7f47 a2bc 4d9c 51ba 0b0c ba3c
00000180: 6145 67bc caf2 e0bc 69aa 99bc a00f 1dbb
00000190: fdac 14bc 4d18 b7bc 0d09 88bc ac75 7dbd
000001a0: ed42 073d a45d f83c 6345 ba3c d6bd aabd
000001b0: 84cc 523d 2759 203d 4498 be3d 3a09 ae3d
000001c0: 6866 343c 71c7 55bd 4a41 b93d 4e4b df3c
000001d0: f619 1dbd 10b1 9ebd 6c36 b7bc 8a01 e73c
000001e0: c8f9 bbbc e8ab 843d d7ee d6bc 27fc 0e3d
000001f0: b938 9e3c ec72 4cbc ea75 833d 8dd4 1f3d
00000200: eb77 ebbc c4e5 d73a 3b16 2d3c c399 8d3d
00000210: 88aa e9bc 30a1 903d f3d5 54bc 0622 963c
00000220: a14b 4c3d 8d89 44bd 0de3 973b 3156 00bd
00000230: 0694 243c f427 0cbd 79e9 5abc eab1 21bc
00000240: edb8 df3b 703d 6abd fe59 9c3c 401a 0abc
00000250: a7d4 a23c b478 a1bc

net.9.weight f4 [10, 150]
0.0047485027 -0.066403225 -0.06531016 0.05019447 0.21477555 -0.20060904 -0.06676159 0.005970544
-0.08983931 -0.046515245 -0.04202795 -0.024755158 5.0664457e-05 0.12649614 -0.106390715 -0.05273486
0.022293184 -0.020817202 -0.15963851 -0.20374353 -0.060959116 -0.013041488 0.0051207133 0.011137764
0.09733347 0.11459621 0.033896334 0.08912185 0.14990783 -0.20323387 0.12408388 0.1263999
0.06953413 -0.11296713 -0.056582376 0.04969767 -0.042080432 0.10764536 0.10855035 -0.00016782462
0.024655195 0.035573687 -0.06672653 0.012620818 0.0568985 0.08002457 -0.032040324 0.021767657
0.11094898 -0.035819896 -0.011490333 0.22132978 -0.017630251 0.055311736 -0.06696432 -0.2315219
0.0082115345 -0.013699103 0.115391515 -0.037702467 0.059872847 0.084487095 -0.2170611 -0.2095138
0.036920954 0.013979214 -0.042284615 -0.15974428 -0.14835455 -0.04869362 0.06676205 0.058530156
0.0018341114 -0.05578844 0.04063288 -0.051820707 0.15549543 -0.35937098 -0.15065739 -0.01427826
-0.032593556 0.0092010675 -0.17444503 0.21315908 0.04414146 -0.17088477 0.008310901 -0.03205749
0.05021455 -0.0150155965 0.008041471 0.17851721 0.042548902 0.16208844 -0.0021391662 -0.07402796
0.0068175006 -0.05988548 -0.03545755 -0.03407181 -0.013568011 -0.04915231 -0.0345902 0.06524773
0.13490357 -0.039700992 0.019926393 -0.082557976 -0.059728667 -0.18595417 -0.15299249 0.19060025
-0.003291763 -0.0024205397 -0.30653057 0.032443635 0.044897188 -0.031071182 -0.22441721 -0.081305824
0.0145011395 0.050241604 -0.032245845 -0.32672912 -0.020127641 0.10251776 -0.24619806 -0.23961893
0.07545811 -0.07468496 0.082084455 -0.21075249 0.07316213 -0.14964756 -0.014984412 -0.011208157
0.09807361 -0.030991303 0.14117338 0.039394505 -0.0867735 0.1388114 0.17758928 0.047857523
-0.041606534 0.05158105 0.14668994 0.013140885 -0.10878394 -0.19246194 0.091041 -0.004239887
-0.048325345 -0.15081532 0.15264021 0.1356026 0.03058991 0.0712598 -0.013359581 0.020035887
-0.0017815568 0.20636742 0.088974886 -0.056670964 0.18343778 -0.03363532 -0.032774195 -0.225664
0.14250785 0.005797798 -0.0580705 -0.06477347 0.0153021775 -0.10582003 -0.027411083 -0.10701922
-0.024525458 0.21260309 -0.08782896 0.08632657 0.25156456 -0.08386283 -0.18705875 -0.19278084
0.020376116 -0.0037426255 0.055014912 0.08632094 0.048891984 0.213296 0.04368885 0.005361237
-0.009837625 -0.06169781 0.049597885 -0.18533568 -0.03456765 -0.04677287 -0.002281715 0.030538809
-0.074348904 -0.009091644 -0.03853684 0.02395979 -0.0052937907 -0.081975505 -0.15560408 0.116981864
0.022579007 -0.05462903 -0.005135554 -0.23719771 -0.095625505 -0.20478337 0.04691061 -0.05239257
0.029407306 -0.18712075 0.08238036 0.033343207 -0.19983697 -0.2035533 0.021225136 0.036874533
-0.040096857 -0.05928242 -0.099334955 0.03061083 -0.064152 -0.040653896 -0.15630098 0.035311367
0.08160424 0.15008253 0.073584735 0.21119268 0.056704633 0.06816718 -0.060246147 0.013145933
-0.010577253 -0.035412192 -0.0852132 -0.16775559 0.011843038 -0.014900644 -0.031725403 0.08736239
0.009797903 0.0068209334 0.06611245 0.0337348 0.052198008 -0.0054410533 -0.21156923 0.06443543
00000000: 5499 9b3b 6afe 87bd 55c1 85bd b798 4d3d
00000010: 1fee 5b3e 756c 4dbe 4dba 88bd 8ea4 c33b
00000020: acfd b7bd c586 3ebd 8025 2cbd 54cb cabc
00000030: 8c80 5438 3488 013e 60e3 d9bd 8200 58bd
00000040: 32a0 b63c d688 aabc 4778 23be 25a2 50be
00000050: 44b0 79bd f7ab 55bc a8cb a73b 2b7b 363c
00000060: c556 c73d 6bb1 ea3d e2d6 0a3d 8485 b63d
00000070: 7081 193e 8a1c 50be b01f fe3d fa6e 013e
00000080: e967 8e3d 505b e7bd ecc2 67bd c98f 4b3d
00000090: 885c 2cbd 2c75 dc3d a54f de3d 14fa 2fb9
000000a0: b1f9 c93c b7b5 113d eba7 88bd 8cc7 4e3c
000000b0: 670e 693d ece3 a33d b73c 03bd 1652 b23c
000000c0: 3839 e33d e2b7 12bd f341 3cbc 46a4 623e
000000d0: 516d 90bc 8f8e 623d 9724 89bd 1414 6dbe
000000e0: ac89 063c 3472 60bc 6352 ec3d e76d 1abd
000000f0: 3b3d 753d 9207 ad3d 4445 5ebe c98a 56be
00000100: 6d3a 173d 1309 653c a232 2dbd 0194 23be
00000110: 41ea 17be f672 47bd 8bba 883d 51bd 6f3d
00000120: 9166 f03a 6b82 64bd aa6e 263d f341 54bd
00000130: 323a 1f3e 79ff b7be ee45 1abe 5def 69bc
00000140: d280 05bd 13c0 163c b8a1 32be 6046 5a3e
00000150: adcd 343d 6bfc 2ebe 722a 083c b74e 03bd
00000160: c6ad 4d3d fa03 76bc 60c0 033c 37cd 363e
00000170: c247 2e3d 83fa 253e 4131 0cbb f99b 97bd
00000180: 5765 df3b 7a4a 75bd f03b 11bd e28e 0bbd
00000190: 5d4c 5ebc ef53 49bd 74ae 0dbd 9aa0 853d
000001a0: 2924 0a3e 829d 22bd ad3c a33c 2814 a9bd
000001b0: 0ca6 74bd c56a 3ebe 10aa 1cbe b62c 433e
000001c0: 9eba 57bb eba1 1ebb 93f1 9cbe 9ee3 043d
000001d0: 1de6 373d fe88 febc a0cd 65be ab83 a6bd
000001e0: 3096 6d3c 24ca 4d3d 3814 04bd 0a49 a7be
000001f0: b9e2 a4bc d5f4 d13d 581b 7cbe aa5e 75be
00000200: c889 9a3d 6ef4 98bd e51b a83d 80cf 57be
00000210: 07d6 953d 363d 19be 2e81 75bc 6ba2 37bc
00000220: d1da c83d 79e1 fdbc c18f 103e 225c 213d
00000230: 4eb6 b1bd 9324 0e3e f7d9 353e 4006 443d
00000240: 9d6b 2abd a746 533d e335 163e de4c 573c
00000250: 1dca debd be14 45be b473 ba3d c0ee 8abb
00000260: ccf0 45bd 556f 1abe b74d 1c3e 68db 0a3e
00000270: b197 fa3c a8f0 913d 25e2 5abc 4d22 a43c
00000280: 2083 e9ba fb51 533e 7738 b63d d01f 68bd
00000290: 1dd7 3b3e 30c5 09bd 3c3e 06bd 7714 67be
000002a0: 94ed 113e 74fb bd3b 55db 6dbd f4a7 84bd
000002b0: fcb5 7a3c 2cb8 d8bd 358d e0bc e52c dbbd
000002c0: 9de9 c8bc a0b4 593e abdf b3bd fccb b03d
000002d0: 12cd 803e 47c0 abbd 548c 3fbe 5768 45be
000002e0: d0eb a63c d646 75bb 5157 613d 08c9 b03d
000002f0: f642 483d 446a 5a3e 14f3 323d 51ad af3b
00000300: fd2d 21bc d8b6 7cbd 2727 4b3d a3c8 3dbe
00000310: cf96 0dbd e994 3fbd d388 15bb 862c fa3c
00000320: 3d44 98bd 1ef5 14bc ced8 1dbd 5247 c43c
00000330: 8977 adbb c6e2 a7bd ad56 1fbe 3094 ef3d
00000340: 9cf7 b83c b1c2 5fbd 2648 a8bb f5e3 72be
00000350: 4ed7 c3bd bbb2 51be 5725 403d 9799 56bd
00000360: 97e7 f03c 959c 3fbe 09b7 a83d e392 083d
00000370: 10a2 4cbe 4770 50be 56e0 ad3c c009 173d
00000380: 9a3c 24bd 1fd2 72bd 2070 cbbd 90c3 fa3c
00000390: 2062 83bd b384 26bd 5d0d 20be a7a2 103d
000003a0: 2020 a73d 3caf 193e 98b3 963d e542 583e
000003b0: 1e43 683d 3c9b 8b3d aac4 76bd 0a62 573c
000003c0: 374c 2dbc 600c 11bd 4284 aebd 1fc8 2bbe
000003d0: 4d09 423c d521 74bc 7ff2 01bd 0deb b23d
000003e0: 6287 203c 2382 df3b f765 873d 802d 0a3d
000003f0: 94cd 553d dd4a b2bb 9ba5 58be b9f6 833d

net.9.bias f4 [10]
-0.056071073 -0.04016857 0.043966696 -0.06322763 0.0409257 -0.05453145 -0.023295116 -0.07862235
-0.048854813 -0.0029635774
00000000: c8aa 65bd cc87 24bd 6c16 343d 7d7d 81bd
00000010: b5a1 273d 5f5c 5fbd 66d5 bebc c104 a1bd
00000020: fc1b 48bd 9438 42bb
