result/model_17_2.pth (torch, 307183 bytes, 8 tensors)

net.0.weight f4 [20, 1, 4, 4]
0.45789647 0.6075453 0.22744319 0.43563125 -0.025999213 -0.25819317 -0.4766036 0.28972727
-0.021391578 -0.37054816 0.42572898 0.32427606 0.20285907 0.39395693 0.4187664 -0.09683405
0.42743596 0.26077268 0.073483445 0.2433633 -0.065338954 0.021870686 -0.044317964 0.2154991
-0.27568206 -0.22813822 -0.25484613 -0.22501749 -0.013456412 -0.27682522 0.06842948 -0.20353469
0.25949484 -0.03581 -0.3809267 -0.254243 0.20054469 0.7998004 0.4255119 -0.3857871
-0.25526768 0.10951875 0.63548815 0.23674233 -0.18308786 -0.33158764 0.12719037 0.14202656
0.08965457 -0.23326187 -0.35975087 -0.11650361 -0.16564645 0.29169515 0.20696132 0.282428
0.16740882 0.1458211 0.2647911 -0.09544663 0.0082931295 -0.2325581 -0.043555353 -0.07632162
0.057362508 0.008475015 0.23970869 -0.11392444 -0.20701057 -0.18038973 0.16033684 0.06760945
0.25000888 -0.22529775 -0.36196753 -0.29336357 -0.11770552 0.19741179 0.16743581 0.24679676
-0.20581333 -0.09803057 0.1957712 -0.17909536 0.07369281 0.10059686 0.23578031 -0.29065144
-0.07925689 0.34221914 0.008012647 -0.23153384 0.27263796 0.36044663 -0.29818824 -0.2735796
0.28193018 -0.019058501 -0.08999647 -0.25516418 -0.12740822 -0.059595875 -0.1596423 -0.19042473
-0.06293547 -0.28427255 -0.24353392 -0.019464545 -0.1468136 -0.09037644 0.35526907 0.25631824
0.1255137 -0.19225647 -0.13916095 -0.054439254 0.044820827 -0.21347441 -0.12598985 -0.1575754
-0.017210394 -0.13448238 -0.06534899 -0.18389656 -0.14507276 -0.12961148 -0.07591444 -0.16720223
0.3415532 0.083060294 0.33693138 0.21443641 -0.19792998 0.18390787 -0.07378552 -0.05793189
-0.29227805 -0.34208408 -0.07760973 -0.105155334 0.06513556 -0.22058618 0.10145808 -0.18216528
-0.079300694 0.080787875 0.19541569 0.30623463 0.25957158 -0.2986073 0.101506345 -0.14980486
-0.14252606 -0.2335511 0.3287185 -0.27203915 -0.0141017465 0.06683969 0.089765325 -0.19510536
0.4370569 0.08065801 -0.004274662 -0.24409895 0.42270443 -0.05171067 -0.20230481 0.16583967
0.35458547 -0.15781832 -0.2441976 -0.11716949 0.2502269 -0.06367507 -0.20874022 -0.16312657
-0.2884229 0.22682442 0.26614612 -0.36258456 0.01542824 0.37010625 0.07441962 -0.2684361
0.21071191 0.29079482 0.047807336 -0.20543025 -0.08833158 0.115584604 -0.04326702 -0.16951215
0.22627382 0.28413948 -0.006727605 -0.05506801 0.00080175884 0.044681016 0.14643583 0.17030908
-0.29583064 -0.13763547 0.1653508 0.11165531 -0.06262859 -0.21679807 -0.25423336 -0.28987458
-0.19882041 -0.008817405 0.24281557 0.2760762 -0.36218086 -0.28366417 0.012690664 0.4598218
-0.11015372 -0.19912381 0.18172479 0.064624205 -0.27203843 0.095609814 -0.04390981 0.026555428
-0.20783722 0.24449845 0.260963 0.1394355 -0.1749601 -0.21466565 -0.11192582 0.32225233
0.14439759 0.27287912 0.1381935 0.044190224 -0.009763565 -0.21821281 -0.28755334 -0.2909859
0.17658335 -0.08359707 -0.016101431 -0.07953974 -0.012576946 -0.15059084 -0.18564679 0.060095023
-0.04697323 0.093545765 -0.14200774 -0.16818778 0.034312315 -0.06799621 -0.062541 -0.21026069
00000000: 6871 ea3e 1788 1b3f dee6 683e 0f0b df3e
00000010: 4dfc d4bc e531 84be 6305 f4be 2257 943e
00000020: 643d afbc 7db8 bdbe 26f9 d93e 8307 a63e
00000030: 4aba 4f3e b9b4 c93e 8d68 d63e ee50 c6bd
00000040: e3d8 da3e ff83 853e 7d7e 963d 3b34 793e
00000050: 6ed0 85bd 272a b33c c186 35bd ccab 5c3e
00000060: 3326 8dbe 119d 69be 317b 82be fc6a 66be
00000070: 4878 5cbc 09bc 8dbe c124 8c3d 666b 50be
00000080: 82dc 843e 82ad 12bd d308 c3be 232c 82be
00000090: 965b 4d3e b8bf 4c3f b2dc d93e e385 c5be
000000a0: 72b2 82be 5e4b e03d 5aaf 223f 956c 723e
000000b0: 627b 3bbe dbc5 a9be 313e 023e 696f 113e
000000c0: d19c b73d 33dc 6ebe 4431 b8be 7299 eebd
000000d0: 399f 29be 1159 953e abed 533e 679a 903e
000000e0: 386d 2b3e 2052 153e b392 873e 8679 c3bd
000000f0: e8df 073c b623 6ebe 1967 32bd 824e 9cbd
00000100: f3f4 6a3d cada 0a3c 3276 753e 3851 e9bd
00000110: 94fa 53be 16b8 38be 572f 243e d376 8a3d
00000120: 2a01 803e 74b4 66be cf53 b9be c033 96be
00000130: 970f f1bd 5126 4a3e 4b74 2b3e 4ab8 7c3e
00000140: bbc0 52be 40c4 c8bd 3f78 483e c664 37be
00000150: 42ec 963d ba05 ce3d 6570 713e 44d0 94be
00000160: 7051 a2bd 5937 af3e 7a47 033c 3517 6dbe
00000170: 3497 8b3e 768c b83e 21ac 98be a012 8cbe
00000180: 2759 903e 9320 9cbc 1250 b8bd e1a4 82be
00000190: 4d77 02be ce1a 74bd 4579 23be b3fe 42be
000001a0: 50e4 80bd 2c8c 91be f560 79be 1c74 9fbc
000001b0: 4e56 16be 4817 b9bd d4e5 b53e 253c 833e
000001c0: aa86 003e e1de 44be 3580 0ebe b2fb 5ebd
000001d0: 0b96 373d 0999 5abe 7c03 01be 725b 21be
000001e0: d0fc 8cbc c0b5 09be b1d5 85bd 614f 3cbe
000001f0: f48d 14be dfb8 04be 0879 9bbd 1037 2bbe
00000200: 10e0 ae3e 841b aa3d 4582 ac3e 3895 5b3e
00000210: 28ae 4abe 5852 3c3e dd1c 97bd fd49 6dbd
00000220: 78a5 95be a525 afbe daf1 9ebd ae5b d7bd
00000230: cb65 853d 58e1 61be 41c9 cf3d 8989 3abe
00000240: 6768 a2bd 1d74 a53d 0d1b 483e c9ca 9c3e
00000250: 91e6 843e 0ee3 98be 8fe2 cf3d 7266 19be
00000260: 5af2 11be 0528 6fbe cb4d a83e b748 8bbe
00000270: 030b 67bc 3fe3 883d e2d6 b73d b3c9 47be
00000280: ecc5 df3e 0730 a53d 7712 8cbb 13f5 79be
00000290: b76c d83e 91ce 53bd fe28 4fbe e0d1 293e
000002a0: 3a8c b53e 209b 21be f00e 7abe 8ff6 efbd
000002b0: be1d 803e 1368 82bd ffbf 55be a70a 27be
000002c0: 2bac 93be a944 683e 4e44 883e afa4 b9be
000002d0: bbc6 7c3c 917e bd3e 5069 983d 7570 89be
000002e0: ddc4 573e 0fe3 943e a0d1 433d 4f5c 52be
000002f0: 30e7 b4bd 9fb7 ec3d c238 31bd 9894 2dbe
00000300: 53b4 673e bb7a 913e 3e73 dcbb fe8e 61bd
00000310: 202d 523a 7103 373d 46f3 153e 8165 2e3e
00000320: 1d77 97be 50f0 0cbe b851 293e 8aab e43d
00000330: 6b43 80bd 5000 5ebe e02a 82be 716a 94be
00000340: 9497 4bbe e176 10bc a5a4 783e dc59 8d3e
00000350: c56f b9be 6e3c 91be 81ec 4f3c c36d eb3e
00000360: 4698 e1bd 1de7 4bbe 1016 3a3e b259 843d
00000370: 9f48 8bbe 14cf c33d c6da 33bd c58a d93c
00000380: 48d3 54be cd5d 7a3e f19c 853e 2ec8 0e3e
00000390: be28 33be 50d1 5bbe 5d39 e5bd 42fe a43e
000003a0: f6dc 133e d0b6 8b3e 9982 0d3e cf00 353d
000003b0: 5cf7 1fbc 2e73 5fbe 313a 93be 1bfc 94be
000003c0: 44d2 343e f134 abbd 26e7 83bc bbe5 a2bd
000003d0: 890f 4ebc 7c34 1abe 311a 3ebe 3326 763d
000003e0: 0067 40bd ec94 bf3d 7a6a 11be 6b39 2cbe
000003f0: 128b 0c3d 9941 8bbd 7f15 80bd 944e 57be

net.0.bias f4 [20]
0.22628906 -0.10177884 0.48644236 0.1369538 -0.10129581 -0.10613752 -0.42183033 -0.35107157
-0.14837228 0.056787897 0.22845209 0.15242516 -0.12420859 -0.103772305 0.120517425 -0.36963797
0.023930226 0.12327052 -0.4321832 0.1274195
00000000: 52b8 673e 6d71 d0bd f90e f93e 9e3d 0c3e
00000010: 2d74 cfbd a15e d9bd 25fa d7be a7bf b3be
00000020: e7ee 17be 6d9a 683d 58ef 693e 5715 1c3e
00000030: 1361 febd 9386 d4bd d7d1 f63d 3041 bdbe
00000040: 5209 c43c 4175 fc3d 1e47 ddbe 427a 023e

net.3.weight f4 [40, 20, 5, 5]
-0.043660164 -0.040934112 -0.19845523 -0.2118991 -0.15527356 0.06675269 -0.016349595 -0.19469503
-0.08681993 -0.00346446 -0.07039444 -0.015220867 0.025065707 -0.06920518 -0.13734141 -0.13595383
-0.06852577 -0.049730327 -0.012187759 -0.07270242 -0.17532128 -0.039176315 -0.01767677 0.003348439
-0.052109104 -0.0037485433 -0.033599097 -0.1338769 -0.07119377 0.014751881 -0.018452795 -0.090777956
-0.12976083 -0.001216558 0.0017974416 -0.10662018 -0.12268543 0.020889174 0.06790437 0.007007403
0.02377349 -0.06530596 0.012081609 0.06796256 0.018508406 0.0138655305 -0.0670052 -0.024753952
0.03906336 -0.015499372 0.05491793 0.02718366 -0.098560855 -0.13670357 -0.042660736 -0.12954658
-0.20290121 -0.12751648 -0.047429435 -0.033866737 0.012926604 0.055607527 0.040888894 0.042006783
-0.0024888096 0.09103873 0.11801082 0.08795403 0.004795481 0.04512678 0.07076214 0.08008383
0.062087454 0.00041405097 0.043560702 0.021214403 -0.008130645 0.063030876 0.071165055 0.028962236
-0.015646022 0.046153016 0.08410257 0.13192149 0.13948394 -0.016419489 -0.03372671 0.047223214
0.11001163 0.08353821 -0.07251293 0.09584232 0.11882518 0.1188118 -0.016519569 0.0029424883
0.035395246 0.06408288 0.007270824 -0.017290382 0.039421104 0.17293617 0.12596135 0.07841667
0.08908617 0.008562422 -0.06506987 0.073034115 0.13880724 0.10451175 -0.11135177 0.022894673
0.14620875 0.24143155 0.14295684 0.06349993 0.11461166 0.23886539 0.15506975 0.028561762
0.0036439984 0.10886616 0.083154365 0.051395923 -0.031185908 0.17047186 0.0909372 0.060624506
0.090877995 0.10223749 0.20980503 0.14093769 0.06696303 -0.021874545 -0.020704716 0.041161586
0.01390137 -0.0965901 -0.072955064 0.009501186 -0.05470146 -0.09194957 -0.050897922 -0.021258757
0.026599098 0.008286716 0.030243823 0.027709538 0.085221775 0.114908375 0.021049622 0.038654733
0.0453611 0.036081042 0.0403505 0.005122943 0.023195494 0.03434998 -0.0045302515 0.004639052
-0.04088536 -0.1161814 -0.060261976 0.032492258 0.044640698 -0.040787708 -0.13419448 -0.082676955
-0.019328874 0.0014178082 -0.04034621 -0.096053004 -0.01762407 -0.03658514 -0.012813394 -0.03136016
0.04777857 -0.043714114 0.038275316 0.030285379 -0.0073926845 -0.0030222915 -0.044360507 0.021372981
0.049444925 -0.06294194 -0.055498607 -0.03943984 0.011355434 0.025469795 -0.011298679 -0.085425176
-0.04640684 0.034255564 0.04732873 -0.019828493 -0.08909584 -0.038715847 -0.038329173 0.05238897
-0.113777205 -0.14769095 -0.21109031 -0.09432243 0.009049332 -0.13253921 -0.1510338 -0.10605602
0.039815836 0.047864154 -0.19468582 -0.2104903 -0.024044478 0.11514012 0.13894416 -0.086089924
-0.0033196704 0.09413997 0.12207167 0.11659785 -0.015328356 0.042233665 0.032743245 0.006069348
-0.035916314 -0.0049140234 -0.076965965 0.02924358 -0.00892259 -0.052108213 0.044235088 0.08435728
0.04594703 0.10544476 0.07642799 -0.056767438 0.011615784 0.12041928 0.07218591 0.08756828
0.0162521 -0.04533764 0.10166289 0.13220246 0.029438555 0.0250689 0.026201036 0.041672997
0.05085739 0.0037116292 0.07068327 0.075844266 0.011837582 0.043700576 -0.035674885 0.027007587
00000000: 00d5 32bd 87aa 27bd d937 4bbe 14fc 58be
00000010: 0800 1fbe a2b5 883d 96ef 85bc 225e 47be
00000020: a6ce b1bd fe0b 63bb f62a 90bd f160 79bc
00000030: 9956 cd3c 72bb 8dbd 3aa3 0cbe 7b37 0bbe
00000040: 3d57 8cbd 07b2 4bbd 2baf 47bc 02e5 94bd
00000050: 6c87 33be 5877 20bd e0ce 90bc 7c71 5b3b
00000060: 5b70 55bd 1faa 75bb 359f 09bd 0717 09be
00000070: 0ace 91bd e0b1 713c 512a 97bc cbe9 b9bd
00000080: 06e0 04be ea74 9fba 2298 eb3a ae5b dabd
00000090: 8042 fbbd c61f ab3c 7211 8b3d 5b9e e53b
000000a0: 9fc0 c23c 22bf 85bd f1f1 453c f42f 8b3d
000000b0: f19e 973c 402c 633c 063a 89bd cdc8 cabc
000000c0: e700 203d 14f1 7dbc a0f1 603d 44b0 de3c
000000d0: 46da c9bd 05fc 0bbe 06bd 2ebd dca7 04be
000000e0: 56c5 4fbe ae93 02be 5e45 42bd d9b7 0abd
000000f0: 1bca 533c b8c4 633d 1d7b 273d 4e0f 2c3d
00000100: 4c1b 23bb 8472 ba3d a8af f13d 3e21 b43d
00000110: 6923 9d3b dcd6 383d beeb 903d fe02 a43d
00000120: 6a4f 7e3d fb14 d939 b56c 323d d4c9 ad3c
00000130: 6636 05bc 5516 813d fcbe 913d 3642 ed3c
00000140: 162c 80bc f20a 3d3d f83d ac3d 6d16 073e
00000150: e1d4 0e3e 2a82 86bc 0525 0abd 216d 413d
00000160: c74d e13d 1516 ab3d a981 94bd fa48 c43d
00000170: 9e5a f33d 9a53 f33d 0c54 87bc c3d6 403b
00000180: 9bfa 103d e33d 833d 1840 ee3b 8fa4 8dbc
00000190: 0678 213d 2e16 313e 03fc 003e eb98 a03d
000001a0: cf72 b63d 6749 0c3c 5a43 85bd e992 953d
000001b0: 7c23 0e3e 420a d63d 660c e4bd 9c8d bb3c
000001c0: bfb7 153e d539 773e 4763 123e 400c 823d
000001d0: 85b9 ea3d 2199 743e 9bca 1e3e 5bfa e93c
000001e0: 26d0 6e3b 39f5 de3d d64c aa3d 8884 523d
000001f0: 9779 ffbc 2d90 2e3e 483d ba3d 6751 783d
00000200: 3e1e ba3d e461 d13d 21d7 563e f851 103e
00000210: ea23 893d 3f32 b3bc f09c a9bc 0d99 283d
00000220: 92c2 633c 08d1 c5bd 7769 95bd ddaa 1b3c
00000230: a30e 60bd 0e50 bcbd 577a 50bd d826 aebc
00000240: 5ae6 d93c 02c5 073c e5c1 f73c 1dff e23c
00000250: c188 ae3d 1555 eb3d 4270 ac3c 6d54 1e3d
00000260: 90cc 393d b7c9 133d 9146 253d 5cde a73b
00000270: 7a04 be3c 91b2 0c3d 8172 94bb 3003 983b
00000280: 6877 27bd 84f0 edbd 43d5 76bd 9a16 053d
00000290: 2ad9 363d 0311 27bd 476a 09be 8952 a9bd
000002a0: 9657 9ebc c0d5 b93a 1142 25bd 70b7 c4bd
000002b0: 5b60 90bc 4dda 15bd 45ef 51bc 8373 00bd
000002c0: 76b3 433d 920d 33bd 94c6 1c3d 0b19 f83c
000002d0: 553e f2bb a311 46bb 5db3 35bd 6416 af3c
000002e0: c386 4a3d b4e7 80bd 8252 63bd ab8b 21bd
000002f0: 240c 3a3c 08a6 d03c 181e 39bc 65f3 aebd
00000300: 1915 3ebd 904f 0c3d c5db 413d 5d6f a2bc
00000310: e177 b6bd 8294 1ebd 0dff 1cbd d195 563d
00000320: 0604 e9bd 4c3c 17be 0f28 58be 1e2c c1bd
00000330: a643 143c 5cb8 07be 9ba8 1abe e633 d9bd
00000340: ee15 233d 340d 443d b85b 47be c58a 57be
00000350: edf8 c4bc 95ce eb3d 6147 0e3e ea4f b0bd
00000360: d48e 59bb 75cc c03d b600 fa3d dbca ee3d
00000370: c923 7bbc 35fd 2c3d c81d 063d 62e1 c63b
00000380: fc1c 13bd d105 a1bb 55a0 9dbd 3b90 ef3c
00000390: 0e30 12bc 6c6f 55bd da2f 353d 82c3 ac3d
000003a0: f432 3c3d 6cf3 d73d 4786 9c3d f984 68bd
000003b0: 2150 3e3c 629e f63d 35d6 933d 0057 b33d
000003c0: 2023 853c f6b3 39bd a234 d03d 1560 073e
000003d0: 2029 f13c 4b5d cd3c 8ea3 d63c 4eb1 2a3d
000003e0: d74f 503d ce3e 733b 64c2 903d 3d54 9b3d
000003f0: 6bf2 413c 60ff 323d d41f 12bd 043f dd3c

net.3.bias f4 [40]
0.043446146 0.007777714 0.009500524 -0.010458736 -0.035387114 0.028299911 -0.04456016 0.01574668
-0.013769472 -0.011007495 0.021577999 0.07261558 -0.044922747 0.0038940802 -0.0032769695 -0.025241295
-0.024792103 0.00484791 -0.03345201 -0.008827102 0.026284847 -0.021901816 0.0012214769 0.041575234
-0.0038787895 -0.01900588 -0.029390149 -0.04734685 0.050488245 0.0023144279 0.0071537476 0.022733355
-0.015785245 0.027533099 0.07285368 0.0047983155 0.00946279 -0.051792648 0.02759212 -0.02354196
00000000: 96f4 313d 32dc fe3b 16a8 1b3c 1e5b 2bbc
00000010: 14f2 10bd 37d5 e73c b784 36bd 2eff 803c
00000020: 5a99 61bc c858 34bc 58c4 b03c 7ab7 943d
00000030: ea00 38bd d333 7f3b 6dc2 56bb d5c6 cebc
00000040: cf18 cbbc 37db 9e3b fa04 09bd 8d9f 10bc
00000050: 5253 d73c 706b b3bc f719 a03a cb4a 2a3d
00000060: 4a33 7ebb 38b2 9bbc 9cc3 f0bc c5ee 41bd
00000070: c3cc 4e3d a8ad 173b fc69 ea3b 4d3b ba3c
00000080: 0f50 81bc 188d e13c 4f34 953d 303b 9d3b
00000090: d109 1b3c 8724 54bd df08 e23c 12db c0bc

net.7.weight f4 [150, 360]
-0.026723482 -0.0059013767 -0.03216645 -0.004522826 0.012565176 -0.03727183 0.11194771 0.07681514
0.0046135946 0.077533625 0.077995725 0.022147108 0.04487355 0.014342064 0.05586074 0.093917
0.061117306 0.083292894 0.040617116 -0.035627294 -0.024692994 -0.0465147 -0.07344426 -0.02693144
0.013182958 0.07973347 -0.018839013 0.010443686 0.10350717 0.043321386 -0.042802222 -0.09346183
0.08791918 -0.057845216 -0.040494997 -0.028366813 0.018580068 -0.005027513 -0.010888841 0.03779854
0.0059914794 0.041035976 0.06526242 -0.017765976 -0.0022120501 0.03589014 -0.06613045 -0.09661605
0.010068604 0.07231833 0.09898256 -0.04787747 -0.03979848 0.023930013 0.016281832 0.007989533
0.023329493 0.013834415 -0.009321918 0.02112974 0.032679964 -0.0010195214 0.013131935 -0.11266657
-0.09622419 -0.06474278 0.02468637 0.00029197725 0.07375931 0.043099523 0.05498963 -0.06897201
-0.036828138 -0.071504876 -0.045393508 -0.018509045 -0.027890092 0.013341292 -0.059615344 -0.10530229
-0.069984056 0.084369734 0.0064210757 0.025094103 0.029715372 0.08457839 -0.023276329 0.053177822
0.05899035 0.06648373 0.03658027 -0.01578656 0.030985791 0.014622231 -0.105377436 -0.10351838
-0.00026189163 -0.07738185 -0.07853182 -0.07441208 0.11666202 0.075080626 0.038143016 0.013077372
0.04061187 -0.060126916 -0.04269609 0.022876868 -0.041709207 -0.02057454 0.045796115 0.01251613
0.059635937 -0.034067526 0.049680196 0.0028042393 0.045001507 0.07834103 0.0027739601 0.04732114
0.0808268 -0.0021806273 0.045196947 -0.019030422 -0.008066433 -0.141489 -0.010339291 -0.07189785
0.033721447 0.036466334 -0.021785252 0.092042014 0.054946594 0.13740782 0.050731827 0.0023256575
0.08179998 0.11035387 0.07651297 -0.0003308751 0.0563208 0.033544935 -0.09103987 0.0318636
0.04129139 0.011995864 -0.048429027 0.008534783 0.051329307 0.034540944 -0.019956136 -0.042301003
-0.019915089 0.031660322 0.050128546 0.049898356 -0.004155677 -0.041046567 0.008891805 0.024377177
0.03567512 0.037968524 0.02377634 0.0047824266 0.023758668 -0.07002293 0.02133776 -0.03415816
0.014015724 0.037119187 0.03517647 0.003832204 0.023307573 -0.03209805 0.036119822 -0.023909872
-0.04927097 0.0489927 -0.085336275 -0.0135389 0.05823047 0.013778823 0.09566484 0.07686627
0.17768776 0.06054502 0.0348182 0.11561361 0.08626544 -0.03222235 -0.0634845 -0.12131307
0.055411275 0.043894213 -0.12717994 0.032372676 0.025911868 0.11692401 0.07004023 0.02833351
0.06563253 -0.024229664 0.04424143 -0.03264087 -0.0847764 0.08496645 0.010752384 0.05240555
-0.0016089226 -0.15194996 0.059118018 0.03262527 0.01621109 0.03801127 0.060689244 0.02678371
-0.018025618 -0.03873472 -0.043922167 0.007760462 0.010052532 -0.007814466 -0.019128699 0.011719516
-0.012840671 0.010743367 -0.01294276 0.09970269 0.036007583 0.028367018 0.0019787299 0.13383116
0.00074319076 -0.021262452 -0.045791544 -0.07999384 0.06224001 0.013260098 0.038681082 0.18810566
-0.008920195 -0.08859742 0.043356914 0.007824515 -0.0532911 -0.021674281 0.014404079 0.010542389
-0.00069970725 0.014406914 -0.037581187 -0.025525365 0.05853216 -0.014569795 0.011227014 0.032841172
00000000: 34eb dabc 5660 c1bb f8c0 03bd 3734 94bb
00000010: 2bde 4d3c 59aa 18bd d744 e53d 4251 9d3d
00000020: a32d 973b f3c9 9e3d 39bc 9f3d da6d b53c
00000030: 54cd 373d fafa 6a3c 3bce 643d 8e57 c03d
00000040: 2456 7a3d 7795 aa3d 225e 263d eded 11bd
00000050: f648 cabc 3386 3ebd f269 96bd 539f dcbc
00000060: 55fd 573c 4d4b a33d 4654 9abc fe1b 2b3c
00000070: 91fb d33d c471 313d 6251 2fbd ea68 bfbd
00000080: f90e b43d 1bef 6cbd 15de 25bd 8561 e8bc
00000090: 3a35 983c d6bd a4bb 1c67 32bc a4d2 1a3d
000000a0: 2c54 c43b 5715 283d 4ea8 853d f489 91bc
000000b0: 0bf8 10bb 8a01 133d 676f 87bd a3de c5bd
000000c0: c9f6 243c a21b 943d 5eb7 ca3d 2a1b 44bd
000000d0: bb03 23bd e008 c43c 7a61 853c 88e6 023c
000000e0: 7e1d bf3c bea9 623c f5ba 18bc 4718 ad3c
000000f0: 6ddb 053d 76a1 85ba 5427 573c bbbd e6bd
00000100: 3011 c5bd dd97 84bd 123b ca3c 8614 9939
00000110: 1f0f 973d 2089 303d ce3c 613d 3241 8dbd
00000120: 1ad9 16bd 2671 92bd 8bee 39bd 48a0 97bc
00000130: c379 e4bc 6f95 5a3c 382f 74bd baa8 d7bd
00000140: cd53 8fbd 0aca ac3d e367 d23b 2692 cd3c
00000150: a76d f33c 6f37 ad3d 00ae bebc fdd0 593d
00000160: de9f 713d 9f28 883d 31d5 153d d152 81bc
00000170: ead5 fd3c 1592 6f3c 20d0 d7bd 7201 d4bd
00000180: 804e 89b9 607a 9ebd 4ad5 a0bd 5c65 98bd
00000190: 7fec ee3d dfc3 993d da3b 1c3d 7942 563c
000001a0: a258 263d a447 76bd 18e2 2ebd 4568 bb3c
000001b0: 46d7 2abd f08b a8bc b594 3b3d 7410 4d3c
000001c0: d044 743d 648a 0bbd 767d 4b3d 54c7 373b
000001d0: 8053 383d 4371 a03d 54cb 353b d0d3 413d
000001e0: 8588 a53d dbe8 0ebb 6f20 393d b0e5 9bbc
000001f0: 1229 04bc 7ee2 10be 2166 29bc 2e3f 93bd
00000200: 801f 0a3d b95d 153d fc76 b2bc 8680 bc3d
00000210: ae0f 613d a3b4 0c3e 2dcc 4f3d 0f6a 183b
00000220: bf86 a73d 3601 e23d d5b2 9c3d 4e79 adb9
00000230: a4b0 663d 6a66 093d 1d73 babd 6883 023d
00000240: 2921 293d 4d8a 443c 845d 46bd 79d5 0b3c
00000250: ae3e 523d ce7a 0d3d 0d7b a3bc d143 2dbd
00000260: f824 a3bc 41ae 013d 9753 4d3d 3862 4c3d
00000270: 582c 88bb 7220 28bd efae 113c a5b2 c73c
00000280: 1320 123d e284 1b3d 99c6 c23c e7b5 9c3b
00000290: 8aa1 c23c 2f68 8fbd 87cc ae3c 6de9 0bbd
000002a0: 35a2 653c 4a0a 183d 3415 103d b725 7b3b
000002b0: 86ef be3c 3f79 03bd 61f2 133d a3de c3bc
000002c0: 5bd0 49bd 92ac 483d c9c4 aebd 43d2 5dbc
000002d0: 1383 6e3d 93c0 613c edeb c33d 106c 9d3d
000002e0: c8f3 353e 0efe 773d 879d 0e3d d4c6 ec3d
000002f0: efab b03d 95fb 03bd 2904 82bd fd72 f8bd
00000300: eff6 623d 6bca 333d 753b 02be 3699 043d
00000310: 2045 d43c db75 ef3d 4171 8f3d ad1b e83c
00000320: 596a 863d 4a7d c6bc 8036 353d 6fb2 05bd
00000330: 409f adbd e402 ae3d c42a 303c 34a7 563d
00000340: 7ce2 d2ba c598 1bbe bc25 723d 13a2 053d
00000350: 1fcd 843c b5b1 1b3d 4995 783d 8369 db3c
00000360: 76aa 93bc 4ca8 1ebd bbe7 33bd 794b fe3b
00000370: 60b3 243c 3f08 00bc cab3 9cbc 3603 403c
00000380: ae61 52bc f204 303c df0d 54bc ed30 cc3d
00000390: b07c 133d f361 e83c 94ad 013b 090b 093e
000003a0: b0d2 423a 982e aebc ea8f 3bbd cfd3 a3bd
000003b0: 61ef 7e3d e240 593c 0e70 1e3d c59e 403e
000003c0: 0226 12bc 9072 b5bd 0597 313d 6532 003c
000003d0: c547 5abd 438e b1bc 16ff 6b3c fcb9 2c3c
000003e0: 8f6c 37ba fa0a 6c3c bbee 19bd 921a d1bc
000003f0: 6bbf 6f3d 26b6 6ebc 82f1 373c 7784 063d

net.7.bias f4 [150]
0.07040624 0.0027581744 -0.0073708035 0.029890476 -0.0009228256 -0.013919428 -0.05725196 0.010800247
0.032500003 -0.01055554 0.021419328 -0.015392534 0.008019271 0.051317334 -0.008739657 -0.039676078
0.08438863 0.055637814 -0.009528296 -0.007268862 0.061716475 -0.011693437 0.027150776 -0.05260211
0.032456793 -0.030908683 0.039685905 0.04488051 0.043107297 0.02988362 0.00798451 0.05386285
0.0056977635 0.057175037 0.0019944622 -0.060192063 0.027474798 0.017066801 0.0060871593 0.0068153176
0.036172304 -0.045982406 0.0541226 0.00089118263 -0.008149037 -0.04121947 0.050230805 -0.035096508
0.034069356 -0.056720126 -0.054009084 0.024981 0.009414528 -0.0011515837 0.07075263 0.05533582
-0.02549081 -0.031584125 -0.011701051 -0.035109207 0.036885515 -0.010891947 0.062445275 0.03902904
-0.07276723 0.044378046 -0.002728107 -0.021767398 0.029886026 -0.046785306 0.052448988 0.0577375
0.029697252 -0.009994244 -0.06875244 -0.03414722 -0.013031244 0.032129075 0.035756767 -0.041287426
0.026438374 -0.059364643 -0.024121763 -0.036892228 -0.06308404 0.025621964 0.0064556287 0.043245535
-0.042645898 0.043399896 0.037712164 0.061557986 0.0522342 -0.006247147 -0.0077278563 0.010880701
-0.019921819 -0.049725424 -0.017480733 -0.0023962355 -0.028443208 -0.021788942 -0.012034749 -0.056467846
0.06671325 -0.0055280477 0.025760787 -0.055437103 0.04893938 0.04068306 0.083724394 0.052963704
0.043866936 -0.053196292 0.07076363 0.07476646 -0.03294074 -0.085388705 -0.03285253 0.042606685
0.0072602257 0.071239755 -0.013549335 0.033110395 0.017402202 -0.014389123 0.05319992 -0.0006083387
-0.029025214 0.0024334358 0.013592686 0.036732476 -0.00598999 0.08837705 -0.013373749 0.052415032
0.08353672 -0.010163585 0.0055360086 -0.031931043 0.010425813 -0.014061804 -0.018256556 -0.0126048345
0.016225424 -0.024727318 -0.009159649 -0.0039445544 -0.021970134 -0.05070928
00000000: 2631 903d 7dc2 343b c886 f1bb dfdc f43c
00000010: c7e9 71ba 500e 64bc 0881 6abd 85f3 303c
00000020: b91e 053d 25f1 2cbc 9677 af3c f830 7cbc
00000030: 4363 033c 2032 523d c730 0fbc 6283 22bd
00000040: f2d3 ac3d 7ae4 633d 921c 1cbc a22f eebb
00000050: 6aca 7c3d d495 3fbc 4e6b de3c 4f75 57bd
00000060: 6af1 043d 3534 fdbc b08d 223d a0d4 373d
00000070: 4791 303d 7ece f43c 76d1 023c 4b9f 5c3d
00000080: 4eb4 ba3b 5f30 6a3d 86b5 023b f48b 76bd
00000090: d412 e13c adcf 8b3c cb76 c73b 0753 df3b
000000a0: 6929 143d 0c58 3cbd a9af 5d3d 419e 693a
000000b0: 8a83 05bc bfd5 28bd d1be 4d3d 5bc1 0fbd
000000c0: 4f8c 0b3d 5d53 68bd a138 5dbd f4a4 cc3c
000000d0: 643f 1a3c bdf0 96ba c1e6 903d d0a7 623d
000000e0: 1ad2 d0bc 5b5e 01bd c4b5 3fbc acce 0fbd
000000f0: 4415 173d 2374 32bc 9ec6 7f3d eadc 1f3d
00000100: fc06 95bd c1c5 353d 0aca 32bb 8b51 b2bc
00000110: 8ad3 f43c f3a1 3fbd c0d4 563d 287e 6c3d
00000120: a747 f33c e6be 23bc 14ce 8cbd f5dd 0bbd
00000130: 0081 55bc c799 033d b075 123d 011d 29bd
00000140: 4a95 d83c 5728 73bd 019b c5bc 4e1c 17bd
00000150: 3532 81bd 27e5 d13c bd89 d33b 3b22 313d
00000160: 77ad 2ebd 17c4 313d 1278 1a3d 3a24 7c3d
00000170: 87f3 553d deb4 ccbb f539 fdbb f844 323c
00000180: 1533 a3bc e3ac 4bbd c133 8fbc 290a 1dbb
00000190: bb01 e9bc b97e b2bc 652d 45bc d44a 67bd
000001a0: f5a0 883d a024 b5bb 4908 d33c 0412 63bd
000001b0: a974 483d 48a3 263d b277 ab3d 78f0 583d
000001c0: d1ad 333d 5be4 59bd 86ec 903d 281f 993d
000001d0: dfec 06bd 46e0 aebd 6090 06bd 5984 2e3d
000001e0: 30e7 ed3b 26e6 913d 08fe 5dbc c49e 073d
000001f0: 108f 8e3c 5bc0 6bbc 29e8 593d eb78 1fba
00000200: 49c6 edbc 477a 1f3b dbb3 5e3c cb74 163d
00000210: ae47 c4bb 07ff b43d 921d 5bbc 25b1 563d
00000220: 4d15 ab3d 2a85 26bc 6867 b53b 20ca 02bd
00000230: 07d1 2a3c 7b63 66bc c68e 95bc 8284 4ebc
00000240: 2eeb 843c f290 cabc 5a12 16bc 5241 81bb
00000250: b6fa b3bc 89b4 4fbd

net.9.weight f4 [10, 150]
-0.044786464 -0.0702639 -0.025638923 0.024456529 0.16887672 -0.17398688 -0.059056774 0.00536684
-0.05974243 -0.054468736 -0.04120446 -0.038288005 0.056190617 0.12704001 -0.1661762 -0.06357303
-0.07004677 -0.057102494 -0.20097305 -0.1473705 -0.17228413 -0.023810856 0.046116557 -0.027104698
0.07249461 0.09363625 0.08947029 0.10520005 0.112513475 -0.02882317 0.11196727 0.094753094
0.031471863 -0.20433953 -0.05209398 0.06160145 -0.13553861 0.23524947 0.08764959 0.010055503
0.03951054 -0.006852024 -0.1895327 0.013807339 0.04112691 0.06833754 -0.013106644 0.008763407
0.089245915 -0.047742102 0.004914549 0.16097204 -0.046216935 0.04320947 -0.025285052 -0.1878046
-0.0023427433 -0.026093882 0.07588227 -0.051650357 0.13362333 0.09219263 -0.18569617 -0.10724483
-0.009287625 -0.010306829 -0.042284466 -0.18048748 -0.16427758 -0.048708167 0.051253684 0.066155866
0.003093798 -0.0532499 0.04814917 -0.19876145 0.09302507 -0.073687665 -0.15896796 -0.045264587
-0.02494694 -0.007953953 -0.093159206 0.11151651 0.046021946 -0.17199183 0.05469832 -0.03126249
0.14377983 0.012466556 0.05637717 0.097310975 0.07648397 0.13186143 0.021856042 -0.033299945
0.022634033 -0.055197798 -0.036645357 -0.022096187 -0.0063746436 -0.044578776 -0.037951037 0.05647008
0.12741077 0.01208609 -0.0052416986 -0.09300723 -0.019934975 -0.18402837 -0.12930071 0.1314219
0.004445275 -0.014917601 -0.18588208 0.030186595 0.04653342 -0.018634375 -0.15708269 -0.11023132
0.015867122 0.0909784 -0.0246292 -0.28296062 -0.014179513 0.06671502 -0.051747836 -0.13364671
0.07567476 -0.07436349 0.04791187 -0.1527361 0.18825342 -0.12405175 -0.015245333 0.022125905
0.086586796 -0.058265757 -0.062351678 0.03875538 -0.083979115 0.14412594 0.06727685 0.031436384
-0.010846612 0.12457848 0.04307497 0.041959506 0.0045724926 -0.045621283 0.058339663 0.0077592414
-0.036661975 -0.08648343 0.14243443 0.075539194 0.036909286 0.070857085 -0.04046164 0.038418643
-0.0035027817 0.14892387 0.056501362 -0.14076486 0.092636645 -0.030342156 -0.22544783 -0.18863775
0.12622173 0.02636101 -0.10045653 -0.075681865 -0.005750844 -0.06497219 0.055115953 -0.08259442
-0.05188665 0.1433071 -0.102009624 0.016379373 0.192281 -0.07151105 -0.16728097 -0.43039644
0.050625715 -0.0047621336 0.09473257 0.08286179 0.030595558 0.14718798 0.094095916 0.021587921
-0.058656875 -0.06461068 0.07098656 -0.059967697 -0.08235725 -0.056375835 -0.029157387 0.027673988
-0.0199867 -0.027546907 0.05312262 0.028600492 -0.0056637065 -0.076467924 -0.057728067 0.06677837
0.0018375108 -0.053104404 -0.08221414 -0.1913033 -0.12514688 -0.14567173 0.07937629 -0.014122385
0.029407252 -0.15385798 0.08743441 0.03323641 -0.13894108 -0.23360845 0.023157235 0.026931163
-0.04382657 -0.19943294 -0.064754404 0.009391904 -0.041819867 -0.04662724 -0.08315205 0.0357718
0.07018606 0.1395415 0.07398384 0.14090164 0.08174905 0.06857188 -0.3584447 0.02226521
-0.073546275 0.004480195 -0.1446303 -0.17191455 0.011048797 -0.055128645 -0.03565977 0.05941764
0.009067419 0.018804178 0.048419666 0.031012127 0.07111049 -0.021636724 -0.1613094 0.1296755
00000000: 0372 37bd 85e6 8fbd b808 d2bc 0f59 c83c
00000010: 05ee 2c3e 9e29 32be 84e5 71bd 51dc af3b
00000020: 7ab4 74bd 9c1a 5fbd 02c6 28bd e2d3 1cbd
00000030: 2228 663d c716 023e 182a 2abe 9432 82bd
00000040: ae74 8fbd 4ee4 69bd e1cb 4dbe 4be8 16be
00000050: 406b 30be fc0e c3bc b7e4 3c3d ac0a debc
00000060: 0e78 943d 5dc4 bf3d 333c b73d 2073 d73d
00000070: 776d e63d 921e ecbc 194f e53d e90d c23d
00000080: a4e8 003d 623e 51be 7f60 55bd cd51 7c3d
00000090: a2ca 0abe 3de5 703e a181 b33d d6bf 243c
000000a0: ced5 213d f186 e0bb dc14 42be 2d38 623c
000000b0: b174 283d 8df4 8b3d 40bd 56bc 6594 0f3c
000000c0: 90c6 b63d 398d 43bd 3a0a a13b dbd5 243e
000000d0: f84d 3dbd 6afc 303d 9922 cfbc d94f 40be
000000e0: b688 19bb d6c2 d5bc 2a68 9b3d 538f 53bd
000000f0: 8ed4 083e 7dcf bc3d 2327 3ebe 2da3 dbbd
00000100: 1f2b 18bc f9dd 28bc 7a32 2dbd b6d1 38be
00000110: 6238 28be 3782 47bd 62ef 513d ba7c 873d
00000120: 51c1 4a3b 911c 5abd 1038 453d 1f88 4bbe
00000130: ee83 be3d 8fe9 96bd 7fc8 22be 5c67 39bd
00000140: 865d ccbc 4c51 02bc 41ca bebd c562 e43d
00000150: 8281 3c3d a01e 30be 580b 603d 190d 00bd
00000160: 053b 133e 8740 4c3c bfeb 663d fa4a c73d
00000170: a1a3 9c3d af06 073e 710b b33c 8665 08bd
00000180: 026b b93c 1617 62bd 7119 16bd 1003 b5bc
00000190: 63e2 d0bb 3c98 36bd 8c72 1bbd 2c4d 673d
000001a0: f877 023e bc04 463c 8ec2 abbb 937a bebd
000001b0: ac4e a3bc ef71 3cbe 6867 04be 7693 063e
000001c0: aba9 913b f468 74bc df57 3ebe e149 f73c
000001d0: d499 3e3d 1ea7 98bc 49da 20be f5c0 e1bd
000001e0: c4fb 813c e252 ba3d 2dc3 c9bc 37e0 90be
000001f0: 3051 68bc e2a1 883d 8af5 53bd afda 08be
00000200: 5efb 9a3d e34b 98bd 3d3f 443d da66 1cbe
00000210: 81c5 403e d80e febd 90c7 79bc 6341 b53c
00000220: 6b54 b13d 13a8 6ebd 7964 7fbd f6bd 1e3d
00000230: 3efd abbd c095 133e 72c8 893d 70c3 003d
00000240: fdb5 31bc 0123 ff3d 616f 303d bbdd 2b3d
00000250: d9d4 953b 62dd 3abd 92f5 6e3d 3c41 fe3b
00000260: de2a 16bd 391e b1bd 55da 113e 4bb4 9a3d
00000270: 312e 173d 851d 913d 1bbb 25bd de5c 1d3d
00000280: ed8e 65bb 807f 183e f96d 673d aa24 10be
00000290: 48b8 bd3d 1d90 f8bc ccdb 66be 412a 41be
000002a0: 4540 013e 0bf3 d73c 27bc cdbd 18ff 9abd
000002b0: 9371 bcbb 2410 85bd 44c1 613d 4327 a9bd
000002c0: 1987 54bd 19bf 123e 6cea d0bd 092e 863c
000002d0: 4fe5 443e 6374 92bd b44b 2bbe ec5c dcbe
000002e0: e95c 4f3d ac0b 9cbb 2603 c23d 71b3 a93d
000002f0: 89a3 fa3c 72b8 163e 5cb5 c03d 27d9 b03c
00000300: 3142 70bd 9b52 84bd 6761 913d b0a0 75bd
00000310: ebaa a8bd 59ea 66bd 79db eebc 8fb4 e23c
00000320: 26bb a3bc 0daa e1bc 1b97 593d 944b ea3c
00000330: 9d96 b9bb 379b 9cbd 4474 6cbd 19c3 883d
00000340: a2d8 f03a 0184 59bd e35f a8bd 03e5 43be
00000350: 8126 00be f82a 15be 0990 a23d 9361 67bc
00000360: 7ae7 f03c f28c 1dbe d010 b33d e722 083d
00000370: 9246 0ebe 0e37 6fbe 3eb4 bd3c be9e dc3c
00000380: 7d83 33bd 2638 4cbe f59d 84bd 80e0 193c
00000390: 4f4b 2bbd 34fc 3ebd 9f4b aabd 7385 123d
000003a0: b6bd 8f3d f8e3 0e3e d784 973d 8548 103e
000003b0: 0c6c a73d 6a6f 8c3d 1086 b7be 8865 b63c
000003c0: 6e9f 96bd 9ace 923b f719 14be 5e0a 30be
000003d0: 0306 353c 93ce 61bd fb0f 12bd e95f 733d
000003e0: 838f 143c 380b 9a3c b353 463d 250d fe3c
000003f0: 60a2 913d 803f b1bc 4b2e 25be a7c9 043e

net.9.bias f4 [10]
-0.03354884 -0.04829305 0.039171774 -0.07382112 0.03772548 -0.05832059 -0.044089805 -0.09820884
-0.01777765 0.004380457
00000000: 826a 09bd efce 45bd 9572 203d 872f 97bd
00000010: 0886 1a3d 92e1 6ebd 8397 34bd b721 c9bd
00000020: 6fa2 91bc f089 8f3b
